train_history/olympics-wrestling/11_29_15_39/actor.pth (torch, 48200 bytes, 14 tensors)

encoder.0.weight f4 [8, 4, 3, 3]
-0.4461028 0.14541101 0.19555084 -0.04165445 -0.13305181 -0.34676048 -0.3497619 0.009815159
0.14758874 -0.1489296 -0.009378203 0.118834265 -0.3409744 -0.1381229 -0.07764287 -0.055249985
-0.6138186 -0.016067006 0.11442197 0.039226424 -0.015924295 -0.16144876 0.26895145 0.40382835
0.32722685 0.4168375 -0.13630861 0.12681851 0.18061332 -0.20253006 0.0065744827 0.19083911
0.1541945 -0.03265564 -0.3917303 -0.2009063 0.10054255 -0.020197293 -0.433316 0.08943529
0.39178234 -0.25039104 0.07752584 -0.104752876 0.3238209 0.55714893 0.05508211 0.20943025
-0.03391008 0.06706042 0.22048664 -0.032668296 -0.04154639 0.5435399 0.12989874 -0.46864602
0.08749736 0.09820909 0.28332597 0.029207481 0.13355304 0.26012287 0.026340319 -0.20534939
0.1480881 -0.013427789 0.24916373 -0.1865088 -0.022335159 -0.020275323 0.0906761 0.1716428
-0.15380241 0.36582956 0.20727125 0.37009498 0.2726791 0.03743669 -0.114113644 0.26596442
0.03455471 0.03131399 0.03218558 -0.660913 -0.06824528 -0.36102116 0.07457598 -0.0067187124
0.109647445 0.019663505 0.084629476 0.5046065 -0.23510607 0.15663736 0.32254115 -0.066875756
0.124353774 0.19100283 0.20970364 -0.13123336 0.08139748 0.22573446 -0.043233264 -0.22648215
0.067335695 0.07696303 0.13734755 0.3923294 0.14769611 0.22729294 -0.08145503 0.041667063
0.43018976 0.111612685 0.23094456 0.13352841 0.038135756 -0.39502513 0.20470874 0.10080618
-0.28010058 -0.08705333 -0.367769 0.014042228 0.11544996 0.18588786 0.16596648 0.06944092
0.18458165 -0.7286126 -0.33549243 -0.076391295 -0.1232608 0.4101723 -0.07935343 0.09097828
-0.18797845 0.03878397 -0.0053360974 -0.30138782 -0.31315956 -0.09482542 -0.13072966 0.015696002
0.054315068 -0.100240126 0.15032445 0.45271403 -0.4678706 0.14299065 0.19685826 0.065856606
0.10565588 -0.08140765 0.19562793 0.2029071 -0.017651489 -0.051478058 0.0099353595 0.11104978
0.10659682 0.03505203 -0.5256577 0.12456503 0.6478731 -0.11561147 0.45793778 -0.34434268
0.11370309 0.15942082 -0.22869052 -0.03739757 0.044269778 -0.13605838 -0.14024118 -0.0023141697
0.26528847 -0.26967093 -0.033336226 0.08202032 -0.3513612 0.21767369 -0.41857675 0.08924538
-0.08227121 0.21446076 -0.16876917 0.08892604 -0.08741738 -0.14706615 -0.098061524 0.009766326
-0.16076331 -0.06870194 -0.10421298 -0.12414741 0.09583003 0.30901405 0.36198744 0.0557914
0.15373562 0.02546273 0.33395812 -0.4149712 -0.40542254 -0.3336381 0.44124818 -0.07596303
-0.1515739 -0.013382304 0.29857776 0.23572293 0.23725723 -0.19740167 -0.29667953 -0.38162324
0.048396636 0.48738694 -0.15450084 0.31916672 -0.2430921 -0.35672727 0.26662606 -0.060663477
-0.36281317 -0.14530122 0.25820398 0.20697945 0.5805682 -0.2736265 0.09285684 -0.03200449
0.15171519 -0.06603717 0.08786784 -0.24036051 -0.16314343 0.12112856 0.052304853 0.10083926
0.24589923 0.09191932 0.36434633 0.46108156 0.056371875 -0.032708593 -0.041998405 0.022413632
-0.21174069 0.05187305 -0.16645548 -0.21617326 0.06883932 -0.37761438 0.22017075 0.21651866
00000000: 9667 e4be a0e6 143e 7b3e 483e db9d 2abd
00000010: bc3e 08be 978a b1be fe13 b3be c3cf 203c
00000020: 8121 173e 0081 18be 09a7 19bc 615f f33d
00000030: 3294 aebe 1770 0dbe 3a03 9fbd cf4d 62bd
00000040: 3723 1dbf f49e 83bc 1156 ea3d e3ab 203d
00000050: ab73 82bc d352 25be 01b4 893e 97c2 ce3e
00000060: 478a a73e ba6b d53e 7c94 0bbe b6dc 013e
00000070: b3f2 383e 0a64 4fbe c26e d73b 546b 433e
00000080: 2ae5 1d3e ecc1 05bd e090 c8be 62ba 4dbe
00000090: 41e9 cd3d cb74 a5bc 98db ddbe d929 b73d
000000a0: b297 c83e 4133 80be dec5 9e3d ad88 d6bd
000000b0: dacb a53e 50a1 0e3f c79d 613d e274 563e
000000c0: 4ce5 0abd f956 893d 40c7 613e 31cf 05bd
000000d0: 8c2c 2abd 6e25 0b3f 2d04 053e 5ff2 efbe
000000e0: d131 b33d d921 c93d 1a10 913e 8744 ef3c
000000f0: 21c2 083e d32e 853e a7c7 d73c 1c47 52be
00000100: 68a4 173e 3b00 5cbc c724 7f3e 2afc 3ebe
00000110: 39f8 b6bc 6f18 a6bc 64b4 b93d 21c3 2f3e
00000120: 617e 1dbe 034e bb3e ea3e 543e 177d bd3e
00000130: 989c 8b3e 3757 193d 6ab4 e9bd 7d2c 883e
00000140: 3d89 0d3d 1943 003d 07d5 033d 9831 29bf
00000150: 2ec4 8bbd c4d7 b8be 4bbb 983d a528 dcbb
00000160: d78e e03d 5c15 a13c 3852 ad3d e42d 013f
00000170: a5bf 70be 8b65 203e 1d24 a53e 28f6 88bd
00000180: 31ad fe3d 3f96 433e 8dbc 563e 0a62 06be
00000190: b9b3 a63d ef26 673e 5d15 31bd f0ea 67be
000001a0: 4ce7 893d cb9e 9d3d d6a4 0c3e 66df c83e
000001b0: a63d 173e 7bbf 683e e5d1 a6bd 15ab 2a3d
000001c0: d541 dc3e 3195 e43d bb7c 6c3e acbb 083e
000001d0: 3d34 1c3d bc40 cabe 2b9f 513e 7873 ce3d
000001e0: 5869 8fbe 0449 b2bd 384c bcbe 6011 663c
000001f0: 0771 ec3d 6359 3e3e 1ef3 293e 0b37 8e3d
00000200: f902 3d3e 5b86 3abf aac5 abbe 0a73 9cbd
00000210: 2970 fcbd 1b02 d23e 0d84 a2bd d252 ba3d
00000220: 6c7d 40be f1db 1e3d 6eda aebb 814f 9abe
00000230: 7356 a0be d433 c2bd ffdd 05be e794 803c
00000240: 7a79 5e3d b24a cdbd a7ee 193e 22ca e73e
00000250: bc8c efbe 246c 123e 3695 493e d4df 863d
00000260: 1c62 d83d 0eb9 a6bd b052 483e e1c6 4f3e
00000270: db99 90bc a8da 52bd ebc7 223c 116e e33d
00000280: 6f4f da3d b892 0f3d 8191 06bf f31b ff3d
00000290: 03db 253f b5c5 ecbd d276 ea3e af4d b0be
000002a0: 2add e83d 363f 233e d92d 6abe 322e 19bd
000002b0: 3a54 353d e352 0bbe 629b 0fbe 53a9 17bb
000002c0: e4d3 873e 4f12 8abe 918b 08bd 45fa a73d
000002d0: 9de5 b3be dae5 5e3e b14f d6be 48c6 b63d
000002e0: cf7d a8bd 9a9b 5b3e d3d1 2cbe db1e b63d
000002f0: e207 b3bd 8298 16be 7bd4 c8bd f102 203c
00000300: 239f 24be 9ab3 8cbd 9d6d d5bd ff40 febd
00000310: 8942 c43d 1737 9e3e 6b56 b93e 8685 643d
00000320: df6c 1d3e 3797 d03c 8ffc aa3e 1b77 d4be
00000330: 8b93 cfbe 9dd2 aabe 48eb e13e 8192 9bbd
00000340: 3036 1bbe 7441 5bbc 2fdf 983e 5a61 713e
00000350: 8ff3 723e aa23 4abe 61e6 97be 1f64 c3be
00000360: 8d3b 463d c88a f93e 7835 1ebe d269 a33e
00000370: 23ed 78be f5a4 b6be 3683 883e 447a 78bd
00000380: a6c2 b9be d8c9 14be 5033 843e 6cf2 533e
00000390: 1ea0 143f c618 8cbe ba2b be3d 2417 03bd
000003a0: 3a5b 1b3e 7f3e 87bd 0ef4 b33d 1121 76be
000003b0: 120f 27be 4012 f83d 9d3d 563d d084 ce3d
000003c0: 02cd 7b3e 3240 bc3d 9a8b ba3e e212 ec3e
000003d0: 32e6 663d 72f9 05bd 8506 2cbd cb9c b73c
000003e0: 8dd2 58be d678 543d 4e73 2abe 865c 5dbe
000003f0: a1fb 8c3d ac56 c1be 7174 613e 11b7 5d3e

encoder.0.bias f4 [8]
0.006546437 -0.016700603 -0.026739458 -0.027539143 0.0032298684 0.010372797 -0.0012685072 0.0024545449
00000000: 7e83 d63b b4cf 88bc b50c dbbc c599 e1bc
00000010: 33ac 533b aaf2 293c 0a44 a6ba 6edc 203b

encoder.3.weight f4 [8, 8, 3, 3]
0.07314633 -0.42055014 0.009615533 0.21352209 -0.016425136 0.20052473 -0.12413073 0.16454506
0.04412478 0.03672508 -0.02917356 -0.17235427 -0.10246733 0.06740602 -0.2815426 -0.055846956
0.21211022 -0.09552495 0.03076749 -0.017070966 -0.07238295 0.20230354 -0.16272926 -0.095406674
0.18000068 -0.102873944 -0.3007677 -0.13622314 -0.02113662 -0.19105409 0.08197507 0.05525538
0.44065702 -0.089441165 0.09691767 -0.14333157 0.11652444 -0.12110883 -0.09350045 0.019974621
-0.0748749 -0.37813282 -0.14079922 0.38312694 -0.18630433 0.16702838 -0.026328586 0.05821834
-0.119490236 0.37743545 -0.055156004 0.03790103 0.30552775 -0.0014678441 -0.08010213 0.025391491
0.1642668 0.04473593 0.17953297 0.24481232 0.12468053 -0.18210182 0.19767515 0.12990269
0.041099735 0.24085899 -0.039584536 0.045704927 -0.062383417 0.10136337 0.08511269 0.080519095
-0.28042844 -0.06264246 0.281394 0.0041157445 0.01070547 0.013422836 0.02880401 -0.014121145
-0.044577796 -0.058837824 -0.058739424 0.0745441 -0.004033665 -0.24279681 0.19579808 0.051647387
0.3638594 -0.015597221 -0.06998423 0.023404118 0.27632117 -0.17600168 -0.06798518 0.040479884
0.082843706 0.030732552 -0.062496256 0.03623668 -0.014844008 -0.18049723 0.13180055 0.039002337
0.036584638 -0.026107157 -0.38770822 -0.06548912 0.0028010812 -0.20670196 -0.03153758 -0.042306185
-0.0011478523 0.31444877 0.13535042 0.45248014 0.19019927 0.3603668 0.12836008 0.41887692
-0.092325695 -0.15984832 -0.01654132 -0.14161547 -0.17657718 -0.22343059 0.15934992 0.0335112
0.13095939 -0.0985668 0.1308486 0.13279931 0.1531794 0.18136665 -0.20763458 0.14437152
-0.10993663 -0.098058835 0.058157314 0.2713656 -0.031350493 0.045091923 -0.1354456 -0.25045955
-0.13772866 0.034298025 -0.058083758 0.09879975 -0.34886578 -0.20421542 0.019698437 -0.027217492
0.00279277 -0.022393104 0.20227242 0.077958025 -0.1551616 -0.13980475 -0.0131323105 0.30447626
-0.055147734 -0.11612857 0.15488572 -0.064311676 0.45376197 -0.25260216 -0.28522873 -0.24208398
0.14086986 -0.24092473 0.115580544 -0.18679766 -0.08803788 0.11935985 0.26591948 -0.02411568
0.09146948 0.13884051 0.27936837 -0.18081401 -0.21484348 0.096562065 -0.059737843 -0.08260148
-0.043388184 -0.24892785 0.14430115 -0.10765567 -0.08983772 -0.092825845 0.24919194 -0.15743169
0.06419924 -0.10905819 -0.19794859 -0.028780513 0.12230084 -0.09127311 0.011197137 -0.073182695
0.045265306 0.2468968 0.0020804503 0.13383715 0.14088863 0.030229585 -0.22008412 -0.20002292
0.44153634 -0.1722253 0.07661951 -0.024932655 0.022821965 0.034500707 0.010529458 -0.15008011
0.23952347 0.024479136 -0.09695686 0.17283848 -0.03350924 0.075226136 0.13889031 0.09584331
-0.014678528 0.07083831 -0.46052378 -0.17577437 -0.1397165 -0.18902196 0.006309898 -0.074100725
0.1574686 0.03764659 -0.1623653 0.020470941 -0.115434326 -0.15885144 -0.02922729 -0.0023560966
0.1686033 -0.042633496 0.12446733 -0.09405672 0.00024435346 0.32558283 0.1715122 -0.17003244
-0.14250018 -0.09481253 -0.12411413 0.08211668 0.28232744 -0.110955894 0.24457788 -0.23675472
00000000: becd 953d 5952 d7be 788a 1d3c 89a5 5a3e
00000010: 028e 86bc 5b56 4d3e 4138 febd 807e 283e
00000020: 2fbc 343d 0a6d 163d 64fd eebc a37d 30be
00000030: 64da d1bd 2b0c 8a3d 5a26 90be c7bf 64bd
00000040: 6c33 593e 96a2 c3bd 1a0c fc3c 69d8 8bbc
00000050: 833d 94bd a928 4f3e 80a2 26be 9364 c3bd
00000060: 1952 383e 93af d2bd 39fe 99be 147e 0bbe
00000070: b426 adbc afa3 43be 8ce2 a73d 7753 623d
00000080: cc9d e13e ee2c b7bd c57c c63d 83c5 12be
00000090: 5ea4 ee3d e807 f8bd 2a7d bfbd d1a1 a33c
000000a0: 0358 99bd a09a c1be ac2d 10be 3729 c43e
000000b0: 90c6 3ebe 7d09 2b3e 0caf d7bc 5b76 6e3d
000000c0: 4cb7 f4bd 383f c13e 43eb 61bd 1c3e 1b3d
000000d0: 226e 9c3e ad64 c0ba 960c a4bd d101 d03c
000000e0: 8e35 283e 063d 373d 7ed7 373e 15b0 7a3e
000000f0: 8158 ff3d e678 3abe 5b6b 4a3e 3605 053e
00000100: 3258 283d bda3 763e 6523 22bd 1735 3b3d
00000110: c185 7fbd 9997 cf3d 904f ae3d 32e7 a43d
00000120: 5194 8fbe b14a 80bd e012 903e 5edd 863b
00000130: ff65 2f3c 74eb 5b3c 63f6 eb3c 605c 67bc
00000140: 3597 36bd eeff 70bd c098 70bd 94aa 983d
00000150: d62c 84bb ba9f 78be 4b7f 483e 368c 533d
00000160: c74b ba3e 7d8b 7fbc e453 8fbd feb9 bf3c
00000170: f879 8d3e c939 34be d03b 8bbd 3cce 253d
00000180: f6a9 a93d d5c2 fb3c 13fc 7fbd ea6c 143d
00000190: 4834 73bc 44d4 38be b9f6 063e eac0 1f3d
000001a0: c6d9 153d adde d5bc b181 c6be 291f 86bd
000001b0: 5892 373b aea9 53be 8d2d 01bd 4049 2dbd
000001c0: 8873 96ba 6eff a03e 4d99 0a3e 7aab e73e
000001d0: 99c3 423e ff81 b83e d370 033e 0977 d63e
000001e0: 4115 bdbd 47af 23be aa81 87bc a503 11be
000001f0: a6d0 34be fdca 64be a02c 233e 0a43 093d
00000200: 381a 063e 64dd c9bd 2dfd 053e 8bfc 073e
00000210: 10db 1c3e 2eb8 393e 299e 54be 21d6 133e
00000220: 7526 e1bd 12d3 c8bd 5d36 6e3d 6ff0 8a3e
00000230: 6069 00bd 4fb2 383d 40b2 0abe 3c3c 80be
00000240: be08 0dbe 167c 0c3d 3ce9 6dbd 8657 ca3d
00000250: 899e b2be d91d 51be 9e5e a13c 38f7 debc
00000260: e806 373b be71 b7bc 8020 4f3e 75a8 9f3d
00000270: afe2 1ebe fa28 0fbe e728 57bc 50e4 9b3e
00000280: 97e2 61bd d1d4 edbd 5d9a 1e3e d7b5 83bd
00000290: 7d53 e83e 1255 81be 8009 92be dde4 77be
000002a0: 3040 103e f9b4 76be 7eb5 ec3d e347 3fbe
000002b0: 344d b4bd f072 f43d 9926 883e 3f8e c5bc
000002c0: 5a54 bb3d 352c 0e3e 5f09 8f3e 4f27 39be
000002d0: eeff 5bbe 55c2 c53d abaf 74bd f72a a9bd
000002e0: cfb7 31bd f1e6 7ebe aec3 133e 937a dcbd
000002f0: d7fc b7bd 7a1b bebd 2c2c 7f3e c635 21be
00000300: e47a 833d e659 dfbd 09b3 4abe 1cc5 ebbc
00000310: dd78 fa3d 65ed babd 3274 373c cfe0 95bd
00000320: 1d68 393d 84d2 7c3e 2a58 083b 9b0c 093e
00000330: 1c45 103e 09a4 f73c bb5d 61be cfd2 4cbe
00000340: 0d11 e23e d45b 30be b1ea 9c3d 913f ccbc
00000350: 21f5 ba3c 9d50 0d3d bf83 2c3c 9aae 19be
00000360: a445 753e 7888 c83c 5191 c6bd 92fc 303e
00000370: fc40 09bd 2910 9a3d 4339 0e3e 7f49 c43d
00000380: 357e 70bc ad13 913d c6c9 ebbe 32fe 33be
00000390: d811 0fbe f98e 41be 43c3 ce3b 1fc2 97bd
000003a0: 733f 213e 5033 1a3d 1743 26be adb2 a73c
000003b0: d568 ecbd f4a9 22be 126e efbc be68 1abb
000003c0: 58a6 2c3e 76a0 2ebd bae8 fe3d cfa0 c0bd
000003d0: 911c 8039 cbb2 a63e e5a0 2f3e fc1c 2ebe
000003e0: 91eb 11be 122d c2bd 8d2f febd ca2c a83d
000003f0: 398d 903e d83c e3bd a072 7a3e d46f 72be

encoder.3.bias f4 [8]
0.006551916 0.020134486 -0.014768606 -0.0139006935 0.010616321 -0.014230436 -0.0070256377 -0.0075905733
00000000: 74b1 d63b 14f1 a43c 06f8 71bc bcbf 63bc
00000010: 14f0 2d3c c626 69bc 5237 e6bb 58ba f8bb

cnn_net.0.weight f4 [16, 8, 3, 3]
0.02048483 0.12841636 -0.07296713 0.222841 -0.31416 -0.53200966 0.14544955 0.0072572865
0.05798564 -0.22129042 0.10417781 -0.09547113 -0.29564974 0.17727514 0.033857375 0.09572196
-0.02606652 -0.22119974 0.032103892 0.018269517 0.259659 -0.09607056 -0.1431403 0.0062375157
0.2087642 0.07197505 0.26100293 -0.22244345 0.09184064 -0.05475998 -0.10775837 -0.032677844
0.039454415 0.049377203 0.11672956 0.27613884 0.08856469 -0.26114252 0.25385803 -0.13948919
-0.34425053 0.19451183 -0.03629764 -0.05575497 -0.055321656 0.06728485 0.082170606 0.23015428
-0.0015599342 -0.03279946 0.1608258 0.23278937 0.26313058 0.039291594 0.24156192 -0.04843874
0.04443481 0.21655498 -0.08764161 0.055791195 -0.11577622 -0.06656025 0.009364336 0.06610458
0.03654477 0.1042478 0.19243877 0.19870535 0.23855036 -0.22354162 -0.02807867 0.13698374
-0.096738376 0.04360211 0.05907168 -0.11715221 0.048858613 -0.07674656 0.39800465 0.016077602
0.08468383 0.2521615 -0.0014462712 -0.1846541 0.041003726 -0.0069445083 0.20400442 0.019676212
0.044060268 0.2462461 -0.15121113 -0.057009496 0.37327898 0.042745292 -0.01260498 -0.19085604
-0.0016929824 -0.0019975647 0.0272657 0.023217833 -0.18162742 -0.17447591 0.093499914 -0.24213997
0.12040755 0.034612034 0.049461033 -0.27165163 -0.10385872 0.118348375 0.102960564 0.15353763
-0.1393359 0.3182459 -0.11256266 0.07813887 -0.056575187 0.030929124 -0.340925 0.01445334
0.05430472 -0.11045471 0.08072425 0.24263553 0.282923 -0.4034332 -0.21202788 -0.13086565
0.008049647 -0.04095677 -0.18328874 -0.27821687 0.11413519 0.040141515 -0.058983106 -0.09920105
-0.14389488 0.21904752 -0.2378317 0.22404815 -0.16811816 0.10828977 0.25571126 -0.22548267
0.46177378 0.20892516 0.07696017 -0.31142202 0.4160423 0.2180313 0.16704255 -0.20715848
-0.1475847 -0.14895627 -0.04159341 -0.027399695 -0.10262066 -0.09291607 -0.12358566 0.03844638
0.085908845 0.17974706 0.07713742 0.28796023 0.13452154 0.036662526 -0.13780463 0.122623295
-0.032554675 -0.03255941 0.062071472 -0.10517664 0.06729341 0.032424558 0.25674742 0.008264641
-0.14221095 0.035914745 0.03195101 0.14942001 0.06359179 -0.23156162 0.19395904 0.1727514
0.03377369 0.27469563 0.12624364 -0.10825968 0.2640811 0.04640114 0.12741119 0.20410165
0.0025419143 0.11521223 0.16280328 0.100378126 0.03972434 0.27015638 -0.10616478 0.08194637
-0.046347767 -0.14233698 -0.29330102 -0.18567395 0.06416449 0.17168418 4.6683476e-06 -0.16715114
0.19064602 -0.16600291 -0.22091484 -0.089676075 -0.02690172 -0.23925132 -0.2582843 -0.07643762
0.3093238 -0.055855926 0.054473184 0.1901712 0.018305218 -0.31225482 0.012918401 -0.24150704
-0.1614021 -0.07419689 0.07373243 0.2834018 0.22865877 0.026774712 0.11639563 0.09638494
0.17535715 -0.14183961 0.35359383 0.05497279 0.20739919 0.039012585 -0.121613905 0.14637867
0.34497422 0.14196901 0.23426469 -0.13787721 -0.1197692 -0.17098339 0.28277346 0.11628391
0.08408371 0.07456901 -0.19603682 -0.085970335 -0.094637096 0.10197866 -0.03094667 0.09642454
00000000: cdcf a73c 947f 033e ca6f 95bd 6e30 643e
00000010: 94d9 a0be c931 08bf baf0 143e 88ce ed3b
00000020: 5a82 6d3d f599 62be 2d5b d53d 5e86 c3bd
00000030: 675f 97be 9d87 353e 08ae 0a3d e009 c43d
00000040: 7489 d5bc 2f82 62be 5f7f 033d f4a9 953c
00000050: 06f2 843e a4c0 c4bd 5f93 12be 1364 cc3b
00000060: 48c6 553e a867 933d 2da2 853e 37c8 63be
00000070: f216 bc3d 004c 60bd 6cb0 dcbd 34d9 05bd
00000080: f49a 213d c03f 4a3d e80f ef3d 1262 8d3e
00000090: 6761 b53d 79b4 85be aef9 813e 41d6 0ebe
000000a0: 9b41 b0be 1c2e 473e d6ac 14bd 535f 64bd
000000b0: f698 62bd a4cc 893d 1049 a83d 90ad 6b3e
000000c0: b576 ccba ba58 06bd 85af 243e 5660 6e3e
000000d0: 0db9 863e 39f0 203d 025c 773e b367 46bd
000000e0: 4601 363d 97c0 5d3e 727d b3bd 4f85 643d
000000f0: 151c edbd be50 88bd df6c 193c d761 873d
00000100: f8af 153d df7f d53d ab0e 453e 6a79 4b3e
00000110: 8c46 743e 18e8 64be 3d05 e6bc 7745 0c3e
00000120: c51e c6bd 2098 323d 25f5 713d 7fed efbd
00000130: f81f 483d 4d2d 9dbd 44c7 cb3e 2db5 833c
00000140: b76e ad3d 501b 813e cf90 bdba f715 3dbe
00000150: 86f3 273d c28e e3bb 89e6 503e 0230 a13c
00000160: 8a78 343d f027 7c3e 17d7 1abe ca82 69bd
00000170: 6c1e bf3e b015 2f3d 1e85 4ebc c46f 43be
00000180: 10e7 ddba 93e9 02bb 515c df3c 5333 be3c
00000190: 8afc 39be d0a9 32be e27c bf3d 8af3 77be
000001a0: 3c98 f63d 59c5 0d3d a797 4a3d ec15 8bbe
000001b0: e1b3 d4bd a260 f23d fddc d23d f838 1d3e
000001c0: 12ae 0ebe 20f1 a23e 4087 e6bd 4607 a03d
000001d0: 62bb 67bd 135f fd3c b98d aebe b4cd 6c3c
000001e0: a06e 5e3d 1436 e2bd c152 a53d 7375 783e
000001f0: 49db 903e cc8e cebe d61d 59be a501 06be
00000200: abe2 033c 49c2 27bd 0bb0 3bbe 7172 8ebe
00000210: b6bf e93d 6e6b 243d 4598 71bd ec29 cbbd
00000220: 2e59 13be fe4d 603e 278a 73be e16c 653e
00000230: 2b27 2cbe 07c7 dd3d 96ec 823e eee4 66be
00000240: 9d6d ec3e 7af0 553e 4b9d 9d3d b572 9fbe
00000250: 7f03 d53e 9943 5f3e 340d 2b3e 5a21 54be
00000260: 7220 17be fe87 18be da5d 2abd 5375 e0bc
00000270: c82a d2bd c84a bebd 7a1a fdbd f479 1d3d
00000280: faf0 af3d 9d0f 383e 39fa 9d3d 866f 933e
00000290: 04c0 093e 722b 163d a81c 0dbe ec21 fb3d
000002a0: 0d58 05bd 045d 05bd a83e 7e3d da66 d7bd
000002b0: 21d1 893d 9dcf 043d 6674 833e 6b68 073c
000002c0: bf9f 11be 571b 133d 10df 023d 8f01 193e
000002d0: 6a3c 823d 7d1e 6dbe 339d 463e bee5 303e
000002e0: 4856 0a3d e8a4 8c3e 0346 013e 40b7 ddbd
000002f0: a335 873e 1f0f 3e3d 1478 023e 0600 513e
00000300: 3f96 263b 64f4 eb3d e7b5 263e 0c93 cd3d
00000310: fdb5 223d f051 8a3e ec6c d9bd 80d3 a73d
00000320: 28d7 3dbd c9c0 11be 8d2b 96be 5021 3ebe
00000330: ac68 833d facd 2f3e cda4 9c36 ab29 2bbe
00000340: b638 433e abfc 29be 8037 62be 17a8 b7bd
00000350: ff60 dcbc 4cfe 74be d73d 84be 548b 9cbd
00000360: b05f 9e3e 2fc9 64bd 461f 5f3d 3dbc 423e
00000370: d3f4 953c dddf 9fbe b3a7 533c 9f4d 77be
00000380: 9846 25be 8af4 97bd 0701 973d 0a1a 913e
00000390: 8625 6a3e a456 db3c d560 ee3d 7865 c53d
000003a0: d390 333e 673e 11be 400a b53e 262b 613d
000003b0: 7460 543e a9cb 1f3d b610 f9bd 4ae4 153e
000003c0: 76a0 b03e 5360 113e 15e3 6f3e af2f 0dbe
000003d0: 8e49 f5bd 4516 2fbe afc7 903e 4226 ee3d
000003e0: 1534 ac3d a3b7 983d e0bd 48be 3711 b0bd
000003f0: 18d1 c1bd 30da d03d df83 fdbc 3b7a c53d

cnn_net.0.bias f4 [16]
-0.011024121 -0.00012630284 0.009898867 -0.0014687262 0.018782249 -0.010850126 -4.1092135e-05 0.0026115577
-0.013091294 0.0036649562 0.0060425852 0.014958922 0.010518315 -0.00427271 -0.017591113 -0.010994165
00000000: 849e 34bc 2970 04b9 dc2e 223c 4682 c0ba
00000010: 3bdd 993c bac4 31bc 585a 2cb8 ab26 2b3b
00000020: de7c 56bc c32f 703b e100 c63b 4416 753c
00000030: 0355 2c3c 1702 8cbb 3d1b 90bc df20 34bc

cnn_net.3.weight f4 [32, 16, 3, 3]
-0.2883133 0.16441134 -0.13967672 0.13072383 -0.059067793 -0.017602261 0.19394052 0.13651453
0.107926786 -0.012829586 -0.052837364 0.09595429 0.06453214 0.03724649 0.07371581 -0.0411107
-0.16364431 0.10438803 -0.11066029 -0.03367402 -0.02155881 0.040570967 0.05667145 -0.13783887
-0.018675122 0.020362196 -0.13953403 -0.060847834 0.038469777 0.048814792 0.19144604 -0.060842663
-0.13165066 0.088996015 -0.077698685 -0.031115677 -0.14353384 0.20133251 0.108035594 -0.21554543
0.110675626 -0.17715965 0.12007546 -0.14560674 0.16364612 -0.014694046 -0.036102146 -0.1305874
0.09683742 0.12919258 0.11798647 0.05001015 -0.06402243 -0.14129613 -0.14945489 0.12053824
-0.006939243 0.03213676 0.10276232 0.10053983 -0.03468917 0.103169724 0.035351325 -0.13337177
-0.06719912 0.10810661 -0.09229597 -0.13314109 -0.011239393 -0.14989276 -0.017014323 0.048675735
0.07920641 -0.26420388 -0.064862974 -0.0048107235 -0.18293788 -0.011691563 0.28552172 0.021040836
-0.06266991 -0.04937879 0.023955662 -0.10293982 -0.05922954 -0.14519106 -0.18608361 -0.087649934
0.018444195 0.092450105 -0.0572006 -0.0069473023 0.14259863 -0.083528996 0.03646572 0.043320052
0.21281865 -0.12055959 0.025568813 -0.037862796 -0.13043147 -0.055364136 -0.19174126 -0.13186929
0.17581902 -0.0969297 -0.025450798 -0.18454953 0.10587991 -0.024991695 -0.04948232 0.019276872
-0.06416551 0.28519067 -0.060379684 -0.012464665 0.043460496 0.20408367 0.077989385 0.16486159
-0.19052127 -0.062385652 -0.15073556 0.09240235 0.10555642 0.03384113 -0.25014383 -0.086558044
0.1814268 0.21786425 -0.14431815 0.1477065 0.13014983 -0.110200316 -0.011011195 -0.21842329
-0.031789493 -0.022198709 -0.022133216 -0.1607223 0.026622962 0.09979554 -0.14417583 -0.05268584
0.029622344 -0.17349312 -0.11513716 0.06991092 0.016411746 0.04666216 -0.11494068 -0.21796772
0.022115014 -0.16169497 0.048373267 0.07674268 -0.03631435 -0.042685322 -0.039578713 0.09732032
0.029771715 -0.01275825 -0.0063258884 0.12209436 -0.22627746 0.071417846 -0.019371018 0.12651923
-0.02970902 0.042884823 -0.011287704 -0.14156224 -0.16492273 0.24258576 -0.07718413 0.0062887846
-0.019336257 -0.05283082 0.01335537 0.054389846 0.18646331 0.24347903 0.09343636 -0.17111579
0.116918676 0.021850565 -0.017418427 -0.087603025 0.09046088 0.1639903 0.038883243 -0.019266386
0.030227521 -0.038986612 0.062030356 0.11990752 0.048967905 0.21616882 0.14751711 0.037658814
-0.058809802 -0.05225855 0.10476943 0.22195616 -0.071098104 0.04936403 -0.18155336 -0.25952673
0.08138821 -0.32519802 0.050482746 -0.045929372 -0.094615154 0.20791908 -0.035927095 -0.044813655
-0.07443641 0.043025017 -0.21621461 0.1493599 0.0083094025 -0.07517948 0.13819417 0.043693583
0.008697039 -0.0078061847 0.012245201 0.086210154 0.06788794 -0.0039903126 -0.1148538 0.01103984
-0.04678108 0.064062946 0.026494998 -0.15336196 -0.05376517 0.13164218 0.15982558 0.235324
-0.093885615 -0.05467995 -0.07788444 0.035076216 0.21410598 -0.08999192 -0.057161786 -0.22501047
0.0010585531 -0.0748543 -0.0680451 -0.10141278 0.0706826 -0.008881615 -0.16642158 0.13366927
00000000: cd9d 93be 725b 283e 6a07 0fbe 78dc 053e
00000010: 12f1 71bd 9e32 90bc 5898 463e 77ca 0b3e
00000020: b808 dd3d 2f33 52bc fe6b 58bd af83 c43d
00000030: 6d29 843d c78f 183d 51f8 963d b263 28bd
00000040: 6092 27be 64c9 d53d dda1 e2bd c5ed 09bd
00000050: 1a9c b0bc be2d 263d 5320 683d a225 0dbe
00000060: 92fc 98bc 9fce a63c 02e2 0ebe 943b 79bd
00000070: 7c92 1d3d 05f2 473d 6e0a 443e 2836 79bd
00000080: 6ecf 06be 8b43 b63d 7d20 9fbd 4ee6 febc
00000090: 89fa 12be 1c2a 4e3e c441 dd3d f1b7 5cbe
000000a0: e7a9 e23d 5769 35be 1fea f53d ef19 15be
000000b0: d992 273e 4cbf 70bc d8df 13bd b4b8 05be
000000c0: b252 c63d 0f4b 043e e4a2 f13d 71d7 4c3d
000000d0: 311e 83bd efaf 10be b40a 19be c1dc f63d
000000e0: 9762 e3bb d6a1 033d 0d75 d23d d4e7 cd3d
000000f0: 3b16 0ebd a64a d33d 8dcc 103d 9c92 08be
00000100: b19f 89bd 0067 dd3d ab05 bdbd 2356 08be
00000110: 6e25 38bc 7d7d 19be 9f61 8bbc 3560 473d
00000120: f836 a23d bb45 87be e1d6 84bd 46a3 9dbb
00000130: 1154 3bbe f88d 3fbc e72f 923e d55d ac3c
00000140: 1559 80bd 6a41 4abd aa3e c43c 1dd2 d2bd
00000150: ad9a 72bd f7ac 14be b48c 3ebe cf81 b3bd
00000160: 4818 973c 7b56 bd3d 2d4b 6abd 32a6 e3bb
00000170: 6005 123e 4011 abbd 145d 153d 5e70 313d
00000180: 22ed 593e f2e7 f6bd b075 d13c 0516 1bbd
00000190: d48f 05be 81c5 62bd d257 44be be08 07be
000001a0: e709 343e 1483 c6bd 317e d0bc 8dfa 3cbe
000001b0: 91d7 d83d 62bb ccbc f9ad 4abd 88ea 9d3c
000001c0: 3569 83bd 8304 923e b050 77bd 9838 4cbc
000001d0: a203 323d 4ffb 503e e6b8 9f3d 7ad1 283e
000001e0: 0218 43be 1988 7fbd 6c5a 1abe 713d bd3d
000001f0: f72d d83d ff9c 0a3d da12 80be 5845 b1bd
00000200: f2c7 393e ce17 5f3e 23c8 13be 5f40 173e
00000210: ff45 053e b4b0 e1bd 4d68 34bc 5baa 5fbe
00000220: b335 02bd 11da b5bc b850 b5bc 6394 24be
00000230: 6618 da3c 9b61 cc3d d4a2 13be 1bcd 57bd
00000240: 8faa f23c 2ea8 31be 08cd ebbd 752d 8f3d
00000250: ed71 863c d220 3f3d 0566 ebbd ee32 5fbe
00000260: 8c2a b53c 5e93 25be 0c23 463d 442b 9d3d
00000270: 5bbe 14bd ced6 2ebd 4a1d 22bd e04f c73d
00000280: d0e3 f33c fb07 51bc 6649 cfbb 9c0c fa3d
00000290: 47b5 67be 8543 923d f8af 9ebc 428e 013e
000002a0: 5560 f3bc ffa7 2f3d 10f0 38bc b1f5 10be
000002b0: 81e1 28be 6768 783e b712 9ebd 2612 ce3b
000002c0: 1267 9ebc 2165 58bd 7bd0 5a3c e3c7 5e3d
000002d0: 3df0 3e3e 9152 793e 905b bf3d fa38 2fbe
000002e0: 0f73 ef3d f5ff b23c 17b1 8ebc 3769 b3bd
000002f0: 8e43 b93d 13ed 273e 0944 1f3d 8ad4 9dbc
00000300: b59f f73c 6db0 1fbd 8b13 7e3d 1392 f53d
00000310: 9292 483d 5c5b 5d3e ba0e 173e 2140 1a3d
00000320: 8ce2 70bd 100d 56bd 5b91 d63d 7a48 633e
00000330: e29b 91bd f031 4a3d 20e9 39be b0e0 84be
00000340: ddae a63d 5b80 a6be ffc6 4e3d 7020 3cbd
00000350: 97c5 c1bd bde8 543e 4a28 13bd 868e 37bd
00000360: 1e72 98bd 003b 303d 5d67 5dbe cdf1 183e
00000370: 2924 083c b3f7 99bd c682 0d3e 0bf8 323d
00000380: 077e 0e3c 06cb ffbb 18a0 483c f38e b03d
00000390: d508 8b3d 2bc1 82bb 7838 ebbd 72e0 343c
000003a0: 859d 3fbd 6f33 833d 0a0c d93c eb0a 1dbe
000003b0: de38 5cbd 35cd 063e 51a9 233e c6f8 703e
000003c0: 1a47 c0bd 15f8 5fbd e181 9fbd 14ac 0f3d
000003d0: 993e 5b3e af4d b8bd 7a22 6abd 2569 66be
000003e0: 26bf 8a3a 364d 99bd 3b5b 8bbd 81b1 cfbd
000003f0: 0ac2 903d 3184 11bc 6b6a 2abe 99e0 083e

cnn_net.3.bias f4 [32]
0.006230016 -0.013095426 -0.013951982 -0.008165701 -0.009104378 -0.0057783662 0.004364749 0.0069245095
-0.015145219 -0.014269324 -0.008865089 0.0033550146 0.007103499 0.005586962 -0.0033874887 0.0050232536
-0.009900168 0.006455464 0.012706652 -0.008695187 -0.014954207 0.008667425 0.0013446403 -0.013043477
-0.016639866 -0.010060249 -0.01777114 0.008118616 9.611109e-05 0.0063242773 -0.011482068 0.009822124
00000000: 2925 cc3b 338e 56bc db96 64bc 6fc9 05bc
00000010: 872a 15bc 7358 bdbb 2b06 8f3b ffe6 e23b
00000020: a723 78bc e2c9 69bc e13e 11bc cedf 5b3b
00000030: 78c4 e83b d612 b73b a100 5ebb 1b9a a43b
00000040: 5034 22bc 5b88 d33b 902f 503c 4276 0ebc
00000050: 7e02 75bc d101 0e3c a43e b03a 4fb4 55bc
00000060: 5450 88bc bed3 24bc c894 91bc f203 053c
00000070: 408f c938 e23b cf3b 491f 3cbc f9ec 203c

hidden.weight f4 [32, 128]
-0.10019402 -0.09702915 -0.052324615 -0.06719495 0.20133993 -0.19620705 0.2777266 -0.073533
0.15313959 0.036955222 -0.044002578 0.1420373 0.025815647 -0.04450916 0.04215459 -0.10708174
-0.2248656 -0.07780947 0.10401846 -0.03573763 -0.11061178 -0.14460209 0.08566778 -0.10338505
-0.23635462 0.048942935 -0.18630084 -0.08314161 0.07074035 0.03373717 -0.04443228 0.00025457743
-0.16339035 -0.12330544 -0.18407083 0.1741106 -0.13339868 0.06386159 -0.06072063 0.24733594
0.11672154 0.038862597 -0.021526804 -0.07544622 -0.038529966 -0.272975 -0.18502134 -0.03396034
0.12707281 -0.10558775 0.17234673 -0.24567313 -0.05816234 -0.02839726 0.11552689 -0.013736853
0.06302952 -0.19201243 -0.008095054 -0.16275726 -0.121392496 -0.13969553 0.10826994 0.01516334
0.091919936 -0.049290627 -0.08053734 -0.13098255 -0.11462934 0.040723607 -0.009209474 -0.0136287715
0.064101696 0.115511745 -0.22223447 -0.1254328 -0.01805511 -0.11648476 0.11342765 0.19575159
-0.048946317 0.10277521 0.20695122 -0.11076284 -0.014986595 0.060015734 -0.051302925 0.040021956
0.024396641 0.0070809796 0.24105105 0.19367844 -0.07307501 0.10864237 -0.23032036 -0.039617307
0.11175459 0.0074378247 0.11762724 0.16856407 0.08270499 0.036743943 0.0072208736 0.02089082
0.01855219 0.30911952 -0.080335386 0.39712068 0.007764639 0.034375645 0.079700336 -0.10334498
-0.1469162 0.05873843 0.001126335 -0.019493304 0.022509033 0.22426768 -0.017807811 0.03428362
0.17886108 -0.041827913 0.12977988 0.1525754 -0.030578583 -0.08436884 -0.014076874 0.04101747
0.023921542 -0.11023737 0.15057135 -0.14783368 -0.017461523 0.12189381 -0.19662723 -0.32185125
0.36455026 -0.0787977 -0.017346615 -0.029240886 0.22616911 0.018117828 -0.067219436 -0.004381108
-0.05576419 0.2569703 -0.06695961 0.09721554 0.106058195 -0.108206324 -0.122659415 -0.11936264
-0.094768316 0.08233003 0.058489215 0.024857832 -0.18247469 -0.046260294 0.09451664 -0.1369577
-0.023452098 0.101424776 0.18971992 0.047996722 0.117095225 -0.044727515 -0.07829627 0.09340226
-0.027652588 -0.15826774 0.106483616 -0.07149097 -0.04761616 0.06824044 -0.17626455 0.09834892
0.06481052 0.020154364 -0.06990612 0.013078263 -0.063346446 0.12077323 -0.08102609 0.11491786
0.032772798 0.0086001605 -0.21177661 -0.029464416 -0.062674046 -0.094528064 -0.29481804 0.0008385553
-0.02681917 0.1349945 0.1377888 0.09963253 -0.20992525 -0.06768543 -0.05494442 -0.040896196
-0.00880434 0.1191112 -0.046314236 -0.03047521 0.078008965 -0.06431003 0.078759365 0.14000353
-0.004833252 -0.026627636 0.114487946 0.107871145 0.29945192 0.046359483 0.091704115 -0.15080768
0.0718767 0.13345802 0.042805284 -0.026305843 -0.03385961 0.1875806 0.18326426 0.01755816
-0.09609463 -0.03693717 -0.06894426 -0.19715667 -0.21273182 -0.008193463 -0.0385546 -0.18011096
0.112038024 0.22047201 -0.021192223 0.06475159 0.09707439 -0.074452385 0.0607321 -0.03356497
-0.011254842 -0.09819734 -0.12882069 0.10348154 -0.07023143 -0.04630625 -0.3102953 -0.336867
0.037283555 -0.121745765 -0.034689724 0.07129904 0.25034687 0.14359179 -0.005183867 -0.17556573
00000000: 8632 cdbd 38b7 c6bd 5652 56bd 829d 89bd
00000010: 0e2c 4e3e 80ea 48be 2e32 8e3e 7898 96bd
00000020: a0d0 1c3e 5c5e 173d 0c3c 34bd 3a72 113e
00000030: 567b d33c 3d4f 36bd 4baa 2c3d ac4d dbbd
00000040: 2b43 66be 925a 9fbd a107 d53d 9f61 12bd
00000050: 6e88 e2bd 9212 14be 9772 af3d 8bbb d3bd
00000060: f206 72be 6378 483d a6c5 3ebe 2646 aabd
00000070: 51e0 903d fd2f 0a3d 9ffe 35bd ce78 8539
00000080: cd4f 27be 9087 fcbd 107d 3cbe 0d4a 323e
00000090: aa99 08be dec9 823d 32b6 78bd a245 7d3e
000000a0: b40b ef3d 632e 1f3d fb58 b0bc 8c83 9abd
000000b0: 99d1 1dbd 61c3 8bbe 3c76 3dbe ff19 0bbd
000000c0: 601f 023e 643e d8bd a97b 303e bd91 7bbe
000000d0: a23b 6ebd 5fa1 e8bc 5d99 ec3d 8a10 61bc
000000e0: 9f15 813d e89e 44be 1ea1 04bc d7a9 26be
000000f0: a19c f8bd 580c 0fbe a1bc dd3d a86f 783c
00000100: 8540 bc3d f8e4 49bd c3f0 a4bd 4a20 06be
00000110: cac2 eabd cccd 263d 55e3 16bc 364b 5fbc
00000120: c047 833d 6c91 ec3d 6f91 63be 7571 00be
00000130: 4fe8 93bc 908f eebd c14c e83d 1b73 483e
00000140: ef7b 48bd cf7b d23d 05eb 533e a1d7 e2bd
00000150: 568a 75bc 0fd3 753d 0423 52bd 10ee 233d
00000160: 77db c73c 9007 e83b 16d6 763e a453 463e
00000170: 5aa8 95bd e47f de3d 1ad9 6bbe c245 22bd
00000180: 97df e43d ffb8 f33b 8de6 f03d 0f9c 2c3e
00000190: 3c61 a93d d180 163d 149d ec3b 3a23 ab3c
000001a0: c3fa 973c ea44 9e3e e186 a4bd 6753 cb3e
000001b0: 836e fe3b 7acd 0c3d ee39 a33d 88a6 d3bd
000001c0: 3371 16be b597 703d 88a1 933a 6cb0 9fbc
000001d0: dd64 b83c 6da6 653e b0e1 91bc fb6c 0c3d
000001e0: 5c27 373e bf53 2bbd 04e5 043e ba3c 1c3e
000001f0: f07f fabc 92c9 acbd b0a2 66bc ef01 283d
00000200: 1cf7 c33c 21c4 e1bd 602f 1a3e b661 17be
00000210: 780b 8fbc 76a3 f93d a658 49be b0c9 a4be
00000220: 55a6 ba3e b060 a1bd 7d1a 8ebc 958a efbc
00000230: e098 673e d76b 943c 58aa 89bd 668f 8fbb
00000240: fe68 64bd 9c91 833e 1f22 89bd f118 c73d
00000250: 0a35 d93d 479b ddbd dc34 fbbd 6674 f4bd
00000260: e415 c2bd a69c a83d 6392 6f3d a7a2 cb3c
00000270: a5da 3abe 6f7b 3dbd f191 c13d a43e 0cbe
00000280: 9d1e c0bc cbb7 cf3d f045 423e 3698 443d
00000290: 9fcf ef3d 3334 37bd cb59 a0bd af49 bf3d
000002a0: ae87 e2bc f010 22be 1514 da3d dc69 92bd
000002b0: 2a09 43bd a5c1 8b3d b27e 34be 296b c93d
000002c0: 61bb 843d c41a a53c f12a 8fbd 3646 563c
000002d0: c8bb 81bd f557 f73d 02f1 a5bd 0e5a eb3d
000002e0: c53c 063d b0e7 0c3c f8db 58be 5c5f f1bc
000002f0: 405b 80bd ee97 c1bd 64f2 96be 7ed2 5b3a
00000300: e0b3 dbbc 003c 0a3e 8218 0d3e 240c cc3d
00000310: a5f6 56be a99e 8abd 660d 61bd c582 27bd
00000320: 1440 10bc 93f0 f33d ffb3 3dbd 26a7 f9bc
00000330: 2ac3 9f3d fab4 83bd 974c a13d 165d 0f3e
00000340: 4260 9ebb 3322 dabc a878 ea3d 8ceb dc3d
00000350: c351 993e 71e3 3d3d 5ecf bb3d 546d 1abe
00000360: 1734 933d 38a9 083e 9854 2f3d 5a7f d7bc
00000370: 60b0 0abd 2115 403e a0a9 3b3e 21d6 8f3c
00000380: 43cd c4bd 6e4b 17bd a632 8dbd 70e3 49be
00000390: 5fd6 59be e03d 06bc 6eeb 1dbd 026f 38be
000003a0: 3174 e53d 6ac3 613e 509b adbc 7b9c 843d
000003b0: f0ce c63d 7e7a 98bd 39c2 783d 6c7b 09bd
000003c0: 3b66 38bc b01b c9bd 92e9 03be 21ee d33d
000003d0: 7fd5 8fbd 9fab 3dbd 07df 9ebe d579 acbe
000003e0: a4b6 183d d855 f9bd d016 0ebd 3b05 923d
000003f0: 772d 803e ba09 133e 6edd a9bb 81c7 33be

hidden.bias f4 [32]
-0.0068648015 -0.010218373 0.004036179 0.0049463944 0.0022058168 0.005650193 -0.0057280003 -0.007995059
0.007065882 0.009912002 -0.0108424425 -0.0051710103 -0.0036643571 -0.0036352153 -0.009168283 -0.0039467798
0.010890551 0.005472968 -0.017068725 -0.009103063 -0.010430076 0.008213184 -0.006676067 0.01017001
-0.0011008091 -0.0066872966 0.0017525845 -0.0032783037 -0.0053316485 0.0 0.0 -0.006276299
00000000: 21f2 e0bb f66a 27bc ec41 843b 5d15 a23b
00000010: 778f 103b 4125 b93b f3b1 bbbb b5fd 02bc
00000020: ea88 e73b f365 223c 80a4 31bc 9471 a9bb
00000030: b625 70bb cb3c 6ebb 9136 16bc fd53 81bb
00000040: 486e 323c 9556 b33b b6d3 8bbc 0325 15bc
00000050: e9e2 2abc 9790 063c e9c2 dabb 1da0 263c
00000060: 0649 90ba 1c21 dbbb fab6 e53a cfd8 56bb
00000070: 1cb5 aebb 0000 0000 0000 0000 69a9 cdbb

mu_layer.weight f4 [2, 32]
-0.025784986 0.16216902 0.38628414 -0.097709775 0.11337885 -0.38031042 0.28515255 -0.45843223
-0.09471615 -0.17511646 0.23114087 -0.11399955 0.3402906 -0.05703056 -0.1256788 0.040037863
-0.26601258 -0.13019808 0.047788963 0.22313912 0.25609997 -0.14113884 0.4267995 -0.21705359
0.0007368196 0.27670524 0.08479319 -0.030317673 0.6437386 0.022973275 0.081383534 0.38847893
0.65093154 0.035113495 0.067205116 0.1071195 0.20823021 -0.013091599 -0.22937457 0.2580181
-0.26198587 -0.28853348 -0.24106221 0.034072366 0.08296793 0.11623935 -0.27426833 -0.13401668
0.102521054 -0.0394304 0.3747987 -0.13045126 -0.32263267 -0.03505964 0.22003677 0.13840899
0.16289656 -0.0919551 -0.03039044 0.54545414 0.07421586 0.49998683 0.1174571 0.28838032
00000000: 093b d3bc a30f 263e 09c7 c53e 101c c8bd
00000010: 2c33 e83d 0cb8 c2be 84ff 913e a1b7 eabe
00000020: 8afa c1bd bb51 33be 31b0 6c3e 9978 e9bd
00000030: 923a ae3e e098 69bd f1b1 00be befe 233d
00000040: cd32 88be a552 05be 5cbe 433d 957e 643e
00000050: 891f 833e b386 10be 7785 da3e 4c43 5ebe
00000060: 2027 413a 4fac 8d3e 0da8 ad3d c55c f8bc
00000070: 0ecc 243f 7332 bc3c 69ac a63d b6e6 c63e
00000080: 73a3 263f 2bd3 0f3d d6a2 893d 7861 db3d
00000090: 4d3a 553e 257e 56bc 2be1 6abe f31a 843e
000000a0: 0323 86be a9ba 93be 03d9 76be 778f 0b3d
000000b0: 17eb a93d e50e ee3d e66c 8cbe ab3b 09be
000000c0: 8ff6 d13d c581 21bd 9de5 bf3e 0495 05be
000000d0: 1c30 a5be b29a 0fbd 5251 613e 16bb 0d3e
000000e0: 5bce 263e f552 bcbd 5ff5 f8bc e2a2 0b3f
000000f0: 7cfe 973d 46fe ff3e 598d f03d 96a6 933e

mu_layer.bias f4 [2]
-0.0048635714 -0.03616946
00000000: 985e 9fbb 6d26 14bd

log_std_layer.weight f4 [2, 32]
-0.15944837 -0.20698412 -0.011844098 0.237964 0.3068282 0.23722887 0.06159399 0.25121832
-0.29766518 0.3522428 -0.5295775 -0.042223025 -0.17741537 -0.27814746 0.29646343 -0.042157806
-0.013191012 -0.41812178 0.07561554 0.32788688 -0.2723146 0.075929105 0.19301286 0.02100888
-0.49799678 0.044488907 0.13923146 0.38684645 0.24538413 0.17500658 -0.16808136 0.0033608256
0.16857044 0.21692848 0.3049586 -0.55230325 -0.1534528 0.010892246 0.019315371 0.2739563
-0.12057754 -0.04850786 -0.08709945 0.15723668 0.42541432 -0.039862297 0.588736 0.057493452
0.23700015 0.116840154 -0.22944894 -0.073237434 0.13222453 0.10302934 0.1708959 0.10101294
-0.004110937 0.14454079 -0.61028886 0.34949166 0.20974727 -0.31540483 -0.20872346 0.15069866
00000000: 6f46 23be a5f3 53be bf0d 42bc d6ac 733e
00000010: 9618 9d3e 20ec 723e fb49 7c3d b09f 803e
00000020: 9267 98be 2b59 b43e 6492 07bf 0df2 2cbd
00000030: 60ac 35be 5869 8ebe 0eca 973e aaad 2cbd
00000040: 1d1f 58bc 0f14 d6be 52dc 9a3d cae0 a73e
00000050: d26c 8bbe b880 9b3d 2aa5 453e d11a ac3c
00000060: 6ff9 febe 003a 363d b192 0e3e bd10 c63e
00000070: fa45 7b3e ed34 333e 851d 2cbe 4c41 5c3b
00000080: bb9d 2c3e 8022 5e3e 8923 9c3e bf63 0dbf
00000090: bb22 1dbe 6475 323c 453b 9e3c 0044 8c3e
000000a0: 5bf1 f6bd 2eb0 46bd 3261 b2bd a702 213e
000000b0: e8cf d93e a646 23bd 67b7 163f 417e 6b3d
000000c0: 2bb0 723e e449 ef3d aaf4 6abe 82fd 95bd
000000d0: de65 073e 0c01 d33d 56ff 2e3e dfdf ce3d
000000e0: 0ab5 86bb 8002 143e e43b 1cbf 92f0 b23e
000000f0: fdc7 563e be7c a1be 9abb 55be c050 1a3e

log_std_layer.bias f4 [2]
0.010952745 0.0072353375
00000000: 2473 333c 6916 ed3b
