train_history/olympics-running/11_27_16_51/actor.pth (torch, 48200 bytes, 14 tensors)

encoder.0.weight f4 [8, 4, 3, 3]
000000 23 0d fe be ba a1 97 3d 11 06 81 3e 49 18 4f be
       -0.49619398 0.07403894 0.2519994 -0.20224108
000010 e6 03 5d be d4 52 95 be 1e c0 a3 be 95 32 7c bc
       -0.21583518 -0.29164755 -0.3198251 -0.015392919
000020 5c 6a 7a 3e 5a a4 e4 bd 08 fe 24 bd a0 20 e1 3d
       0.24454635 -0.1116416 -0.040281326 0.10992551
000030 d1 c0 fa be 3b b8 5e be 4c 08 0f be 57 f9 91 be
       -0.48975232 -0.21749966 -0.13968009 -0.28510544
000040 e3 3e df be c2 2f a2 bb 50 89 95 3d 8e ff 0b 3e
       -0.43602666 -0.004949541 0.07301581 0.13671705
000050 6f 7b a0 bd 50 73 49 be 62 60 c1 3e bd f8 ca 3e
       -0.07836043 -0.19672894 0.37768847 0.39642897
000060 e4 ad 8d 3e 42 23 0f 3f 98 82 76 be 4d a2 44 3e
       0.2767173 0.55913174 -0.24073255 0.19202538
000070 f4 3f 3c 3e 55 7e 37 be 2c 17 18 3e 74 0a ac 3e
       0.18383771 -0.17919286 0.1485259 0.33601725
000080 1f 0a 77 3e 7d 79 90 3d ed f6 c0 be 8a cb 9b be
       0.24124955 0.07054422 -0.3768839 -0.30428725
000090 d8 ad 2b 3e 8d ca 95 3d 40 41 11 bf 79 47 ea 3d
       0.16765535 0.07314024 -0.5674019 0.114394136
0000a0 8d bc 01 3f 43 f9 80 be 0b fe 0c 3e a7 63 2a be
       0.5067833 -0.25190172 0.13768785 -0.16639577
0000b0 df 0c a9 3e 63 09 37 3f 81 cd 58 3e 0d 10 6c 3e
       0.33017632 0.714987 0.21172144 0.23052998
0000c0 f3 61 4f 3d 4f 33 6a 3e 5d 50 0e 3e 4f 5b 22 3c
       0.05063052 0.22871135 0.13897844 0.009909465
0000d0 49 68 a1 bd 34 a0 0c 3f 45 b5 aa 3e 51 f2 dd be
       -0.07881219 0.5493195 0.33341423 -0.43348935
0000e0 d8 a5 ea 3d 54 07 13 3e bd 71 8c 3e a0 2d a4 3d
       0.114574134 0.14358264 0.27430525 0.08016515
0000f0 c4 93 91 3e ec 6c 97 3e a6 bd dc 3c 5b 9b 0d be
       0.2843305 0.29575288 0.0269459 -0.13828795
000100 ba 7f f8 3d 3d 89 35 3c 3c ba 86 3e cb 86 8c bd
       0.12133737 0.011080083 0.2631396 -0.06861647
000110 85 3a a0 bc 14 c5 cd bc 77 cc 3c 3d 5e 81 20 3e
       -0.019559154 -0.025118388 0.04609343 0.1567435
000120 ce 4c 40 be 4f 73 88 3e e1 1a 60 3e ef 7e aa 3e
       -0.18779299 0.26650473 0.21885253 0.33299968
000130 6c 6d 42 3e 26 af 9f bb a6 6a 26 be 38 19 77 3e
       0.18987054 -0.0048731742 -0.1625162 0.24130714
000140 a7 48 be 3d a7 06 82 3d 54 41 bf bd 72 01 29 bf
       0.09291201 0.06348925 -0.09338632 -0.6601783
000150 d0 b6 f0 bc f9 e4 ab be ff bb 94 3c b5 f1 6a 3c
       -0.029384047 -0.3357313 0.01815605 0.014339854
000160 45 cd db 3c 40 ac be bd 3f e0 11 3e 34 fc e5 3e
       0.026831279 -0.09310198 0.142457 0.44918978
000170 45 e6 52 be 60 57 0b 3e cc 05 a8 3e 6e 17 99 bd
       -0.20595653 0.1360755 0.32816923 -0.07475172
000180 31 41 5e 3e bb 0a 2e 3e 91 ac 0c 3e dc 64 57 be
       0.21704556 0.16996281 0.13737704 -0.21034569
000190 48 ce 28 3d 40 c7 54 3e 24 56 86 bd 02 9c 97 be
       0.04121235 0.20779133 -0.06559399 -0.29611212
0001a0 20 a4 2d 3d 50 07 b0 bb 2d 67 1a 3e 9f 5d cb 3e
       0.04239285 -0.0053719655 0.15078421 0.39719865
0001b0 10 af b0 3e 56 60 74 3e 71 83 49 bd 38 67 6f 3d
       0.34508562 0.23864874 -0.049197618 0.058448046
0001c0 30 b5 af 3e 6a 0f 37 3d 1e b2 1a 3e 1a ae d4 3c
       0.34317923 0.044692434 0.15107009 0.025961924
0001d0 65 b6 a0 3d 5d e1 e0 be 53 15 87 3e 67 af 23 3e
       0.07847289 -0.4392194 0.26383457 0.1598488
0001e0 1e e3 9b be a4 8b 08 be d2 56 b6 be 8f 12 53 3c
       -0.30446714 -0.13334519 -0.35613114 0.012882843
0001f0 0b 15 26 3e f3 80 00 3e ab 14 0d 3e 92 01 2a 3b
       0.16218965 0.1254919 0.13777415 0.0025940877
000200 97 04 94 3e 24 1d 42 bf 24 ad b7 be 81 1d 9a bd
       0.28909752 -0.75825715 -0.35874283 -0.07525159
000210 f2 68 f9 bd 8b 2e cd 3e 68 ec ae bc ec bf 00 3d
       -0.1217822 0.40074572 -0.021352962 0.03143303
000220 d8 bf 2d be 51 b3 0b 3d 35 30 61 3d c1 ca c7 be
       -0.16967714 0.034106556 0.054977614 -0.39021876
000230 e9 da 7f be 1f c3 3f be 0f d4 51 be 34 98 bf bc
       -0.24985851 -0.18726777 -0.2049105 -0.023388006
000240 86 a4 8a 3d 58 dd 0c be b1 0b fd 3d e5 b4 08 3f
       0.067696616 -0.13756311 0.123557456 0.53401023
000250 a7 04 01 bf e6 2c 42 3e 42 61 89 3e 9f 0a 56 bc
       -0.50397724 0.1896244 0.26832014 -0.013064056
000260 8e a8 d7 3d 0e bf 80 bd ce a2 79 3e 06 b7 93 3d
       0.10530196 -0.06286441 0.24378511 0.07212643
000270 63 cb a7 3c 4a a3 1d bd 83 2c 70 bd e7 bc 1e 3e
       0.020482725 -0.038485803 -0.0586362 0.15501748
000280 c1 70 eb 3d f5 ca 21 3d 95 c0 20 bf 96 8b 47 3d
       0.114961155 0.039500196 -0.62793857 0.048717104
000290 34 63 23 3f e1 d0 79 be cc 22 08 3f 21 5a ba be
       0.63823247 -0.24396087 0.53178096 -0.36396888
0002a0 99 41 6c 3e be 75 92 3d 84 be 8b be 1d b9 cc bd
       0.23071899 0.07151364 -0.2729379 -0.09996245
0002b0 7e f7 87 3d 1a a1 94 be a8 db 64 be 3e a6 cc bd
       0.06639002 -0.2902916 -0.22349417 -0.09992646
0002c0 05 87 59 3e 9d a2 70 be b4 f7 7e bd 3f 81 89 3d
       0.21242912 -0.23499532 -0.062247947 0.06714105
0002d0 26 e0 af be b9 4f 8c 3e 57 20 a0 be 9c ad d4 3d
       -0.343507 0.27404574 -0.31274673 0.10384676
0002e0 1a 7c e1 bd 6f c1 6f 3e f2 29 45 be b4 bf b0 3d
       -0.110099986 0.23413633 -0.19254282 0.086303145
0002f0 b9 43 36 3d 74 6c 06 be 5e 6e 57 bd 8e 15 33 bd
       0.04449818 -0.13127309 -0.05259549 -0.043721728
000300 a4 9a d2 bd 61 16 8e 3d 12 95 4c be 76 8f e7 bd
       -0.102834016 0.06937862 -0.19978741 -0.1130666
000310 ff 71 af 3d 9a 2b c7 3e 43 3f b6 3e ed 7e 5d 3d
       0.08566665 0.38900453 0.3559514 0.054076124
000320 09 36 19 3e 81 7f b1 3c 1a 1c b0 3e 05 3a 07 bf
       0.14962019 0.021667244 0.3439644 -0.52822906
000330 76 78 c9 be 97 1c 0f be 60 28 9c 3e b6 a6 a8 bd
       -0.39349717 -0.1397575 0.30499554 -0.082349226
000340 47 78 77 be a5 73 4a bd 95 bc ba 3e 86 56 99 3e
       -0.24166976 -0.049426693 0.36472002 0.29948825
000350 f7 69 9e 3e 79 7e 6f be b2 aa 7f be dc 94 c2 be
       0.3094022 -0.23388089 -0.24967459 -0.38004196
000360 78 98 81 3e 2c eb f7 3e ab ff 12 be 06 87 9f 3e
       0.25311637 0.4842161 -0.14355342 0.31157702
000370 f6 cb 93 be fd d2 95 be ec 36 98 3e bf f6 9a bd
       -0.28866547 -0.29262534 0.29729402 -0.07566594
000380 33 d4 c1 be f4 a6 1f be d5 06 a9 3e 85 a2 1b 3e
       -0.37857208 -0.15591031 0.33013025 0.15198715
000390 09 a4 0a 3f 98 e2 88 be 7b db 23 bd 3b cb eb bd
       0.5415655 -0.26735377 -0.040004235 -0.115133725
0003a0 a8 b6 3c 3e 94 96 8c bd 66 3c 4e 3e cc 2c a3 be
       0.18429053 -0.06864658 0.20140228 -0.31870115
0003b0 1b 2d f6 bd 20 59 7c 3d 9e 1e be 3c 68 eb 15 3c
       -0.12020322 0.061608434 0.023207959 0.0091503635
0003c0 af 18 73 3e 13 33 60 3e 07 12 a9 3e 97 b8 c9 3e
       0.23739885 0.21894483 0.33021566 0.39398643
0003d0 e8 cd 92 bd d9 a1 b4 bc 15 01 80 bd d2 11 15 bd
       -0.0716818 -0.022049831 -0.062502064 -0.036393948
0003e0 f1 0d 83 be 30 d6 49 3d e6 4c 39 be b7 3d 91 be
       -0.25596574 0.04927653 -0.1809574 -0.28367397
0003f0 e1 45 00 bd c1 85 fc be b1 90 95 3e 90 9e 8f 3e
       -0.03131664 -0.49320796 0.29211953 0.2805066

encoder.0.bias f4 [8]
000000 e2 f0 91 bc 9c 10 26 3c e2 b0 8b bd a5 60 e1 3b
       -0.017815057 0.010135796 -0.06820847 0.006877976
000010 c9 13 c2 bd 2d e0 e5 3c 5f dd 55 bd 0e 4b e2 bc
       -0.0947643 0.028060997 -0.05221307 -0.02762368

encoder.3.weight f4 [8, 8, 3, 3]
000000 9a 5b e0 3d cd 06 0c bf 44 4d 13 bb 72 2d 77 3e
       0.109549716 -0.5469788 -0.0022476474 0.2413843
000010 1c 40 1b be b1 3f 6d 3e bb 2a e6 bd 4a 42 e9 3d
       -0.15161175 0.23168828 -0.11238619 0.11389597
000020 94 d9 12 3d 1b 86 15 3d 58 27 10 bd 7d 38 3d be
       0.03585203 0.036504846 -0.03519377 -0.1847858
000030 73 ca 9e bd 04 df 98 3d 83 3d ad be 63 19 9f bd
       -0.07753458 0.07464412 -0.33835992 -0.07768514
000040 2f 2b 46 3e 0e 7f 11 be 4f e0 0c 3d 79 88 98 3b
       0.1935241 -0.14208624 0.034393605 0.0046549407
000050 bb f9 56 bd 7e 34 3b 3e cf 3e 52 be 92 cc bf bd
       -0.052484255 0.18281743 -0.20531772 -0.093651906
000060 8f 9b 0e 3e c2 6e 0c be 51 5f a6 be c9 6c 23 be
       0.13926528 -0.13714126 -0.32494596 -0.15959467
000070 19 30 5b 3d 30 20 22 be dd 81 ce 3d d5 98 e9 3d
       0.053512666 -0.15832591 0.10083363 0.114061035
000080 57 ce e6 3e e2 56 f1 bd 43 b0 24 3e 84 3b d4 bd
       0.450793 -0.1178415 0.16082864 -0.10362914
000090 77 0b e1 3c 62 ec 0d be b4 17 7d bd d0 f8 41 bd
       0.027471287 -0.13859704 -0.061790183 -0.047356427
0000a0 c6 a9 bc bd 9c ed 97 be d7 29 6b be 32 40 bc 3e
       -0.09212069 -0.2967347 -0.2296518 0.36767727
0000b0 85 56 fc bd 77 92 41 3e d3 cb 35 bc 81 9b e4 3d
       -0.1232119 0.18903528 -0.011095959 0.111624725
0000c0 09 0b f9 bd af ce c6 3e cd 2b 7f 3c 0c 04 77 3d
       -0.12160308 0.38829562 0.015574408 0.060306594
0000d0 0a ed b9 3e 3d 69 92 bc 6a 21 e3 bd 27 50 72 bc
       0.3631366 -0.017872447 -0.110903576 -0.014789618
0000e0 f1 e4 58 3e 89 ee c6 3c 20 1c 2c 3e dd fb 84 3e
       0.21181084 0.024283664 0.16807604 0.25973406
0000f0 1b 9e 06 3e fc c1 24 be fd e0 2a 3e 8a 9c d8 3c
       0.1314625 -0.16089624 0.16687389 0.026441831
000100 fd b9 93 39 37 de 8a 3e 83 a5 2a be 0b 84 0a 3d
       0.00028176597 0.2712266 -0.166647 0.033817332
000110 e0 91 2c bd b2 84 ae 3d d8 8a b8 3d 1d 79 f4 3d
       -0.042131305 0.08521403 0.09010857 0.11937163
000120 82 f1 e0 be d6 fc d4 bd ae f5 84 3e a6 12 1e be
       -0.43934256 -0.10399787 0.2596869 -0.15436801
000130 39 82 83 bd 87 19 d1 bc e4 ff 14 be f1 7e 30 bd
       -0.064213224 -0.025524868 -0.1455074 -0.04308981
000140 a9 ab a6 bd b0 2a 7a be 4b f3 76 bd 93 38 64 3d
       -0.0813821 -0.24430346 -0.060290616 0.055718016
000150 45 fd fa bc 1d 1e 84 be bb 98 49 3e 57 4f 86 3d
       -0.030638346 -0.25804225 0.19687168 0.065581016
000160 cd 35 d4 3e 30 05 e4 bc ce 7e 77 be 80 64 29 3d
       0.41447297 -0.027834505 -0.24169466 0.04135561
000170 81 9b 5f 3e 22 c5 69 be e9 00 47 bd e6 da a4 3c
       0.21836664 -0.22829106 -0.048584852 0.02012391
000180 f8 53 a3 3d a1 23 b7 3d 0d 11 ac bd 0f 9c e0 bd
       0.07975 0.089423425 -0.0840169 -0.10967266
000190 64 81 3c 3c 9a e8 5c be 97 09 17 3e 6c 58 94 3d
       0.0115054585 -0.21573105 0.14749752 0.07243428
0001a0 3c e7 8b 3c eb 47 35 3c 1a 28 98 be 8f 9b 85 bd
       0.017078035 0.01106451 -0.29718095 -0.06523811
0001b0 7d cd 51 be 74 45 84 be bf bc 43 bd d7 36 1f be
       -0.20488544 -0.2583424 -0.047787424 -0.15548263
0001c0 2a 32 67 bc 04 e5 8e 3e 72 e9 1a 3e 3a e0 00 3f
       -0.014111081 0.279091 0.15128115 0.5034214
0001d0 c3 f7 4a 3e ad a4 a5 3e cd 98 11 3e 7c 76 b2 3e
       0.19821076 0.323522 0.14218445 0.3485602
0001e0 23 3f b0 bd ed da d8 bd 75 f9 6e bd 6a ed 2c be
       -0.086057924 -0.10588632 -0.05834337 -0.16887441
0001f0 90 2b 53 be 56 ac aa be ff af 4f bd 9e 07 2c be
       -0.20622087 -0.33334607 -0.050704952 -0.1679978
000200 8f b9 f6 3d 20 d1 2f be 54 4a 0f 3e 50 80 fe 3d
       0.12047111 -0.17169619 0.13993198 0.124268174
000210 30 19 ff 3d a9 0b 68 3e ce 34 15 be 27 f1 a0 bd
       0.12455976 0.22660698 -0.14570925 -0.07858496
000220 f7 6c 57 be 80 4d 0a be 6d 54 f2 bc 89 13 64 3e
       -0.2103766 -0.13506126 -0.029581273 0.22273077
000230 40 fc 28 bd 95 41 63 bd db 7c 4b be f9 22 80 be
       -0.04125619 -0.055482466 -0.19871847 -0.25026682
000240 d7 27 f5 bd 29 8b a8 3d 25 81 23 bd e1 2b bf 3c
       -0.119704895 0.08229668 -0.039918084 0.023336353
000250 fb f7 b8 be bb 6d 7b be 7d 83 85 bd 9b 86 13 be
       -0.36126694 -0.24553578 -0.0651922 -0.14406817
000260 77 61 ac bc a9 79 59 bd 09 26 91 3e df 8c 2f 3e
       -0.021042569 -0.05309454 0.2834933 0.17143582
000270 b9 88 34 be a7 83 1d be e5 9b 42 bd 60 5a 98 3e
       -0.1763028 -0.15382253 -0.047511954 0.2975645
000280 31 c8 90 bd 0a 77 5d be d2 af f6 3d f5 d6 a5 bc
       -0.070694335 -0.21627441 0.12045254 -0.020244101
000290 54 ca f4 3e 49 f9 66 be 63 57 76 be e9 70 6b be
       0.47810614 -0.22556032 -0.24056773 -0.2299229
0002a0 7f 9a 40 3e 61 4b 89 be 21 d5 06 3d d9 62 34 be
       0.18808936 -0.26815322 0.0329181 -0.17615832
0002b0 ed a9 44 3d 69 ef 7f 3e 3d cc 99 3e 33 58 0a 3c
       0.048013616 0.24993671 0.30038634 0.00844388
0002c0 4a ef 38 3e dc c3 19 3e 02 aa 6d 3e 92 7e 52 be
       0.18060032 0.1501612 0.23209384 -0.20556095
0002d0 37 94 64 be c5 f6 0f 3e 48 c5 81 3d 8d 4c dc bd
       -0.22322164 0.14058979 0.063364565 -0.107567884
0002e0 1e a2 0d bc 62 6f 62 be 9e 91 ce 3d 55 be 18 be
       -0.008644609 -0.22112802 0.10086368 -0.14916356
0002f0 c6 45 dd bd af eb 28 be 5a cd 93 3e 4d 05 ef bd
       -0.10804324 -0.16496156 0.28867608 -0.11670933
000300 0c 33 c9 3b 9b 3d 1d be 4c 32 a5 be 13 a1 90 bd
       0.0061401185 -0.15355532 -0.32264936 -0.070619725
000310 7f 27 aa bb 20 de 39 be 5a 47 cf 3c 13 2a 37 bd
       -0.0051926966 -0.1815114 0.025302578 -0.04471786
000320 f9 94 ed 3d f9 03 8b 3e 81 60 f3 3c e1 9c fb 3d
       0.1160068 0.27151468 0.029709103 0.12285782
000330 0e b2 31 3e 5c 52 58 3d d6 4a 7c be ad 5b 8b be
       0.17353079 0.05281292 -0.24637923 -0.2721838
000340 6e 24 e8 3e 48 61 0e be 1e 81 01 3d 76 24 26 bc
       0.45340294 -0.13904297 0.031617276 -0.010140529
000350 47 24 19 3c 18 3c 7a 39 79 07 65 3d 3a 17 8d be
       0.009347028 0.00023864245 0.05591533 -0.27556783
000360 f1 b7 92 3e 01 dd 65 3c 2b 95 27 bd e5 8d 6f 3e
       0.2865596 0.014029742 -0.040913742 0.23393972
000370 91 2e dd 3b e2 e4 37 3e 96 99 33 3e 9e e0 14 3e
       0.006749936 0.17958406 0.17539057 0.1453881
000380 b1 e4 a8 3d 4a a1 7a 3d 10 fc e1 be 64 00 4c be
       0.082467444 0.061188973 -0.4413762 -0.19922024
000390 37 90 23 be 48 7c 5e be 00 89 fd 3b 52 a7 4c bd
       -0.15972982 -0.21727097 0.007737279 -0.049964257
0003a0 30 ae 11 3e a8 08 83 bc 83 76 23 be e6 17 af bb
       0.14226604 -0.015995339 -0.15963177 -0.005343425
0003b0 cb 14 0c be 35 51 30 be 2b 0d 5a bd 57 3d 13 bc
       -0.13679807 -0.17218478 -0.053235214 -0.0089867925
0003c0 cb 7c 1b 3e 82 a3 de bc 92 11 31 3d 4d 3b 5c bd
       0.15184323 -0.027177576 0.043229647 -0.05376749
0003d0 c0 33 2b bd e5 9f a5 3e bb 17 2c 3e b4 6d 33 be
       -0.0417974 0.32348552 0.16805927 -0.17522317
0003e0 9e 43 15 be bd 00 d7 bd 25 34 cd bd 6a bd 4f bc
       -0.14576575 -0.10498188 -0.100197114 -0.012679437
0003f0 c2 9d aa 3e d3 e5 94 bd 20 f9 ad 3e 95 bd 82 be
       0.33323485 -0.07270398 0.3397913 -0.25535265

encoder.3.bias f4 [8]
000000 4b af 95 bc ad a7 78 bd 46 41 9c 3d 3d 20 16 be
       -0.018272063 -0.060706783 0.076296374 -0.14660735
000010 e8 4c c9 3d aa 34 65 bd 9b 91 d6 bd 73 5a 6e bc
       0.09829122 -0.055958427 -0.10476991 -0.014547932

cnn_net.0.weight f4 [16, 8, 3, 3]
000000 8a a2 90 3d 75 40 52 3e 43 cf bf bd 8c 13 89 3e
       0.07062252 0.20532401 -0.09365704 0.26772726
000010 c3 fe 93 be d5 dd 12 bf 07 b1 65 3e 77 d1 86 3d
       -0.28905305 -0.5736974 0.22430812 0.06582921
000020 1a 41 7e 3d 07 62 60 be fc b4 cd 3c e4 85 19 be
       0.062073804 -0.21912394 0.025110714 -0.14992481
000030 fb 26 a2 be 7d df 0d 3e 73 c1 36 3d 3b c7 98 3d
       -0.31670365 0.13854785 0.04461808 0.07459875
000040 15 b6 4c bc 8d 5c 3d be 44 7a 06 bc 2f 40 56 3d
       -0.012494584 -0.18492337 -0.008207861 0.052307304
000050 17 e7 91 3e cf cd 3c be 56 1d 0b be 23 29 6a 3c
       0.2849662 -0.18437885 -0.1358541 0.014292034
000060 e5 a0 5e 3e fb 39 f0 3d 5c 7f 9d 3e b0 15 6f be
       0.21741064 0.11729809 0.3076123 -0.23348117
000070 b1 9e 01 3d b3 0a f8 bd 65 0f fc bd 74 72 eb bd
       0.03164548 -0.12111416 -0.12307624 -0.114964396
000080 d3 d8 35 bd a1 17 80 3d a9 9c bf 3d 48 43 58 3e
       -0.044396233 0.06254507 0.093560524 0.21119416
000090 c2 61 b0 bc 50 e9 7f be ec 9f a0 3e 6a be 62 be
       -0.02153099 -0.24991345 0.3137201 -0.2214295
0000a0 e1 d8 7f be 78 5d 4f 3e 93 d2 63 bc 4c e3 8d 3d
       -0.24985076 0.20250499 -0.013905185 0.06928119
0000b0 ec 63 eb bd 15 05 b1 3d e0 c6 e4 3d a3 5b 62 3e
       -0.11493668 0.086435474 0.11170745 0.22105269
0000c0 fc 2e cb bb d2 6f 92 bc f2 97 48 3e e8 97 4d 3e
       -0.0062006693 -0.017875586 0.19589213 0.20077479
0000d0 18 f8 82 3e ce ac b6 3c 4f 8a 75 3e f9 dc ab bd
       0.25579906 0.022299197 0.23978542 -0.083917566
0000e0 9c 75 17 3c 77 7d 37 3e 01 11 1a be 4f c4 be 3b
       0.009244349 0.17918955 -0.15045549 0.0058217417
0000f0 76 3a bc bd 88 ab 74 bd da 0e ca 3c c4 e9 bc 3d
       -0.09190838 -0.059733897 0.024665285 0.09224275
000100 dd e9 86 3d 02 e1 b1 3d 9d e6 49 3e b2 42 2a 3e
       0.06587575 0.08685495 0.19716878 0.16627005
000110 64 d7 6f 3e 69 04 19 be 3c af c9 3d c4 49 25 3e
       0.23422009 -0.14943089 0.098478764 0.1614142
000120 4c e7 0b be 96 03 2f 3d 51 29 9b 3d 62 36 26 be
       -0.13662452 0.04272803 0.0757624 -0.16231683
000130 12 d1 80 3d 6c ed be bd 7c 9f a9 3e fe ad 1d bc
       0.06289877 -0.093226284 0.3312949 -0.0096240025
000140 df a0 b2 3d 51 cc 82 3e 2e 3b 4c b9 1c 6a 00 be
       0.0872209 0.25546506 -0.00019477002 -0.12540478
000150 9d 96 78 3d 35 ad 4e bc fc f2 28 3e c3 d4 86 bc
       0.06069051 -0.012614538 0.16498941 -0.016458875
000160 84 d8 df 3d b0 46 87 3e 97 5b 8c be 0b d5 40 be
       0.10929969 0.26421118 -0.27413628 -0.1883127
000170 fb 4f 92 3e 31 c2 a3 bc 71 86 0e bd f6 e9 65 be
       0.28576645 -0.019990059 -0.034796182 -0.2245253
000180 50 ec 8c bc f1 fe 2f 3c 1f 18 b2 3d 90 58 b9 3d
       -0.017202526 0.010741935 0.08696007 0.09050095
000190 75 67 ff bd 61 23 03 be cf 94 bf 3d 54 43 49 be
       -0.12470905 -0.12806465 0.09354555 -0.1965459
0001a0 72 c1 42 3e c1 04 f6 3c 04 be 8c 3d d5 63 67 be
       0.19019106 0.030031564 0.0687218 -0.22596677
0001b0 ce 7b 33 be 47 a5 d9 3d 92 cd 0b 3e 8a 91 40 3e
       -0.17527696 0.10627227 0.13652638 0.18805519
0001c0 64 a2 16 be 2b cd a5 3e ee 53 a6 bd 11 19 2e 3e
       -0.14710385 0.32383093 -0.08121477 0.1700175
0001d0 5b ee 84 3b 60 89 c5 bd 4b 21 bf be d4 c3 2f 3d
       0.0040567345 -0.09645343 -0.37330088 0.042911366
0001e0 18 10 22 3c f3 6d a0 bd 42 a8 1a 3e 96 ee 94 3e
       0.009891532 -0.07833471 0.15103248 0.29088277
0001f0 be 7e bb 3e 7f 21 9f be bd 75 55 be 25 7b b1 bd
       0.36620134 -0.31080243 -0.20845695 -0.08666066
000200 51 47 aa 3d d1 8a 83 bd f7 4c 33 be b7 a3 72 be
       0.08314384 -0.064229615 -0.17509829 -0.23695265
000210 c7 d4 9a 3d 6b 6f 00 3d 09 14 61 bc 2e 06 0a be
       0.07560115 0.031356256 -0.013737687 -0.1347892
000220 29 04 2d be f9 de 98 3e ad ae 83 be e5 50 53 3e
       -0.16896118 0.29857615 -0.25719205 0.20636328
000230 3b de 07 be cc 3c ae 3d b1 22 8e 3e f4 bc 34 be
       -0.13268368 0.0850769 0.27760842 -0.17650205
000240 e0 16 fe 3e 31 16 76 3e 43 df c5 3d e4 0b aa be
       0.49626827 0.24031903 0.096617244 -0.33212197
000250 4a 28 de 3e 8b 71 38 3e 40 a6 35 3e 2e 9f 4a be
       0.43390113 0.18012063 0.177392 -0.19787285
000260 f5 e7 6b be ad fd 31 be ae 8e 62 bd 02 1e 91 bd
       -0.23037703 -0.17381926 -0.05531185 -0.07085802
000270 8f 98 e7 bd 6f 10 38 be d9 87 86 be f6 f0 94 3c
       -0.11308395 -0.17975019 -0.2627552 0.018181305
000280 1d d4 bf 3d 4d 11 3b 3e bb 71 2d 3e f4 48 a8 3e
       0.09366629 0.18268318 0.16937916 0.3286816
000290 52 3d 0a 3e db 88 13 3e 28 0a db bd 56 13 aa 3d
       0.13499954 0.14407675 -0.106952965 0.08304469
0002a0 8a d6 b7 bd 22 53 11 be d4 66 a3 39 48 fd 82 bd
       -0.08976467 -0.14191869 0.00031166396 -0.06395966
0002b0 04 36 01 3d da 5b 4b bd af d9 5c 3e ee b6 13 be
       0.031545654 -0.049648143 0.21567415 -0.14425251
0002c0 d8 55 9b be 76 1c a7 3d 26 40 12 3d f9 33 17 3e
       -0.3033893 0.08159725 0.035705708 0.1476592
0002d0 b2 ed 74 3e 47 61 66 be f1 f6 3f 3e 25 01 83 3e
       0.23918799 -0.22498046 0.18746544 0.2558681
0002e0 8d 81 a2 bc a7 ff a7 3e 43 1e 95 3d e5 cf 86 be
       -0.019837165 0.32812235 0.072811626 -0.26330486
0002f0 86 b1 6b 3e 2a 3e cb 3d 2b 6c 3f 3e 26 3a 7f 3e
       0.23016939 0.09923966 0.18693607 0.24924526
000300 10 e4 9d 3d 45 70 bf 3d 71 41 fc 3d 78 e6 b2 3d
       0.07709515 0.093475856 0.123171695 0.08735365
000310 00 67 3c bd c3 eb 3b 3e 56 f0 dd bb 96 58 0d 3e
       -0.045996666 0.18351655 -0.006773035 0.13803324
000320 03 2a 54 bc a3 3a a5 bd 04 8a a4 be 3b 5d 65 be
       -0.0129494695 -0.08067825 -0.32136548 -0.22398846
000330 26 a8 c1 3d 51 8a c4 3d 51 4e bd bd 47 02 06 be
       0.094559 0.09596694 -0.09243453 -0.13086806
000340 99 de 64 3e 22 08 a9 bd ed f7 1b be 9c 87 df bc
       0.2235054 -0.08253504 -0.15231295 -0.027286343
000350 1c f2 40 3c a0 b8 9e be 34 35 bb be 17 d1 0d be
       0.011776473 -0.31000233 -0.36564028 -0.13849293
000360 eb f8 74 3e 91 d9 a7 bd 99 0b 3f 3d f5 17 41 3e
       0.2392308 -0.081957944 0.04664192 0.18856795
000370 db 0c c0 bc 62 5e ac be 9f b3 0d bd 88 5a 8a be
       -0.02344363 -0.33665758 -0.03459513 -0.27022195
000380 51 97 0d be ff 3f 6c bd 93 2e 1b 3d 00 e1 89 3e
       -0.13827254 -0.05767822 0.037886214 0.26929474
000390 36 4e 9b 3e 19 d6 f3 bc eb fb b4 3d 02 29 f9 3d
       0.30333108 -0.029765176 0.08837112 0.12166025
0003a0 ed 38 15 3e a6 01 28 be 9a 63 86 3e 16 6c ba 3d
       0.14572497 -0.16406879 0.26247865 0.09102647
0003b0 4e cc 3a 3e 88 04 d2 bb 17 55 ed bd ac f5 ba 3d
       0.18241999 -0.0064092316 -0.11588495 0.091288894
0003c0 97 a1 96 3e 12 a5 23 3e 28 12 90 3e cf fd 0d be
       0.29420158 0.15980938 0.28138852 -0.13866352
0003d0 f4 d6 39 be b9 5d 4c be 3b ae bf 3e b6 c4 0d 3e
       -0.18148404 -0.19957627 0.37437615 0.1384457
0003e0 25 6d 30 3d 3a da 05 3e fb f1 e7 bd 45 6c 7f bd
       0.04307284 0.13071528 -0.11325451 -0.062359113
0003f0 05 1c a3 bd ca 8c 1c bd e4 62 ea bd 67 41 92 3d
       -0.07964329 -0.038220204 -0.11444643 0.07141381

cnn_net.0.bias f4 [16]
000000 e7 3b 3b bd 60 5b a6 3a d5 5d ea 3c b2 fd 1c bd
       -0.045711424 0.0012692027 0.028609196 -0.03832788
000010 82 9a 4a 3c 24 e4 9b bc f4 9b 69 3b 40 d8 14 3c
       0.012365939 -0.019029684 0.0035645934 0.009084761
000020 1f f3 5f bd 5b 77 a1 bd 51 e1 3d bd 63 1d b1 3b
       -0.054675218 -0.078840934 -0.046357457 0.0054051145
000030 6b 90 20 bd 3b da 52 3d fe c7 c0 bd 0f de 1e 3d
       -0.039200228 0.051477652 -0.094131455 0.03878599

cnn_net.3.weight f4 [32, 16, 3, 3]
000000 6a 57 72 be d5 5f 45 3e 58 af 16 be 38 ca 19 3e
       -0.23666158 0.19274838 -0.14715326 0.15018547
000010 c1 5d 98 3b 3e 00 3a 3c 95 2b 7c 3e 62 a4 32 3e
       0.004649848 0.011352597 0.24626 0.1744552
000020 bc 2f aa 3d 8d d0 90 3d 4f 88 aa bd f9 ad 83 3d
       0.08309886 0.07071028 -0.0832678 0.06429667
000030 a7 88 01 3e 93 2d e1 bc a3 eb 95 3c 89 4c 7e bd
       0.12649785 -0.027487552 0.018300837 -0.06208471
000040 97 2d 48 be 02 c8 aa 3d c4 76 71 bd 47 b2 cc bc
       -0.19548641 0.0833893 -0.058951154 -0.024987353
000050 80 ae f7 bd cf c7 8d bd c3 a6 f5 3d 53 39 2b be
       -0.1209383 -0.06922876 0.11994698 -0.16721086
000060 8f ce b3 bc 94 b0 38 3d 68 e1 16 be f6 bd ea bd
       -0.02194908 0.045090273 -0.14734423 -0.114620134
000070 8f de 38 3d 74 17 d5 3c 85 8a 74 3e 6b 0e ef 3c
       0.045134123 0.02601216 0.23880966 0.02918168
000080 65 cc a9 bd 47 c7 98 3d b4 f2 03 bd 3e 21 9a bd
       -0.08290938 0.07459884 -0.03221388 -0.07525872
000090 7c ad bf bd a2 0c 31 3e a0 08 5c 3d 5c b6 32 be
       -0.093592614 0.17289975 0.053719163 -0.17452377
0000a0 55 b4 1e 3e 28 f1 44 be eb 27 a0 3d a9 b5 36 be
       0.15498479 -0.19232619 0.07820114 -0.17842735
0000b0 e1 2c 88 3e aa 9a 88 bc fe 8b 3d be f6 a0 0b bf
       0.2659674 -0.016675312 -0.18510434 -0.5454248
0000c0 53 79 12 3c c8 19 27 3e 95 da 4e 3e 0f 7f 34 3d
       0.008940059 0.16318429 0.2020057 0.044066485
0000d0 e4 f6 ed bd ad 46 67 be 13 9a 79 be 26 8b ce bd
       -0.11619356 -0.22585554 -0.24375181 -0.10085134
0000e0 af e8 d4 bd 7c cc b7 bd c7 5a 32 3e 35 e2 0d 3e
       -0.103959434 -0.08974549 0.17417441 0.13855822
0000f0 6d 70 2f be 73 cc 3e 3d d1 07 21 3d 0e 82 ad bd
       -0.17132731 0.046581697 0.039314095 -0.084720716
000100 32 4a a0 be 60 4e af 3d e3 e0 87 be 36 6c 81 be
       -0.31306607 0.08559871 -0.26538762 -0.2527787
000110 fb 69 66 3d 52 10 84 bc a7 f3 02 3e 83 f0 e0 3d
       0.056253415 -0.016121063 0.12788258 0.10983374
000120 c6 0b 1b 3d 60 91 a6 be e0 5f b0 bd 1c 3c b2 3b
       0.037853025 -0.32532787 -0.08612037 0.0054392945
000130 69 be 21 be e4 55 08 3c 75 05 9c 3e e5 98 81 bc
       -0.15795292 0.008321259 0.30472913 -0.015819976
000140 70 a1 63 bd 0e d7 16 bc f7 d0 94 3d 53 f8 08 be
       -0.05557388 -0.0092065465 0.072664194 -0.13375978
000150 9d d0 67 bd 2d 77 73 bc 6f 50 54 be d7 44 8b bd
       -0.056595434 -0.014859957 -0.20733808 -0.068002395
000160 8b 9e c2 3d 1f b1 bc bc 0c a9 03 be 7f cf 49 bc
       0.09502896 -0.023033677 -0.12857455 -0.012317537
000170 ad 02 66 3d b2 a7 eb bd 02 c8 36 3b 78 75 ab bd
       0.056154896 -0.11506595 0.002789021 -0.08372015
000180 24 64 7f 3e d8 c6 eb bc 5e 06 7d 3c 95 76 a8 3d
       0.24940544 -0.02878134 0.015443413 0.08225743
000190 0a 1b 93 be 30 85 73 be 11 25 85 be a5 10 27 be
       -0.28731567 -0.23781276 -0.26004842 -0.16314943
0001a0 ba 79 19 3e ba 98 1e be 09 3c ed bd 57 e7 0c be
       0.14987841 -0.15487948 -0.115837164 -0.13760124
0001b0 dc 6c 10 3e a1 90 15 bc e1 73 5e bd 99 73 8e 3c
       0.14104027 -0.0091287205 -0.05430973 0.017389106
0001c0 33 98 0a be 3d f9 42 3e 55 a4 8f bd c2 d0 60 bd
       -0.13534622 0.1904039 -0.07013766 -0.054886587
0001d0 27 b9 95 bc 1a 1c 9c 3e f3 6b ee 3d cc 35 40 bc
       -0.018276764 0.3049019 0.116416834 -0.011731576
0001e0 59 78 68 be 39 19 8f bd d4 f6 74 bd 9c 3f 54 3e
       -0.22702159 -0.06987233 -0.059805706 0.2072739
0001f0 b4 52 65 3d 39 55 d8 bd 2f 06 a4 be f5 34 23 bd
       0.055987075 -0.1056313 -0.32035968 -0.039845426
000200 10 31 10 3e 79 8e 30 3e 3a c5 d7 bd 30 fc 23 3e
       0.14081216 0.17241849 -0.10535665 0.1601417
000210 bd 83 45 3e dd 22 b1 bd 59 8f 40 bd ab 1b 99 be
       0.19288535 -0.08649228 -0.047011707 -0.2990392
000220 fa 45 17 be 30 98 46 3d 22 9d 0f bd 77 b4 c5 bd
       -0.14772788 0.04848498 -0.035061963 -0.096535616
000230 ec fa d7 3d 6a 44 57 3e 43 0b ce bd 47 57 8c bd
       0.105459064 0.21022192 -0.10060742 -0.06852584
000240 38 eb 94 3c 39 59 85 be 22 03 67 be 70 f9 ff 3d
       0.018178567 -0.26044634 -0.22559789 0.12498748
000250 e1 9c ae 3c 3e 47 cd bc 9c f4 a4 bd 61 53 90 be
       0.02131504 -0.025058385 -0.08054468 -0.28188613
000260 ec 87 6e 3c 48 3a 36 be 14 76 04 3b 97 f9 41 3e
       0.0145587735 -0.1779567 0.0020211982 0.18942867
000270 75 ff 1f 3d 03 13 58 b9 32 37 0f 3d 81 bd bf bc
       0.039061982 -0.00020606448 0.034964748 -0.023405792
000280 e4 d6 06 3d 23 f4 72 bd a0 04 6e bb 20 cb 36 3e
       0.03291978 -0.05931486 -0.0036318675 0.17850924
000290 6f 85 3e be 42 7c 53 3d a3 d2 b1 bd bf ff 79 3d
       -0.18605588 0.051632173 -0.08682754 0.061034914
0002a0 79 5f 92 bd e6 cd d9 3c df 18 92 bc 66 79 38 be
       -0.07147116 0.026587438 -0.017834125 -0.1801506
0002b0 9a d6 3c be d5 04 75 3e 97 50 34 bc 21 fb 99 bc
       -0.18441239 0.23927625 -0.011005542 -0.018796505
0002c0 60 18 88 3d 03 88 f2 3c 54 d5 e3 3c fd 78 83 3d
       0.06645274 0.029605871 0.027811684 0.06419561
0002d0 0f 8c 61 3e 0d 84 3d 3e d3 bd 9c 3d 01 9c 85 bd
       0.22026084 0.18507405 0.076533936 -0.06523896
0002e0 75 b7 9f 3d b3 66 5e bd e3 93 b3 3c 5f 86 91 bd
       0.077986635 -0.05429716 0.021921104 -0.071057074
0002f0 38 ca 65 3e 39 b8 27 bc 3a 41 00 be 36 4a be bd
       0.22440422 -0.010236793 -0.12524882 -0.09291498
000300 d3 92 35 bd d6 4e f8 bc 1c 7f 17 3a f2 17 38 3e
       -0.044329476 -0.03031103 0.00057791336 0.17977884
000310 a8 c0 91 bc 59 f3 60 3e 03 ee 0c 3e d5 18 88 bd
       -0.017792061 0.2196783 0.1376267 -0.06645361
000320 83 d4 2e be d3 d7 38 be 41 8c f6 3d b7 06 57 3e
       -0.17073254 -0.1805108 0.1203847 0.20998655
000330 9f 9c 6d bd ba 17 f4 3d 3a 92 29 be b0 08 d3 be
       -0.058010694 0.11918588 -0.16559687 -0.41217566
000340 97 0a 39 3e bf 4e 6d be 0e 4d fb 3c 98 06 e4 bd
       0.18070446 -0.2317457 0.030676391 -0.1113407
000350 03 15 67 be 53 4d 4c 3e 89 70 03 be a7 ba ea 3c
       -0.22566609 0.19951372 -0.12835898 0.028653456
000360 4c c2 10 bd 81 a3 13 3d 2e 6e 95 be 5c 55 f8 3d
       -0.035341546 0.0360446 -0.29185623 0.12125656
000370 87 9c d5 3c db 82 71 bd 6c 30 1c 3e 3c b0 8f 3c
       0.026075615 -0.058962684 0.15252846 0.01754009
000380 9d 4e 8d 3d 62 d0 43 bc f8 3c 05 be 41 12 bb 3d
       0.0689976 -0.011951538 -0.13011539 0.09134341
000390 fd 81 49 3d d8 5a b3 bd ba 37 23 bd 84 8b ec 3d
       0.049196232 -0.087575614 -0.039848067 0.11550048
0003a0 1c bb dd bd 34 9f 68 3d b9 39 11 3d 91 ff 85 be
       -0.10826704 0.056792453 0.03545544 -0.26171544
0003b0 bc 0b 53 be a4 eb 48 3e c1 9b df 3d 80 4d 2f 3e
       -0.20609945 0.1962114 0.109183796 0.17119408
0003c0 4d fa 2a be d0 20 85 3b 67 60 08 be f1 62 71 bd
       -0.16697045 0.0040627494 -0.13318025 -0.05893225
0003d0 6b 49 30 3e e6 cb e2 bd 57 e4 98 be 33 45 55 be
       0.17215507 -0.11074047 -0.2986171 -0.20827179
0003e0 63 67 3d bc 51 a8 13 bd 46 22 7e bd 6e 70 78 bd
       -0.011560294 -0.03604919 -0.062044404 -0.060654096
0003f0 06 eb 40 3d 72 ff 8f bc 74 83 5c be c4 65 04 3e
       0.047099136 -0.01757786 -0.2153452 0.12929446

cnn_net.3.bias f4 [32]
000000 48 4b 81 bb 0c b9 bb bc 3d 35 11 bd d3 5b 75 bd
       -0.003945742 -0.022915386 -0.035451163 -0.059902024
000010 6b 87 af bd 24 0e bb bc c5 cb 57 bb 51 bd 80 bd
       -0.08570751 -0.022833891 -0.0032927853 -0.06286109
000020 66 57 3e bc 57 9a 15 bc 0a 4e d3 bc 9a fe c3 bb
       -0.011617517 -0.009131036 -0.025794048 -0.0059812786
000030 bb 7b 3a bd a9 22 eb bc 27 f0 98 3c b3 3a 22 3d
       -0.045528155 -0.02870305 0.018669201 0.03960676
000040 9e 1f 32 bd 28 2c 96 bd 4a 59 ac bd 52 8d b5 bd
       -0.043487184 -0.07332641 -0.08415468 -0.08864845
000050 a6 80 ee 3c 7b a8 b0 3b 25 66 19 bd d5 ca 79 bd
       0.029114079 0.005391178 -0.03745093 -0.06098445
000060 c9 4d 11 bd e5 b6 8b bb 59 be b7 bc 7e 85 2a bc
       -0.035474572 -0.004263746 -0.022429632 -0.010407804
000070 d2 28 6e 3c 5d c3 e9 b9 81 c4 15 bb db 2d 98 bb
       0.0145360995 -0.0004458678 -0.002285272 -0.0046441383

hidden.weight f4 [32, 128]
000000 06 63 4f be e8 29 30 be c8 97 fc 3d 1e df c2 bc
       -0.20252618 -0.17203486 0.123336375 -0.023788031
000010 52 81 86 3e d5 f7 6f be 77 05 b1 3e 42 a7 45 bd
       0.2627054 -0.23434384 0.34574482 -0.048255213
000020 4b 31 e1 3d c6 10 51 3d a7 38 a7 bd 2b 46 c1 3d
       0.1099573 0.051041387 -0.081651025 0.094372116
000030 c7 99 5c bd 52 ec 26 be ec 85 29 3d 17 d1 bf bd
       -0.05385759 -0.16301087 0.041387483 -0.093660526
000040 d6 8e 81 be c0 82 53 be 88 c0 60 3d f3 9b 22 3d
       -0.25304288 -0.20655346 0.054871112 0.039699506
000050 9e 8f 57 3d 16 bf f8 bd 81 64 44 3e 66 6a 39 be
       0.0526272 -0.12145822 0.19178964 -0.18106994
000060 2f b2 bb be 96 8b af 3d 6c 7f 63 be 9d 77 d6 bd
       -0.3665938 0.08571546 -0.22216576 -0.10472033
000070 84 c8 9e 3d 95 2c 86 3e 40 46 7b bd 0c f9 c0 bd
       0.07753089 0.26205888 -0.061346292 -0.09422502
000080 71 c9 17 be 3e 97 29 be e3 37 69 be 7b aa 56 3e
       -0.14822938 -0.165616 -0.22775225 0.2096347
000090 09 b5 c7 bd d3 5d 1f bc f6 5a cb 3c 4a 75 6e 3e
       -0.097513266 -0.009726959 0.024823647 0.2328693
0000a0 93 2d b5 3d 5b b0 30 3c 91 8e ea 3b 8f d7 9f bd
       0.08846583 0.010784234 0.0071581085 -0.078047864
0000b0 ec 32 69 bd f3 db 48 be b8 dc 10 be 7e c4 87 bd
       -0.05693333 -0.19615154 -0.14146698 -0.06629275
0000c0 d2 7e 5f 3e dc 6c 8e be 88 e5 37 3e d6 da a4 be
       0.21825722 -0.27817428 0.17958653 -0.3219821
0000d0 fe 3f 8c be dc 65 b1 bb 55 bb 2f 3e c0 83 3d be
       -0.27392572 -0.005413754 0.17161305 -0.1850729
0000e0 46 25 ff 3d 21 ba 89 bd c3 a8 7c 3d 10 cc 07 bd
       0.12458281 -0.067249544 0.06168438 -0.033153594
0000f0 6a ed 5d be 44 72 05 be cb 75 e9 3d 64 0a 64 3d
       -0.21672598 -0.1303187 0.1139942 0.05567397
000100 76 78 e5 3c 8e e9 2d bd b7 30 4f bd 3e aa fd bd
       0.028011542 -0.042459063 -0.050583567 -0.12385987
000110 6b 43 85 bc 80 50 6a bd 02 ef 0f 3d 80 f8 a0 bd
       -0.016267499 -0.057205677 0.035140045 -0.078598976
000120 21 7d 12 3c 7f 6a ee 3d 8e 41 4e be 0c 27 cb bd
       0.008940966 0.11641406 -0.20142195 -0.09919557
000130 cc c7 96 bd 16 80 97 bd 2e 62 2d 3e 06 37 63 3e
       -0.07362327 -0.07397477 0.16931984 0.22188959
000140 ad 1d 11 be 75 c7 fd 3d 80 af a6 3d 13 0f 17 be
       -0.14171477 0.12391559 0.08138943 -0.14751844
000150 9e 2e 4c be f6 f0 bc 3d c6 75 1d be f5 8e 26 bd
       -0.19939658 0.09225647 -0.15376958 -0.04066368
000160 33 4c 92 3c 16 f5 13 be 94 06 07 3e 29 fd 31 be
       0.0178586 -0.14448962 0.13186103 -0.17381729
000170 71 55 da bd 1a 31 0c 3e 81 22 78 be 69 60 50 3a
       -0.10660828 0.13690606 -0.24231912 0.00079489365
000180 e9 50 30 3e 63 d8 4b be d2 ea 71 3e fc c4 2d 3e
       0.17218365 -0.19906764 0.23624733 0.16969675
000190 e2 e3 07 3d a0 40 ec 3c ac 86 29 3e b3 51 02 3d
       0.03317631 0.02883941 0.1655528 0.031816196
0001a0 65 6a 2d bb aa 07 a0 3e 45 b7 ab bd 5d f3 00 3f
       -0.002646112 0.31255847 -0.08384565 0.5037134
0001b0 29 a2 89 3c f2 26 0c 3d 24 6c 19 3e fc d9 f7 bd
       0.016800957 0.03421683 0.14982659 -0.12102124
0001c0 f0 e1 4f be 16 c5 02 3e 0f c5 74 3d d0 6f 74 39
       -0.20301032 0.12770495 0.059758242 0.00023311307
0001d0 cf ff 77 3d fd 67 6b 3e 50 28 3b bc f7 de 6b 3d
       0.060546692 0.22988887 -0.0114231855 0.057585683
0001e0 fc c6 84 3d 28 b3 a8 bd 60 7e e4 3d 5c 09 8e 3d
       0.06483266 -0.08237296 0.111569166 0.06935379
0001f0 94 22 5b be da 92 12 be 75 33 91 3d 13 de db 3d
       -0.2139991 -0.14313832 0.07089893 0.10735717
000200 92 1b 9b bd 91 80 0c be 67 d1 4b 3e d8 15 bf bd
       -0.07573618 -0.13720919 0.199041 -0.09330338
000210 1b 29 9c 3d c5 82 23 3e d6 c3 28 be cc 3d 77 be
       0.07625028 0.15967853 -0.16480955 -0.24144667
000220 1b 24 e1 3e ce 17 23 be e6 66 95 bd 7f 2a 1d be
       0.4397286 -0.1592705 -0.07295017 -0.15348242
000230 e3 c6 23 3e 28 26 3e bd 64 ae 3f be 0b 3b 98 3c
       0.15993838 -0.046423107 -0.18718868 0.018582841
000240 76 1a 39 bd 11 3b 7d 3e 5c 94 30 be db 0d 62 3d
       -0.04519125 0.24729563 -0.17244095 0.055188995
000250 21 fa 1b 3e da bc 6b 3c 65 d4 47 be 04 2f 31 be
       0.15232135 0.014388287 -0.19514616 -0.17303091
000260 40 4e 8e bd 09 d1 96 3d 72 8c 3f 3d 48 3e d0 3d
       -0.06948519 0.07364089 0.0467648 0.10168129
000270 78 4d c3 bd 3e e6 36 3d b3 c6 fb 3d 4c 8b 1b be
       -0.0953626 0.04465317 0.12293758 -0.15189856
000280 c3 f9 bb bd 8a b7 26 3e cd cc 70 3d 7d 6f 02 3e
       -0.09178498 0.16280952 0.058789063 0.12737842
000290 54 ef d9 bd ec 1c 38 bd 63 01 31 3e 89 20 f7 3d
       -0.10641351 -0.044949457 0.17285685 0.120667525
0002a0 75 e3 33 bd 9a 01 d8 bd c8 7b d4 3d a5 8f 80 3a
       -0.04391809 -0.105471805 0.10375172 0.0009808434
0002b0 78 e1 45 bd 6e b2 97 3c 15 3d 41 be 1c 02 3f 3e
       -0.048310727 0.0185177 -0.18870957 0.18653148
0002c0 9f c6 dd 3c 88 25 88 bd 70 c3 31 be df c3 4a 3c
       0.027072249 -0.066477835 -0.1735971 0.012375801
0002d0 01 04 94 3c ee fc 9c 3e 18 ab 54 be d6 5a f2 bd
       0.018068315 0.3066172 -0.20768392 -0.11833732
0002e0 c0 46 80 3d e9 e1 d7 3d aa 3b e7 be db f9 a1 bd
       0.062634945 0.10541136 -0.45162708 -0.07908984
0002f0 6b 44 c0 bd c3 6a 82 bd 9e 29 8b be 33 69 a1 3d
       -0.0938805 -0.063680194 -0.2718019 0.07881393
000300 3e 9b ea bc 39 40 46 3e e6 2d 7f 3d 14 7c c7 3c
       -0.028638478 0.19360436 0.06229963 0.024351157
000310 78 8c 11 be 8f 32 c7 bd 4f 36 41 bd 81 5f 09 be
       -0.14213741 -0.0972644 -0.047170933 -0.13415338
000320 fe ad 74 3d b3 64 0b 3e 86 fa 12 be c1 1f 95 bd
       0.059736244 0.13612632 -0.1435338 -0.07281447
000330 9d a4 95 3d e1 70 2f bd 59 68 e1 3b d1 02 e4 3d
       0.07306788 -0.04283226 0.0068788943 0.1113335
000340 cf a2 30 be 16 b7 28 bc fc 64 51 3e bf fd 3f 3e
       -0.17249607 -0.010297557 0.20448679 0.1874914
000350 76 47 96 3e 1b bf b8 bd 68 99 85 3c 0c 20 f2 bd
       0.29351395 -0.090208255 0.016308501 -0.11822519
000360 4b e8 04 3e 2d 3f 9f 3d 8e a7 11 be cf 09 a8 3d
       0.12979238 0.07775722 -0.14224073 0.08204996
000370 0c ff 0e be 99 b2 58 3e 0a c7 7e 3e cc f9 c1 bb
       -0.1396448 0.2116188 0.24880615 -0.0059196707
000380 36 34 f4 bd 48 5c ed bc 54 1d 23 be 0b 5d 67 be
       -0.11924021 -0.028974667 -0.15929157 -0.22594087
000390 08 8f 5b be 0b 4a 93 3d 3e 26 c7 bd 3b 63 82 be
       -0.21441281 0.07191857 -0.09724091 -0.25466332
0003a0 b9 81 d6 3d 4f 4a b7 3e df 03 6b bc 97 a2 d3 3d
       0.104739614 0.3579888 -0.014344185 0.10333746
0003b0 47 68 e1 3d 0b 65 93 bc 49 3b dd 3c 57 5a 44 be
       0.110062174 -0.017992517 0.027005808 -0.19175087
0003c0 a6 ad 5b bd d6 23 e2 bd bc 61 e0 bd 76 3f 18 3d
       -0.0536324 -0.110419914 -0.10956141 0.037169896
0003d0 d7 29 57 bb de d4 1a bb dd 9e c7 be 1b c8 b5 be
       -0.0032831335 -0.0023625414 -0.3898839 -0.3550423
0003e0 c9 b9 ea 3d 2c 93 6e bc 2c 17 90 bd 9f 2f bb bb
       0.11461217 -0.014561456 -0.0703567 -0.005712464
0003f0 e6 2d b2 3e 50 e3 03 3e 7a 45 ca 3d 2a e1 4d be
       0.34800643 0.12879682 0.09876533 -0.20105425

hidden.bias f4 [32]
000000 12 7e 59 bc 69 8b 09 3d 3f 56 ec 3b 8c 0a 5e 3c
       -0.013274686 0.033580218 0.00721243 0.013552319
000010 e4 8f d2 bc cd fb ab bc 03 7a 32 3d 75 b1 b5 bb
       -0.025703378 -0.020994091 0.04357339 -0.005544836
000020 ff 88 0d 3d 6e 65 d4 bc 04 84 e4 bb 83 bc 15 3c
       0.034554478 -0.025927272 -0.0069737453 0.009139183
000030 b7 35 f2 bc a1 c8 9c 3d 9b a8 18 3c 0a 11 96 3c
       -0.029566629 0.076554544 0.009317542 0.018318672
000040 fd 6f 5d 3c 02 7c 56 3d de a0 68 3b 0c 73 93 bc
       0.01351547 0.052364357 0.0035496275 -0.017999195
000050 70 0c 14 3d a6 ed 22 bd 4f c3 21 bd bf 6f b8 bc
       0.036144674 -0.03977742 -0.0394929 -0.022514222
000060 bb 4c 91 bb 71 ec 66 bd 51 33 37 3c 08 b7 c0 bc
       -0.004434196 -0.05637783 0.011181668 -0.023524776
000070 25 d2 97 bb cf f0 5f 3d 1f 76 be 3c ac 49 de bc
       -0.0046332055 0.054673012 0.023249684 -0.027134739

mu_layer.weight f4 [2, 32]
000000 18 b6 64 bd fd fc 49 3e aa 9a bb 3e c8 45 bd bd
       -0.05583772 0.19725414 0.36641437 -0.09241825
000010 c6 42 8e 3d ad cd af be f2 c8 bd 3e 50 a0 b0 be
       0.0694633 -0.34336606 0.37067372 -0.3449731
000020 e2 26 af bd 3b 61 24 be 8b 8f b2 3e b0 d0 95 be
       -0.08552338 -0.16052715 0.3487514 -0.29260778
000030 07 6d a2 3e 8a 11 a8 bc 46 8b 0f be 04 04 bc 3d
       0.31723806 -0.020516176 -0.14017972 0.091804534
000040 40 72 8e be a6 a8 fe bd c8 ab 0f 3d 6d e1 a0 3e
       -0.2782154 -0.12434511 0.035075933 0.31421986
000050 52 d7 8c 3e 77 c5 3b be a2 a9 e7 3e be 7d d4 be
       0.27508026 -0.18337046 0.45246607 -0.41502184
000060 e3 ae 71 bc 86 fb a7 3e ac a1 dc 3d 29 99 c8 bc
       -0.014751169 0.32809085 0.10773024 -0.024487095
000070 9a bd 3b 3f 7c 58 bc 3d 5f 05 81 3e 05 bf ed 3e
       0.73336184 0.091965646 0.2519941 0.464348
000080 be e3 54 3f 08 49 44 bd 3c 69 81 3e 2d 52 38 3e
       0.83160007 -0.04792121 0.252756 0.18000098
000090 3f 0e af 3e 52 f4 9e 39 2d a3 be be bb 34 cd 3e
       0.34190556 0.0003031814 -0.37233868 0.40079293
0000a0 51 64 87 be a2 68 92 be a2 65 22 bf 03 22 9c 3e
       -0.26443723 -0.28595454 -0.6343633 0.304947
0000b0 fc fe f0 3d 39 ea 29 3e 48 58 ae be b7 f8 62 be
       0.117673844 0.16593255 -0.34051728 -0.2216519
0000c0 10 79 41 3e 3a c7 df bc 93 b3 f6 3e bc 61 22 be
       0.18893838 -0.027316678 0.4818388 -0.15857595
0000d0 9b 33 98 be 13 ea 8f bd 19 91 7b 3e 2a 07 4b 3e
       -0.29726872 -0.07027068 0.24567069 0.19826952
0000e0 22 df 3a 3e 9b 19 14 be 77 14 61 be ab 04 06 3f
       0.18249181 -0.14462893 -0.21980463 0.5235087
0000f0 83 a5 8c bc bc 57 17 3f a1 bb a3 3e 4b 54 d7 3e
       -0.017168766 0.5911825 0.31979087 0.42056498

mu_layer.bias f4 [2]
000000 f8 97 52 bc fa e6 fa bc
       -0.012853615 -0.030627716

log_std_layer.weight f4 [2, 32]
000000 04 5e 00 be d3 04 b3 be cb a8 30 3d cf 3b 40 3e
       -0.12535864 -0.34964618 0.043129724 0.18772815
000010 80 66 31 3f 12 40 8a 3e 4d 44 b7 3d 89 21 50 3e
       0.6929703 0.27002007 0.08948574 0.20325293
000020 e2 d4 b0 be eb 7c 90 3e 98 65 30 bf 62 a0 e5 3a
       -0.34537417 0.28220305 -0.6890502 0.0017519111
000030 5e 9a 1c be 9a dd bc be fb 2b f3 3e d2 95 1a be
       -0.15293261 -0.3688782 0.47494492 -0.15096214
000040 4f 54 f9 bd de e0 f1 be 85 cf f9 3c d6 89 ad 3e
       -0.12174284 -0.47241873 0.03049446 0.33894223
000050 22 23 94 be 1f 12 06 3e 3d ea 91 3e 76 d7 c3 3d
       -0.28933054 0.1309285 0.28499022 0.0956258
000060 8a 8c 09 bf 69 c2 35 3d da bd d2 3e 87 75 10 3f
       -0.5373007 0.044374857 0.4116047 0.5642933
000070 69 b3 c4 3e 17 6a a8 3e a7 ad be be fb 1d c7 3b
       0.3841813 0.3289344 -0.3724186 0.006076572
000080 ba 90 ee 3d 20 c5 a5 3e 72 0d d6 3e 53 ca 0e bf
       0.11648698 0.32376957 0.41807133 -0.5577747
000090 7c c8 3e 3d ef 69 ad 3d ff 8a 68 3e 1a c9 ab 3e
       0.046577916 0.08467471 0.22709273 0.33551866
0000a0 9b 8b 81 be 33 ff 99 bd 50 2b 0c bd 7d a7 3e 3e
       -0.25301823 -0.075193785 -0.034220994 0.18618579
0000b0 82 70 95 3e 7c 75 47 be 14 93 49 3f 9f f6 67 bd
       0.291874 -0.1947841 0.7874005 -0.05663168
0000c0 68 42 c4 3e 76 e8 6a 3d d1 8e 51 be 0d b0 25 bd
       0.38331914 0.0573506 -0.20464636 -0.0404511
0000d0 55 fa af bb 63 20 45 3e 71 66 ce 3e 10 80 5a 3e
       -0.005370418 0.19250636 0.40312532 0.21337914
0000e0 aa de c6 bc c1 27 88 3e a2 e6 4b bf 21 6f f6 3e
       -0.024276096 0.2659283 -0.7964879 0.4813166
0000f0 0b f3 a5 3e b5 a4 db be 1d 6b d3 be 1f c4 b3 3d
       0.3241199 -0.428991 -0.41292658 0.087776415

log_std_layer.bias f4 [2]
000000 c5 57 95 bd 25 92 59 bd
       -0.07292131 -0.05311789
