train_history/olympics-wrestling/11_29_11_52/actor.pth (torch, 48200 bytes, 14 tensors)

encoder.0.weight f4 [8, 4, 3, 3]
00000000: 668c e1be 9943 123e 6895 473e 7c5e 0ebd
00000010: 4467 07be 5df2 b3be cd01 afbe 0162 143c
00000020: 75d3 123e 37b9 13be 8d31 15bc b467 f13d
00000030: a592 acbe 6515 0bbe 0785 a8bd 102c 6cbd
00000040: eb7f 1cbf d1e6 aebc 8282 f33d e78b 2b3d
00000050: 1776 2fbc 56ba 1fbe 4ac8 8c3e b550 d33e
00000060: d15e a63e 470d d63e 8082 0abe 44b5 fc3d
00000070: 91f3 333e 24d5 53be 8f22 ae3b 83dc 3f3e
00000080: 4870 233e 35fa 29bd cf96 cbbe 1267 4dbe
00000090: 043e ca3d cc55 5ebc 4c8e dbbe 1dc5 b33d
000000a0: 7bfa ca3e 971c 7ebe 8e21 a63d 22ab d5bd
000000b0: 7388 a83e 92cb 0e3f 6f54 6d3d a1d3 5a3e
000000c0: bdb5 0cbd e56c 843d fb37 5a3e 0c1c 01bd
000000d0: ac69 35bd b617 0c3f 810b 053e e209 f0be
000000e0: ff63 a63d 14f3 c53d a88d 913e c4be f33c
000000f0: 01de 0b3e 0100 873e 4b22 c53c 0023 4fbe
00000100: 6ca7 173e cb6d 4ebc c606 843e effc 3abe
00000110: 6434 88bc ad85 76bc ae90 bc3d f7d2 2d3e
00000120: 6cfc 22be 9a62 bb3e eaa1 553e 29c5 bc3e
00000130: 1526 8c3e 7657 263d 6728 e0bd 0b12 8c3e
00000140: 2afa 043d 33d7 f13c 4a6a 1e3d 9f84 28bf
00000150: 8a85 84bd 252b bbbe 1485 a53d ebb2 b0bb
00000160: e2da d63d f271 8c3c 321a ba3d ec76 003f
00000170: 4db3 6fbe 0915 203e fa1e a13e 09b2 86bd
00000180: 3920 033e 6de4 443e 9e67 593e dc3d 02be
00000190: 355c b23d 409a 683e dfeb 23bd 9710 68be
000001a0: b8d4 913d 1723 aa3d c5dc 0c3e fc96 c83e
000001b0: dce8 183e 4ff7 6c3e 3971 a5bd 1150 1a3d
000001c0: 6bf7 d73e 50f7 d73d ddb5 753e b07d 043e
000001d0: 88b5 033d c8e1 cabe dacb 4b3e 71ef ca3d
000001e0: 4d68 8ebe b150 bdbd 4357 bdbe 38a2 773c
000001f0: 5255 f23d 5ace 3a3e 600c 293e e313 893d
00000200: 5b54 373e cb5b 39bf e630 acbe bd21 98bd
00000210: 0073 f3bd 8a9e d03e 22a0 b1bd 4daf be3d
00000220: f60b 45be 64e5 013d 7b36 1cbc 4ccc 9abe
00000230: 33f8 a2be f928 cabd 2e20 07be 83e7 0e3c
00000240: 44a4 753d 18a9 c2bd c974 153e e48b ea3e
00000250: 760f ebbe f372 143e 2db5 4e3e c15d 963d
00000260: d473 e03d 0363 b0bd 7710 503e a064 4f3e
00000270: 7cf1 b5bc edab 5abd 80f4 263c 2185 e63d
00000280: 933b dd3d 9642 0c3d cc65 07bf c87b 013e
00000290: 2fef 243f 8117 f2bd ce98 e93e 522e afbe
000002a0: b499 f13d 0b57 253e fe69 67be 0297 14bd
000002b0: 037c 4c3d b526 09be b968 0fbe 3489 54bb
000002c0: 5c4c 8a3e a379 8bbe 7829 17bd 1a63 9f3d
000002d0: bdd3 b5be b811 5a3e 5460 d6be 61f0 b83d
000002e0: d3b5 a3bd 8a9c 5c3e ccbe 2dbe e778 b63d
000002f0: 837d a0bd 870b 1abe 461a c0bd 0211 8a3c
00000300: 20a6 20be 5447 8dbd b394 cfbd b5ae 02be
00000310: 3661 bd3d ed2a 9c3e e3d7 bc3e 9689 6c3d
00000320: f0b9 1a3e 684e ea3c 101f ab3e 9293 d5be
00000330: 5e37 cebe d4d4 aabe 834d e33e 16eb 9fbd
00000340: 7e25 20be 9ba0 91bc 3a23 983e 7c1c 6e3e
00000350: 6de8 6e3e e4c8 45be 1fd7 98be d84e c1be
00000360: 87b0 2a3d 408e fb3e 5243 1cbe 5dd1 a03e
00000370: aac7 7ebe 2123 b7be 9b42 8b3e d485 75bd
00000380: e84c b9be a068 0fbe 414c 833e 34d9 573e
00000390: c83c 143f 3cae 87be 3d13 b83d a94f fabc
000003a0: 9cae 1d3e 7c53 8cbd 95ec b13d f9ff 74be
000003b0: 4eb2 27be 5cd2 f83d bb06 4b3d ce45 c43d
000003c0: bf04 813e a3a0 c33d 3840 bb3e 2c1e ef3e
000003d0: a270 753d 3d6b e4bc 862a 25bd 702a d13c
000003e0: c873 56be 6d49 613d 0daf 24be 1754 5abe
000003f0: fd53 8a3d ec34 c0be c5b7 603e 99c1 603e
-0.44052428 0.14283599 0.19490588 -0.034758076 -0.13222986 -0.35145846 -0.3418106 0.009056569
0.14338477 -0.14426123 -0.009106052 0.11787358 -0.3370563 -0.1358238 -0.08228498 -0.05765921
-0.6113269 -0.021350296 0.11890127 0.04188147 -0.010709307 -0.15598425 0.27496558 0.41272512
0.32494214 0.41807005 -0.13526344 0.12339261 0.17573382 -0.20686775 0.0053141783 0.18736462
0.159608 -0.04149838 -0.39763495 -0.2005885 0.0987511 -0.01357026 -0.42882 0.08777831
0.39644226 -0.24815594 0.08111869 -0.104330316 0.32916602 0.55779374 0.05794185 0.21369793
-0.034353007 0.064660825 0.21310417 -0.03152089 -0.04429023 0.5472368 0.1299267 -0.4688254
0.081245415 0.09665504 0.28428388 0.02975405 0.13658907 0.2636719 0.024064204 -0.20228195
0.1480996 -0.012599419 0.25786418 -0.18260549 -0.016626544 -0.015046519 0.09207283 0.16975008
-0.15916604 0.36598665 0.20862547 0.3686917 0.27372804 0.040610753 -0.10945206 0.27357516
0.032465138 0.02952156 0.038675584 -0.65827364 -0.06470783 -0.36556354 0.08082023 -0.0053924224
0.10490967 0.017144177 0.090870276 0.5018146 -0.23408242 0.15633024 0.31468946 -0.06576926
0.1280526 0.19227763 0.21230933 -0.1271891 0.08708993 0.22715092 -0.040019866 -0.22662579
0.07120651 0.08307474 0.13756092 0.39177692 0.14932579 0.23141216 -0.08078236 0.037674014
0.42180952 0.10545218 0.23995157 0.12938571 0.032155544 -0.39625382 0.19901982 0.09908951
-0.2781395 -0.09243906 -0.36980638 0.01511436 0.1183268 0.1824278 0.16508627 0.06693246
0.17903273 -0.7240569 -0.33631057 -0.0742831 -0.11887169 0.40745956 -0.08673121 0.0931078
-0.19242844 0.031712905 -0.0095344735 -0.3023399 -0.31829986 -0.09871096 -0.1319587 0.008722189
0.05997111 -0.09504908 0.14595331 0.45809853 -0.45910233 0.14496975 0.201863 0.07342101
0.109595925 -0.08612635 0.20318781 0.20253229 -0.022209875 -0.053386617 0.010190129 0.11255861
0.108023785 0.03424319 -0.52889705 0.12644875 0.64427465 -0.11820889 0.45624393 -0.34215027
0.11796895 0.16146486 -0.22599027 -0.036276825 0.049922954 -0.13393672 -0.14004792 -0.0032430412
0.27011383 -0.2724124 -0.036904782 0.07782574 -0.35513106 0.21295822 -0.41870368 0.09030224
-0.079936646 0.2154409 -0.16967314 0.08909779 -0.078364395 -0.1504346 -0.09380011 0.016853813
-0.15688372 -0.068983704 -0.10135784 -0.12761958 0.09247057 0.305015 0.36883458 0.0577484
0.15109992 0.02860184 0.33422136 -0.4171415 -0.40276617 -0.333655 0.44395074 -0.07808511
-0.15639302 -0.017776778 0.29714376 0.23253053 0.23330851 -0.19314915 -0.29851624 -0.37755466
0.041672256 0.49131966 -0.15260056 0.31409732 -0.24880853 -0.3576899 0.27199253 -0.05994208
-0.36191487 -0.14004755 0.25644115 0.2107895 0.57905245 -0.26500118 0.089880444 -0.030555563
0.1539864 -0.06851861 0.086877026 -0.23925771 -0.16376612 0.12149498 0.049566966 0.09583627
0.25198933 0.095521234 0.36572433 0.46702707 0.05992187 -0.027883166 -0.040323757 0.025532931
-0.20942605 0.055001665 -0.16082402 -0.2132114 0.06754301 -0.37540376 0.21945103 0.21948852

encoder.0.bias f4 [8]
00000000: 7461 a33a 5a96 bfbc 0c23 02bd 199b bcbb
00000010: b164 06bc 6d29 d03a 705e bc3b b827 173b
0.0012464956 -0.023387123 -0.031771705 -0.005755794 -0.008202718 0.0015881486 0.0057485625 0.0023064446

encoder.3.weight f4 [8, 8, 3, 3]
00000000: 984b 973d ceb2 d7be ab54 063c 0321 5d3e
00000010: 5c54 5fbc 4a94 4c3e 764f f9bd 113d 283e
00000020: bc1a 323d c5ad 123d 8500 0bbd c89d 30be
00000030: 6451 dbbd c7cd 713d 7eaf 91be 575a 61bd
00000040: fa96 543e 4245 c6bd a210 123d c3c7 73bc
00000050: 3fd0 98bd 6d01 503e b580 27be bf1c c4bd
00000060: 2625 3a3e 1ab5 c9bd fac2 99be c451 0bbe
00000070: 0165 bcbc 51f7 44be e010 a73d 2e55 613d
00000080: 40bc e03e f231 b6bd ec47 cb3d b820 10be
00000090: e53f f23d 06fc 00be ee97 b9bd 630f a93c
000000a0: 9360 90bd 7f07 bfbe 067f 0cbe 4bd6 c63e
000000b0: 9c1c 3cbe cea1 2b3e 2924 d4bc 706b 6f3d
000000c0: 9191 eebd 48f2 c23e 9c92 60bd 2849 303d
000000d0: 9418 9e3e a49f ab3a acb2 a8bd a85c c53c
000000e0: 2af7 283e 5aed 3c3d 8e5f 3a3e b614 7d3e
000000f0: 94e4 fe3d 8251 36be 53e8 4c3e f28b 063e
00000100: ef32 2f3d f8d2 7b3e 9219 1bbd a6dd 4a3d
00000110: 760c 80bd 6ff7 d23d 7599 b63d 1ea5 b13d
00000120: ef54 8fbe 44f4 80bd 6cc0 903e e443 913b
00000130: 3f7d 1e3c 446e ab3b b48e e23c ae0a 3bbc
00000140: f7fa 34bd 5249 69bd 60f5 74bd c42b a13d
00000150: adc7 8eba b090 7abe 0ce3 4a3e 6dbc 693d
00000160: 867d bb3e 4a36 29bc a870 86bd 88bc b63c
00000170: 0cf0 8c3e b987 2ebe 8811 88bd 7f93 323d
00000180: 1a57 ae3d 52f2 143d f7e7 81bd f17d 163d
00000190: aa48 30bc 55b1 36be 2e4c 073e 1eb8 283d
000001a0: 79e6 2a3d 0b50 babc 61f6 c3be 6898 78bd
000001b0: ae5c 033c 2e02 50be 3d3e 03bd fb23 24bd
000001c0: 8ee4 c73b 02c9 a13e 9c9f 0c3e ce95 ea3e
000001d0: bebb 493e c303 ba3e c400 083e c6af d73e
000001e0: 238b b8bd cef9 20be 5fc0 5fbc 75a7 0fbe
000001f0: 228e 32be ba74 69be 067c 1f3e f711 f63c
00000200: a4fa 073e 4e0d c5bd ec30 043e 75d2 063e
00000210: 27ac 1e3e da3d 3a3e 21ba 50be 0058 123e
00000220: 1272 e1bd 2dbc c1bd 1aa6 723d 8b70 8a3e
00000230: 79ff 01bd b6b1 3d3d 62ce 0abe 9d4e 81be
00000240: 3a40 0bbe 6c51 2d3d 73d4 47bd 9616 d83d
00000250: 270c b0be b792 48be 5e16 ed3c 8f8d 9cbc
00000260: 13ce 7f3c 0ae1 bbbc abc9 523e c853 a63d
00000270: a00f 18be 3661 08be f0b1 0ebc e972 9f3e
00000280: 5099 3cbd 7c48 ddbd 3ebb 213e 57b1 74bd
00000290: adee eb3e 2fec 7ebe e744 8fbe acf7 70be
000002a0: b4c1 153e 31f9 6fbe 42e9 003e 9594 3bbe
000002b0: 6160 a2bd c0f7 013e fad1 8a3e b1f3 a5bc
000002c0: 9250 c73d 5ab7 133e f82e 913e 962b 34be
000002d0: b41d 5bbe 16d7 d63d d7ea 53bd 43fa 9ebd
000002e0: 1cb4 16bd 74ff 76be 850e 1a3e fafb cebd
000002f0: 735f a5bd 102b b5bd ea05 833e e691 1abe
00000300: 5475 8e3d 86ff d1bd 53a1 42be 7cc4 b3bc
00000310: 2ad6 033e ddaf a4bd aa4c 6b3c aab5 82bd
00000320: bc67 583d 0c75 813e 852a 563c 3209 113e
00000330: 3fdc 163e 0e96 243d 0df8 59be ad65 4dbe
00000340: 1623 e43e e075 29be 07aa a63d 6c38 5ebc
00000350: c448 fe3c 608f 303d 72d2 b03c 873a 14be
00000360: 3940 743e 62ef b63c cfea c3bd 81c5 323e
00000370: e374 05bd 8ebb 9a3d c826 143e 922f c63d
00000380: ad28 97bc c927 8d3d 9799 ecbe 8cb1 2cbe
00000390: 9fe3 12be 8864 41be 9431 483c 1e92 96bd
000003a0: e929 203e 8e3e 0f3d 4de6 2abe d4bf a33c
000003b0: 62a8 e3bd ebcc 23be ee96 e4bc 43de 5e3b
000003c0: 775c 2e3e c76f 28bd 5c7c 023e cfbb bfbd
000003d0: 5d60 feba 4c84 a83e 3b85 343e d1ba 2cbe
000003e0: b95a 0cbe ddd7 bdbd 64cc f8bd bf9b af3d
000003f0: bb44 903e 497b ecbd e883 7d3e 4ef6 6dbe
0.07387465 -0.42128605 0.008198897 0.21594624 -0.013630953 0.19978443 -0.12173359 0.16429545
0.043482527 0.03581025 -0.033936042 -0.17247689 -0.107088834 0.059034135 -0.28454202 -0.055017795
0.20760718 -0.09681179 0.035660394 -0.01487917 -0.07461595 0.20313044 -0.16357692 -0.095757954
0.18178234 -0.098489955 -0.30031568 -0.1360541 -0.022997381 -0.19234969 0.081575155 0.055012874
0.43893623 -0.08896245 0.099258274 -0.14074981 0.11828593 -0.1259614 -0.090621814 0.02063722
-0.0704967 -0.37310407 -0.1372033 0.38835368 -0.18370289 0.16760942 -0.025896149 0.05845207
-0.11648858 0.3807547 -0.054827318 0.043038517 0.30878127 0.0013093841 -0.08237204 0.024092034
0.16500536 0.046124794 0.18200514 0.24714932 0.124459416 -0.1780453 0.200105 0.13139322
0.042773183 0.24592197 -0.037866183 0.049527787 -0.06252377 0.103011005 0.08915988 0.08674072
-0.27994487 -0.0629659 0.28271806 0.004433142 0.009673416 0.0052316505 0.027655937 -0.01141612
-0.04418465 -0.05695469 -0.05980432 0.07869676 -0.0010893248 -0.24469256 0.19813174 0.057064462
0.36619204 -0.010327885 -0.06564456 0.022306696 0.2752689 -0.17043962 -0.06643969 0.043597694
0.08512707 0.036363907 -0.06343072 0.0367412 -0.010759512 -0.17841084 0.13212654 0.041191213
0.041723702 -0.022743246 -0.3827391 -0.06069222 0.008017702 -0.20313331 -0.032041777 -0.040073376
0.006100244 0.3159867 0.13732761 0.45817417 0.19700524 0.36330995 0.13281542 0.42126292
-0.09010913 -0.15720293 -0.013656705 -0.14028724 -0.17437032 -0.22798434 0.15574655 0.030037863
0.13279206 -0.09621678 0.12909287 0.1316622 0.15495358 0.18187657 -0.20383503 0.14291382
-0.11008085 -0.0945972 0.059240438 0.27038988 -0.03173778 0.046312056 -0.13555291 -0.2525529
-0.13598719 0.042313978 -0.04878659 0.10551183 -0.34384272 -0.19587217 0.02894133 -0.01911047
0.015613097 -0.022934455 0.20584743 0.08121449 -0.1484971 -0.13318333 -0.008709416 0.31142357
-0.046044648 -0.10804841 0.15794083 -0.059739437 0.46080533 -0.24894784 -0.27982256 -0.2353198
0.14624673 -0.23434903 0.12588981 -0.18318398 -0.07928539 0.12692165 0.27113324 -0.020257803
0.097321644 0.14425412 0.28356147 -0.17594752 -0.2139805 0.10490243 -0.051737633 -0.077625774
-0.03679286 -0.24120885 0.15044601 -0.101066545 -0.08074846 -0.08846104 0.2559045 -0.15094718
0.06955972 -0.10253815 -0.19006853 -0.021944277 0.12874666 -0.08041356 0.01436154 -0.06382306
0.052833304 0.25284612 0.013071661 0.14163664 0.14732455 0.040182166 -0.2128603 -0.20058317
0.44558018 -0.16548872 0.08137899 -0.013563257 0.031040557 0.043105483 0.021584723 -0.14475451
0.23852624 0.022330943 -0.095662706 0.17458154 -0.032582175 0.075553045 0.14467919 0.09677042
-0.018452013 0.06892354 -0.4621093 -0.16864604 -0.14344643 -0.18886006 0.012218852 -0.073520884
0.15640987 0.034971766 -0.16689415 0.019988932 -0.11116101 -0.15996139 -0.027904 0.003400699
0.1702746 -0.041122224 0.12742752 -0.093619935 -0.0019407381 0.32913435 0.17628948 -0.1686814
-0.13706483 -0.09269688 -0.121483594 0.08574628 0.28177437 -0.11546952 0.2475735 -0.23238489

encoder.3.bias f4 [8]
00000000: 3d79 823a a951 82bb 8d90 7ab9 e749 22bb
00000010: d1b3 ef3a 4d24 f0ba 467e 02bc b4ca 49bb
0.0009954345 -0.00397702 -0.00023895707 -0.0024763288 0.0018287842 -0.0018321365 -0.007964676 -0.0030790986

cnn_net.0.weight f4 [16, 8, 3, 3]
00000000: 6105 ec3c 540e 083e da9f 90bd 1156 673e
00000010: b917 9fbe fcae 07bf b4a2 1c3e d9bb 883c
00000020: 47e0 7d3d d6f9 5fbe cb8e da3d 956e bbbd
00000030: 64db 94be fbe7 373e 4667 1a3d 5440 d03d
00000040: a385 a0bc 7835 5ebe d59c 0e3d 2fbd be3c
00000050: 55fc 833e 8a42 b4bd 3c8d 0bbe 24b3 073c
00000060: 9048 5c3e 664e a43d e198 873e e690 5dbe
00000070: 3047 cd3d ddc2 5abd 1376 d0bd dacd e3bc
00000080: 82d5 243d 8700 713d eee0 013e e4ca 8d3e
00000090: b132 bb3d 593f 84be a7e2 813e fba6 0cbe
000000a0: 9b6c aebe 2d25 4a3e 1253 f4bc 3b8a 49bd
000000b0: 9d4a 56bd 8e3a 913d 398b a63d 9c72 6c3e
000000c0: 4706 0439 b001 dfbc 3fcf 273e 6697 6f3e
000000d0: 8d9b 863e f15f 1e3d d818 7a3e 0f7f 39bd
000000e0: 5144 413d 654c 633e 3889 adbd 485d 673d
000000f0: b063 dfbd 1dd5 76bd 1649 2f3c d288 8b3d
00000100: 332b 243d 8882 d53d ae43 493e 43a0 4d3e
00000110: 6676 763e 44bc 5ebe 90af afbc 6082 113e
00000120: 1287 c9bd 52cc 273d 547e 663d f7f8 f2bd
00000130: 7d40 423d 4b8a a1bd 00a6 c93e 570d 513c
00000140: 6709 a43d 026b 813e fe21 b6bb 5f37 41be
00000150: 7b31 193d d51d 2bbc fee2 4f3e 61c4 813c
00000160: 2681 373d 942f 7d3e 68eb 1abe 2c4a 74bd
00000170: c1f9 bf3e 5213 1c3d 5be3 90bc 8538 44be
00000180: f10f 07bc 50bc e7bb e272 d13c 9874 9a3c
00000190: c11f 3fbe 4e6d 2ebe 72c5 b83d 08fa 7abe
000001a0: df42 f03d da5a 013d ba7e 3b3d 95e1 8bbe
000001b0: b61c dfbd 7fed e63d 2cb5 d33d 30a8 1c3e
000001c0: 20a6 0ebe bc4d a23e 9d29 e5bd 4888 9f3d
000001d0: 2486 77bd 4328 063d b784 afbe 8572 5f3c
000001e0: 5801 613d f9d7 ebbd 772f a53d c801 773e
000001f0: 9946 8f3e e0ac cdbe ff00 58be fd5a 05be
00000200: d9aa f83b 0299 26bd 4f27 39be 1e16 8dbe
00000210: 4c41 e53d 5653 1c3d 2408 72bd ba10 d3bd
00000220: 512f 12be d957 593e 7e4a 74be 9b80 613e
00000230: d520 2cbe 9de2 da3d e373 823e 2ce1 68be
00000240: d5ff eb3e 271d 583e 6622 973d 5c15 a0be
00000250: c8e4 d43e 9ade 5c3e e78b 283e ce6e 5abe
00000260: 4870 1fbe 637c 14be a988 20bd 4f82 e6bc
00000270: 246e ccbd 69c4 bbbd 5812 00be 93d0 1a3d
00000280: 1bf2 a63d bb3b 323e 67d1 a43d 3072 913e
00000290: 050f 083e a603 0c3d 2d89 0fbe 8ca0 f63d
000002a0: 8fa3 00bd 21dd 11bd 2465 613d 105f d3bd
000002b0: e67a 8d3d 0d43 023d 21db 833e 3140 c93b
000002c0: 8d44 13be 75de 0d3d 7c25 f13c 4625 113e
000002d0: 2f83 7c3d 77f9 6fbe bfbe 473e 4b55 2f3e
000002e0: bdf3 f13c 76f9 8b3e dade fd3d d1a2 e2bd
000002f0: 53e4 843e 0354 4a3d e83b ff3d f9f9 4d3e
00000300: c4e4 753b 3edf e83d e8fa 233e c561 d23d
00000310: e787 1f3d 9d7c 893e 6be0 d2bd e786 a43d
00000320: 3fd0 4cbd ce3c 11be 4824 96be 6b35 43be
00000330: a19c 833d d2f7 2b3e b78b 08bc 967f 28be
00000340: 579b 443e b236 2ebe 0e55 63be ea8e b6bd
00000350: 8ac3 03bd 7a84 77be e8d9 86be 4f70 b0bd
00000360: da3d a03e 40e7 5abd d4fb 4b3d b6f1 463e
00000370: 1c16 bc3c 07b2 a1be 5c1c 8b3c 4dd7 71be
00000380: 287d 25be a7c4 97bd 99d1 963d fb99 8e3e
00000390: 4f47 6c3e d3c9 fa3c 3380 e83d a8c6 cb3d
000003a0: 6151 373e 4eaf 12be 7972 b63e 0d45 643d
000003b0: f6c2 533e e32b 2e3d 4b6e f7bd 5d4d 143e
000003c0: 4860 b13e dab5 113e 5b6d 6f3e c13d 0bbe
000003d0: d95e f2bd 89ac 31be b92a 933e a7bd f73d
000003e0: f393 a53d 30b4 a03d 5bbe 45be 163b afbd
000003f0: a9db bebd 5820 d53d c3c9 10bd 0e24 cd3d
0.028811159 0.13286716 -0.07061739 0.22591425 -0.31072786 -0.5300138 0.15296441 0.016691135
0.061981466 -0.21872649 0.10671767 -0.09151951 -0.29073632 0.17959587 0.037696145 0.101685196
-0.019594973 -0.21700084 0.034817535 0.02328357 0.25778452 -0.08801754 -0.13628095 0.008282457
0.21512055 0.08022766 0.26483825 -0.21637306 0.100233436 -0.053408492 -0.10178771 -0.027808119
0.04024268 0.058838394 0.1268346 0.27693856 0.09140528 -0.2582958 0.25368235 -0.13735573
-0.34067234 0.19740744 -0.029824767 -0.049204092 -0.05231725 0.070912465 0.08132023 0.23090595
0.0001259084 -0.027222484 0.16387652 0.23397598 0.2629055 0.038665716 0.2442354 -0.04528719
0.047184292 0.22197111 -0.08473438 0.056485444 -0.10907686 -0.060261834 0.010698577 0.06813206
0.04008026 0.104252875 0.19654724 0.20080666 0.24068603 -0.21751505 -0.02144602 0.1420989
-0.09840216 0.04096634 0.05627282 -0.118638925 0.047424782 -0.078877054 0.3938446 0.012759528
0.08009606 0.25276953 -0.0055582514 -0.18868779 0.037400704 -0.010444124 0.20301434 0.015840711
0.0448009 0.24725181 -0.15128863 -0.05964105 0.37495235 0.038104363 -0.017686537 -0.19162185
-0.008243547 -0.007072009 0.025567476 0.018854424 -0.18664457 -0.17033884 0.09022035 -0.24509442
0.11731505 0.031580783 0.045775153 -0.27320543 -0.10894148 0.112757675 0.1033729 0.15298533
-0.13930559 0.31699932 -0.11189578 0.077896655 -0.06043066 0.03275324 -0.3428094 0.013638143
0.054932922 -0.11515803 0.08065694 0.24121773 0.2798355 -0.40170956 -0.2109413 -0.1302299
0.007588726 -0.040673263 -0.18081401 -0.27555937 0.11194095 0.038165413 -0.059089795 -0.10305925
-0.14275862 0.21224917 -0.23856542 0.22021715 -0.168094 0.10687754 0.2547904 -0.22742146
0.46093622 0.2110487 0.07379608 -0.31266296 0.41580796 0.21569291 0.16459619 -0.21331331
-0.15570176 -0.14500575 -0.03919283 -0.028138308 -0.09981945 -0.09168322 -0.12506998 0.037796568
0.08151647 0.17405598 0.08047753 0.2840743 0.1328698 0.034183167 -0.14017172 0.12042341
-0.03140598 -0.035611276 0.055028096 -0.10320866 0.06908207 0.031802226 0.2575312 0.0061416854
-0.14381619 0.03463598 0.02943682 0.14174375 0.061648544 -0.23435007 0.19506358 0.1712238
0.029535169 0.2733876 0.12396021 -0.11066211 0.25955448 0.049396526 0.12462598 0.20114888
0.0037520388 0.11370705 0.16013682 0.10272554 0.038947966 0.26852885 -0.102967106 0.08033543
-0.050003286 -0.14183351 -0.29324555 -0.19063346 0.06426359 0.16793755 -0.008334092 -0.1645492
0.19199882 -0.17013052 -0.22200415 -0.089139774 -0.032168902 -0.2417163 -0.26338124 -0.08615171
0.3129719 -0.053443193 0.04980071 0.19428143 0.022959761 -0.31581137 0.016981296 -0.23617287
-0.16161025 -0.07410555 0.07364196 0.27851853 0.23074077 0.030613815 0.11352577 0.0995
0.17902137 -0.14324686 0.3563421 0.055729914 0.2067984 0.042522322 -0.120815836 0.14482637
0.3464377 0.14229527 0.2338156 -0.13597776 -0.11834497 -0.17350973 0.28743532 0.1209672
0.0808486 0.07846868 -0.19310896 -0.085561916 -0.093192406 0.1040656 -0.035348665 0.100166425

cnn_net.0.bias f4 [16]
00000000: dae4 173a 4a3a df3b 8c8b 7c3c a801 56bb
00000010: 5c19 623b 1c27 9abc 39d0 813b b887 613c
00000020: dcff 1cbc 3705 563b 9290 973c c09f f03b
00000030: 8464 383a 305b e53b 86c1 dfbc 3bba cdbb
0.00057942944 0.0068123685 0.01541413 -0.0032654796 0.0034499979 -0.018817477 0.0039615897 0.013765268
-0.009582486 0.0032656917 0.018501554 0.0073432624 0.0007034021 0.006999396 -0.027313959 -0.006278304

cnn_net.3.weight f4 [32, 16, 3, 3]
00000000: bac1 92be c5b0 293e 24fc 0ebe d38d 053e
00000010: bbb9 82bd 1d01 c4bc 08ee 423e 214a 083e
00000020: f104 c53d e298 69bc ae4f 75bd 0ea7 b43d
00000030: 8039 763d 5450 083d a1f4 773d 62e5 0bbd
00000040: 95fd 27be e9ef d03d 0d2f e8bd e78b 15bd
00000050: 7046 eebc 78c3 153d bcea 583d 5e8a 11be
00000060: 3f94 b0bc 2bef 593c 733e 15be 4fc8 6abd
00000070: 6b80 103d d68b 3e3d 8275 483e 9e67 81bd
00000080: 6763 10be d43e a93d 5d5a a5bd 7594 24bd
00000090: 96be 0cbe ccf0 503e 4754 d23d 769c 59be
000000a0: 9ae0 e33d bf4d 3bbe bbfe e73d f6e1 1cbe
000000b0: 1fed 1d3e 23c4 65bc 809e 1ebd aef6 0bbe
000000c0: e76e bd3d a42f fd3d 68f7 ec3d 79b5 3a3d
000000d0: 584a 98bd 87eb 19be 717d 1dbe 1942 ee3d
000000e0: a997 71bc 18e7 ce3c f21e c23d d159 c03d
000000f0: 6147 22bd f23d c73d 3887 f23c e48f 08be
00000100: bce2 87bd 5987 e43d 268e b6bd 4d51 0dbe
00000110: 46f8 43bc 72fd 19be 5d14 12bc ba61 373d
00000120: 7788 a33d bcc5 86be d871 93bd def1 32bc
00000130: 67b0 42be 32d6 9ebc 80e6 8f3e 7ab4 523c
00000140: b431 99bd 9bd1 50bd 735e c43c 6fad d8bd
00000150: 6942 78bd 9e14 1bbe 7f61 46be ecc5 b6bd
00000160: c056 4c3c afa0 a73d fbfb 63bd 8f1d 38bc
00000170: e8eb 093e b96b a9bd dcd1 0b3d f95f 0e3d
00000180: 2e74 5a3e 7397 eebd 825f d03c af18 18bd
00000190: 53ad 03be 514b 60bd c094 45be 8771 07be
000001a0: d513 323e b854 bebd cacc c1bc 9b8c 3fbe
000001b0: f0e8 d23d 3057 f6bc 7a18 62bd 236d 833c
000001c0: 5bef 95bd 2e39 8e3e 2d84 7ebd efaa 87bc
000001d0: 6bb7 033d 2d1a 513e 358f 9a3d 4ad7 213e
000001e0: 15b2 49be 3bf3 96bd f488 21be a983 ba3d
000001f0: 1877 cd3d 4c15 c23c 7143 83be bbc2 c0bd
00000200: 5dcb 333e 8c47 5c3e fd7d 17be ab3b 103e
00000210: 42e2 083e 7084 e0bd 477c aabc b6f0 64be
00000220: c6da 11bd e944 adbc 4586 aebc 2d5a 22be
00000230: 015d a53c 66c3 d43d 6d40 14be fff5 5fbd
00000240: aefa fd3c dfbb 34be c136 f5bd 17df 913d
00000250: 2a21 493c ea47 4c3d 46f5 ebbd 0d64 60be
00000260: 6eb5 bc3c 41ee 28be 7e48 413d 206e 963d
00000270: 66df 2ebd 7ae1 3abd 021b 0fbd 9a26 ca3d
00000280: f114 d73c 8796 36bc ddd7 0fbc e535 ee3d
00000290: a589 6abe 2f2e 953d 3855 96bc cb5b 013e
000002a0: 6631 eebc 22b1 273d 6b97 0bbc 9900 10be
000002b0: ef2e 2abe dfee 753e dad7 9fbd 3b25 863b
000002c0: 4b7e 9cbc 1539 4cbd f244 833c 0fa5 603d
000002d0: 05ae 3c3e 398d 713e 0ca0 b03d ebac 2abe
000002e0: bb75 ec3d ca65 b43c 32ff 5cbc 1c52 b4bd
000002f0: 54d5 ba3d ab66 263e d5f9 033d b373 c3bc
00000300: 7361 163d 0cd8 1ebd 5e90 7e3d cf72 f63d
00000310: d6df 3e3d 7bb0 603e 11d1 183e 9415 f73c
00000320: 624d 7fbd a989 55bd 06b4 d33d 9913 623e
00000330: cedd 7fbd d5e4 343d d437 3cbe 2772 88be
00000340: d552 a73d 3161 a9be 74c8 543d 8e12 27bd
00000350: 7a83 bebd d6c5 573e c241 23bd f730 19bd
00000360: 8853 90bd 24a4 193d 497a 60be 5fdb 1c3e
00000370: 6f0a f23b cf67 98bd 1d95 0d3e 9da3 283d
00000380: 0c0f 433c 03e8 16bb 16d5 233c 8d77 ad3d
00000390: 34a1 8c3d f63a 6dbb 386e e8bd 2100 f03b
000003a0: 7360 44bd e8b8 893d 7c16 c83c 58e0 23be
000003b0: bd16 7abd 8356 083e 3563 203e 2fd2 723e
000003c0: bfce c0bd 6dd4 64bd 8e9e a8bd 56f8 0e3d
000003d0: 4a77 533e 080a c3bd bb58 7bbd 9615 6abe
000003e0: 77b3 28bb 702c 94bd 0431 8fbd ee4e cabd
000003f0: 4133 963d df12 35bc dc86 2cbe 2203 0c3e
-0.28663427 0.16571338 -0.13963372 0.13042383 -0.063830815 -0.023926312 0.19036114 0.13309528
0.09620083 -0.0142576415 -0.05989044 0.08820926 0.06011343 0.033279732 0.06053603 -0.034154303
-0.16405328 0.10202009 -0.11337099 -0.036510374 -0.029086322 0.036563367 0.052958235 -0.14212939
-0.021555064 0.013301651 -0.14574604 -0.057319935 0.03527872 0.046520077 0.19576076 -0.063185915
-0.14100419 0.08263937 -0.08073876 -0.040180642 -0.13744578 0.20404357 0.10269981 -0.21251091
0.11126824 -0.18291377 0.11327883 -0.15320572 0.15422486 -0.014023813 -0.038725376 -0.1366832
0.092496686 0.12362602 0.115706265 0.045583222 -0.07436055 -0.15031253 -0.15379883 0.11633701
-0.014745631 0.025256678 0.094785586 0.09392131 -0.039618853 0.09728612 0.029605493 -0.1333614
-0.06635043 0.11158628 -0.089138314 -0.13800545 -0.0119610485 -0.15038088 -0.008915988 0.044770934
0.07985013 -0.26322734 -0.07199448 -0.010921923 -0.19012605 -0.019389246 0.28105545 0.012860412
-0.07480183 -0.050981145 0.023970818 -0.10579955 -0.06061021 -0.15144584 -0.1937313 -0.08924469
0.012471855 0.08184945 -0.05566023 -0.011237516 0.13468897 -0.082724996 0.034135684 0.034759495
0.21333382 -0.116499804 0.025436167 -0.037132915 -0.12859087 -0.054759327 -0.19295025 -0.13226901
0.17390378 -0.092935026 -0.023657221 -0.1870598 0.102983356 -0.030070871 -0.055199124 0.016043251
-0.07321044 0.27778 -0.06213777 -0.016561 0.032157343 0.20420142 0.07546846 0.15804783
-0.19696839 -0.07370611 -0.157749 0.091071434 0.10032481 0.023691796 -0.2563739 -0.09412142
0.17558046 0.21511668 -0.14794154 0.14085262 0.1336756 -0.109627604 -0.020811213 -0.22357449
-0.03560903 -0.021151023 -0.02130426 -0.15854712 0.02018595 0.10388832 -0.14477701 -0.05467796
0.031003322 -0.17649792 -0.11973334 0.07122629 0.012275973 0.04987327 -0.115213916 -0.21913166
0.023035731 -0.16497137 0.047188275 0.073452234 -0.042693518 -0.045625187 -0.034937866 0.09870644
0.026255103 -0.011144287 -0.008779493 0.11631373 -0.2290407 0.072841994 -0.018351182 0.12632672
-0.02907629 0.04094041 -0.008519988 -0.14062728 -0.16619466 0.24016903 -0.07804842 0.0040937937
-0.01910319 -0.049859125 0.016024087 0.054844912 0.18425758 0.23589028 0.086242765 -0.16667525
0.11545893 0.022021193 -0.013488578 -0.088047236 0.0912272 0.16250102 0.03222068 -0.02385888
0.03671403 -0.038780257 0.062149398 0.12033617 0.046600185 0.21942322 0.14923503 0.030161656
-0.062329657 -0.052133236 0.10337071 0.22077788 -0.06246739 0.044163544 -0.18380672 -0.2664959
0.08170096 -0.33081964 0.05194898 -0.04078918 -0.09302421 0.21071562 -0.039857633 -0.037400212
-0.07047182 0.037510052 -0.21921648 0.15318058 0.0073864977 -0.07441675 0.13826413 0.04117166
0.011905443 -0.0023026473 0.009999534 0.08470068 0.068666846 -0.0036198474 -0.113491476 0.007324234
-0.047943544 0.06724721 0.024424784 -0.16003549 -0.06105684 0.13314252 0.15662844 0.23712991
-0.09414434 -0.055866648 -0.08233367 0.0349048 0.20650974 -0.09523398 -0.061363917 -0.22859797
-0.0025741735 -0.07235038 -0.06991771 -0.09878336 0.07333995 -0.0110518625 -0.1684832 0.1367307

cnn_net.3.bias f4 [32]
00000000: bfb2 083b 7f4f 31bb 6382 6fbb 3526 5dbb
00000010: b4e5 adba 949a b83b 3c29 b6ba c176 bb3a
00000020: d4d2 69bb 70a5 81bb 9740 87bb c935 e6ba
00000030: d009 ef39 f0ff 8fba cb11 64bb d3ea f33b
00000040: 1d4c e7b8 f45a 23bb 786d 7f3b 7f35 76bb
00000050: 3e61 c1bb 0252 563c 60a5 32bb f89d b2bb
00000060: 7232 debb 1e19 d439 9567 8cbb 031d c739
00000070: c273 7dba 64f1 9f3b ebcd 73bb a7e2 d2bb
0.0020858494 -0.002705544 -0.0036546222 -0.0033744697 -0.0013267309 0.0056336615 -0.0013897787 0.0014302359
-0.0035678642 -0.0039564893 -0.0041275728 -0.0017563637 0.00045592943 -0.001098631 -0.0034800644 0.0074437647
-0.000110291156 -0.0024926038 0.003897516 -0.0037568507 -0.0059014848 0.013081076 -0.0027259216 -0.0054509602
-0.006780916 0.00040454505 -0.004284809 0.00037977853 -0.00096684333 0.004881071 -0.0037201594 -0.0064357105

hidden.weight f4 [32, 128]
00000000: 13eb c8bd 6d25 bebd d7db 34bd 1ca3 7dbd
00000010: 90ba 503e 3c8e 45be 88fc 8f3e 512e 8fbd
00000020: 4834 233e 5b53 223d 1977 2dbd fa23 143e
00000030: 9bdd ea3c bd95 21bd 6db7 343d 416e d4bd
00000040: 2de3 65be a4c8 98bd e87e d93d e0c1 04bd
00000050: bec7 ddbd 13e4 13be 92ea a53d 3c93 d8bd
00000060: 14d0 71be 6bbd 4e3d 7bd8 3cbe e9f2 9ebd
00000070: 5775 923d 82bc 1b3d f0a6 32bd 0ad1 a03b
00000080: 2aa7 26be 179c f9bd 4f32 3dbe 5481 363e
00000090: 34c6 0abe 713d 813d 4952 80bd ca4c 7c3e
000000a0: e358 f23d 81c7 293d b3da 9abc 54ea 90bd
000000b0: d033 2cbd 70a1 8bbe d581 3fbe 55c6 05bd
000000c0: 095c 033e efba cfbd 939f 323e 610a 7cbe
000000d0: 687b 61bd 166e efbc 4da2 f03d b1a2 88bc
000000e0: c089 843d e367 40be 5d50 a9bb f73d 22be
000000f0: 259b fabd bcdb 0ebe 7747 e43d 0952 9e3c
00000100: 3f94 bd3d 091f 3bbd e001 a6bd a5b4 03be
00000110: deb4 edbd 7af8 303d 5585 e8bb a018 0bbc
00000120: 00c7 863d fa1d f13d 88f8 61be 959c fabd
00000130: 2ee3 80bc cc13 e6bd 9424 ef3d 6008 4d3e
00000140: 610b 35bd 45f2 db3d 1ba9 553e 21f2 d9bd
00000150: 13de 77bc 92a9 793d c528 47bd ccc7 373d
00000160: 7e1f c03c 82b5 b63b 93fb 763e e313 4c3e
00000170: 11c6 91bd 9664 e63d 3d21 6abe 205c 05bd
00000180: a3ae e23d fb5c 013c 19a9 f23d 6569 323e
00000190: 3b41 aa3d 091a 333d 72cc 103c 6eeb c03c
000001a0: 8399 a13c 314f a03e 8fe8 9fbd 2249 cc3e
000001b0: 034f 0e3c c520 1b3d 9bf7 a63d 7076 cbbd
000001c0: 3cd5 19be 3404 673d 4bd6 323a c02e 81bc
000001d0: 3e0b aa3c 0106 693e ed10 60bc 35c2 193d
000001e0: 55f8 353e c6b5 28bd fa08 053e 0c55 1f3e
000001f0: 5cd5 efbc d58b a0bd 4bde 1fbc b7db 323d
00000200: 1085 c53c f6f6 e1bd a234 1a3e 09bc 15be
00000210: b9c3 81bc 8387 f93d cb60 47be c52e a3be
00000220: e5cf bb3e 41f8 a0bd 122a 91bc ca03 dcbc
00000230: e1e1 663e 2dbd 963c 66a7 8abd 2a77 baba
00000240: 3e36 59bd 3c3c 823e b2cc 83bd fb49 cc3d
00000250: 7872 d83d bc79 edbd 6916 f5bd 34f1 eebd
00000260: 62d6 c2bd c9fa ac3d a99d 773d c74c e83c
00000270: 395a 3abe 2796 38bd 6b92 c53d 5df8 09be
00000280: 5106 00bd a019 ce3d 9cad 413e 86bf 523d
00000290: 239b e23d 3b3a 33bd d623 a8bd a2ac ca3d
000002a0: 701e debc 77e5 21be 8e53 df3d 6cae 8dbd
000002b0: 70d2 3dbd 9c85 8c3d 6b57 33be c3c3 d23d
000002c0: 8014 893d 6ae7 a63c 28f6 8ebd 5805 883c
000002d0: 4e03 75bd cc72 fd3d c037 a7bd db0f f23d
000002e0: e822 073d 6921 0e3c 1047 55be b043 dfbc
000002f0: 1710 7ebd 1dac bcbd 6d21 97be f460 823b
00000300: ef51 cfbc e7b2 0b3e 3adf 0c3e 8490 c73d
00000310: 380f 54be 08b5 8abd 538e 73bd 5bd3 17bd
00000320: 3409 51bc 3e87 f63d 22dd 3bbd 73aa d6bc
00000330: 2670 a33d 0497 7fbd fd27 a73d 8dd7 103e
00000340: 0aac e1bb 53fd 00bd b340 ef3d b753 d63d
00000350: 29fb 9a3e cbf2 2b3d c7da be3d 8132 15be
00000360: 1de5 8c3d c6ca 063e 5649 353d 1344 d6bc
00000370: 13de 0dbd 1fe7 403e e29b 3e3e fbd7 ac3c
00000380: 54f5 c4bd 7017 0dbd 3d11 8ebd f74b 48be
00000390: 3c62 5dbe 7c28 17bc 9021 28bd 7c74 35be
000003a0: 9031 e93d 8311 633e d94b bebc 0955 8c3d
000003b0: 8e0b c63d c830 96bd 3109 763d d0b7 00bd
000003c0: 5522 57bc 778c c9bd 5c08 04be bc55 d83d
000003d0: 0de9 89bd d2f7 34bd ddea 9ebe fac8 abbe
000003e0: e83d 1b3d e37a fbbd 2435 07bd 1305 983d
000003f0: e4b1 803e ad2b 123e 59eb 93bb 1efe 36be
-0.09810462 -0.09284482 -0.044154968 -0.06192313 0.20383668 -0.1929254 0.28122354 -0.06991256
0.15937912 0.039630275 -0.04234991 0.14466849 0.028670123 -0.039449442 0.04412024 -0.10372592
-0.22449942 -0.07460144 0.106199086 -0.032411456 -0.108291134 -0.14442472 0.08101381 -0.10574958
-0.23614532 0.05047361 -0.18441956 -0.07761175 0.07151287 0.038021572 -0.043616235 0.004907732
-0.16274706 -0.12187975 -0.18476222 0.17822772 -0.13552171 0.06310547 -0.06265695 0.24638668
0.1183336 0.041450027 -0.018903112 -0.070759445 -0.0420416 -0.27271605 -0.1870187 -0.032659847
0.12828077 -0.10143077 0.17443685 -0.24613334 -0.05504933 -0.029227298 0.117497064 -0.01667914
0.06471586 -0.1878963 -0.0051670508 -0.1584395 -0.12236623 -0.1395101 0.11146443 0.019326227
0.09256791 -0.045683894 -0.081058264 -0.12861879 -0.11606763 0.043205716 -0.0070959725 -0.008489758
0.06580925 0.11773296 -0.22067463 -0.12236897 -0.015733328 -0.11234245 0.116768986 0.20022726
-0.044200305 0.107395686 0.2086529 -0.106418855 -0.01512863 0.06095273 -0.048622865 0.044868276
0.023452517 0.0055758366 0.24119405 0.19929461 -0.07117856 0.11249654 -0.22864242 -0.03255856
0.110684656 0.007895703 0.11848659 0.17423017 0.08313223 0.043726 0.008837806 0.023549762
0.01972652 0.31310418 -0.07808029 0.39899546 0.00868583 0.03787305 0.08152696 -0.099346995
-0.15022749 0.056400493 0.0006822093 -0.015769362 0.020757314 0.22756197 -0.01367591 0.037538726
0.17770512 -0.041188978 0.12991706 0.15559787 -0.029276542 -0.07839171 -0.009757589 0.043666568
0.0241113 -0.11033432 0.1505914 -0.14622511 -0.015840398 0.1218405 -0.19470517 -0.3187162
0.36682048 -0.07859851 -0.017720256 -0.026857276 0.22547103 0.018400753 -0.0677021 -0.0014226187
-0.053030245 0.2543658 -0.06435527 0.09975048 0.10568708 -0.115954846 -0.11967165 -0.116670996
-0.095135465 0.08446271 0.06045309 0.028356923 -0.1819848 -0.04506507 0.09647068 -0.1347365
-0.031256024 0.10063481 0.18913883 0.051452182 0.11064746 -0.043756705 -0.0820996 0.09896208
-0.027114123 -0.1581019 0.10904609 -0.06918034 -0.046343267 0.068614215 -0.17513816 0.10291245
0.06693363 0.020374019 -0.06980544 0.01660411 -0.059817605 0.123754114 -0.0816493 0.118194304
0.032992274 0.008674958 -0.2082789 -0.027253956 -0.062027063 -0.092125155 -0.2951769 0.003978843
-0.025307624 0.13642465 0.13757029 0.09744361 -0.2070893 -0.0677281 -0.059461903 -0.0370668
-0.012758542 0.12037514 -0.045865186 -0.026204323 0.07980375 -0.06239988 0.08161924 0.14144726
-0.0068869637 -0.03149159 0.11682262 0.10465186 0.30269745 0.041979592 0.09319072 -0.14570047
0.068796374 0.1316329 0.04425939 -0.026155507 -0.034635615 0.18838166 0.18614152 0.021099081
-0.09617105 -0.03444618 -0.06936882 -0.19560228 -0.21619505 -0.009225961 -0.041047633 -0.17720217
0.113864064 0.22174649 -0.023229526 0.06852157 0.09670173 -0.07333523 0.06006736 -0.031425297
-0.013130744 -0.09841245 -0.12893814 0.105632275 -0.06733904 -0.044181652 -0.3103856 -0.3355177
0.037900835 -0.12279298 -0.033009663 0.07422843 0.2513572 0.14274473 -0.0045141396 -0.17870376

hidden.bias f4 [32]
00000000: e553 e23a cb2e 4abc 0000 0000 75a0 a5ba
00000010: 7045 333b 1567 0b3b 0000 0000 a113 dabb
00000020: 0000 0000 9d61 af3a 9102 99bb 9471 a9bb
00000030: 6faf b6b9 f360 40bb 8e53 cebb b332 b9ba
00000040: 4a8f 6e3b d6a8 4d3b 75d8 fdbb 8c1b 41bb
00000050: 85b0 afbb 4f72 5e3b aec0 b1ba 5e85 453b
00000060: 0000 0000 95ad 9fba 3a54 f53b c24a 58bb
00000070: bf9a a1bb 0000 0000 0000 0000 0626 bdb8
0.0017267434 -0.012340258 0.0 -0.0012636321 0.002735462 0.0021271158 0.0 -0.006655172
0.0 0.0013380531 -0.0046694954 -0.0051710103 -0.00034844453 -0.0029354661 -0.0062965816 -0.001412949
0.0036401325 0.0031381152 -0.007746751 -0.0029465882 -0.005361619 0.0033942645 -0.0013561451 0.0030139307
0.0 -0.0012182469 0.007486847 -0.0033003544 -0.0049317773 0.0 0.0 -9.019305e-05

mu_layer.weight f4 [2, 32]
00000000: 18b1 ebbc 0cab 253e 2046 c53e 7b8a cabd
00000010: 4815 e93d 60bb c3be 3a89 8f3e 87b4 efbe
00000020: 5686 b1bd 2889 35be c14e 6b3e 9978 e9bd
00000030: 0b6a ac3e 8974 70bd f1b1 00be 6b3f 1e3d
00000040: 5a76 89be 37e8 07be cea8 2d3d a976 623e
00000050: bb83 823e b6bf 13be 6639 d93e affb 60be
00000060: 2027 413a 6f0d 8d3e e941 ac3d f634 1bbd
00000070: c62c 243f 7332 bc3c 69ac a63d a0e3 c33e
00000080: 5f59 273f 9a0a 063d c70a 853d f8d4 d33d
00000090: 9926 523e 7d27 29bc 2cf3 6ebe 1d6d 823e
000000a0: c909 86be 9fcc 91be f34c 76be 778f 0b3d
000000b0: fad3 ad3d a61c ef3d 4ce5 8dbe 0ed9 0bbe
000000c0: b1a2 d53d 03d1 1bbd e9e2 c13e 1f5d 03be
000000d0: 8651 a4be 9345 03bd e33b 653e 69c4 0b3e
000000e0: 133a 333e e5a2 b0bd a907 cdbc 42f8 0a3f
000000f0: 659f 923d 46fe ff3e 598d f03d 2d63 963e
-0.028770968 0.1617853 0.38530064 -0.09889694 0.11381012 -0.38228893 0.28034383 -0.4681742
-0.08668201 -0.17728102 0.22979261 -0.11399955 0.33674654 -0.058704887 -0.1256788 0.0386347
-0.26848108 -0.13272177 0.042397313 0.22115578 0.25491127 -0.144286 0.42426604 -0.2197101
0.0007368196 0.27549312 0.08411009 -0.037892304 0.6413082 0.022973275 0.081383534 0.38259602
0.65370744 0.032724954 0.06496196 0.10343355 0.20522536 -0.010324356 -0.2333495 0.25473872
-0.2617934 -0.28476426 -0.24052791 0.034072366 0.08487697 0.11675386 -0.27714002 -0.13657019
0.104314215 -0.038041126 0.3786843 -0.12828492 -0.32093447 -0.032048773 0.22386126 0.13649143
0.17502622 -0.0862482 -0.025028067 0.5428506 0.07159308 0.49998683 0.1174571 0.2937254

mu_layer.bias f4 [2]
00000000: 225f 08bb 8bc5 01bd
-0.0020808657 -0.031682532

log_std_layer.weight f4 [2, 32]
00000000: 50b7 27be b3a2 52be f381 60bc d7b8 6f3e
00000010: bf66 963e f8ff 6d3e 2ec7 803d 22ee 803e
00000020: f3eb 98be 4946 b23e 3953 09bf 0df2 2cbd
00000030: a29e 3abe cfc0 8dbe 0eca 973e 3d47 4abd
00000040: aefc 92bc 3fbb d8be 0011 8c3d 3652 a53e
00000050: b370 8ebe 302a 8d3d 5e1b 423e 2fb9 653c
00000060: 0f31 00bf ae7b 223d 2908 093e 46b9 c63e
00000070: b32c 773e ed34 333e 851d 2cbe 11b4 abba
00000080: 9801 1a3e 8275 5f3e fc00 9e3e 98c2 0dbf
00000090: 36d1 1bbe 40d1 103c 453b 9e3c a814 8d3e
000000a0: 7f68 06be 3875 4fbd 9f87 b9bd a702 213e
000000b0: 9718 d93e 71c4 28bd 67b7 163f 604c 6b3d
000000c0: df17 713e 5290 ef3d def7 6abe 3a00 9abd
000000d0: 21c9 053e 50b0 cf3d 62df 2d3e 306b d33d
000000e0: 0f8b 68bc d09d 113e f256 1cbf 3c0a b53e
000000f0: 296b 533e be7c a1be 9abb 55be 1986 1a3e
-0.16378522 -0.20569877 -0.013702857 0.23410355 0.29375264 0.23242176 0.062879905 0.2518168
-0.29867515 0.34819248 -0.5364261 -0.042223025 -0.18224576 -0.27686164 0.29646343 -0.049384344
-0.017942753 -0.42330357 0.0683918 0.32289284 -0.27820358 0.06892812 0.18955752 0.014021202
-0.5007486 0.03966873 0.13382019 0.38813227 0.24138145 0.17500658 -0.16808136 -0.0013099929
0.1503967 0.2182217 0.30860126 -0.5537505 -0.15216526 0.008838952 0.019315371 0.27554822
-0.131258 -0.050648898 -0.09059071 0.15723668 0.42401573 -0.041202966 0.588736 0.057445884
0.23544262 0.11697449 -0.22946116 -0.075195745 0.13065006 0.10141051 0.16979745 0.10323179
-0.01419331 0.14220357 -0.6107017 0.3535937 0.20646347 -0.31540483 -0.20872346 0.15090217

log_std_layer.bias f4 [2]
00000000: 4c15 5c3a a3e1 b63b
0.00083955075 0.005581097
