train_history/olympics-wrestling/11_29_11_52/critic.pth (torch, 47330 bytes, 11 tensors)

encoder.0.weight f4 [8, 4, 3, 3]
00000000: f030 813d c60c 193c 560c e43d 0710 60bd
00000010: 6d37 00bf 41fd a6be 9e0e 0dbf 683b c8be
00000020: 38e9 e3be 1b63 253d b23f 76be 8c60 1f3f
00000030: a96b 6f3d 744c 0d3e 5b9b 62bf 021d 4dbe
00000040: efdb 8fbe 38f3 5abe b1b5 20bf dddc 05bf
00000050: b067 5f3f fe27 92be 6b3d c13e 12c0 2ebf
00000060: 0814 323d 4560 e33d bd75 03bf 70f7 b4bc
00000070: efbf e63e 53ca 173f f480 84be 4b38 6b3f
00000080: 1b5e 483f 1914 27bd 73bc 16bf 36c6 143d
00000090: aed3 f13e 36f8 f73d 08f1 f63e 2b84 0e3f
000000a0: 458d 5abe 6ef0 17bf 3ce9 e03c 4609 96be
000000b0: 4bf6 e33e 7f57 013f b668 973e b5e9 dd3d
000000c0: 98a9 f33e 6bc7 8c3e d947 ef3d 1fea 1f3e
000000d0: 7f85 453e 3088 013e 9621 bcbc 0cbe 893e
000000e0: e9a9 5f3e 2d82 ff3d e607 b93e 46a7 f83e
000000f0: b871 42be 0478 983e 6488 ef3e 39dc 883e
00000100: 421d 42ba e070 11bf cc00 58be fb90 3b3e
00000110: e7ad aa3e d922 8c3e 5887 843f fb5f 683f
00000120: 791e 59bb b529 d0bc 146a e1bc a02c a63d
00000130: a2fc 713d 64a1 e8bd e515 09bc bd71 4ebe
00000140: 961b 0e3e a8eb ed3d 0bde 2b3c 8114 1dbd
00000150: 187f 1a3e c312 a8be 80b7 95bd c1f3 adbe
00000160: f39d cc3e a5aa 103e a357 f6bd 2a77 98be
00000170: dec1 b03e 785c a8bd 42c2 e13d 684f 543e
00000180: e759 1fbf 5215 c3be 87b8 babe fa79 843d
00000190: 0d28 83be 1a0b ffbd c246 c7bd d89a 3ebe
000001a0: e7c4 50bf 833c c8be 1629 f5bd c8ac e6be
000001b0: f7b9 273f c110 023f 883c 80bf 020d a03e
000001c0: 0d8e 30be 73a5 173f 0b8a 133f e446 013f
000001d0: 57f0 a73e ece9 973e 9301 423f c7b6 083f
000001e0: d170 ef3d 9365 063f 79de 13bf 4e7e c03e
000001f0: ca43 273e 1197 8abe 24f3 323e cdfc 0fbd
00000200: 08cd 2f3f 0111 c13e 1826 8e3e 3657 803e
00000210: 31fa f13d 920b ff3d 3b66 5b3e d47e 003f
00000220: fb37 b93c 4b51 a7be 052f 093f 3535 253e
00000230: ffa7 1fbe a84b 17be 6a95 06bf 1f7b c4be
00000240: 5858 b0bc 075b cfbd c0cd 3e3e a815 a33c
00000250: 49a5 cbbd 0e35 0cbc 5a4d 1e3c b23f 843c
00000260: a84d a43d cd6f 05bf cc93 e6be 336b 273f
00000270: 7a92 88be 7784 313d 5aeb 94bd 6df5 adbe
00000280: db67 c73d fcfc c5be cdad febd 21c2 7c3d
00000290: dcb4 30bd 12b1 b5bf 73af 64be d7cc 893e
000002a0: 1865 02bf 6bd2 99be 8cd3 a63e 0eb6 86be
000002b0: 3b92 223d 7311 173f 097d 713d 2564 92be
000002c0: 03f6 dfbc 7b07 31be eb4a 55bd ec5e 4dbe
000002d0: 1daf fbbe 39c5 0e3f 8db3 443e 8056 943e
000002e0: fa74 5d3f 6a3f e83e c9ec f83d d029 b23d
000002f0: c7f7 583e 9bfe d6be 7429 dd3d de35 163f
00000300: 3270 073e 359b 933e c986 ac3e 2af3 18bf
00000310: 028a 0b3f 11ac 9e3e ccbb 32bf 6c40 823e
00000320: f8f6 e9be 59fc 30bd e755 c63e 6618 0f3f
00000330: 080f 03bf 6362 803e 3f50 493f 2e97 ba3c
00000340: 8ac6 06be 9406 64be 2ac2 803f d3c8 363f
00000350: 2c47 c53e c40b e4be 78cf b43e 40fe 943f
00000360: 68df b33e 8c10 153f 4aa7 393f 3058 b53e
00000370: 1023 053c 74db 513e 8c0e 43be cddf f6bd
00000380: b643 2dbe 693e 0fbe f556 0a3f 3a44 ac3d
00000390: 5c5b 193f 89ae 6e3f 4b70 7e3e cbd4 973e
000003a0: 25cb 0bbf 7f52 48bd 8c1a a53e 90a0 66bf
000003b0: 3015 fdbd 94c5 6e3e e5da 3f3f 3049 6c3f
000003c0: b815 983e d931 9c3f bae9 fa3d b7c0 88be
000003d0: 864e 25bf 7f1b edbd bca4 95be be01 6fbe
000003e0: d4fb 49be 4d81 9dbd 6d04 23bd 3a22 bcbe
000003f0: e261 75bd daf3 8bbe 1ce8 2bbe 9c09 99bd
0.06308162 0.009341424 0.111351654 -0.054702785 -0.50084573 -0.32615092 -0.5510043 -0.39107823
-0.4451387 0.040377717 -0.24047735 0.62256694 0.058452282 0.13798696 -0.88518304 -0.20030597
-0.28097484 -0.21381843 -0.6277724 -0.52290136 0.8726759 -0.28546137 0.3774217 -0.68261826
0.043476135 0.11102346 -0.5135153 -0.022090644 0.4506831 0.592931 -0.25879633 0.9188277
0.78268594 -0.04079065 -0.588813 0.03632184 0.4723181 0.12107889 0.48230767 0.5567042
-0.21342953 -0.5935124 0.027454965 -0.2930395 0.44523844 0.50524133 0.29572076 0.10835592
0.47590327 0.27495894 0.11683626 0.15616654 0.19289206 0.12649608 -0.022965234 0.26902807
0.2184216 0.12476001 0.3613884 0.4856512 -0.18988693 0.29779065 0.46783745 0.26730517
-0.00074048724 -0.5681286 -0.21094054 0.18317024 0.33335802 0.27370337 1.0353804 0.90771455
-0.0033129735 -0.025410512 -0.027516402 0.0811398 0.05907882 -0.11358908 -0.0083670365 -0.20160575
0.1387771 0.116172135 0.010489951 -0.038349632 0.15087545 -0.32826814 -0.073103905 -0.33975032
0.39964256 0.14127596 -0.12028434 -0.29778415 0.3452291 -0.08220762 0.1102338 0.20733416
-0.62246555 -0.38102204 -0.36468908 0.06468578 -0.25616494 -0.12453289 -0.09730293 -0.18613756
-0.8155045 -0.39108667 -0.11970727 -0.45053697 0.65518135 0.50806814 -1.0018473 0.31259924
-0.17241688 0.5923683 0.5763251 0.50498796 0.32800552 0.29670656 0.7578365 0.53403896
0.1169144 0.5249874 -0.5776134 0.37596363 0.16334453 -0.2706838 0.17475563 -0.0351532
0.6867223 0.37708285 0.27763438 0.25066537 0.11815298 0.12453379 0.21425717 0.50193524
0.022609701 -0.3267921 0.5358737 0.16133578 -0.15591429 -0.14774954 -0.5257174 -0.38375184
-0.0215265 -0.10124784 0.18633175 0.019907787 -0.09943635 -0.008557571 0.009661997 0.016143654
0.08022624 -0.5212372 -0.45034635 0.6539795 -0.26674253 0.04333922 -0.07271452 -0.33976308
0.09736606 -0.38669574 -0.124354936 0.061708573 -0.04314123 -1.4194663 -0.22332554 0.26914093
-0.50935507 -0.3004335 0.32583272 -0.26310772 0.039690237 0.59011 0.058957133 -0.2859203
-0.027338987 -0.1728801 -0.0520734 -0.20055741 -0.49157038 0.5576969 0.19209118 0.28972244
0.8650662 0.4536088 0.12154538 0.08699381 0.2118827 -0.41991124 0.10798922 0.58675945
0.13226393 0.2882935 0.33696583 -0.5974604 0.5450746 0.3099065 -0.69817805 0.25439775
-0.45696235 -0.043209407 0.38737413 0.55896604 -0.5119481 0.25075063 0.7863807 0.022777166
-0.13161674 -0.22268134 1.0059254 0.71400183 0.38530862 -0.44540226 0.35314536 1.1640091
0.35131383 0.58228374 0.7252089 0.35418844 0.008126035 0.20493871 -0.19048518 -0.12054405
-0.16920361 -0.13988651 0.54038936 0.08411451 0.5990503 0.9323507 0.24847524 0.29654536
-0.5460685 -0.0489068 0.32246816 -0.9008875 -0.12357557 0.23317558 0.7494338 0.92299175
0.2970407 1.2202712 0.12251611 -0.2670953 -0.6457294 -0.1157751 -0.29227245 -0.23340508
-0.19724971 -0.07690678 -0.039799143 -0.36744863 -0.0599078 -0.2733448 -0.16787761 -0.07472536

encoder.0.bias f4 [8]
00000000: c73c a23b 3270 333e fcb5 923d 3b9d 2a3e
00000010: 32f4 e539 556b 453b de11 ad3e 8d45 7f3a
0.004951093 0.17523268 0.07163617 0.16661541 0.00043860223 0.003012379 0.33802694 0.0009737842

encoder.3.weight f4 [8, 8, 3, 3]
00000000: ec8a 243e c6ae b93d 49c9 c53c 689f c4bd
00000010: e6c1 813d 721b e43e 346f 5d3e a4e7 0ebd
00000020: a41b a33d 1682 aa3d c4cb 833d e658 c1bd
00000030: 555a afbc 2884 c73d 1b4f c43e 5299 a33d
00000040: 79df 9b3e ee74 1b3f d3bf 5ebe a5d1 dabd
00000050: 2118 933e 367d 38bf 116d ac3d 594c d33e
00000060: 706d 5bbe 7cef 60be 82cd f1bb b5f6 0f3d
00000070: 243c 4dbe 926e 6e3e 16bc d93d ba7e 91bd
00000080: 6aa5 0b3f 7e5d c73e 61dc 4f3e 35d7 d73e
00000090: f5fd 4dbe 6d06 86be 2839 f6bd 4044 76be
000000a0: 5c0c 123e 73b6 093e d6ab 52be 86b9 28be
000000b0: dab9 a9be b0e5 e23d d6d3 4b3d 0633 553e
000000c0: 29d0 f7bd 101e 5c3e d226 213e 4d77 5e3e
000000d0: da4b 8c3e 9f04 923d f4e7 a9be dd50 49bd
000000e0: fc95 843e 2ea7 00bf 3f40 e63e 1bb8 5e3e
000000f0: ef22 f8bc 098a 5a3e bdd0 c43e 2e52 10be
00000100: beba 623d 7bbb 0cbe 1b7e 15be bfdc e6bc
00000110: 7e8a 093e 937d ebbd 7592 dfbc eb4d 0bbe
00000120: 610c 373f 61d1 333f fad5 7b3f 23f4 603e
00000130: 90fe 3a3f 014a 3e3f 50be f63d 9122 c83e
00000140: 10a3 1a3f dda7 793e e5ad cf3e f9db b53e
00000150: e140 343f c81f d33e 0c78 ca3e 0b36 b73d
00000160: 7572 393e ddf3 d13e 0211 e83e 85f8 fc3d
00000170: 1c3a 76be 89c5 943e 3ba4 08be be02 843e
00000180: 726e 0bbe a358 0dbe 9899 853d 542f c7bc
00000190: 42c5 263a 9a99 bc3d e8e0 c83d bc13 30bd
000001a0: ccbf d4be ed88 acbe e2cc 13be f9d9 17bf
000001b0: 7234 683e 2224 213c 47ee 023e 978c 833e
000001c0: 41e6 0abe e550 54bd 171a d53d fffd 8a3d
000001d0: 30d6 1b3d e646 1f3f 5b68 b03e 9986 cc3e
000001e0: 174e 0a3f 1785 f43e 4e27 d43e 16a9 6bbe
000001f0: 0c85 053d 5b66 0c3f 63d5 893e 0dd1 633e
00000200: 8840 3b3d 9d31 af3d 1069 e03e d00c cd3e
00000210: 6da1 06bc e04f 54be 5828 83bc d385 293e
00000220: c2d9 bd3e 8a8b 7e3d 04b5 03be ba71 1e3d
00000230: 2f3e f73d 2854 ad3d 78e9 c23b a853 d3bc
00000240: 50bb de3e 4b28 87bd 9132 b73e c2da 6e3e
00000250: ac62 a43e ad27 bc3e f474 6e3e 3b27 63be
00000260: 413b 9c3d a48e e03e 0081 353e 4d48 983e
00000270: d46d fb3a 4bde 953e 2ed9 153f e0c6 703e
00000280: d869 2e3e e462 443e fb3e a63d a98d 19be
00000290: cfa8 af3c ac65 70be 6221 c6be bcf1 f23d
000002a0: b23e 3a3d 6c9a dbbd ce78 95be 632d 763e
000002b0: 0197 293e d744 b23c b97c b03d 385c 16be
000002c0: fa9c c1bd 00bb d2bd f54a 98be 6a6b 44be
000002d0: 3b10 0e3c 0af0 a13e 04c2 153f 8301 ba3d
000002e0: bbb6 ae3e 9efc 043f ca7d bb3e c32b a73e
000002f0: 5602 003c f531 e53e ea3c 1a3e dc22 0f3f
00000300: ef18 fe3e ee89 e33e a671 aa3e 17d6 7f3e
00000310: f8fc 463e 6d6e c63e 32fa 363e d6af a33d
00000320: 9323 eb3c 39f6 6f3e 9085 093d 5ffc 5e3e
00000330: 9bd9 7e3d 3dd6 6d3e 4357 de3e f122 da3d
00000340: 5539 abbd ae06 ba3e 0d84 0d3d fd1c fd3c
00000350: b92e cb3d 3b1d cfbd 90d6 cb3d cc7a 643e
00000360: fbd4 b83e b33c 083f 2941 ce3e 89a9 de3d
00000370: df0e c63d ff33 fe3e 5617 4f3e 92f8 bc3e
00000380: 1f7b c43e 2713 023e 6977 27be 3dc6 bc3d
00000390: 73e0 39bd 2fd9 6c3e c052 4e3e d68d 59be
000003a0: 14de 87be 2f69 d93e bf44 10be 78b8 003d
000003b0: 1093 843e be7b 7e3e e83b f6bd ca56 82be
000003c0: d6d4 84bd 435a 7d3d ba3b dd3d 1ae9 2cbe
000003d0: 2cec 22be f101 2abe 4490 a4be 4ec2 84be
000003e0: 14b4 d4be 1c2d e0be 20ef 113e f820 95be
000003f0: 6c69 7b3e bcbd 993d 9727 acbd 2fb1 e83d
0.1606862 0.090665385 0.024143832 -0.09600717 0.06335811 0.4455219 0.21624452 -0.03488888
0.079642564 0.08325593 0.064353496 -0.09440784 -0.021405378 0.09742004 0.38341603 0.07988228
0.30443934 0.60725296 -0.21752863 -0.10684518 0.28729346 -0.72066057 0.0841924 0.41269186
-0.21428466 -0.21966356 -0.007379235 0.035147388 -0.20042473 0.23284367 0.10631578 -0.07104249
0.54549277 0.38938516 0.20298912 0.42156377 -0.20116408 -0.26176777 -0.120226204 -0.24049473
0.14262527 0.13448505 -0.20573363 -0.16477022 -0.33149606 0.11078966 0.04976257 0.20820245
-0.1210025 0.21495843 0.15737465 0.21725197 0.2740162 0.07129788 -0.3318478 -0.049149383
0.2589568 -0.50255096 0.4497089 0.21749918 -0.030290095 0.21341719 0.38440505 -0.14093849
0.055353872 -0.13743393 -0.14598887 -0.028181432 0.13431737 -0.11498561 -0.027291516 -0.13603942
0.71503264 0.7024136 0.9837338 0.21968131 0.7304468 0.7433167 0.12048018 0.39088872
0.60405064 0.24380441 0.40562358 0.35519388 0.704115 0.41235185 0.39544713 0.08945855
0.18110068 0.41006365 0.45325476 0.12352089 -0.24045604 0.29056957 -0.13343899 0.25783342
-0.1361635 -0.13803343 0.06523436 -0.02431456 0.0006361791 0.09208985 0.098085225 -0.04298757
-0.4155258 -0.33698216 -0.14433625 -0.59316975 0.22676256 0.009835275 0.12786208 0.256932
-0.13564397 -0.05183496 0.10405367 0.06786727 0.038046062 0.6221756 0.34454617 0.3994644
0.54025406 0.4775779 0.41436237 -0.2301372 0.032597587 0.5484368 0.26920614 0.22247715
0.04571584 0.08554385 0.43830156 0.40048838 -0.008217198 -0.20733595 -0.016010448 0.16554956
0.370802 0.062144794 -0.1286202 0.038682677 0.120724075 0.08463317 0.005948242 -0.025796726
0.43502283 -0.06599482 0.35780767 0.23325637 0.3210653 0.3674902 0.23286802 -0.22182934
0.07628489 0.43858826 0.17724991 0.2974266 0.0019182512 0.2927116 0.58534515 0.23513365
0.17032564 0.19178349 0.08117481 -0.14995445 0.021442799 -0.23476285 -0.38697344 0.118625134
0.045469947 -0.10722813 -0.2919373 0.24040751 0.1656151 0.021761341 0.08617539 -0.14683616
-0.09453769 -0.10289574 -0.29744688 -0.191816 0.008670862 0.31628448 0.5849917 0.090823196
0.34123787 0.51947963 0.36619407 0.32650575 0.007813057 0.44764677 0.150623 0.55912566
0.49628398 0.4444117 0.33289832 0.24984013 0.19432437 0.38756123 0.1786888 0.079925224
0.028703487 0.2343377 0.03357464 0.2177596 0.062219243 0.23226257 0.4342595 0.10651196
-0.083605446 0.3633322 0.03454976 0.030897612 0.09921021 -0.10112997 0.09953034 0.22312468
0.3609999 0.5321762 0.40284088 0.1087218 0.09670805 0.49649045 0.20223746 0.36908394
0.38375184 0.12702619 -0.16354145 0.092174985 -0.045380067 0.23129724 0.20148754 -0.21245512
-0.2653662 0.4246306 -0.14088725 0.031425923 0.2589345 0.24851891 -0.12023145 -0.2545684
-0.06485908 0.06185366 0.108024076 -0.16885796 -0.15910405 -0.16602303 -0.32141316 -0.25929493
-0.4154364 -0.43784416 0.14251375 -0.29126716 0.24551934 0.07506892 -0.08405989 0.1136192

encoder.3.bias f4 [8]
00000000: 998b 9a3e ed25 753d 122d 45bc 7317 07bd
00000010: 1ff0 8d3e 605c 83be 9bc1 4fbd 09a2 033d
0.3018463 0.059850622 -0.012034671 -0.032981347 0.2772226 -0.25656414 -0.050721746 0.03213695

cnn_net.0.weight f4 [16, 8, 3, 3]
00000000: 958e 1abe 14c0 c3bd 48f2 d73d 8b2e d73d
00000010: 3cf5 a8bc 8441 ca3e 73f8 e8bd 3877 16bf
00000020: 7964 26be 6359 333d f3e7 403e 1e09 acbd
00000030: 7201 8bbe 8618 8b3d 4ebe a13e 559d 863d
00000040: 6046 e7bc 77bc bf3e 5886 b4bd 646e 4f3e
00000050: bf4c c93e 4580 d53d c0c6 593e 5554 6a3e
00000060: 87a7 88bd a081 0fbe 516e cb3d 9096 9bbc
00000070: 9c2e 163f 4708 fd3e 9646 a1bc b934 91be
00000080: dcca 153d 14bc f23d 83b1 b73e 1d43 693d
00000090: b104 d9be 8cb5 84be a5ca 96be 082e 15be
000000a0: cab1 b73d 67ea 92bd 79cd e9bc c75c 023e
000000b0: fcf8 633e c552 233e 467f 103f 1bb0 a13e
000000c0: 30f5 233e 6836 753e 469d e73d b056 9c3d
000000d0: b298 5a3e 8257 ee3e f15f a33e 5661 a83d
000000e0: 5ee2 8e3e 6f7d 6abe 5843 86bd e336 503e
000000f0: 21d0 023e bcd2 4fbd 2871 a03e 1b7a ef3d
00000100: 6084 723d f92b 8e3d 2a3b 2f3e 6fe1 48bd
00000110: bd50 823e 5053 cd3c e082 08be a6a1 ebbd
00000120: 27b3 bebe f8e4 be3c 9225 333d 1519 febd
00000130: 73c0 0b3f 759d 813e ed11 cbbe 794f 8ebe
00000140: 08f1 9c3e 5cea bcbe d7f4 9a3e 6921 5f3e
00000150: a11c a83d a69e 213e 302b 013f 2544 0fbd
00000160: 7a3a 85be e7d3 063d 5942 1ebe b349 933e
00000170: 10fc d93e 90b8 10be 3d14 86bd f2f8 b03d
00000180: 8921 343e 5a8b a8be 2e79 8a3e d573 68be
00000190: 8885 383e 3355 6c3e 5b8f 65bd fece 363e
000001a0: f5ed 4c3d 8f86 1bbd 7bba babd f41f a83e
000001b0: d0a8 a0be a5d1 afbe bdfc f2bd 6331 d03e
000001c0: 211d fd3d 3a1a 0ebd 33c8 bf3d bed4 a43e
000001d0: 1f5b 293f e98f 533d a961 003e bff2 323f
000001e0: 56a0 013e 6db0 12bd 1783 a23e 7390 46be
000001f0: f54e f13e 2295 b23e 0427 7bbd 0e99 c33e
00000200: 47ea 8a3e 5668 fa3c f5ae 08bd 3891 103d
00000210: a498 2fbd 0b0f 563e 021c 1e3d 88ee 10be
00000220: 597c 9d3d 2cdd 06be 566d 02bd 6e20 f83d
00000230: b62b 973d a52e 7a3d df09 7dbd de6a cfbd
00000240: 3477 cabe 2f89 6fbe caef b8be 28c2 8abe
00000250: 3b77 26be b984 9d3d 64cb 40bf 5c31 2abf
00000260: eb4e 04be 8861 8cbe a1d6 bcbe af3d 5d3d
00000270: fb03 e1bc 6d36 0b3b 02f1 40bd bf20 f7bd
00000280: e79e 37be 4e58 183e 972e fa3d 04a8 05be
00000290: d706 3f3e e790 2f3e 016e c13e 9c67 893d
000002a0: 56e1 ce3e e3af 633e 98da 58be f024 113e
000002b0: e857 14bd a22e 8d3d 297b e63d 0892 113c
000002c0: 1abf d6bc 4940 c0bb a58f 14be e0e1 8f3e
000002d0: 70a8 deba 6add a7be 8867 06be 9dbc 803e
000002e0: 9a50 e63d 1049 aa3d 2013 bdbe b5b0 29be
000002f0: ca83 abbd b62b 193e e59b 1fbe 353a 4bbe
00000300: db8c 3e3e d6f8 e33e 74c8 f5bd 885d ae3c
00000310: b4ec 883d 5d21 293e 7c38 12bd 634d d9b9
00000320: 06dd 7f3e 3792 b93d c818 54bd 68aa bb3d
00000330: fbd0 863d b3fd e83b 2d5e b33e bad3 7c3e
00000340: 69de 12be a531 7f3e f0f6 df3c 0b69 903e
00000350: aebf 93be ec97 713e 7fd3 ea3c bed5 dc38
00000360: b7c6 a5bd a074 0cbf cced d0be 6a68 65be
00000370: a1a5 babd b8de a2be 69a0 d9bc 1c25 c13d
00000380: 30e7 d3be 2273 42be 77fa 88bd ed46 d9bd
00000390: 6427 bbbc cdd5 773e 9716 533e 7c2f 163d
000003a0: 8efd acbe 4c10 8abc 6dcf 113e 8025 05be
000003b0: b1d2 0fbf 581d 95bc 0be8 023e f90c 903e
000003c0: bab9 183c a5e8 efbd c079 c93e 9942 23be
000003d0: 8281 063e 34f8 38be 8aa1 203e 44d1 673c
000003e0: e8fa 2a3d 8ea0 093e 4f4b c13d 7366 573d
000003f0: 4058 233e a083 36be 222e 08be e7ce d8bd
-0.15093453 -0.0955812 0.10544258 0.10506924 -0.02062475 0.3950311 -0.11375513 -0.58775663
-0.16249265 0.043786418 0.18838482 -0.084001765 -0.2714954 0.06791787 0.31590503 0.065729775
-0.0282318 0.37448475 -0.088146865 0.20256954 0.39316365 0.10424856 0.21267223 0.22883733
-0.06672578 -0.14014292 0.099331506 -0.018992692 0.5866487 0.49420378 -0.019686978 -0.28360537
0.036570415 0.11852279 0.35877618 0.05694877 -0.42386392 -0.2591976 -0.2945148 -0.14568341
0.089694574 -0.07173615 -0.02854036 0.12730704 0.22262949 0.15949543 0.56444204 0.3157967
0.160115 0.23946536 0.113092944 0.07633722 0.21347311 0.46551138 0.31909135 0.0822169
0.2790708 -0.22899412 -0.065558136 0.20333438 0.12774707 -0.05073808 0.3133633 0.11693212
0.059208274 0.06941981 0.17112413 -0.049043115 0.25452223 0.02506414 -0.13331175 -0.11505441
-0.37246057 0.02330254 0.043737 -0.12407128 0.5459053 0.25315443 -0.39662114 -0.27795008
0.30652642 -0.36897552 0.30264923 0.21790089 0.082085855 0.15783176 0.50456524 -0.034977097
-0.26021177 0.03291693 -0.15454997 0.28767166 0.4257512 -0.14132905 -0.06546829 0.086412326
0.17590918 -0.32918817 0.27045578 -0.22700436 0.18019688 0.23079376 -0.056044918 0.17852399
0.05003162 -0.037970122 -0.091175996 0.32836878 -0.31378794 -0.34339634 -0.11864612 0.4066268
0.123590715 -0.03469298 0.09364357 0.3219356 0.66154665 0.051650915 0.12537254 0.6990165
0.1265882 -0.035812784 0.3174064 -0.1939104 0.47130552 0.34879404 -0.061316505 0.3820271
0.27131864 0.03056733 -0.033369977 0.03529474 -0.04287018 0.20904176 0.03860093 -0.14153492
0.07689733 -0.13170308 -0.031842552 0.121155605 0.07381384 0.06107964 -0.061776992 -0.10127805
-0.3954407 -0.23392175 -0.36120445 -0.27101254 -0.1625642 0.076913305 -0.7531035 -0.66481566
-0.1292073 -0.2741816 -0.368825 0.054013904 -0.027467718 0.0021242157 -0.047104843 -0.12066793
-0.1793171 0.14877436 0.122159176 -0.13052374 0.18654953 0.1714512 0.3777924 0.06709215
0.40406293 0.22235064 -0.21177137 0.14174247 -0.036216646 0.0689366 0.1125396 0.008884914
-0.026214171 -0.0058670384 -0.14507921 0.28102016 -0.0016987454 -0.32786113 -0.13125432 0.251439
0.11245842 0.08314717 -0.36928654 -0.16571315 -0.08374746 0.1495808 -0.15586813 -0.19846423
0.1860842 0.44525784 -0.12001124 0.021284834 0.066857725 0.16516633 -0.0356984 -0.00041447123
0.24986658 0.090610914 -0.051781446 0.09163362 0.065828286 0.0071103214 0.35032788 0.24690142
-0.14342655 0.24921282 0.027339429 0.2820514 -0.28857177 0.2359311 0.028665302 0.0001053023
-0.080945425 -0.54865456 -0.40806425 -0.22403112 -0.091136225 -0.31810546 -0.026565747 0.09430906
-0.4138732 -0.18989232 -0.066883974 -0.10609231 -0.022845931 0.24202652 0.20614086 0.03666638
-0.33787197 -0.016853474 0.14239283 -0.13002586 -0.56180865 -0.018202469 0.1278383 0.28134897
0.009321624 -0.11714295 0.393507 -0.15943374 0.13135341 -0.18063432 0.15686622 0.014149014
0.04174319 0.13440153 0.09438192 0.052587938 0.15951633 -0.17823648 -0.13298848 -0.105863385

cnn_net.0.bias f4 [16]
00000000: 4ff8 4b3c 95e7 ca3c 4762 7bbd aa57 e4bb
00000010: 80ba febd 023e ef3b 86c2 793d 8652 b9bc
00000020: 040e db3d 1d50 6cbd 9f3a bb3c 71fb 84bd
00000030: c752 8d3d bc0d 873d e986 853e 23d3 063e
0.012449338 0.02476863 -0.06137302 -0.006968458 -0.12437916 0.007301093 0.060976528 -0.022622358
0.10696033 -0.05769359 0.022855101 -0.06493271 0.06900554 0.065944165 0.2607949 0.1316648

cnn_net.3.weight f4 [32, 16, 3, 3]
00000000: a5ae dbbd ab21 53be e138 8bbe b391 b23c
00000010: 9093 12be 433f ae3d fd3a 6a3e 859e 823d
00000020: b810 183f 3b1c fdbd 7601 073d 8504 053e
00000030: 1e78 8e3d b092 9d3c 896f 1cbe 6b03 8c3e
00000040: 7d64 00bd 82a0 173f d2d2 e63d aa5f 5f3e
00000050: 3a75 cebd b7a0 8d3d 97e1 d13d 107d 8a3d
00000060: 2d1b f4bb 15a4 06be 778f 4b3e e999 3d3d
00000070: 607b 3e3e 8895 903e 6b3c 093e 4cf5 5ebc
00000080: e9b0 863e 203d 91be 4c85 fdbe 339c bf3d
00000090: 95d0 c83d 14b8 34be 4615 41be 553f 493e
000000a0: c32a 1ebe 7386 99bd eb8b 313d 2acc 0e3d
000000b0: 65e8 ff3d 0346 9d3d 4835 303d 05a2 033e
000000c0: 6a3e 9f3e 44e8 eabd 7ca8 203e 054d 85bd
000000d0: e896 e9bd 5917 0d3f 4d82 2dbe 782f bebe
000000e0: 1996 1eba 75e0 513e 6f08 55be 8693 20be
000000f0: 246d 823e 3835 0bbe 32eb 36be 2d14 533c
00000100: 3c56 b03e bed4 853e 8516 ec3b f500 dcbd
00000110: 826a e0bd 1763 843e 1f1d 8cbe 78d2 9a3c
00000120: 0f27 25be 2193 32bd 990a 4a3c f017 1f3e
00000130: 1c73 483d 16c9 9bbd a6c4 3a3e d669 52be
00000140: 446f 563e 7c22 513e 02dc 47be efdc f43d
00000150: 5502 283e 5b7a 44bd 24b9 0d3d 06f1 fb3d
00000160: 0e1b e8bd a773 523e e518 8dbe d0c3 b73d
00000170: 103e 053d 2a51 f73d fd72 95be b7ba e7bd
00000180: 4cdc fb3d 8d88 023e b910 293e e7f9 543e
00000190: 1e76 a83d 0a07 803d 9c9c 213d 523f f4bd
000001a0: 80b6 9c3e 6ae1 9bbe c42c fbbd 70bf cf3e
000001b0: 6b25 8e3e cc8b fb3e a46f 193f d841 1e3f
000001c0: 1698 02be 5ca5 d1bd ba17 093f 9651 063e
000001d0: f884 203f d85e 4e3e 286d e0bd 9c33 4f3e
000001e0: 29c8 00be 2dac f23d 701e 8ebe 14aa 9a3c
000001f0: 2703 c8be a1d2 093e 8886 8cbe 726a 3bbe
00000200: c455 31be d07b 383f 6258 2abf 1be2 acbe
00000210: 451a 643f 60c7 2c3f 17eb a13e 0a9e 6e3e
00000220: eab3 dbbd fbbe 9d3e 3ce8 df3d 8a11 fc3b
00000230: e56b 0dbe e6ec 413a 66d9 3ebe d0e9 233f
00000240: 2f70 913e f05f 533e 8195 9a3e 6ce5 6c3d
00000250: b31c a43e 3e09 3c3e b24b 04bd 054c 1cbe
00000260: aec5 90be 1937 353e abf8 493e d2f1 873e
00000270: 7a4e 36be 06f9 023e 78ec a23e f1bf bfbd
00000280: 4b91 14be f0ac c8bd 02e5 cf3e 5748 acbd
00000290: 3d71 803e 86a4 1e3f d7bf 8c3e 7e0e 3e3d
000002a0: 676f 453e c642 a8bc d043 7fbe d275 b7bc
000002b0: 6fde 81be cd68 ee3d f5f4 b23d 15b6 d83c
000002c0: 1c2f e83b 1863 263e 827d 62bd 65fd 38bd
000002d0: 9bac eb3c 8083 6a3e 5bd7 823e 0eae 0dbe
000002e0: aabb 04be 0b9f 733e 61cd a63e c5a9 34be
000002f0: 0955 b13c 5094 9f3e 0f15 3c3e 3b91 263e
00000300: aa59 dc3d bdef 973c d3a0 4a3e 33ff 4dbe
00000310: ef19 19be a040 1abe 75a8 473e 6b0c b33e
00000320: 5967 1c3f 845a 893e ba5d 2a3e 98f4 013f
00000330: c2c4 70be b903 01bf 0e9f fabd ec56 173e
00000340: 5824 d23d 1ca3 983d 8daa 5d3e c078 fc3d
00000350: 444a 08be 7cdb abbe 720e 30be 583a df3e
00000360: 5408 2f3e de24 a13d f437 8b3d 17b1 533d
00000370: f6b9 5a3d 37a8 0c3e 0418 363d d94b 6e3e
00000380: 53d7 833d f665 613e 8789 8c3e d123 ae3d
00000390: b90b bd3d 7c60 493d 0cab a43c 127a d93d
000003a0: 8185 0cbd 1c83 ea3c 5a65 d23d 9822 453e
000003b0: 3e18 573e 70a2 d13e 9b7d ff3d ebf3 5a3e
000003c0: fbfc cabe 3b39 bdbe da2e c1bd 6572 063e
000003d0: c872 c13d 44b8 5fbd 7d30 ddbd 46ba 19be
000003e0: 92ae 693d a302 d9bc c0b7 e3bd a2a4 1b3e
000003f0: 0494 563e 0388 313e 0585 a43d d8c8 cbbe
-0.1072667 -0.20618312 -0.27191833 0.02179799 -0.14314103 0.0850816 0.22874065 0.063778915
0.5940051 -0.123589 0.032960378 0.12990005 0.06956504 0.019234985 -0.15276922 0.27346358
-0.031345833 0.5922929 0.112706795 0.21813837 -0.10080953 0.069154195 0.10248106 0.06762135
-0.0074495287 -0.1314853 0.19878946 0.04628936 0.18601751 0.28239083 0.13401954 -0.013608288
0.26306847 -0.28366947 -0.4951576 0.093559645 0.09805409 -0.17648345 -0.18855771 0.19653066
-0.15446 -0.07496347 0.043346327 0.034862675 0.124954976 0.07679369 0.043019563 0.12854774
0.31102306 -0.114700824 0.15689272 -0.06508831 -0.11405736 0.5511375 -0.16944237 -0.3714559
-0.0006049588 0.2049578 -0.20803998 -0.15681276 0.25473893 -0.1359452 -0.17863157 0.012883228
0.34440792 0.26138872 0.007204833 -0.1074237 -0.10957815 0.2585685 -0.27365968 0.018899187
-0.16128181 -0.043597344 0.012331628 0.15536475 0.0489379 -0.076067135 0.18239078 -0.20548186
0.20940882 0.20423311 -0.1951752 0.11956202 0.1640714 -0.04796825 0.034600392 0.12301831
-0.11333285 0.2055193 -0.27558056 0.08972895 0.03252989 0.12076028 -0.29189292 -0.1131491
0.12297878 0.12747402 0.16510285 0.20798455 0.08225654 0.062513426 0.039455995 -0.1192614
0.30607986 -0.30445415 -0.12264398 0.40575743 0.27762923 0.49130094 0.59935975 0.6181922
-0.12753329 -0.10236618 0.5355183 0.1311706 0.62702894 0.20153368 -0.1095832 0.20234531
-0.12576355 0.11849246 -0.27757597 0.018879928 -0.39064905 0.13459255 -0.2744639 -0.18302324
-0.17317873 0.7206392 -0.6654111 -0.33766255 0.89102584 0.6749172 0.31624672 0.23302475
-0.10727675 0.3080977 0.10932967 0.0076925205 -0.1381069 0.00073976663 -0.18637618 0.64028645
0.28405902 0.20642066 0.30192187 0.05783598 0.32053146 0.183629 -0.03229875 -0.15263374
-0.28275818 0.176968 0.19723766 0.26551682 -0.17803374 0.12790307 0.31821036 -0.09362782
-0.1450855 -0.0979861 0.40604407 -0.08412235 0.25086394 0.6196979 0.27490112 0.04640054
0.19280778 -0.020539653 -0.24928212 -0.022395048 -0.25365016 0.11641083 0.08738128 0.026454011
0.007085694 0.16248739 -0.055295475 -0.04516353 0.028768828 0.22901726 0.25554928 -0.13835928
-0.12962213 0.23791139 0.32578567 -0.17642887 0.021646993 0.3116784 0.18367408 0.16266339
0.107592896 0.018546933 0.19787912 -0.20116882 -0.14951299 -0.15063715 0.19497855 0.34970412
0.61095196 0.2682687 0.16637316 0.50763845 -0.23512557 -0.50396305 -0.122373685 0.14779252
0.10260838 0.07452986 0.21647091 0.12327719 -0.1330958 -0.3356589 -0.1719301 0.435992
0.1709302 0.0786836 0.067977816 0.051682558 0.053400002 0.13736044 0.044456497 0.23271121
0.06437554 0.22011551 0.27448675 0.08502925 0.092307515 0.04916428 0.020101093 0.10618986
-0.034307007 0.028626971 0.102732375 0.19251478 0.21005341 0.40944242 0.12475129 0.2138211
-0.39646134 -0.36957726 -0.09432764 0.13129576 0.09445721 -0.05461909 -0.10800264 -0.15012464
0.05705125 -0.026490515 -0.11119032 0.15199521 0.20954901 0.1733704 0.08033184 -0.3980167

cnn_net.3.bias f4 [32]
00000000: 6c8f 6b3d b686 f93b 4a22 03bd e9ad 893e
00000010: a0fd a4bd a2e2 443d 7636 dfbb 4112 85bd
00000020: 9606 6e3c 4d0b febe 9119 c13c 79a8 bb3c
00000030: 2013 363e b962 8e3c d0f0 093d 7cbb e2bd
00000040: 6a5e 14bc 3043 a03c b79a 463c 37d1 1bbd
00000050: aacf 12bc c091 7abd 9f07 2ebc d7ef 06bd
00000060: 0fc3 84bd b2da 0f3e c668 7dbc 5527 68bd
00000070: 2a76 253c 0fc0 753d fb72 803d 2e58 17bc
0.057509825 0.0076149357 -0.032015122 0.26890495 -0.08056188 0.048067696 -0.006811912 -0.06497622
0.014527937 -0.49617997 0.023571761 0.022907482 0.17780733 0.017381059 0.033676922 -0.11070916
-0.009055713 0.019563287 0.012121848 -0.03804132 -0.008960644 -0.061174154 -0.010621934 -0.032943573
-0.06482517 0.1404827 -0.015466874 -0.056678135 0.010098973 0.059997614 0.06271931 -0.009237332

hidden.weight f4 [32, 128]
00000000: 17eb cebc 30ff 193d 0f9a b3be 7437 973c
00000010: 635e ddbe d875 cebe 4759 a33d e0c6 413e
00000020: dc1b af3b ace5 3e3d e6c8 8d3e d00f 563e
00000030: 8b96 fe3d 58ca f83d ad74 96bd 6353 d2bb
00000040: 4274 203d e2c9 e73d 29f0 2dbd 0359 103d
00000050: 3c18 b93e 57c8 0e3e bb04 30bd abc8 bf3d
00000060: b27d ea3d f725 96bc fcda f43d 9817 f43d
00000070: aafc d93b 0bdf 623d 183a 703d b820 1a3d
00000080: 2a3e 36bd 6734 963e 9494 433e f810 da3c
00000090: 6cd3 353f 00bc b33e 2380 02bf 0610 bbbe
000000a0: fbb5 983e e049 803d d9dc 903e e177 d63d
000000b0: 0c9f 843d f88c 943e 1721 2c3e 8dc9 1fbe
000000c0: 9230 d63e f5a1 9fbd c7ac 24bf 1ac0 03bf
000000d0: 2c03 debb c7f3 3ebd 0bed 1fbe 52de 0a3d
000000e0: 2055 163e 8f5d 4e3e 6441 2c3e 6f86 493e
000000f0: b4e1 87bd daa3 e73d 2666 233d fb7b 743e
00000100: 549e 313d 0ed0 a4be de7e 343e 94f3 ba3e
00000110: 00c7 30bc 05d6 733e a2ee 27bd e8f0 243e
00000120: 2bb7 2ebe b2d3 313e 6ed1 fdbb dfda 0d3e
00000130: ce0d 283d 16fc 7f3e 9dec 8f3c a751 f73d
00000140: e694 ef3d 1c53 6a3e 93d8 a13c ed08 aabd
00000150: 36d5 4bbc 22cb 403e 83c9 bf3d 2a28 4a3e
00000160: 31c0 a9bd f698 883c b47a d03e 031e 053d
00000170: ef00 2cbe d3f2 81be 197f 253d 91b0 44be
00000180: 251a 41be 8e37 2e3e 98cc a43e 66eb b43e
00000190: a82a 9a3c 4e52 1a3e c2f3 a4bd c2e2 8d3d
000001a0: 1e48 3b3d 2aee 833e 92e6 833e 28f8 4f3e
000001b0: 6d19 1e3d 9a9f 353e 0930 b63d 6503 57bd
000001c0: f112 a83d c6d1 023e 83b4 b33d 4932 833d
000001d0: 4c53 73be b1f0 bf3d 8f6e 7d3e 06d1 14be
000001e0: c19b 1b3e a430 c63e 6204 13bd 026a 433e
000001f0: 18f7 4a3e 1c34 44bd 65bc 87be 00a7 24be
00000200: 5f93 48bd da3e d23d ef51 8a3c 71ae 983c
00000210: b06d 3c3e 81e5 1cbe a86c 013d 6963 bc3d
00000220: 1e0d 55bd 5647 73be 160b 1dbe 85c5 aabe
00000230: a0a4 37bc aaad 71be 2e99 99bd d8d0 413e
00000240: b0e5 dfbc 5300 98bd 177f a43c dcb7 89be
00000250: 649c 893d 2c4d b43c 4d7c ff3d 1346 dabd
00000260: 7f6b b0bd e4cf d03c 90c3 b5bd 3679 1f3e
00000270: 8278 c1bd dfb7 373e 4339 2c3e 466e 85bd
00000280: 743c 1938 63c7 f63d 2c09 21bd b222 00bd
00000290: 0f98 a83c ca31 af3d 4f3a 793e 6f8b 90bc
000002a0: 7eff c8bd 88c3 293d 3790 5b3d 28db d33b
000002b0: 78b1 1d3e ef41 0c3d e5a4 8e3d dcfb 39bd
000002c0: 4e2a 9dbd 02cd 59bd 65cd a0bd f8bc 07bd
000002d0: d164 cabe abd3 123e 6e9a 26be aeb8 8c3c
000002e0: 2cc5 87be edda 6fbc 9008 0c39 0830 20bb
000002f0: a5d1 54bd a017 0dbe 6089 973d 0eff 1ebd
00000300: ef05 4f3d b02a 6abd 995c 64bd e957 59be
00000310: 9774 adbd 4cb0 0cbe ab71 37bd 48f7 c53c
00000320: 5119 dcba 38eb 843d dec3 19be 9f06 513e
00000330: d787 92bc 2869 d63d 5692 293e 2244 cf3c
00000340: 9acd ef3d ca48 f23b 30e9 003d 45ad cbbd
00000350: 9be8 0cbd e89b 36be a956 e0bc d77e 16be
00000360: bc58 03bd cfb8 38bd d0b5 3e3e 1b9f 0b3d
00000370: d3b3 acbd e30c 38ba b7a0 77be a741 b7bd
00000380: 3955 a3bd d02c 853d 4fe5 8e3c b104 92bd
00000390: 02f7 e1bc aea0 4abe 9444 3dbd 6130 b2bd
000003a0: ac7e 923e e5b9 c03a 99d8 e73b 859f 2ebd
000003b0: 7ece aebe e98a d0bc ea2a b43d 7005 523c
000003c0: c096 ffbb 7781 673e d540 dc3d 6e7b 73bd
000003d0: ff75 c43d b278 a2bd a4ca f4bc 3974 5b3e
000003e0: 2b00 453e cfeb ac3d 58d9 eabd 6c27 50be
000003f0: 02bb 88bd edbe 643e db66 ea3c d3fb f8bd
-0.025258584 0.03759688 -0.35078475 0.01845906 -0.43236074 -0.40324283 0.07976013 0.18923521
0.0053438973 0.04660575 0.27692336 0.2090447 0.124310575 0.12147969 -0.07346473 -0.006418632
0.039173372 0.11317803 -0.042465363 0.03524114 0.36151302 0.13943611 -0.04297326 0.09364446
0.11449756 -0.01832865 0.119558305 0.11918563 0.0066524344 0.05538849 0.058649153 0.03762886
-0.044492878 0.29336855 0.19099647 0.02661942 0.7102573 0.3510437 -0.5097677 -0.36535662
0.2982634 0.062640905 0.28293493 0.10472084 0.06475648 0.290138 0.16809498 -0.1560423
0.4183393 -0.07794563 -0.6432614 -0.51465 -0.0067752805 -0.046619203 -0.15617768 0.033903427
0.1468091 0.20152877 0.1682182 0.19680189 -0.06634846 0.11310549 0.03989234 0.2387542
0.043363884 -0.32189983 0.17626521 0.3651396 -0.010789633 0.2381211 -0.040999062 0.16107523
-0.1706206 0.17365912 -0.007745913 0.13853024 0.04102879 0.24998507 0.01756888 0.12076121
0.11698322 0.22883266 0.019756591 -0.08302484 -0.01244097 0.18827489 0.09364607 0.19741884
-0.08288611 0.0166745 0.40718615 0.032499325 -0.16797231 -0.25380573 0.040404413 -0.1920798
-0.1885763 0.1701338 0.32187343 0.35335845 0.018819168 0.15070459 -0.080543056 0.06928016
0.045723073 0.25767642 0.2576185 0.20309508 0.038598467 0.17736664 0.08895881 -0.05249347
0.08206738 0.12775335 0.08774664 0.064060755 -0.23762244 0.0937208 0.24749206 -0.14532861
0.15196134 0.38708985 -0.03589285 0.19083408 0.19820821 -0.047901258 -0.2651092 -0.1607933
-0.04896867 0.10265894 0.016884772 0.018637868 0.18401217 -0.15321924 0.031597763 0.091986485
-0.052014463 -0.23757681 -0.1533626 -0.3335382 -0.011208683 -0.23601404 -0.0749992 0.18927324
-0.027331203 -0.07421937 0.020080132 -0.26898086 0.06719282 0.022009455 0.1247488 -0.10657897
-0.08614253 0.025489755 -0.08875191 0.15573582 -0.09446813 0.17941235 0.16818719 -0.065151736
3.6534344e-05 0.12049749 -0.039315388 -0.031283088 0.02058032 0.085544184 0.24338649 -0.017644612
-0.09814356 0.04144624 0.05360433 0.0064653344 0.1539973 0.034242567 0.06965045 -0.045406207
-0.076740846 -0.053174026 -0.07851676 -0.0331392 -0.39530042 0.14338557 -0.16269848 0.017177906
-0.26517618 -0.014639598 0.0001335463 -0.0024442691 -0.051957745 -0.13778543 0.07399249 -0.038817458
0.050542768 -0.057169616 -0.05575237 -0.21224941 -0.084695034 -0.13739127 -0.044786137 0.024165764
-0.0016792213 0.06490177 -0.15016124 0.20412682 -0.01788704 0.10469276 0.16559729 0.025301043
0.11709137 0.007393931 0.031472385 -0.09945158 -0.034401517 -0.17832911 -0.027385073 -0.14696823
-0.032067046 -0.045098122 0.18624043 0.03408728 -0.08432736 -0.0007020963 -0.24182402 -0.08948069
-0.07975239 0.06502688 0.017443327 -0.07129801 -0.027583603 -0.19787857 -0.04620798 -0.08700634
0.28612268 0.0014703838 0.007075381 -0.0426326 -0.34141916 -0.025456863 0.08797248 0.012818679
-0.007799953 0.2260798 0.10754553 -0.059443884 0.095928185 -0.07933177 -0.029881783 0.21431054
0.19238345 0.084434144 -0.11467236 -0.20327538 -0.06676294 0.22338457 0.028613498 -0.12157407

hidden.bias f4 [32]
00000000: ee3f 0a3d 0000 0000 f1f7 0f3d 125b 033d
00000010: bb95 983d b886 903d c9b6 093d e998 f83c
00000020: 4118 5ebc e8b9 173d 017f eb3c 5df2 d33c
00000030: 8bd6 8abc c921 e73d 3808 043d 86ed ee3c
00000040: 877b 53bc f2e9 23bc 5761 77bc 2878 043d
00000050: 6a7c 923d 3c3d 1cbc 22c1 9bbc 6fc7 8ebc
00000060: f10d 3d3e bc47 bfbc 3ca2 0e3d eac3 0b3d
00000070: e6a2 a33d e767 f3bb a98e f83c 65b6 15bd
0.033752374 0.0 0.035148565 0.032069273 0.07450434 0.070569456 0.033621583 0.03034635
-0.013555587 0.03704253 0.028747084 0.025872404 -0.016948005 0.11285741 0.0322344 0.029165994
-0.012907869 -0.010004507 -0.015098891 0.032341152 0.07152636 -0.009536084 -0.019012991 -0.017429082
0.1846235 -0.023349635 0.034822688 0.034122385 0.07990055 -0.0074281576 0.030341463 -0.036550898

out.weight f4 [1, 32]
00000000: 7e24 c7be 70fc 37be aa6f b4be 7fa0 6bbe
00000010: 2129 1f3f 56fc f93f e8cf debe ef53 85be
00000020: 45ef 273e 5c88 b4be 0a78 5abe 7cc3 1e3f
00000030: 1199 e1bd 5ff9 873f 9aff 18bf 3026 013f
00000040: 58cd 913e 8184 1a3d 547f a63e 8837 cabe
00000050: fa77 7a3f a067 523e d01e 0d3e 4a87 ad3e
00000060: bcb6 d23f 4d79 f43d 0d49 11bf 6414 14be
00000070: bfc2 9e3f 1db3 a23e 0b76 95be a226 0d3f
-0.3889503 -0.17967391 -0.35241443 -0.23010443 0.6217213 1.9530132 -0.43517995 -0.260406
0.16399868 -0.35260284 -0.21334854 0.62017035 -0.11015523 1.0622977 -0.5976502 0.50448895
0.28476977 0.03772402 0.3251902 -0.39495492 0.9783932 0.20547342 0.13781285 0.3389228
1.6462016 0.11937199 -0.5675209 -0.14460903 1.2403182 0.31777278 -0.29191622 0.55137074
