train_history/olympics-wrestling/11_29_14_32/critic.pth (torch, 47330 bytes, 11 tensors)

encoder.0.weight f4 [8, 4, 3, 3]
0.07828036 0.06121424 0.1941405 -0.016611801 -0.43017355 -0.22471605 -0.45316032 -0.28526354
-0.34437394 0.06587342 -0.16677977 0.6778566 0.09224711 0.20591725 -0.7636427 -0.14746885
-0.22378807 -0.14647962 -0.57018733 -0.43081242 0.83887213 -0.2636935 0.39905477 -0.5823736
0.06843645 0.14003763 -0.41764787 -0.025810523 0.4954029 0.5226275 -0.22905733 0.8973108
0.85048914 -0.036366846 -0.5394815 0.13395748 0.5150148 0.10888347 0.4922654 0.5895568
-0.21445708 -0.54142815 0.06713852 -0.22876917 0.45798242 0.5218052 0.3472651 0.08567543
0.5134031 0.349794 0.028830118 0.19833095 0.21095544 0.134929 -0.003910711 0.21657918
0.15078855 0.093710855 0.3276256 0.5602031 -0.107871026 0.2684467 0.45487043 0.2745302
0.005306462 -0.5571165 -0.21059243 0.270161 0.3099472 0.30348763 1.0535115 0.9311373
-0.013149123 -0.08325818 -0.028935362 0.040944614 0.023140522 -0.09366447 -0.054109525 -0.26018113
0.00041799882 0.1819993 -0.035290074 -0.052256357 0.100226045 -0.3008528 -0.039915644 -0.3706152
0.33098534 0.053290855 -0.12358774 -0.31857702 0.3543704 -0.09017333 0.041287143 0.2661437
-0.6481093 -0.39151874 -0.36670658 0.08141593 -0.23285994 -0.15248989 -0.14788707 -0.20537204
-0.8217006 -0.36097237 -0.06991029 -0.43627095 0.6545137 0.5084899 -1.0054985 0.42208228
-0.08677536 0.5948421 0.5653111 0.44403648 0.26881108 0.29102477 0.7581009 0.4623229
0.09958071 0.46817708 -0.6515979 0.37985247 0.1956145 -0.31557804 0.1174094 -0.044771034
0.6204247 0.28873366 0.2999404 0.18163542 0.16875905 0.111887515 0.20869993 0.54016846
0.03979542 -0.3139279 0.691441 0.2200142 -0.12899671 -0.07745853 -0.43404686 -0.39057007
0.0131767625 -0.06494191 0.22402173 0.06007188 -0.07316027 0.02205434 0.048799936 0.031160975
0.10160516 -0.477558 -0.40928477 0.6949319 -0.22690116 0.07610729 -0.0375316 -0.29362896
0.1272961 -0.35371298 -0.0774899 0.095424876 -0.022485742 -1.3803421 -0.1972695 0.29811838
-0.46386924 -0.27391145 0.3559544 -0.25445002 0.054951534 0.5596267 0.071570955 -0.26413062
-0.009334232 -0.16265385 -0.03666202 -0.18715048 -0.41535076 0.43464297 0.16375637 0.33560517
0.90132743 0.42004573 0.15229149 0.11636063 0.25268477 -0.36904144 0.09326465 0.48916665
0.20122664 0.3328099 0.3532061 -0.544427 0.58595 0.35295287 -0.6439018 0.2580504
-0.40242422 0.0131265605 0.37770972 0.5162132 -0.46789473 0.24491154 0.7604109 0.05281387
-0.09818069 -0.23802586 1.0335268 0.830616 0.35034865 -0.41110185 0.36196133 1.1792508
0.44078195 0.5828558 0.74737793 0.383823 0.07943381 0.2680221 -0.1304664 -0.037930712
-0.0055094375 -0.061619464 0.5176878 0.1260337 0.6336876 0.99801856 0.25600407 0.36661276
-0.4181003 0.114429384 0.3656309 -0.85523057 -0.058751 0.30728084 0.63401514 0.8605837
0.2669621 1.1610831 0.10256781 -0.20575508 -0.61274564 -0.111475095 -0.26864377 -0.2541349
-0.18756746 -0.09829237 -0.21290536 -0.4505795 0.007877372 -0.24201278 -0.14240406 -0.05644994
00000000: 7451 a03d c8bb 7a3d c4cc 463e 7915 88bc
00000010: b53f dcbe f71b 66be a104 e8be 100e 92be
00000020: c851 b0be a5e8 863d 51c8 2abe 0388 2d3f
00000030: 0eec bc3d f9db 523e 177e 43bf 1302 17be
00000040: b328 65be c1fe 15be ccf7 11bf 7293 dcbe
00000050: 53c0 563f d602 87be e850 cc3e 7016 15bf
00000060: 6928 8c3d 0666 0f3e f1d5 d5be 9770 d3bc
00000070: 73a5 fd3e eaca 053f 018e 6abe 29b6 653f
00000080: a8b9 593f 67f5 14bd 761b 0abf 262c 093e
00000090: 03d8 033f 4cfe de3d 360a fc3e 32ed 163f
000000a0: a39a 5bbe 099b 0abf ec7f 893d 7742 6abe
000000b0: ac7c ea3e 0795 053f bbcc b13e 9a76 af3d
000000c0: 636e 033f 3318 b33e 242d ec3c 4517 4b3e
000000d0: b404 583e d42a 0a3e 6c25 80bb efc6 5d3e
000000e0: 5068 1a3e 7aeb bf3d 8bbe a73e 7869 0f3f
000000f0: 7ceb dcbd d971 893e c7e4 e83e 398f 8c3e
00000100: d4e1 ad3b 309f 0ebf 8ba5 57be 8b52 8a3e
00000110: 66b1 9e3e bb62 9b3e 77d9 863f 045f 6e3f
00000120: 6b6f 57bc 4483 aabd da09 edbc 8ab5 273d
00000130: 3191 bd3c 28d3 bfbd f3a1 5dbd 7636 85be
00000140: da26 db39 065e 3a3e 538c 10bd c30a 56bd
00000150: 5043 cd3d 6109 9abe 967e 23bd 47c1 bdbe
00000160: e976 a93e 8347 5a3d 921b fdbd 871c a3be
00000170: 0970 b53e cbac b8bd b51c 293d fd43 883e
00000180: 7eea 25bf 2575 c8be f7c0 bbbe 65bd a63d
00000190: d672 6ebe 4f26 1cbe b56f 17be 0c4d 52be
000001a0: f85a 52bf 5fd1 b8be 202d 8fbd e85e dfbe
000001b0: 368e 273f 652c 023f 2db4 80bf 2b1b d83e
000001c0: 48b7 b1bd 9247 183f 3ab8 103f c058 e33e
000001d0: 9ba1 893e 3301 953e e712 423f 96b5 ec3e
000001e0: f9f0 cb3d e8b4 ef3e 1fcf 26bf 067c c23e
000001f0: 2b4f 483e 7293 a1be 5774 f03d d561 37bd
00000200: 27d4 1e3f e6d4 933e ca91 993e a3fe 393e
00000210: 2ccf 2c3e 4825 e53d 6fb5 553e 7b48 0a3f
00000220: 8600 233d 28bb a0be 4702 313f 674b 613e
00000230: b717 04be 94a2 9ebd 643b debe cdf8 c7be
00000240: 59e3 573c 4400 85bd f465 653e ef0d 763d
00000250: 0dd5 95bd 4eab b43c 71e2 473d 4d45 ff3c
00000260: 5e16 d03d 7b82 f4be c68d d1be 0fe7 313f
00000270: c758 68be 24de 9b3d bcba 19bd 8956 96be
00000280: e959 023e de19 b5be 06b3 9ebd 1e6e c33d
00000290: 0534 b8bc 0daf b0bf 0401 4abe f9a2 983e
000002a0: 4580 edbe 1f3e 8cbe a83f b63e 4647 82be
000002b0: dc14 613d b243 0f3f cb93 923d 213c 87be
000002c0: 9bee 18bc bb8e 26be ea2a 16bd 60a4 3fbe
000002d0: dba8 d4be 8689 de3e c0af 273e 71d4 ab3e
000002e0: 65bd 663f 3c10 d73e 4df2 1b3e 7b4e ee3d
000002f0: e65f 813e 00f3 bcbe 8901 bf3d 0d74 fa3e
00000300: 5b0e 4e3e 0f66 aa3e 6ed7 b43e 915f 0bbf
00000310: d200 163f 3db6 b43e c0d6 24bf 2f1f 843e
00000320: 8c0a cebe c910 573c 2b63 c13e 8c26 043f
00000330: e68f efbe 17ca 7a3e 4aaa 423f 5b53 583d
00000340: f512 c9bd 0dbd 73be 9b4a 843f 40a3 543f
00000350: e660 b33e f17b d2be ff52 b93e b1f1 963f
00000360: 2cae e13e 0a36 153f 2954 3f3f 7384 c43e
00000370: 32ae a23d 313a 893e fc98 05be 3c5d 1bbd
00000380: 8388 b4bb b164 7cbd 3087 043f fa0e 013e
00000390: 5a39 223f 257e 7f3f f712 833e abb4 bb3e
000003a0: 3e11 d6be f459 ea3d f933 bb3e 64f0 5abf
000003b0: e3a4 70bd ea53 9d3e d14e 223f 374f 5c3f
000003c0: 42af 883e 5f9e 943f 120f d23d 76b1 52be
000003d0: e6dc 1cbf 0e4d e4bd ad8b 89be f81d 82be
000003e0: af11 40be 834d c9bd dd03 5abe 5bb2 e6be
000003f0: 1810 013c 33d2 77be 5fd2 11be 0d38 67bd

encoder.0.bias f4 [8]
-0.06668381 0.13957869 0.08089482 0.19513293 0.07133153 0.018122273 0.41692382 0.06005241
00000000: 8591 88bd b7ed 0e3e 2fac a53d edd0 473e
00000010: 4416 923d 2975 943c 0a77 d53e 84f9 753d

encoder.3.weight f4 [8, 8, 3, 3]
0.15482078 0.08732272 0.030300565 -0.123087674 0.039591305 0.4431305 0.18236722 -0.05615147
0.088553734 0.072082706 0.05711976 -0.10705651 -0.04090673 0.081852466 0.36723986 0.04604672
0.27188826 0.5811475 -0.21754228 -0.105706975 0.28919807 -0.73554033 0.07118229 0.4183036
-0.24618818 -0.23055746 0.0019435453 0.03022032 -0.2006873 0.24291036 0.089485206 -0.08367867
0.5475947 0.39251554 0.1901643 0.42247665 -0.19730899 -0.26119918 -0.11159186 -0.25251698
0.14031124 0.14187475 -0.22758873 -0.18139836 -0.3070414 0.11247198 0.055826947 0.22830322
-0.12284258 0.20907854 0.15667185 0.21835917 0.24402925 0.06057171 -0.35131216 -0.06593058
0.23797613 -0.5235787 0.41952792 0.19142346 -0.07342719 0.18170448 0.3619929 -0.14637531
0.060541112 -0.12900613 -0.1468724 -0.023458246 0.13998969 -0.14011836 -0.025824599 -0.11976931
0.63171375 0.601475 0.876247 0.105164 0.5995754 0.60693604 0.015035947 0.27749518
0.4880865 0.25934038 0.39534956 0.32124102 0.6535738 0.3716114 0.36495325 0.042827576
0.1268057 0.3572134 0.44984698 0.09350751 -0.3012429 0.26174235 -0.1824408 0.18803798
-0.22902043 -0.22013885 -0.02641271 -0.014762556 -0.038617846 0.03648178 0.10059329 -0.105302386
-0.41218585 -0.38155666 -0.2312691 -0.66345966 0.21474493 -0.012878831 0.07156743 0.22452372
-0.17099467 -0.12347663 0.010086772 -0.0022204793 -0.04960649 0.60780007 0.30059245 0.29831964
0.5181202 0.4060233 0.32016805 -0.27939227 -0.045707155 0.44970798 0.2378942 0.17653525
-0.0070999926 0.047406547 0.38645992 0.3550678 -0.0492071 -0.2561879 -0.0644355 0.15189016
0.34373695 0.028705997 -0.15370001 -0.001448843 0.06785891 0.001162901 -0.077497065 -0.1052165
0.38213426 -0.12350095 0.29339564 0.1816065 0.26961035 0.31375644 0.19019496 -0.26319775
0.033504177 0.42517504 0.13030578 0.23561311 -0.021307897 0.27963957 0.53572106 0.21366028
0.1478265 0.16254583 0.05909521 -0.17856705 -0.0058506466 -0.257839 -0.40840644 0.0989187
0.016988833 -0.1285634 -0.31797928 0.18515284 0.12695053 0.013786064 0.064204164 -0.15162161
-0.08901961 -0.122344516 -0.2998888 -0.19075288 -0.030909011 0.26518565 0.5337885 0.04296558
0.295349 0.47516274 0.31146318 0.27914885 -0.027900333 0.3707011 0.04597057 0.4650791
0.44054964 0.36625466 0.2668037 0.21253559 0.14702386 0.34110492 0.1961789 0.08631853
0.018562105 0.23250608 0.042754423 0.21882501 0.05122322 0.22804832 0.42426115 0.06638565
-0.11784065 0.326502 0.0020786675 -0.0018165197 0.06744211 -0.15521283 0.06219268 0.18619524
0.31729564 0.47931552 0.34118542 0.060281053 0.040913843 0.43700913 0.13978778 0.3078362
0.33669358 0.12507884 -0.16810708 0.059672434 -0.05755544 0.25736326 0.26666418 -0.2116511
-0.2449235 0.48632017 -0.15285763 0.008680515 0.22152038 0.22067976 -0.14954653 -0.29895833
-0.120776564 0.0075052734 0.04554679 -0.20391083 -0.20458081 -0.2293842 -0.3617192 -0.31257096
-0.44874823 -0.4723191 0.08650896 -0.33907306 0.21745004 0.049162347 -0.11838167 0.077801384
00000000: 5789 1e3e 41d6 b23d e438 f83c 6415 fcbd
00000010: 7e2a 223d 00e2 e23e 79be 3a3e 15ff 65bd
00000020: a95b b53d 19a0 933d 69f6 693d 7240 dbbd
00000030: d18d 27bd 44a2 a73d dd06 bc3e 7c9b 3c3d
00000040: f034 8b3e 15c6 143f 67c3 5ebe e67c d8bd
00000050: c511 943e 5f4c 3cbf 05c8 913d e42b d63e
00000060: c118 7cbe 4117 6cbe 8fbe fe3a 9b90 f73c
00000070: f980 4dbe 7ebd 783e 0544 b73d b95f abbd
00000080: 2b2f 0c3f ccf7 c83e 6eba 423e dc4e d83e
00000090: 5e0b 4abe e6bb 85be 468a e4bd e849 81be
000000a0: c0ad 0f3e 9d47 113e 050d 69be 7ec0 39be
000000b0: 8834 9dbe b657 e63d ccaa 643d 52c8 693e
000000c0: e494 fbbd af18 563e 966e 203e 8c99 5f3e
000000d0: cee2 793e 0b1a 783d 30df b3be 9d06 87bd
000000e0: 04b0 733e 4109 06bf 5dcc d63e 8304 443e
000000f0: ff60 96bd bd10 3a3e 2257 b93e 69e3 15be
00000100: f5f9 773d 2f1a 04be b865 16be 822b c0bc
00000110: 7559 0f3e 307b 0fbe 1c8e d3bc 9d49 f5bd
00000120: feb7 213f 44fa 193f b951 603f 3960 d73d
00000130: c67d 193f 2960 1b3f 5559 763c d913 8e3e
00000140: 79e6 f93e 43c8 843e 426b ca3e b479 a43e
00000150: 9d50 273f d943 be3e 27db ba3e f86b 2f3d
00000160: 5ad9 013e ade4 b63e 5852 e63e de80 bf3d
00000170: 823c 9abe 1803 863e c3d1 3abe 078d 403e
00000180: 5584 6abe 146c 61be 785f d8bc a6de 71bc
00000190: bf2d 1ebd eb6d 153d db03 ce3d c7a8 d7bd
000001a0: 060a d3be 655b c3be cfd1 6cbe 7ed8 29bf
000001b0: 18e6 5b3e bb01 53bc f291 923d 8ce9 653e
000001c0: 3a19 2fbe 51e1 fcbd fd42 253c 7685 11bb
000001d0: 2d30 4bbd c998 1b3f 41e7 993e 5abd 983e
000001e0: 87a3 043f 49e2 cf3e 11ed a33e 810c 8fbe
000001f0: 6d37 3bbd 2040 e63e 8a9a 733e a8c5 343e
00000200: 0ea7 e8bb 5e2d 423d 13de c53e 72cb b53e
00000210: 628d 49bd 0f2b 83be c2f6 83bd 1889 1b3e
00000220: 4afe af3e d728 eb3c 8963 1dbe 1be7 bdba
00000230: 9df9 8a3d 7c6c 983a c8b6 9ebd c07b d7bd
00000240: 1aa7 c33e 11ee fcbd f437 963e 0ef7 393e
00000250: 5e0a 8a3e afa4 a03e 78c2 423e dbc1 86be
00000260: ad3b 093d 8bb0 d93e e16e 053e 9044 713e
00000270: e68d aebc eb2c 8f3e 0425 093f c3c9 5a3e
00000280: d45f 173e 6a72 263e d20d 723d 48da 36be
00000290: c8b6 bfbb 7903 84be a61a d1be e395 ca3d
000002a0: 2a2c 8b3c 20a6 03be 2ece a2be b598 3d3e
000002b0: 52ff 013e f2de 613c 797d 833d b242 1bbe
000002c0: ea4f b6bd c38f fabd 068b 99be b954 43be
000002d0: e534 fdbc 6ac6 873e 5da6 083f adfc 2f3d
000002e0: fc37 973e 8848 f33e 1a78 9f3e 99ec 8e3e
000002f0: 3d8f e4bc 89cc bd3e a34b 3c3d d91e ee3e
00000300: b98f e13e bb85 bb3e 7f9a 883e eea2 593e
00000310: 6c8d 163e 4ea5 ae3e 1fe3 483e c5c7 b03d
00000320: 8e0f 983c 1316 6e3e 431f 2f3d aa13 603e
00000330: 70cf 513d 8085 693e c238 d93e 33f5 873d
00000340: 7056 f1bd 452b a73e 413a 083b 4918 eeba
00000350: 171f 8a3d 1df0 1ebe c0bd 7e3d f7a9 3e3e
00000360: 9374 a23e d868 f53e dbaf ae3e 44e9 763d
00000370: 4695 273d a9bf df3e 8724 0f3e b59c 9d3e
00000380: 1a63 ac3e ab14 003e 4324 2cbe 156b 743d
00000390: 41bf 6bbd 1ec5 833e 3588 883e 11bb 58be
000003a0: 3acd 7abe f5fe f83e b686 1cbe b838 0e3c
000003b0: 3dd6 623e e0f9 613e ba22 19be 1111 99be
000003c0: b459 f7bd ccee f53b 458f 3a3d 00ce 50be
000003d0: a27d 51be b1e3 6abe 4233 b9be 4d09 a0be
000003e0: 54c2 e5be cfd3 f1be 9c2b b13d fc9a adbe
000003f0: 39ab 5e3e 755e 493d 1772 f2bd 5556 9f3d

encoder.3.bias f4 [8]
0.26274487 0.031960897 0.1180637 -0.05699677 0.3715094 -0.30583042 -0.060180187 0.14678447
00000000: 7f86 863e 6ee9 023d 62cb f13d 7275 69bd
00000010: 7b36 be3e ce95 9cbe 807f 76bd ab4e 163e

cnn_net.0.weight f4 [16, 8, 3, 3]
-0.13336717 -0.06578992 0.16973124 0.10987926 -0.01603431 0.40641594 -0.09064249 -0.5637115
-0.14045347 0.057029348 0.19556326 -0.07861827 -0.27123734 0.053671036 0.29612553 0.06419293
-0.0468398 0.35190004 -0.08182363 0.20742969 0.4030853 0.09192548 0.19407636 0.21424569
-0.07744952 -0.16178757 0.08049602 -0.008745959 0.5892374 0.4915281 -0.01978909 -0.29754266
0.012902353 0.119499676 0.34094024 0.030733727 -0.3961156 -0.2524891 -0.302822 -0.1766827
0.051379144 -0.11598873 -0.044988543 0.11389985 0.21707974 0.15471965 0.5494385 0.29879785
0.15673842 0.2212674 0.08295817 0.08209946 0.20652176 0.44259873 0.3186728 0.0789056
0.27962792 -0.23622245 -0.084261745 0.18389976 0.12703715 -0.0647938 0.29631498 0.113266096
0.05454075 0.06664919 0.15205573 -0.06687786 0.23660578 0.024022961 -0.14111058 -0.1273732
-0.36294326 0.03920623 0.064382516 -0.11724078 0.52102983 0.22932388 -0.34298992 -0.2610183
0.3567351 -0.34640577 0.30324602 0.21012755 0.08794688 0.1274061 0.46341375 -0.048346136
-0.29438072 -0.0040597483 -0.14281027 0.2877913 0.42160517 -0.14671613 -0.0989493 0.04946403
0.1536769 -0.3647751 0.24060796 -0.2083757 0.1733427 0.21168968 -0.050258014 0.14466062
0.005115006 -0.040176716 -0.116307914 0.29242146 -0.28992483 -0.34282404 -0.15732181 0.3593393
0.06383937 -0.09069761 0.06959742 0.2940784 0.69766957 0.06873302 0.11483198 0.67099303
0.14006335 -0.04363705 0.27703202 -0.18687147 0.48485866 0.33708987 -0.04537272 0.3767656
0.2605593 0.041792996 -0.062911846 0.005192118 -0.03336327 0.20137976 0.02478593 -0.13219954
0.071683615 -0.15302426 -0.037245654 0.09084881 0.039926022 0.07245687 -0.06048992 -0.09984171
-0.3935161 -0.2445178 -0.3904764 -0.27522895 -0.18557529 0.03330821 -0.74296105 -0.6760982
-0.17126787 -0.28214064 -0.37797856 0.031672 -0.029358637 -0.0099941315 -0.0704796 -0.11326841
-0.18445174 0.12470411 0.11153512 -0.14194271 0.16197519 0.16775802 0.3638557 0.041166585
0.40665767 0.21523976 -0.23683828 0.13464826 -0.046383712 0.04378633 0.10931247 -0.005392238
-0.05119897 -0.00040224587 -0.15185317 0.2551074 0.007823875 -0.33293003 -0.14733803 0.25148246
0.09971967 0.06449883 -0.3562443 -0.16531515 -0.09954998 0.13792633 -0.1704258 -0.2222882
0.18230012 0.4287637 -0.14170499 0.019344542 0.057095803 0.14613304 -0.05079043 -0.017353155
0.21871538 0.078459986 -0.071659386 0.060668346 0.06108951 -0.005365639 0.32077786 0.23855394
-0.15788953 0.21968523 0.023236796 0.26306322 -0.32087442 0.23361325 0.018137965 -0.032478597
-0.060602386 -0.5658413 -0.43414015 -0.19087219 -0.058535326 -0.3718744 -0.017133512 0.12465592
-0.3798645 -0.22124887 -0.11143305 -0.097063646 -0.032487243 0.21996374 0.15732713 0.033372745
-0.34698045 -0.042658005 0.11922788 -0.1591001 -0.5564386 -0.01771912 0.1200911 0.24482356
0.0150774345 -0.112357594 0.37786296 -0.1927811 0.08142264 -0.1660733 0.14910905 -0.009848813
-0.012013078 0.13023588 0.08368922 0.02666329 0.12558617 -0.21342814 -0.13395979 -0.11261323
00000000: 6791 08be debc 86bd 07ce 2d3e 6108 e13d
00000010: 635a 83bc c015 d03e c5a2 b9bd 664f 10bf
00000020: 09d3 0fbe 9b97 693d bc41 483e 9e02 a1bd
00000030: 9fdf 8abe 29d6 5b3d c49d 973e 9577 833d
00000040: 17db 3fbd 3e2c b43e 2693 a7bd 7368 543e
00000050: 3261 ce3e 6d43 bc3d f4bb 463e 3963 5b3e
00000060: db9d 9ebd a4ab 25be 19db a43d 364b 0fbc
00000070: 43d8 163f 92a9 fb3e bb1c a2bc 8357 98be
00000080: 6464 533c 3fbc f43d b88f ae3e 4cc5 fb3c
00000090: aacf cabe 4046 81be 7c0b 9bbe 4fec 34be
000000a0: f072 523d 808b edbd e845 38bd 5344 e93d
000000b0: 274a 5e3e d46e 1e3e 00a8 0c3f 08fc 983e
000000c0: 0980 203e ec93 623e f9e5 a93d c323 a83d
000000d0: 717a 533e 4d9c e23e 1529 a33e 4299 a13d
000000e0: 642b 8f3e 4ce4 71be 6c91 acbd 3850 3c3e
000000f0: 0716 023e 9db2 84bd 99b6 973e 0ef8 e73d
00000100: 1f66 5f3d 5f7f 883d 7fb4 1b3e 42f7 88bd
00000110: c948 723e cdcb c43c 4b7f 10be 1f6e 02be
00000120: b3d3 b9be b696 203d fbda 833d ef1b f0bd
00000130: 3662 053f e1d3 6a3e 609c afbe 31a4 85be
00000140: fca5 b63e 195c b1be 1043 9b3e ad2b 573e
00000150: 7e1d b43d bf76 023e 9144 ed3e 9906 46bd
00000160: 12b9 96be a307 85bb db3c 12be 6259 933e
00000170: a2dc d73e c13c 16be eea5 cabd cb9a 4a3d
00000180: 7a5d 1d3e cdc3 babe ef61 763e 7160 55be
00000190: c080 313e 2ec5 583e 59db 4dbd ea21 143e
000001a0: c89b a73b 5790 24bd d832 eebd 44b8 953e
000001b0: 0771 94be a286 afbe f818 21be 52fb b73e
000001c0: 37be 823d abbf b9bd 1889 8e3d 7291 963e
000001d0: 799a 323f e6c3 8c3d 072d eb3d 33c6 2b3f
000001e0: c46c 0f3e c3bc 32bd 24d7 8d3e 3c5b 3fbe
000001f0: 653f f83e 0b97 ac3e bfd8 39bd 6ce7 c03e
00000200: 0768 853e 222f 2b3d edd7 80bd a522 aa3b
00000210: eda7 08bd 7f36 4e3e dd0b cb3c 515f 07be
00000220: dcce 923d 64b2 1cbe e68e 18bd f10e ba3d
00000230: 7889 233d 4464 943d 47c4 77bd cf79 ccbd
00000240: f17a c9be e062 7abe 86ec c7be cfea 8cbe
00000250: 7307 3ebe 316e 083d b232 3ebf c614 2dbf
00000260: d860 2fbe bd74 90be 6886 c1be 80ba 013d
00000270: 8681 f0bc 6dbe 23bc 9c57 90bd 45f9 e7bd
00000280: ebe0 3cbe de64 ff3d 866c e43d 6e59 11be
00000290: d3dc 253e c2c8 2b3e 4b4b ba3e 4b9e 283d
000002a0: 6f35 d03e d067 5c3e bc85 72be 3ce1 093e
000002b0: d9fc 3dbd 4b59 333d 37df df3d 5fb1 b0bb
000002c0: 03b6 51bd 87e4 d2b9 667f 1bbe 709d 823e
000002d0: b62f 003c ce75 aabe c8df 16be 4fc2 803e
000002e0: d439 cc3d f617 843d a765 b6be 6048 29be
000002f0: dce0 cbbd 8f3c 0d3e 1a84 2ebe 859f 63be
00000300: e2ac 3a3e ea86 db3e 1d1b 11be 7278 9e3c
00000310: 4add 693d e6a3 153e a009 50bd 3428 8ebc
00000320: edf6 5f3e a1af a03d 28c2 92bd 5f7f 783d
00000330: fe38 7a3d 3ed2 afbb ff3c a43e 7c47 743e
00000340: cbad 21be 2af5 603e 185b be3c 39b0 863e
00000350: a749 a4be 5038 6f3e 1296 943c 4708 05bd
00000360: 353a 78bd fada 10bf 9e47 debe 0074 43be
00000370: bdc2 6fbd 5266 bebe 945b 8cbc 9a4b ff3d
00000380: 9a7d c2be 108f 62be 0337 e4bd 4ec9 c6bd
00000390: 5811 05bd 2d3e 613e 5d1a 213e dcb1 083d
000003a0: 6ca7 b1be 29ba 2ebd bf2d f43d 23eb 22be
000003b0: c372 0ebf b027 91bc 53f2 f53d 07b3 7a3e
000003c0: 5807 773c bd1b e6bd 4177 c13e 6968 45be
000003d0: eac0 a63d 1f0f 2abe 0bb0 183e ea5c 21bc
000003e0: 80d2 44bc 8e5c 053e 4165 ab3d f96c da3c
000003f0: a999 003e e88c 5abe c12c 09be c4a1 e6bd

cnn_net.0.bias f4 [16]
0.19134335 0.17514068 -0.016931001 0.14018382 -0.007868655 0.03504241 0.16825463 -0.18624724
-0.0130925 0.03975446 0.18216237 0.048799966 0.16934852 0.22310758 0.39235047 0.17982934
00000000: 83ef 433e 1458 333e e2b2 8abc 598c 0f3e
00000010: 88eb 00bc a188 0f3d f14a 2c3e 99b7 3ebe
00000020: ed81 56bc 93d5 223d c688 3a3e 79e2 473d
00000030: b369 2d3e 5076 643e 29e2 c83e 2f25 383e

cnn_net.3.weight f4 [32, 16, 3, 3]
-0.12602842 -0.2296375 -0.29922387 -0.0016602569 -0.14323595 0.09641446 0.19691394 0.050125796
0.58753955 -0.13175069 0.011564162 0.08658722 0.0586027 0.030133413 -0.15486512 0.23895788
-0.043108393 0.5690259 0.11824097 0.19273274 -0.1227645 0.06711566 0.121428 0.080285214
-0.075970545 -0.18515232 0.16924797 0.016019894 0.12827139 0.25843364 0.14732409 0.004865454
0.27453753 -0.33966127 -0.5282533 0.05068644 0.058698285 -0.20337468 -0.22252841 0.19500071
-0.14548415 -0.048398823 0.008718431 0.015500774 0.08223192 0.04986224 0.010352716 0.09936341
0.31723237 -0.10685716 0.17867108 -0.08945529 -0.13466942 0.48084027 -0.146893 -0.40487084
-0.032869864 0.22466455 -0.20545085 -0.18221396 0.19755417 -0.16492769 -0.21651958 0.00017249919
0.31384164 0.20833011 -0.006848887 -0.11531756 -0.109271824 0.22782712 -0.2929481 0.0052560098
-0.20469597 -0.07542767 -0.017117819 0.14149483 0.053891722 -0.05764718 0.15483864 -0.2195269
0.2018925 0.17466961 -0.23396711 0.088470474 0.16100247 -0.04043042 0.059688233 0.06873388
-0.1465557 0.19330926 -0.3064131 0.055835057 0.009372625 0.121062346 -0.28018847 -0.093745634
0.07585689 0.0848679 0.12805007 0.16783701 0.029732943 0.03851335 0.041279636 -0.122098975
0.31959382 -0.3512112 -0.14822954 0.378638 0.27698538 0.4654661 0.5666442 0.62335163
-0.119279966 -0.09364562 0.4619888 0.07622003 0.5824151 0.16572462 -0.16526486 0.13059115
-0.080986224 0.11026992 -0.27255377 -0.0105191525 -0.44290584 0.07395011 -0.26559868 -0.20235425
-0.223251 0.7358224 -0.6067094 -0.29652157 0.8165403 0.60017157 0.24292724 0.18978424
-0.13819958 0.30981526 0.105986685 -0.035006363 -0.1125508 -0.026548732 -0.23225619 0.6141319
0.28598276 0.20354725 0.3129544 0.06030659 0.3163389 0.18008256 -0.024223162 -0.14743601
-0.27738225 0.17952013 0.18599114 0.2802312 -0.17798549 0.12046818 0.31362 -0.0924708
-0.14337721 -0.09569154 0.3984215 -0.08823271 0.25381473 0.64293945 0.29207838 0.06483258
0.2688579 0.025089627 -0.20514736 -0.028230885 -0.25982404 0.12120136 0.08729294 0.027414612
0.01071997 0.2269667 -0.021618824 -0.02576284 0.028353926 0.22125755 0.25375566 -0.13031505
-0.13845278 0.22460552 0.343627 -0.1537267 0.05332601 0.30685124 0.17442317 0.16152513
0.113675535 0.014338009 0.19520056 -0.1819671 -0.12951282 -0.11961734 0.17764473 0.3375842
0.6136587 0.27506903 0.16845164 0.50702834 -0.19592986 -0.4812595 -0.10259246 0.1556389
0.10679745 0.09179362 0.21255948 0.11603259 -0.14396673 -0.3298241 -0.17185177 0.4326153
0.17109697 0.074416846 0.06487752 0.048864793 0.04475191 0.12461345 0.05219113 0.23422328
0.06720096 0.21627662 0.26591462 0.082801186 0.096967086 0.048990324 0.011649498 0.12147744
-0.023245383 0.042838916 0.091435336 0.17978661 0.20688167 0.40686408 0.121909484 0.20678684
-0.37717405 -0.3559247 -0.08702804 0.12838793 0.092033565 -0.055555563 -0.10824996 -0.15461181
0.053225935 0.01938233 -0.09045037 0.17633326 0.20655662 0.16642678 0.077310555 -0.3500192
00000000: 980d 01be 1826 6bbe df33 99be fa9c d9ba
00000010: 72ac 12be f274 c53d cfa3 493e b550 4d3d
00000020: fe68 163f a7e9 06be 9c77 3d3c a454 b13d
00000030: 6209 703d 59da f63c f694 1ebe 60b1 743e
00000040: 6d92 30bd aeab 113f 5228 f23d bb5b 453e
00000050: f46b fbbd ef73 893d 3eaf f83d 936c a43d
00000060: 7296 9bbd 9298 3dbe 574f 2d3e 273c 833c
00000070: 9359 033e 6a51 843e 20dc 163e 636e 9f3b
00000080: 2f90 8c3e 15e8 adbe 9c3b 07bf 969c 4f3d
00000090: 9d6d 703d 7441 50be 7dde 63be 44ae 473e
000000a0: ccf9 14be d83d 46bd c0d7 0e3c f5f6 7d3c
000000b0: 3569 a83d 593c 4c3d 709e 293c 0b7f cb3d
000000c0: 486c a23e edd7 dabd 8df5 363e 5634 b7bd
000000d0: c8e6 09be b230 f63e 1e6b 16be 3b4b cfbe
000000e0: 8da2 06bd 770e 663e b561 52be 4c96 3abe
000000f0: a44b 4a3e cee2 28be 4fb7 5dbe e6e0 3439
00000100: daaf a03e 7d54 553e a16c e0bb 9d2b ecbd
00000110: e8c9 dfbd 834b 693e 4bfd 95be 9b3a ac3b
00000120: d29b 51be d279 9abd ab3a 8cbc 05e4 103e
00000130: 91bd 5c3d 731f 6cbd 058e 1e3e a9cb 60be
00000140: e8bc 4e3e 97dc 323e 1395 6fbe 0230 b53d
00000150: d5dd 243e 5e9a 25bd a67b 743d 59c4 8c3d
00000160: b312 16be ddf2 453e 2ee2 9cbe 4db3 643d
00000170: a38f 193c 89ef f73d dd74 8fbe b6fd bfbd
00000180: db5a 9b3d 39cf ad3d 8f1f 033e 77dd 2b3e
00000190: 8092 f33c 2dc0 1d3d d614 293d 070f fabd
000001a0: cda1 a33e f4d1 b3be 7cc9 17be d7dc c13e
000001b0: 07d1 8d3e 9351 ee3e 980f 113f f993 1f3f
000001c0: 0e49 f4bd 46c9 bfbd cc89 ec3e 3f19 9c3d
000001d0: 2819 153f b7b3 293e 313b 29be b0b9 053e
000001e0: 1bdc a5bd 32d5 e13d 2b8c 8bbe 8658 2cbc
000001f0: 8ec4 e2be 2873 973d 8dfc 87be f435 4fbe
00000200: e99b 64be db5e 3c3f 4f51 1bbf add1 97be
00000210: c908 513f d8a4 193f ebc1 783e cd56 423e
00000220: 3184 0dbe 1ba0 9e3e 8c0f d93d d562 0fbd
00000230: 0981 e6bd ba7c d9bc 91d4 6dbe c037 1d3f
00000240: 556c 923e b16e 503e 8f3b a03e 0b04 773d
00000250: 2cf7 a13e 9067 383e a76f c6bc 77f9 16be
00000260: 0c05 8ebe 20d4 373e 7674 3e3e 777a 8f3e
00000270: d441 36be 05b8 f63d cd92 a03e 5561 bdbd
00000280: 7ad1 12be edf9 c3bd e7fd cb3e 5ab3 b4bd
00000290: 01f4 813e ae97 243f 4c8b 953e f2c6 843d
000002a0: bea7 893e c388 cd3c 2612 52be 7544 e7bc
000002b0: a807 85be 6b38 f83d a4c6 b23d 9c94 e03c
000002c0: d0a2 2f3c f569 683e f619 b1bc 970c d3bc
000002d0: 7e46 e83c 5791 623e 43ec 813e 4f71 05be
000002e0: 91c6 0dbe fdfe 653e e1ef af3e 886a 1dbe
000002f0: 606c 5a3d 9b1b 9d3e fd9b 323e d866 253e
00000300: b8ce e83d f8e9 6a3c a8e2 473e 9555 3abe
00000310: 029f 04be f0f9 f4bd 80e8 353e d6d7 ac3e
00000320: bd18 1d3f d9d5 8c3e 967e 2c3e 9ccc 013f
00000330: d6a1 48be a567 f6be ff1b d2bd ce5f 1f3e
00000340: 9fb8 da3d 4bfe bb3d 31a9 593e 7fa2 ed3d
00000350: 046c 13be b4de a8be e9f9 2fbe c17f dd3e
00000360: 0b34 2f3e dc67 983d 81de 843d 7326 483d
00000370: c74d 373d 5635 ff3d 5ec6 553d 3ad8 6f3e
00000380: a8a0 893d 9e77 5d3e f625 883e ab93 a93d
00000390: ae96 c63d 14aa 483d 89dd 3e3c 2ac9 f83d
000003a0: 1a6d bebc dc77 2f3d 7342 bb3d fb19 383e
000003b0: cad8 533e 7d50 d03e aeab f93d eebf 533e
000003c0: f51c c1be c33b b6be c23b b2bd 2078 033e
000003d0: 187c bc3d 3b8e 63bd 28b2 ddbd 8f52 1ebe
000003e0: 7003 5a3d b1c7 9e3c 0b3e b9bd b590 343e
000003f0: 9483 533e c86b 2a3e ff54 9e3d b735 b3be

cnn_net.3.bias f4 [32]
-0.009164674 -0.13508864 0.12966783 0.25633684 0.08198008 0.17073095 0.13696928 0.10123941
0.15937513 -0.3905826 0.1686595 0.13281177 0.041478805 0.15182804 0.1817872 -0.017934315
-0.06555552 0.13414387 0.17718285 0.115605414 0.1267196 0.12712014 0.13041712 0.5135129
0.115898035 0.21413545 0.121602304 0.1816603 0.12928526 0.3106527 0.19306928 0.080561176
00000000: 6e27 16bc ad54 0abe a5c7 043e 953e 833e
00000010: 2ce5 a73d 18d4 2e3e ad41 0c3e 9c56 cf3d
00000020: 3c33 233e 71fa c7be 13b5 2c3e cfff 073e
00000030: aee5 293d cf78 1b3e 6c26 3a3e fcea 92bc
00000040: f941 86bd 035d 093e 6c6f 353e 88c2 ec3d
00000050: c8c2 013e c82b 023e 118c 053e 9575 033f
00000060: f35b ed3d 5346 5b3e a10a f93d 2805 3a3e
00000070: 5b63 043e df0d 9f3e f4b3 453e 42fd a43d

hidden.weight f4 [32, 128]
-0.03244564 0.023758622 -0.35958692 -0.008731765 -0.42915583 -0.40598744 0.07943257 0.1833833
0.0062822704 0.03585868 0.2718278 0.20443878 0.11199551 0.07220531 -0.06054634 -0.02527391
0.04111621 0.108346745 -0.045982227 0.029937383 0.3584135 0.12796654 -0.035371926 0.0977329
0.111470364 -0.031156376 0.11462847 0.11030245 0.0038916564 0.04761223 0.05197589 0.02799665
-0.0585471 0.26533544 0.18665986 0.022943137 0.70430475 0.3490399 -0.49797195 -0.36224335
0.28863028 0.043962862 0.2907187 0.10321465 0.058740895 0.28099963 0.1728913 -0.18244949
0.40482405 -0.08196226 -0.610538 -0.50392 -0.0069323624 -0.054698642 -0.15812512 0.025886081
0.14660683 0.18976867 0.16505235 0.18078429 -0.06697884 0.09785231 0.041875787 0.23038709
0.04548874 -0.33200034 0.17665009 0.35960633 -0.013094652 0.2283182 -0.042280305 0.14403412
-0.17050481 0.16136435 -0.012243528 0.13216063 0.02873691 0.22377118 0.012147504 0.102766395
0.11358744 0.217929 0.01841214 -0.08569896 -0.02314998 0.17667665 0.10526837 0.21658063
-0.08997432 0.00013369686 0.40965283 0.025739264 0.041161783 0.15832898 0.090989046 -0.038969167
-0.1870936 0.15929876 0.3203973 0.3495097 0.0133113125 0.14365472 -0.070272945 0.06534009
0.041228168 0.2432589 0.25596762 0.18106171 0.04709295 0.17969014 0.09553602 -0.050313372
0.0854855 0.11666724 0.088014424 0.07077449 -0.22515292 0.10903645 0.23952784 -0.1489906
0.15141949 0.37678933 -0.035029314 0.17985381 0.21244603 -0.0539624 -0.2632754 -0.16611826
-0.05371836 0.09817659 0.009931218 0.012693474 0.1769386 -0.16109753 0.024072409 0.08325185
-0.059076134 -0.2453516 -0.1608777 -0.3423496 -0.019060126 -0.24327894 -0.0749992 0.18071954
-0.034101695 -0.08138825 0.012681412 -0.27637854 0.060341004 0.014801258 0.120982796 -0.10943793
-0.09369072 0.017397784 -0.096954055 0.14733018 -0.10159492 0.17129874 0.16046874 -0.07427308
-0.006342185 0.11241039 -0.04735983 -0.040727727 0.015756814 0.07856845 0.23589647 -0.025483008
-0.10566001 0.03379148 0.04545577 -0.0023381803 0.14620346 0.026566803 0.061630968 -0.052717604
-0.076740846 -0.06111505 -0.08587093 -0.04200852 -0.40247664 0.13562056 -0.17016573 0.008871654
-0.27269167 -0.02251073 -0.0076312316 -0.010750888 -0.05853549 -0.14355212 0.0672852 -0.046454072
0.043036003 -0.06482789 -0.06320962 -0.2205942 -0.092061944 -0.14500605 -0.05265171 0.020283418
-0.008804237 0.057401657 -0.15772648 0.19489476 -0.025691358 0.09711776 0.1570203 0.015621309
0.1104844 -0.00033764678 0.02413589 -0.1081051 -0.040476367 -0.18431397 -0.033671256 -0.15273635
-0.039263632 -0.05293041 0.17872158 0.025219096 -0.09405518 -0.010429931 -0.24182402 -0.09920851
-0.087432995 0.05708628 0.009568788 -0.08052996 -0.035591498 -0.20568208 -0.053980444 -0.094611794
0.27872902 -0.006445529 -0.0009107887 -0.051180363 -0.34871432 -0.032617133 0.08046053 0.0048498986
-0.014712267 0.21883048 0.10134293 -0.06692994 0.08847574 -0.08663013 -0.040448125 0.20283675
0.18462113 0.07671307 -0.122273244 -0.21102642 -0.07392185 0.21683787 0.02570791 -0.12837769
00000000: b8e5 04bd 71a1 c23c c71b b8be ad0f 0fbc
00000010: 50ba dbbe 96dd cfbe 8bad a23d d5c8 3b3e
00000020: 81db cd3b 8de0 123d 032d 8b3e 6658 513e
00000030: e75d e53d 61e0 933d 70ff 77bd 3b0b cfbc
00000040: 7969 283d e6e4 dd3d dc57 3cbd 3e3f f53c
00000050: f981 b73e a909 033e 27e2 10bd 3028 c83d
00000060: 934a e43d a83b ffbc 55c2 ea3d 40e6 e13d
00000070: 290b 7f3b 0b05 433d ace4 543d 3b59 e53c
00000080: 15cf 6fbd 0cda 873e c323 3f3e 3ff3 bb3c
00000090: 514d 343f 5cb5 b23e 2ef6 febe f677 b9be
000000a0: 59c7 933e 6712 343d 15d9 943e 3462 d33d
000000b0: 4b9a 703d 2fdf 8f3e 6b0a 313e 0ad4 3abe
000000c0: 1945 cf3e d4db a7bd 384c 1cbf e700 01bf
000000d0: df28 e3bb af0b 60bd 8deb 21be 0c0f d43c
000000e0: 1a20 163e b852 423e 7c03 293e 841f 393e
000000f0: 342c 89bd cb66 c83d f285 2b3d 98ea 6b3e
00000100: 6752 3a3d f3fb a9be c3e3 343e 521e b83e
00000110: f48a 56bc 3fcc 693e 1d2e 2dbd ae7d 133e
00000120: d098 2ebe b23c 253e 1499 48bc 1e55 073e
00000130: ab69 eb3c 4624 653e 5306 473c 3077 d23d
00000140: 88a0 e83d c828 5f3e 0ed5 963c f082 afbd
00000150: 07a5 bdbc b9ea 343e f196 d73d 50c7 5d3e
00000160: 7544 b8bd fa30 0c39 04be d13e 26db d23c
00000170: 4299 283d fe20 223e 7758 ba3d 229e 1fbd
00000180: 7795 3fbe 371f 233e 1d0b a43e eff2 b23e
00000190: b117 5a3c 391a 133e 43eb 8fbd 06d1 853d
000001a0: dede 283d dc18 793e 300e 833e 3e68 393e
000001b0: 8ae4 403d b100 383e 64a8 c33d 6515 4ebd
000001c0: 0613 af3d 3cef ee3d e840 b43d 37f2 903d
000001d0: 7d8e 66be 814e df3d c946 753e fe90 18be
000001e0: b60d 1b3e 88ea c03e e67a 0fbd 992b 383e
000001f0: 748b 593e ad07 5dbd 09cc 86be e81a 2abe
00000200: c807 5cbd cf10 c93d 8cb6 223c 4af8 4f3c
00000210: 642f 353e c0f6 24be 8033 c53c f27f aa3d
00000220: d1f9 71bd 733d 7bbe 20bd 24be 7248 afbe
00000230: fb23 9cbc 1d1e 79be 2e99 99bd 8b0e 393e
00000240: 38ae 0bbd e2ae a6bd b2c5 4f3c 7d81 8dbe
00000250: 2128 773d fa80 723c d4c5 f73d fe20 e0bd
00000260: ece0 bfbd cc85 8e3c d98f c6bd b9dd 163e
00000270: ff10 d0bd f068 2f3e eb51 243e 7c1c 98bd
00000280: 1bd2 cfbb 6b37 e63d 62fc 41bd 1ed2 26bd
00000290: 6f14 813c 7fe8 a03d d88e 713e bec1 d0bc
000002a0: 4664 d8bd ef68 0a3d d42f 3a3d 283c 19bb
000002b0: 5cb6 153e a0a2 d93c c170 7c3d 6aee 57bd
000002c0: 4e2a 9dbd c653 7abd 19dd afbd 2011 2cbd
000002d0: 6b11 cebe 1ee0 0a3e ed3f 2ebe 6a5a 113c
000002e0: 3e9e 8bbe 6c68 b8bc 690f fabb 7e24 30bc
000002f0: e9c2 6fbd 54ff 12be d3cc 893d a046 3ebd
00000300: 8546 303d 7cc4 84bd 0c74 81bd 72e3 61be
00000310: f98a bcbd 777c 14be 52a9 57bd 6929 a63c
00000320: a53f 10bc 001e 6b3d 0d83 21be 7e92 473e
00000330: af76 d2bc ade5 c63d eec9 203e 85f0 7f3c
00000340: a545 e23d 2f06 b1b9 a1b8 c53c 3566 ddbd
00000350: 8cca 25bd cdbc 3cbe dfea 09bd eb66 1cbe
00000360: e7d2 20bd 8fcd 58bd ca02 373e 4798 ce3c
00000370: 01a0 c0bd 4de2 2abc b7a0 77be d52d cbbd
00000380: 1210 b3bd 4ed3 693d 68c6 1c3c e4ec a4bd
00000390: 64c8 11bd 539e 52be 991a 5dbd d4c3 c1bd
000003a0: 92b5 8e3e 0435 d3bb ffc1 6eba 80a2 51bd
000003b0: af8a b2be 8b99 05bd 7ec8 a43d e6eb 9e3b
000003c0: b80b 71bc 1915 603e e28c cf3d 9012 89bd
000003d0: c532 b53d 236b b1bd efac 25bd 70b4 4f3e
000003e0: 520d 3d3e be1b 9d3d 656a fabd 4f17 58be
000003f0: 5764 97bd bf0a 5e3e 6599 d23c 7175 03be

hidden.bias f4 [32]
0.17493118 -0.008188574 0.17524357 0.17016076 -0.027798653 -0.104137935 0.17484036 0.16818136
-0.019627087 0.16797224 0.16822065 -0.10636683 -0.016948005 -0.06404843 0.1748025 -0.103166014
-0.2267557 -0.027365446 -0.01988307 0.17362705 -0.080391854 -0.009536084 -0.023242678 -0.23341787
0.15759492 -0.045447603 0.17687808 0.1709757 -0.049617544 -0.0074281576 0.17044984 -0.16676654
00000000: 2921 333e 5e29 06bc 0d73 333e 9f3e 2e3e
00000010: 00ba e3bc 4546 d5bd 5a09 333e bc37 2c3e
00000020: fcc8 a0bc ea00 2c3e 0942 2c3e dad6 d9bd
00000030: 8bd6 8abc d32b 83bd 6dff 323e b448 d3bd
00000040: a532 68be 802d e0bc d2e1 a2bc 4acb 313e
00000050: 7ca4 a4bd 3c3d 1cbc 6e67 bebc 1805 6fbe
00000060: 9060 213e 4427 3abd 871f 353e 4114 2f3e
00000070: c43b 4bbd e767 f3bb 678a 2e3e d9c4 2abe

out.weight f4 [1, 32]
-0.3709497 -0.1762684 -0.33184963 -0.2095811 0.61035657 1.9212644 -0.4157129 -0.23771286
0.15244748 -0.32850087 -0.19790047 0.60266864 -0.11015523 1.0040718 -0.581741 0.4991314
0.4110221 0.027590899 0.32107547 -0.37729993 0.9162216 0.20547342 0.13496128 0.7879982
1.6272373 0.103198156 -0.5486405 -0.12937118 1.1956991 0.31777278 -0.27483127 0.54149973
00000000: 1eed bdbe b47f 34be 32e8 a9be 6e9c 56be
00000010: 5440 1c3f feeb f53f 52d8 d4be 006b 73be
00000020: 311b 1c3e 4431 a8be 6ca6 4abe 7e48 1a3f
00000030: 1199 e1bd 6d85 803f faec 14bf 278e ff3e
00000040: 7d71 d23e 4f06 e23c 0164 a43e 752d c1be
00000050: 808d 6a3f a067 523e 4a33 0a3e 40ba 493f
00000060: 5049 d03f 8e59 d33d b473 0cbf e179 04be
00000070: ab0c 993f 1db3 a23e afb6 8cbe ba9f 0a3f
