train_history/olympics-running/11_22_14_16/actor.pth (torch, 48200 bytes, 14 tensors)

encoder.0.weight f4 [8, 4, 3, 3]
000000 c4 7c ca be 6d d6 28 3e 10 df 4f 3e 91 a0 9c bd
       -0.39548314 0.16488047 0.20299935 -0.07647813
000010 08 4e d9 bd 60 a3 9e be 18 00 be be cf 1a 90 3d
       -0.106105864 -0.3098402 -0.37109447 0.07036363
000020 7c 73 33 3e 9f ba 01 be e0 7c 1c 3d dd 6f 77 3d
       0.17524523 -0.12668847 0.038205028 0.060409416
000030 d0 3c 95 be cf 32 13 be b9 59 19 be 99 aa a8 bc
       -0.2914796 -0.1437485 -0.14975633 -0.02058916
000040 48 d8 19 bf 9b 14 00 bd b8 28 dc 3d 6a 38 e4 3d
       -0.60095644 -0.03126965 0.10749954 0.11143573
000050 b5 28 7d bd 7f 81 1a be 29 fc af 3e a3 b0 d8 3e
       -0.0618064 -0.15088461 0.3437207 0.42322263
000060 c6 2a ba 3e 4e e4 ef 3e 88 d3 4b be 7d 69 d7 3d
       0.3636076 0.4685387 -0.19904912 0.10518167
000070 3b d4 0f 3e 4b ab 55 be 5b db 86 3d 29 89 75 3e
       0.14045803 -0.20866124 0.065848075 0.23978104
000080 da 11 05 3e a5 5c dd 3c af 30 db be 60 a4 83 be
       0.12995091 0.027021715 -0.4281058 -0.25711346
000090 e3 eb 93 3d 97 bd d2 bb 0a 22 ff be 26 ee 02 3e
       0.07222726 -0.0064312923 -0.49830657 0.12786159
0000a0 aa d3 bf 3e 18 1e 8d be 88 27 0b 3e 7b 26 bb bd
       0.37466174 -0.27562022 0.13589299 -0.09138199
0000b0 c9 fc b0 3e 52 a8 19 3f f5 f3 b2 3d 95 19 58 3e
       0.3456786 0.6002246 0.08737937 0.21103509
0000c0 60 3f c0 bc ce 32 93 3d be 66 3a 3e 99 dc 71 bd
       -0.02346772 0.071874246 0.18203256 -0.05904827
0000d0 36 64 90 bd ba bc 0a 3f cd 13 5e 3e ef 19 e7 be
       -0.07050364 0.54194224 0.21687241 -0.45136973
0000e0 c1 b4 64 3d f5 91 f6 3d e0 5f a1 3e 1e 04 b4 3c
       0.055836443 0.12039558 0.3151846 0.02197462
0000f0 4d 26 31 3e 72 10 91 3e 0a 1d ee 3b 95 4f 65 be
       0.17299767 0.2833286 0.0072666453 -0.2239364
000100 2b 20 d2 3d 52 b4 e8 bd a6 e7 84 3e 13 8f 43 be
       0.10260042 -0.11362518 0.25957984 -0.19097547
000110 b4 ae 24 bd 01 88 76 3c f4 ed f3 3c c7 fd 00 3e
       -0.040205672 0.015047074 0.02977655 0.12596808
000120 33 04 82 be 13 33 a0 3e d7 6b 22 3e 66 0f 9c 3e
       -0.2539383 0.31288967 0.1586145 0.30480498
000130 58 26 8c 3e 64 44 0a 3d 48 c7 03 be 46 f2 89 3e
       0.27373004 0.03375663 -0.12868989 0.26942652
000140 dc be fb 3c 96 77 c1 ba 71 7f 3f bd 5f 85 25 bf
       0.030730657 -0.0014760371 -0.046752397 -0.64656633
000150 3b e9 b3 bd 5b d2 b1 be 94 84 bd 3d f5 56 e0 bc
       -0.087847196 -0.347308 0.09253803 -0.027385214
000160 fe 16 92 3d d4 e5 70 bd 55 80 20 3d 4a 8f fb 3e
       0.07133292 -0.05881293 0.039184887 0.49132758
000170 62 52 72 be e0 30 23 3e 5d ae 9b 3e 68 2f 81 bd
       -0.23664239 0.15936613 0.30406466 -0.0630787
000180 89 9a 19 3e bd 4d 0d 3e 64 81 50 3e 52 55 49 be
       0.15000357 0.13799186 0.20361859 -0.19661453
000190 3c 4d 5f 3c 94 60 65 3e 46 89 b8 bd dd 10 90 be
       0.013629254 0.22400123 -0.09010558 -0.28137866
0001a0 c2 54 be 3d 86 bf ea 3b ad 3c 08 3e 83 d5 d9 3e
       0.0929351 0.0071639447 0.13304396 0.4254571
0001b0 3b e1 52 3e e8 bb 9a 3e 92 ab 9a bd fa 8c f5 3c
       0.20593731 0.30221486 -0.07552256 0.02997445
0001c0 7b e0 d6 3e 69 c9 08 3e 74 23 42 3e 13 fa e0 3d
       0.4196814 0.13358082 0.18958837 0.10985198
0001d0 e8 2d de 3c 89 b7 cf be a8 9e 5f 3e 2b 36 37 3e
       0.0271215 -0.40569714 0.21837866 0.17891757
0001e0 7e 01 a8 be 78 22 ce bd a4 ec 8d be 26 ff 66 3c
       -0.32813638 -0.10065168 -0.27719605 0.014098918
0001f0 b5 9a 22 3e 30 91 56 3e 7e fe 24 3e 49 2f 9c 3d
       0.15879329 0.20953822 0.16112706 0.076262064
000200 80 97 52 3e 9b f8 23 bf fa ba 95 be c4 b5 8a bd
       0.20565605 -0.64051217 -0.29244214 -0.0677295
000210 8b 97 b2 bd d9 34 e0 3e 0b 52 3f bd 61 49 0a 3e
       -0.08720311 0.4379032 -0.0467091 0.13504554
000220 fe b4 13 be 90 7d 86 3d 9d a0 49 3c 95 d5 a9 be
       -0.14424512 0.06566918 0.01230636 -0.33170763
000230 20 f7 a7 be 10 c6 1f be 9e 4f 16 be 45 36 e0 bc
       -0.3280573 -0.15602899 -0.14678809 -0.027369628
000240 e0 da a2 3d 76 48 0a be 2e 1a d4 3d 1e 86 f5 3e
       0.07951903 -0.13504204 0.10356556 0.47953886
000250 9b f4 ee be 50 3e 1b 3e ef 47 43 3e a2 1d a7 3c
       -0.46670994 0.15160489 0.19070409 0.020399872
000260 17 d7 df 3d 3f cc 5f bd 0b bf 5b 3e c7 42 1d 3e
       0.10929697 -0.054638144 0.21459596 0.15357505
000270 f0 22 14 bd ba 8f 29 3b e9 27 94 3c dd e3 66 3d
       -0.03616613 0.0025873021 0.018085437 0.05636965
000280 2b 5b fd 3d 56 50 0b 3d ef 13 03 bf 43 42 89 3d
       0.123709045 0.03401216 -0.5120229 0.067020915
000290 9b ff 2f 3f d4 cf 00 be 97 8d ff 3e a7 77 af be
       0.687494 -0.1257928 0.49912712 -0.34270975
0002a0 3e 0d 32 3e 30 6d c5 3d cb 78 6e be c4 62 63 bd
       0.17387864 0.096399665 -0.23288266 -0.055514112
0002b0 27 f6 02 3e 78 d4 30 be ba a7 4a be 86 78 25 bc
       0.12789212 -0.1726855 -0.19790545 -0.010099536
0002c0 71 20 8f 3e c3 8e 89 be 14 7f a0 bd b4 8a c1 3d
       0.27954438 -0.2686673 -0.07836738 0.09450284
0002d0 d3 16 bf be 39 fb 95 3e be 33 e4 be b0 11 ce 3d
       -0.373221 0.2929323 -0.44570726 0.100619674
0002e0 5a be 73 bd 7a 44 8c 3e 7d f4 4b be 54 23 26 3e
       -0.059507705 0.27395993 -0.19917484 0.16224414
0002f0 9f 7e 42 3c b0 e4 15 be 1c 4e dd bd 1e 53 07 bd
       0.011871009 -0.14638019 -0.10805914 -0.03303825
000300 06 5a 0a be 4a 09 de 3a ec 27 f6 bd ba f0 db bd
       -0.13510904 0.0016940024 -0.12019333 -0.10739274
000310 37 b5 2a 3e 2a ae 9a 3e 2e 6d a6 3e d7 58 85 3d
       0.1667069 0.30211002 0.32505172 0.065110855
000320 c9 e7 08 3e 51 e2 df 3c 2f 5b 9a 3e c4 74 c1 be
       0.13369669 0.027329596 0.30147693 -0.37784398
000330 45 6a b3 be 1d b5 4a be 48 73 c1 3e a5 46 96 bd
       -0.35042015 -0.19795652 0.37783265 -0.07337693
000340 99 05 49 be e2 b0 ff bd bd c4 a1 3e b0 8e 87 3e
       -0.19631042 -0.124849096 0.31595412 0.2647605
000350 4a 62 87 3e a1 e4 62 be bf fe 56 be 68 45 c1 be
       0.26442176 -0.22157528 -0.20995615 -0.37748265
000360 fa 7d 0a 3e c6 80 06 3f f8 e9 23 be 83 0d 97 3e
       0.13524619 0.5254024 -0.16007221 0.29502496
000370 1e 0e 9c be b1 89 96 be 8e 4a 91 3e 7d c8 8c bd
       -0.3047952 -0.29401925 0.28377193 -0.068741776
000380 8c be bb be 29 bc 43 be e6 5a ba 3e dd e2 80 3e
       -0.36668813 -0.19114746 0.36397475 0.25173083
000390 56 7c 12 3f 3b 7e 6b be 7f ef b6 3d 36 8e 5b bd
       0.5722097 -0.22997372 0.08932399 -0.05360242
0003a0 05 95 03 3e d8 83 10 3b ef de fb 3d 6f bc 5d be
       0.12849815 0.0022051241 0.122983806 -0.21653913
0003b0 ef 95 08 be 9b af c2 3d 36 4c 21 3d 07 9c 87 3d
       -0.13338445 0.0950615 0.03937932 0.06621557
0003c0 f7 cc 65 3e 51 e3 4c 3e 9f 8d a6 3e 44 38 e4 3e
       0.22441469 0.2000859 0.32529923 0.44574177
0003d0 3b 12 db 3c 81 d2 c5 bc 77 18 cf bb 19 ba 95 3c
       0.026742091 -0.024148228 -0.006320055 0.018277215
0003e0 c7 1e 55 be 01 df 9d 3d 7a 04 22 be 1f 5a 96 be
       -0.20812522 0.0770855 -0.1582202 -0.29365632
0003f0 28 cc ad bc 37 19 bd be dc c4 63 3e 27 8e 8b 3e
       -0.021215513 -0.369333 0.22243065 0.2725689

encoder.0.bias f4 [8]
000000 d8 c7 d4 3b 3c 95 db bc 44 53 ba bb 24 fc e3 bc
       0.00649355 -0.026804559 -0.0056861956 -0.027830191
000010 66 e6 17 3b a3 0a 9e 3c 3e 0b 7a 39 73 62 f2 bb
       0.00231781 0.019292181 0.00023846046 -0.00739699

encoder.3.weight f4 [8, 8, 3, 3]
000000 83 f5 a8 3d 8c c9 e6 be a8 48 99 bc 30 22 59 3e
       0.08249953 -0.45075643 -0.018711403 0.21204448
000010 d0 93 e9 bc 6d 59 69 3e ac d4 d7 bd 63 0b 16 3e
       -0.028512865 0.2278802 -0.10538611 0.14652781
000020 69 1d 84 3d 90 b2 13 3d a6 19 14 bd 85 5a 3e be
       0.06450922 0.036058962 -0.036157273 -0.18589218
000030 45 f9 d2 bd 2d 28 5e 3d 5f 6e 9a be 56 71 90 bd
       -0.10301451 0.054237533 -0.3016233 -0.07052867
000040 7e df 53 3e c4 d2 c0 bd f0 f7 ef 3c 22 9b 23 bc
       0.20690724 -0.094152 0.02929303 -0.009985717
000050 ba 35 7d bd 60 34 44 3e f7 b3 49 be 16 18 d4 bd
       -0.061818816 0.19160604 -0.19697557 -0.103561565
000060 7e 8b 30 3e 99 84 cf bd b7 a9 9a be 6c b1 04 be
       0.17240712 -0.10132713 -0.30207607 -0.12958306
000070 54 70 59 3c 88 62 df bd ab 24 d1 3d bd b3 c2 3d
       0.01327141 -0.10907465 0.10212072 0.095069386
000080 d4 40 01 3f 78 bc a8 bd 8f 3d 01 3e 3b 2b a7 bd
       0.50489545 -0.082390726 0.12621139 -0.081625424
000090 e1 a0 9f 3d 41 40 19 be 0a bc 5c bd ce 6d 92 bc
       0.07794357 -0.14965917 -0.053890266 -0.017874625
0000a0 14 2f a8 bd c9 63 aa be 73 92 26 be 6a 2f cc 3e
       -0.082121044 -0.33279255 -0.16266803 0.39879924
0000b0 5b d0 29 be 76 f7 28 3e 8f 51 17 bc 20 58 a9 3d
       -0.16583388 0.16500649 -0.009235754 0.08268762
0000c0 de f4 06 be 39 5f bc 3e 12 84 67 bd f9 cb 4d 3d
       -0.13179347 0.367914 -0.056522436 0.05024335
0000d0 3e b8 9b 3e be bd 29 bd 49 5d d8 bd c1 9b 18 3c
       0.30414003 -0.041440718 -0.10564668 0.009314478
0000e0 96 1e 4b 3e 6d 22 21 3d d5 08 39 3e cb d6 7f 3e
       0.19835886 0.03933947 0.18069775 0.24984281
0000f0 81 07 0f 3e 97 df 2e be 73 29 5a 3e 5e 47 86 3d
       0.13967706 -0.1707748 0.21304874 0.06556581
000100 44 d6 9e 3c 52 03 85 3e 3a be a7 bd 1b 72 30 3d
       0.01938928 0.25979096 -0.0819058 0.04307757
000110 f7 99 9d bd 79 52 ea 3d c8 22 ba 3d dc 5d a1 3d
       -0.07695382 0.11441512 0.09088665 0.078792304
000120 c0 79 b3 be 50 78 bc bd 06 55 8b 3e 06 48 42 bd
       -0.35053825 -0.09202635 0.27213305 -0.04743197
000130 13 fa 49 bd f2 47 96 bc af 71 0e bd ee 6c 63 bd
       -0.049310755 -0.018344853 -0.034776386 -0.055523805
000140 bd 89 c7 bd 69 98 ed bd 72 fd 55 bd e0 cd 99 3d
       -0.09743068 -0.116013356 -0.052243657 0.07509971
000150 0e c5 e4 bc 75 ae 6a be 48 62 55 3e 95 87 91 3d
       -0.027925994 -0.22918113 0.20838273 0.07105938
000160 91 a5 cd 3e aa af b0 bb d9 a3 07 be 0a 8d d5 bb
       0.4016538 -0.0053920345 -0.13246097 -0.0065170573
000170 d7 00 8d 3e a6 44 62 be 8a 52 b9 bd 56 b0 64 3d
       0.27539703 -0.220965 -0.09048946 0.05583223
000180 db f5 62 3d 7c 03 16 3d d3 c6 6a bd 7a f7 99 bc
       0.055410247 0.036624417 -0.05731852 -0.018794764
000190 ec 4a 98 bc 03 15 47 be dd 4f f2 3d 55 93 0d 3d
       -0.018590413 -0.19441609 0.11831639 0.034564335
0001a0 6d ed a4 3c 11 f1 e0 bc 80 28 c5 be ba b7 aa bd
       0.020132745 -0.0274587 -0.38507462 -0.08335824
0001b0 d4 6f 5f bd 99 bd 52 be 63 3a 5e bc fa de a7 bd
       -0.054550007 -0.20580138 -0.013563725 -0.08196826
0001c0 8a 19 33 bc dd c3 9e 3e 6c 6b fd 3d a9 21 f3 3e
       -0.010931382 0.31008807 0.12374005 0.47486618
0001d0 fb 5d 57 3e 95 a6 a3 3e a0 13 da 3d 23 2f d6 3e
       0.21031944 0.3196303 0.106482744 0.41832837
0001e0 ae 96 f7 bd 04 c6 14 be 09 6d fd bc 76 f6 36 be
       -0.12089287 -0.14528662 -0.030935781 -0.17867455
0001f0 89 3b 31 be 9c ff 89 be 3e 5e ad 3d 3a 38 60 bc
       -0.17307867 -0.26952827 0.08465241 -0.01368528
000200 1e bf 05 3e 84 74 1e be fd 1f de 3d 09 0f 07 3e
       0.13061187 -0.15474135 0.10845945 0.13189329
000210 7d 7a 07 3e 43 4d 4c 3e b6 94 44 be cc 3a 3d 3d
       0.1323032 0.19951348 -0.19197354 0.04619865
000220 d1 b0 32 be 4d 34 fc bd 11 95 3d bc fd c8 6e 3e
       -0.17450263 -0.12314663 -0.011571185 0.23318858
000230 d5 05 2c bd 11 be 98 bc 9a c5 3e be 4e 4f 83 be
       -0.04199775 -0.018645318 -0.18630067 -0.25646442
000240 64 ba ec bd 6c 1f a3 3d c6 7c 9d bc db 59 e1 3d
       -0.11558989 0.079649776 -0.019224536 0.11003467
000250 75 d0 a7 be 48 24 56 be f7 72 dd bc ce 10 63 bc
       -0.32776228 -0.20912278 -0.027032359 -0.013858987
000260 0d 0e 51 b9 de 36 8e bc 95 eb 71 3e 00 20 ea 3d
       -0.00019937028 -0.017360147 0.23625024 0.11431885
000270 9c f1 2a be 5b 52 21 be d0 a0 ae bc 51 be 90 3e
       -0.16693729 -0.15754072 -0.021316916 0.282702
000280 10 42 8e bd 4b 9e 38 be 0a af 07 3e e6 4d 1e bd
       -0.06946194 -0.18029134 0.13250366 -0.03864851
000290 31 8a f2 3e f7 70 82 be 85 32 94 be 62 90 81 be
       0.47371057 -0.2547681 -0.28944793 -0.25305468
0002a0 61 1d 08 3e 16 f1 8e be 0d 27 ed 3c d1 62 2b be
       0.13292457 -0.2791831 0.028949285 -0.16736914
0002b0 32 39 22 bd f7 b9 47 3e 95 1f 8a 3e dc e9 3d bc
       -0.039605327 0.19504534 0.2697722 -0.011591401
0002c0 51 91 0a 3e b4 b8 06 3e 95 9e 92 3e 2d 36 36 be
       0.13531996 0.13156396 0.28636613 -0.17794104
0002d0 0e d9 61 be d5 a9 03 3e 93 53 f6 bb 1b 98 cc bd
       -0.22055456 0.12857755 -0.007517287 -0.09989949
0002e0 d4 cf df bc 34 69 4d be 47 e3 f9 3d 25 8a f7 bd
       -0.02732078 -0.20059663 0.12201553 -0.12086896
0002f0 83 95 c9 bd 78 a5 c1 bd 44 98 99 3e ed 00 0c be
       -0.0984297 -0.09455389 0.29998982 -0.13672228
000300 e6 67 0e 3d a2 30 f4 bd fb 82 47 be a7 32 11 bd
       0.034767054 -0.119233385 -0.19483559 -0.035448696
000310 dd 21 c0 3d 5f 56 16 be 20 12 25 3d 1a 6a 12 bd
       0.09381459 -0.14681385 0.04030049 -0.035745718
000320 7d 4a d0 3d ab 08 85 3e 89 e2 c5 3b 55 9b 28 3e
       0.101704575 0.25983176 0.006038968 0.16465504
000330 f8 b4 1a 3e 53 d1 cf 3c 8d 4b 64 be 71 0c 52 be
       0.15108097 0.025368368 -0.22294445 -0.20512559
000340 28 d5 e7 3e f9 8d 04 be 76 60 87 3d 22 c1 98 bc
       0.45279813 -0.12944783 0.06610195 -0.01864678
000350 83 14 31 3d c0 e4 0f 3c d0 a4 70 3c 22 27 4e be
       0.043232452 0.008782566 0.014687732 -0.20132115
000360 98 f9 90 3e 54 db 92 3d 97 17 bc bd 7c cc 4e 3e
       0.28315425 0.0717074 -0.09184187 0.20195192
000370 9c 6e 95 3c bc 25 e2 3d ee b5 13 3e fd 31 ec 3d
       0.01824122 0.110423535 0.1442487 0.11532972
000380 00 8f 92 bc a1 dc da 3d 42 e7 dd be 47 fe 23 be
       -0.017890453 0.10686613 -0.43340498 -0.16014968
000390 54 bb 1f be a3 75 53 be 29 4a b9 ba a6 52 8c bd
       -0.15598804 -0.20650344 -0.0014136481 -0.068517014
0003a0 00 38 0f 3e 5c e1 94 3c 80 aa f4 bd d6 c9 ea 3c
       0.13986206 0.018173866 -0.11946583 0.028660696
0003b0 be a9 c0 bd b4 b2 30 be 3d 87 40 bd 52 f3 73 bb
       -0.09407376 -0.1725567 -0.047003973 -0.0037223888
0003c0 bc a9 22 3e 28 13 32 bd c1 87 f3 3d d9 d8 8c bd
       0.15885061 -0.0434753 0.118911274 -0.06877298
0003d0 14 4d a9 3c 7c 8a a6 3e 1c 5b 29 3e 22 e3 3b be
       0.020666637 0.3252753 0.16538662 -0.18348363
0003e0 f1 72 29 be fb 14 02 be 99 bd 16 be 74 23 e5 3c
       -0.16547753 -0.12703316 -0.14720763 0.027971007
0003f0 92 bb 9b 3e e9 2c ae bd ec d1 99 3e 23 44 80 be
       0.30416542 -0.0850466 0.3004297 -0.25051984

encoder.3.bias f4 [8]
000000 84 c4 eb bb 13 bb a0 bc 01 aa 52 b9 3c f1 18 bd
       -0.0071950573 -0.019620454 -0.00020090492 -0.037339434
000010 ed d3 36 3d f1 aa 5d bd e0 7a 23 bd 5d 8b 54 bc
       0.044635702 -0.0541181 -0.039912105 -0.01297268

cnn_net.0.weight f4 [16, 8, 3, 3]
000000 d7 52 25 3d 32 8e 14 3e e5 d8 b6 bd fb 22 6f 3e
       0.040362205 0.14507368 -0.08928088 0.23353188
000010 2d 2d 9f be 77 33 0c bf f0 dd 1c 3e 48 54 73 3c
       -0.31089154 -0.5476603 0.15319037 0.014851637
000020 b8 cf 1a 3d 53 a7 82 be b8 a3 9d 3d ee 0e f5 bd
       0.037795752 -0.25518283 0.076972425 -0.11965738
000030 bf dd ad be 73 bd 22 3e aa ec 14 3c 7a 1e 5c 3d
       -0.3395824 0.15892582 0.009089628 0.053740002
000040 2b ca 52 bd 10 8e 64 be 48 b5 09 3c 23 57 85 3d
       -0.051462334 -0.22319818 0.008405037 0.06510761
000050 d6 e7 81 3e 75 a3 ac bd cf 07 16 be 9f 07 e3 bc
       0.2537219 -0.084296145 -0.14651416 -0.027713595
000060 9a 35 56 3e d2 d1 81 3d 8e 12 86 3e ed a7 4b be
       0.20918885 0.06338848 0.2618603 -0.19888277
000070 05 77 dd 3d 00 e6 22 bd 0e a0 da bd dc 2d 1f bd
       0.10813717 -0.039770126 -0.10675059 -0.038862094
000080 1f 30 5d 3d a6 d7 52 3d f7 6a d6 3d fe ee 88 3e
       0.05400097 0.05147519 0.10469621 0.26744837
000090 b9 2e 77 3d 54 85 87 be e3 12 85 3e e1 88 02 be
       0.060347293 -0.2646891 0.25990972 -0.12747528
0000a0 86 f5 b3 be b9 64 25 3e 76 9d c9 bc aa 80 d4 bc
       -0.35148257 0.16151704 -0.024611216 -0.025940258
0000b0 f6 fd 6d bd 11 33 9f 3d 97 07 0a 3e 1e 2e 81 3e
       -0.058103524 0.07773412 0.13479458 0.25230497
0000c0 5d 10 f1 bc ab c0 17 bd cd da 2f 3e 53 42 46 3e
       -0.029426748 -0.037048977 0.1717331 0.19361238
0000d0 af a8 7a 3e e0 2a 29 3c 5a ce 81 3e 7c 2d 0f bd
       0.2447841 0.010325164 0.25352746 -0.034955487
0000e0 b4 48 17 3d f2 c4 5a 3e 92 0f aa bd 44 68 26 3d
       0.03693457 0.21364191 -0.08303751 0.04062678
0000f0 93 10 ef bd b7 67 62 bd fb af 53 3c 13 b0 97 3d
       -0.11673083 -0.05527469 0.012920375 0.0740663
000100 d4 4f 9b 3d 05 c8 8e 3d b0 f6 43 3e 3f 78 62 3e
       0.075835854 0.069717444 0.19137073 0.22116183
000110 db bb 7a 3e 0f 8f 55 be 5d 0f 1b 3c 2e 55 2d 3e
       0.24485724 -0.20855354 0.009464112 0.16927025
000120 af 80 f0 bd 98 41 0f 3d 95 9d ac 3d 43 28 e3 bd
       -0.117432944 0.034974664 0.08428494 -0.11091664
000130 03 95 35 3d c2 67 99 bd 10 ae c6 3e ec 59 4b 3c
       0.04433156 -0.07490493 0.38804674 0.012411576
000140 7d 33 f6 3d f6 12 65 3e 7e bc 88 bc cf de 42 be
       0.12021539 0.22370514 -0.016691443 -0.19030307
000150 d3 d5 42 3d b0 00 d4 bb 12 d1 62 3e e4 87 b4 39
       0.0475672 -0.0064698085 0.22150066 0.00034433522
000160 91 56 87 3d 36 72 95 3e d7 57 4e be 6e d4 e9 bd
       0.06608308 0.291887 -0.20150696 -0.11417471
000170 11 9d be 3e 36 1a 46 3d bf fb 21 bc e6 2b 40 be
       0.37229207 0.04836484 -0.009886681 -0.18766746
000180 35 e7 e8 bb d3 f1 dc bb ae 1f 41 3d 79 04 5a 3c
       -0.00710764 -0.006742695 0.047149353 0.01330673
000190 a1 4c 41 be fd 65 34 be 68 42 c4 3d e6 76 74 be
       -0.18876888 -0.1761703 0.095829785 -0.23873481
0001a0 45 28 0b 3e c6 24 29 3d ab d1 54 3d a7 bd 83 be
       0.1358958 0.041294836 0.051957767 -0.2573063
0001b0 bc aa 01 be 3a 35 d7 3d 96 96 e3 3d 24 a0 c9 3d
       -0.12662786 0.10508199 0.11112706 0.098449975
0001c0 11 ca 38 be 20 4a 9b 3e ef b0 c6 bd d7 14 e4 3d
       -0.18045832 0.3032999 -0.09701716 0.111367874
0001d0 c5 c9 43 bd cc d4 ad bc e9 c8 a2 be c4 d5 3a 3d
       -0.047799844 -0.021219634 -0.31793907 0.04561402
0001e0 00 b4 15 3c dc 50 15 be 17 76 e4 3d d0 19 79 3e
       0.009137154 -0.14581627 0.11155336 0.24326253
0001f0 fc 0c 9b 3e 76 22 b8 be fb 04 5c be d1 57 fc bd
       0.30283344 -0.35963792 -0.21486275 -0.12321437
000200 a4 38 4e 3d 25 b4 80 bd 39 e5 47 be 8d e3 74 be
       0.050346985 -0.0628436 -0.19521035 -0.23914929
000210 ab 8a de 3d f5 e9 47 3d 27 32 08 bd 94 0b ce bd
       0.108662926 0.048807103 -0.033250954 -0.10060802
000220 7c 1e 18 be 83 77 6d 3e 98 b6 77 be ec bf 83 3e
       -0.14855379 0.23190121 -0.24190748 0.25732362
000230 e3 fa ce bd 7b 38 a3 3d 76 0a 7c 3e c1 70 6c be
       -0.101064466 0.07969757 0.24613366 -0.23089887
000240 a9 2e f9 3e f9 cd 81 3e eb 26 e0 3d 1e 87 a2 be
       0.4866841 0.25352457 0.10944923 -0.3174371
000250 1e c2 d9 3e 8f 56 67 3e 8a d4 37 3e 49 1b 4f be
       0.42530912 0.22591613 0.17952171 -0.20225252
000260 5a 62 2f be fc f3 14 be 0c 9e cd bc d6 d7 ff bc
       -0.17127362 -0.14546198 -0.025099777 -0.031230848
000270 fd 5b d5 bd 55 9d f7 bd fe b7 2a be 32 3a 7f 3d
       -0.10417936 -0.120905556 -0.1667175 0.06231136
000280 f0 41 bc 3d 10 d2 34 3e be e1 15 3e 6b 2c 9d 3e
       0.09192264 0.17658257 0.14636895 0.3069795
000290 da 0f 0f 3e c5 d5 8e 3d 5b b4 d8 bd 60 ed be 3d
       0.1397089 0.06974367 -0.10581275 0.093226194
0002a0 01 eb 94 bd 50 17 cc 3b ce f7 58 3d ea 4f b2 bd
       -0.07271386 0.006228365 0.0529707 -0.08706649
0002b0 46 16 a8 3d af 67 83 3d 51 a5 8b 3e e2 2d fd bb
       0.08207373 0.064162605 0.27274564 -0.007726417
0002c0 28 17 3b be 5b e8 82 3d da 00 c1 3c 64 93 cd 3d
       -0.18270552 0.063919745 0.023559976 0.10037878
0002d0 d8 cd 31 3e 5f 3c 43 be 9a b3 4a 3e a7 8f 53 3e
       0.1736368 -0.19065998 0.19795075 0.20660268
0002e0 ae e2 89 3c e1 de 9d 3e b5 cf 7c 3d 8a c0 38 be
       0.016831722 0.30834106 0.061721522 -0.18042198
0002f0 37 4a 8e 3e 8a 63 9e 3d ca db 26 3e bc 5c 7e 3e
       0.27790996 0.07733829 0.1629478 0.24840063
000300 1b cc d5 bc 90 48 91 3d ee 0f 06 3e be f8 86 3d
       -0.026098302 0.07093918 0.13092014 0.065904126
000310 f8 be 89 3c c4 cb 83 3e 96 ea 71 bd 46 89 eb 3d
       0.016814694 0.25741398 -0.05906161 0.11500792
000320 f5 d9 b5 bc 4d bd f0 bd f0 c8 95 be c7 dc 3d be
       -0.022198657 -0.11754856 -0.29254866 -0.18541251
000330 60 e4 7c 3d 60 94 14 3e d3 da 21 bd c8 c7 e5 bd
       0.061741233 0.14509726 -0.039515328 -0.11219746
000340 93 e5 7a 3e 77 8e d3 bd 26 0a 36 be f3 66 15 bd
       0.24501638 -0.103299074 -0.17777309 -0.036475133
000350 91 56 02 ba 08 3f 8f be 66 40 96 be 74 86 b6 bd
       -0.0004972006 -0.27977777 -0.29346007 -0.08912364
000360 06 f9 94 3e 00 3e 7b bd 93 f8 3f 3d ae 5d 41 3e
       0.2909624 -0.061338425 0.04686792 0.18883392
000370 21 e1 f4 3c a8 c0 9e be ca 8c 2b b9 ad 0f 71 be
       0.029892506 -0.3100636 -0.00016360279 -0.23541136
000380 08 d7 29 be bc 5c 7a bd 81 03 c1 3d b1 7a 8f 3e
       -0.16585934 -0.061123595 0.094244964 0.28023294
000390 84 cf 6c 3e 33 a1 e1 3c 8c f3 dd 3d 85 e6 c4 3d
       0.23126036 0.027542686 0.108374685 0.096142806
0003a0 16 cf 38 3e e6 69 0b be 69 2e af 3e 7b 75 e5 3d
       0.18047747 -0.13614616 0.34215096 0.11204048
0003b0 4d 23 70 3e 59 40 eb 3c fa fe c3 bd cc c2 09 3e
       0.23450966 0.028717207 -0.09570117 0.13453215
0003c0 50 b0 ab 3e 93 be 15 3e fd 60 83 3e 44 d8 0a be
       0.33532953 0.1462348 0.25659934 -0.13559061
0003d0 44 7f 0e be e7 d4 4e be 7e e7 9c 3e e7 66 c2 3d
       -0.13915735 -0.20198403 0.30645365 0.09492283
0003e0 91 1e 24 3d fb d9 c6 3d fe d0 3d be a6 93 e9 bd
       0.040068213 0.09709545 -0.18536755 -0.11405115
0003f0 23 b5 9d bd b1 c3 00 3e 8b 91 61 bd 2a 3a 12 3e
       -0.07700565 0.1257465 -0.05507044 0.1428

cnn_net.0.bias f4 [16]
000000 1d c0 13 bd 06 9e 92 3c 17 75 a7 bc e7 95 10 3b
       -0.036071885 0.017897617 -0.020441575 0.0022062005
000010 f8 06 88 3c 88 6a 7d bc f3 dd 89 3c be 11 ab 3c
       0.016604885 -0.015467294 0.016829466 0.020882484
000020 76 c7 2b bd 46 4d 5b bc 90 49 a1 3a 60 63 c8 3c
       -0.041938268 -0.013385123 0.0012305249 0.024461448
000030 f0 7f 74 bc 2f 3c 0c 3d 3d 02 17 bd 94 20 47 bc
       -0.014923081 0.034237083 -0.03686737 -0.012153763

cnn_net.3.weight f4 [32, 16, 3, 3]
000000 ee 59 90 be 15 98 19 3e c6 df e6 bd 87 f8 13 3e
       -0.2819361 0.14999421 -0.1127315 0.14450274
000010 0f a9 3b bd 01 aa 3e bb 81 1e 43 3e 1b ec 08 3e
       -0.045815524 -0.002909303 0.19054605 0.13371317
000020 90 8c 68 3d 4a 62 d1 bb 92 95 b7 bd 70 eb 06 3e
       0.056774676 -0.006389891 -0.08964075 0.1317575
000030 91 ec 96 3d f7 c8 07 3d 69 e7 6b 3d cb 11 9c bb
       0.0736934 0.03315064 0.057593737 -0.0047628633
000040 06 2d 44 be 4a c9 66 3d 86 3e e5 bd be 71 57 bd
       -0.191578 0.056344308 -0.11193566 -0.052598707
000050 ab c2 8d bd e7 ef 34 3d 86 df 7f 3d 47 80 37 be
       -0.069218956 0.0441741 0.062469028 -0.17920028
000060 b2 6b 41 bd f1 93 c3 bc c8 d4 da bd 09 c9 78 bd
       -0.047221847 -0.023874255 -0.10685116 -0.060738597
000070 0f f4 4a bc 46 16 fb 3c a6 71 44 3e 1d e3 a0 bd
       -0.01238729 0.03065027 0.19183978 -0.078558184
000080 0e c1 99 bd 9c 8d 2c 3d 59 54 c3 bd 74 d1 28 3c
       -0.075075254 0.042127237 -0.095375724 0.010303844
000090 a8 f9 1c be 5e 70 17 3e 31 41 8d 3d 6e 42 5c be
       -0.15329611 0.14788958 0.068972 -0.21509716
0000a0 ca d7 0c 3e 52 dc 66 be d1 62 c1 3d 1e 63 ec bd
       0.13754192 -0.22544983 0.09442676 -0.115423426
0000b0 d0 c4 3a 3e e2 39 9e 3c d1 06 95 bd a6 30 22 be
       0.1823914 0.01931471 -0.07276691 -0.1583887
0000c0 c7 4c 63 3d 8e be 22 3e b8 26 01 3e 00 60 59 3d
       0.055493142 0.15893003 0.12612426 0.05307007
0000d0 a7 d1 b1 bd 44 c3 45 be af be 2f be f1 ce 2e 3d
       -0.08682566 -0.19312769 -0.17162584 0.042677823
0000e0 82 ed 81 bd 3a b2 2f bd 12 30 c1 3d 81 12 0d 3e
       -0.06344129 -0.04289458 0.09432997 0.1377659
0000f0 a9 bc ac bd a4 fb 84 3d ff 3f cc 3c cd 37 c6 bd
       -0.084344216 0.06493309 0.02493286 -0.09678612
000100 36 c6 e9 bc 2c b5 d8 3d 0d 5b 32 be 56 22 24 be
       -0.028536897 0.10581431 -0.17417546 -0.16028723
000110 ea 7e 8f bc bc 99 d9 bd ec 8c bb bc 9a 47 02 3b
       -0.017516572 -0.10625026 -0.022894345 0.0019879104
000120 a9 0a b2 3c fd 1d 91 be 9e 25 c5 bd e5 4d 21 bd
       0.021733599 -0.28343192 -0.096263155 -0.039380927
000130 56 2b 3d be 4e b0 d9 bc f2 b5 81 3e 5e 74 fd bb
       -0.18473563 -0.026573326 0.25334126 -0.0077348193
000140 06 1b b1 bd 16 a0 a5 bd 4a 98 c7 3c e3 ec 9e bd
       -0.086477324 -0.080871746 0.02436461 -0.07760026
000150 c7 02 77 bd 52 8f 10 be 21 b8 49 be 7e 5e f1 bd
       -0.060305383 -0.14117172 -0.19699146 -0.11785601
000160 bd ab e7 bb ae 0c 74 3d fa 07 8d bd 94 56 78 bc
       -0.0070700333 0.059582405 -0.06886287 -0.015157361
000170 64 92 0a 3e 8b 5b d4 bd fd 81 55 3d ca 11 33 3d
       0.13532406 -0.10369023 0.05212592 0.043718137
000180 67 93 65 3e 3f e5 b0 bd 64 7a 44 3d 67 ea ca bc
       0.22419511 -0.08637475 0.047968283 -0.024769975
000190 53 f3 51 be 12 33 e6 bc 0d 1b 78 be 26 47 20 be
       -0.20502977 -0.028100524 -0.24229069 -0.15652141
0001a0 df d4 6d 3e 4f eb 0f be 67 f7 ac bd 9c 3c d1 bd
       0.23225735 -0.14054607 -0.08445626 -0.102166384
0001b0 5a be f3 3d 63 e2 8a bd bd 52 82 bd c4 fa c0 3c
       0.11901541 -0.06781461 -0.06363437 0.023557074
0001c0 f3 7e f3 bd 09 11 90 3e 37 21 a7 bd 0f dd 2f bd
       -0.11889448 0.28137997 -0.08160632 -0.042935427
0001d0 d8 af ac 3a 18 57 68 3e 8e cf a2 3d 7a 26 d1 3d
       0.0013174964 0.22689474 0.07949744 0.10212417
0001e0 8c 5a 7c be 49 ca aa bd f6 6d c5 bd c6 21 e3 3d
       -0.24643916 -0.08339364 -0.09640114 0.11090426
0001f0 a3 3c ac 3d 56 4a 14 bd 50 bf 96 be df 7a e0 bd
       0.08410003 -0.036203705 -0.29442835 -0.10960936
000200 cd 66 0e 3e ef 91 6b 3e b1 71 2e be 16 98 2d 3e
       0.13906403 0.23004888 -0.17035557 0.16952547
000210 7c eb 09 3e ad e0 09 be f9 45 53 3a ae 9b 99 be
       0.13468736 -0.13464613 0.0008059438 -0.30001587
000220 4b 54 30 bd 7e 0f 4c bb a6 54 53 bd b1 3a c9 bd
       -0.043049138 -0.0031137164 -0.0515944 -0.098256476
000230 c5 d9 91 3d 39 b5 03 3e 7c 26 1b be fc cd 5b 3c
       0.07121614 0.128621 -0.151514 0.01341581
000240 d9 83 f1 3b 41 ff 5a be 84 31 5b be af a6 d0 3d
       0.007370454 -0.21386434 -0.21405607 0.10188042
000250 29 37 86 bc 8f 95 a3 bc e0 18 c7 bd a9 0f 66 be
       -0.016383724 -0.019968776 -0.097215414 -0.22466911
000260 bf ac 71 bc e3 ae 37 be 74 3b 01 3c 9b 15 a0 3d
       -0.014750659 -0.17937808 0.00788771 0.07816621
000270 9d 91 e3 bc 05 0a 4e bd ca 6a f7 3c 68 cd d5 3d
       -0.027779395 -0.050302524 0.030202288 0.10439569
000280 9d aa cc ba e4 1e 52 bd 51 cd 0e bd 47 6f 02 3e
       -0.0015614812 -0.05129899 -0.034863774 0.12737761
000290 19 02 8e be 4f e2 3e 3d 6a df e0 bc 5f f3 dc 3d
       -0.27735975 0.046602543 -0.027450282 0.10788607
0002a0 00 24 6a bd e7 d8 16 3c 5b af 28 bd ad 98 1e be
       -0.05716324 0.009206987 -0.041182857 -0.15487929
0002b0 40 0d 15 be 66 94 46 3e 28 37 c0 bd 62 bd 7e bc
       -0.14555836 0.19392547 -0.0938552 -0.015548082
0002c0 89 29 41 bc 03 8b bc bc 1d 9d 16 3d ea 40 5e 3c
       -0.011789688 -0.023015505 0.03677093 0.013565281
0002d0 f6 fc 49 3e c6 af 5c 3e d2 66 48 3d 79 79 33 be
       0.19725403 0.21551427 0.048926182 -0.17526807
0002e0 fc 45 8e 3d e0 49 ec bc fa b2 5c bb 63 7c d0 bd
       0.06946942 -0.02884382 -0.0033676014 -0.10179975
0002f0 02 98 02 3e 77 7c d5 3d 80 85 52 bd 07 5d c2 bd
       0.12753299 0.104241304 -0.051396847 -0.094904
000300 e2 d7 f9 bc a1 7e 85 bd 2d ed 8e 3d 98 59 c9 3d
       -0.030498449 -0.06518293 0.069788314 0.09831542
000310 48 1c 53 bc 4f b1 61 3e 61 9a 19 3e b8 55 0a bd
       -0.012885161 0.22040294 0.15000297 -0.033773154
000320 25 44 e1 bd cd a2 9e bd 34 8f 52 3d b3 b5 64 3e
       -0.10999326 -0.077458955 0.0514061 0.22334938
000330 73 77 a2 bd fa 3a f6 bb 32 60 2a be 5f c3 72 be
       -0.079329394 -0.007514355 -0.16638258 -0.2370734
000340 e1 4b 93 3d 9d 33 b7 be ec 0e 67 3d cd 43 06 be
       0.07192207 -0.35781565 0.056410715 -0.13111801
000350 96 06 4a be 6e 46 0b 3e 81 99 b5 bd 30 4a 2a 3c
       -0.19729075 0.13601086 -0.08867169 0.010393664
000360 b3 c6 b6 bd b2 3e 31 3b d3 58 9d be 4d 43 11 3e
       -0.089246176 0.0027045426 -0.3073183 0.1418583
000370 c7 08 d7 bb 47 1f af bd 58 a5 29 3e a9 df db 3c
       -0.0065623256 -0.085508876 0.1656698 0.026840048
000380 bb d5 89 3c 6f a6 8b bd e2 5f 30 bd e0 77 77 3c
       0.016825547 -0.06818854 -0.04306019 0.015104264
000390 39 5b 9a 3d f8 55 05 bc a2 35 ff bd 9f 9c f5 3c
       0.075369306 -0.008138172 -0.124614015 0.02998191
0003a0 7d 0d 17 bd b3 8d 8e 3b bf 85 f3 bb 8b 52 89 be
       -0.036878098 0.004350388 -0.0074317153 -0.26820788
0003b0 3d 08 a1 bd 2e be f7 3d e4 5c d7 3d 61 4c 1d 3e
       -0.078628995 0.12096821 0.10515764 0.15361167
0003c0 e3 23 aa bd 9f 99 0e bd 91 24 ed bd 55 3c af 3c
       -0.08307626 -0.034814473 -0.1157924 0.021391073
0003d0 6a d2 1d 3e 00 71 85 bd ba 92 30 be 23 20 63 be
       0.15412298 -0.06515694 -0.17243472 -0.22180228
0003e0 ac 16 f6 bb 65 d5 0c be 70 c9 e2 bd 85 a3 8f bd
       -0.007510027 -0.13753279 -0.110735774 -0.07013611
0003f0 47 1d 2d 3d 43 cb 4e bd 66 6d 4c be f4 0a e0 3d
       0.04226425 -0.050486814 -0.19963607 0.10939589

cnn_net.3.bias f4 [32]
000000 cc f2 83 bc b1 3a 32 bc bd 8b 12 bc 52 ea af bc
       -0.016106986 -0.010878251 -0.008944449 -0.021474037
000010 05 bb 47 bd 51 fa a4 bb 24 99 a4 3b c6 56 b8 bc
       -0.04876234 -0.005034723 0.0050231386 -0.022502314
000020 0f ad 96 3c 49 91 00 bc dc 4f 83 bc 0f 34 37 3b
       0.018393068 -0.007847139 -0.01602929 0.0027954613
000030 35 53 f3 bb 0b a4 18 3c a2 7b 1d 3c 06 d4 4a bc
       -0.0074256905 0.009316455 0.009611996 -0.012379652
000040 f2 18 23 bd 74 0c 52 3b a1 a3 a1 bc 7b a0 b9 bc
       -0.03981871 0.003205088 -0.019731345 -0.02265953
000050 99 31 96 3c 1d 0a f0 bb c7 c5 de 3c 75 d1 dd bc
       0.018334197 -0.0073254243 0.027193917 -0.027077416
000060 a5 a4 b4 bc 87 31 c6 3b fb 45 1f bc db 11 83 bc
       -0.022051165 0.0060483846 -0.0097212745 -0.015999725
000070 de 09 1b 39 d2 19 f5 3b 93 26 04 bd ad 04 27 3c
       0.00014785628 0.0074798847 -0.03226335 0.010193986

hidden.weight f4 [32, 128]
000000 07 71 66 be 88 bd dc bd a1 63 ab 3c 77 3c bc bd
       -0.22504054 -0.10778338 0.02092153 -0.0919122
000010 3a 32 55 3e 2f f3 52 be 23 74 74 3e ca 46 91 bd
       0.20819941 -0.2060058 0.23872428 -0.0709358
000020 d8 de 19 3e 9a 86 18 3c af 33 2c bd 6f 90 07 3e
       0.15026414 0.009309435 -0.042041477 0.13238691
000030 42 3a 00 bd e3 74 73 bd 38 8a 75 bd 2e 5e cf bd
       -0.03130556 -0.059437644 -0.05994627 -0.10125385
000040 65 97 89 be 90 01 c7 bd de f7 f1 3d 84 c7 99 bd
       -0.26873317 -0.09717095 0.11814855 -0.07508758
000050 c4 0e 86 3a 10 34 43 be 0c 80 47 3e 90 c2 4d be
       0.0010227789 -0.19062829 0.1948244 -0.20093751
000060 84 5a 90 be b3 62 8c 3d 7c 0b 51 be 20 7e c5 bd
       -0.28194058 0.06854763 -0.20414537 -0.09643197
000070 bd 4a 85 3d 7b d9 5f 3d 1a c1 6a bd 63 30 f8 bc
       0.06508396 0.054650765 -0.057313062 -0.03029651
000080 3a 75 39 be 8d 00 0c be 46 64 56 be 9e c4 1b 3e
       -0.18111125 -0.13672085 -0.20936689 0.15211722
000090 45 56 ad bd 43 fd 80 3d 6d b9 08 bd 3d 8e 6d 3e
       -0.0846372 0.06298306 -0.03337996 0.23198791
0000a0 37 80 d5 3d 99 e4 df 3c 72 89 9a bc bf 7b a0 bd
       0.10424846 0.027330684 -0.018864367 -0.07836103
0000b0 f9 c3 1f bd de bb 6c be 05 6f 44 be b5 7c c0 3d
       -0.039005253 -0.2311854 -0.19182976 0.09398786
0000c0 6f f9 3f 3e d4 96 83 be a9 0f 2b 3e c9 87 7c be
       0.18747495 -0.2570101 0.16705193 -0.24661173
0000d0 6f 2f 99 bd 68 00 b5 bc a4 d1 b1 3d e1 aa db 3c
       -0.0747975 -0.02209492 0.08682564 0.02681488
0000e0 a8 42 74 3d 9d c6 33 be 7e 45 80 3c da 74 03 be
       0.05963388 -0.17556234 0.015658136 -0.12837544
0000f0 a2 eb 31 be b6 6b e6 bd 4e f3 c7 3d be 77 91 bc
       -0.17375043 -0.11251013 0.097632036 -0.017757293
000100 c2 6d 82 3d e9 91 3f bd 73 69 c5 bd 5f 2e 0b be
       0.06368591 -0.04677001 -0.096392535 -0.13591908
000110 f1 34 a8 bd 0f 96 27 3d a0 6d 6d bc 80 5e 84 bd
       -0.08213223 0.04091459 -0.014491469 -0.06463337
000120 a2 f2 c7 3c bd c4 ba 3d ae 30 61 be a4 66 0a be
       0.024407689 0.09119556 -0.21991226 -0.13515717
000130 15 b6 3b bd d1 e5 0c be bc af f4 3d 2f 4f 3e 3e
       -0.045827944 -0.13759543 0.11947581 0.18584894
000140 53 5c 91 bd 37 b3 f8 3d 6d 58 0a 3e fb 32 2d be
       -0.070976876 0.121435575 0.13510294 -0.16913979
000150 11 05 27 be c7 30 0a 3d 7b 3e 2b be 80 20 ba bc
       -0.16310526 0.033737924 -0.16723053 -0.022720575
000160 bb 57 26 3d 4c a8 40 bd af a2 51 3e 47 33 31 3e
       0.04061101 -0.0470355 0.20472215 0.17304717
000170 3d 85 af bc b8 cd 37 3e 8c b2 70 be f4 54 aa bc
       -0.021425838 0.17949569 -0.2350561 -0.020792462
000180 b0 b9 af 3d db 52 52 bd 28 99 3b 3e 01 5b 34 3e
       0.08580339 -0.05134855 0.18320143 0.1761284
000190 06 67 f3 3c 8f a0 6a 3d 51 7a a2 3d 77 55 d6 3c
       0.029712211 0.057282027 0.07933486 0.0261638
0001a0 18 e2 15 3c 8a 6b a2 3e ae 45 aa bd bb 88 c4 3e
       0.009148143 0.3172267 -0.083140716 0.38385567
0001b0 84 3c ac 3c b9 de 39 3d 0b d4 cb 3d 4d ad f7 bd
       0.02102495 0.04537842 0.09952553 -0.120936014
0001c0 32 40 41 be 63 71 ef 3d 7c a3 4c 3d 0c 3a 5d bc
       -0.18872145 0.11691549 0.0499606 -0.013502609
0001d0 64 30 62 3c 1d 5a 6c 3e c2 5c c6 bc 62 c9 3d 3d
       0.013805483 0.2308125 -0.024214152 0.04633463
0001e0 6d 7a 7a 3e f2 a1 4c bd 27 0e 04 3e 21 f0 d5 3d
       0.24460764 -0.04995913 0.12896024 0.104461916
0001f0 51 cf f6 bd d3 21 bd bd f9 a5 76 3d a8 e5 c6 3d
       -0.12051261 -0.09234967 0.060216878 0.09711772
000200 ef a4 94 3c a6 1f d6 bd 57 03 2e 3e 6f 74 eb bd
       0.018145053 -0.10455255 0.16993462 -0.11496817
000210 d2 c7 09 3c 62 a8 e9 3d 71 ee 71 be 87 85 90 be
       0.008409457 0.114090696 -0.23626114 -0.28226873
000220 47 9a cd 3e 40 f3 bc bd 2b 91 3f ba e1 71 ad bc
       0.40156767 -0.09226084 -0.00073077035 -0.021172466
000230 b3 aa 4a 3e 55 51 9a 3c 65 71 e8 bc ba 0d 19 3b
       0.19791679 0.01883761 -0.028374383 0.002335413
000240 f5 f1 43 bd ec c8 93 3e 95 58 c1 bd aa f1 c5 3d
       -0.04783817 0.2886423 -0.09440724 0.096652344
000250 43 2a 0f 3e 5a cd 0b be 14 ea 1f be 74 d0 31 be
       0.13980965 -0.13652554 -0.15616637 -0.17364675
000260 c5 2b d7 bd f4 42 b9 3d 87 10 6c 3d fd 32 31 3d
       -0.10506395 0.090459734 0.05763295 0.043261517
000270 76 35 2f be 3d fa e4 bc 2b a4 d3 3d a8 a7 0c be
       -0.17110237 -0.027951354 0.10334047 -0.13735831
000280 00 35 71 3b 24 e9 e8 3d 20 d7 94 3d 1d 6b 87 3d
       0.0036805272 0.11372593 0.07267594 0.06612227
000290 c7 db 0a 3d ab e9 0e bd a0 18 21 bd ca 0d e9 3d
       0.033901002 -0.034890812 -0.039330125 0.11379583
0002a0 aa 0b 8b bd 2a fb 2b be 8d f4 d5 3d 23 d7 61 bd
       -0.06789334 -0.1679503 0.10447035 -0.05513681
0002b0 76 06 a5 bd d7 42 cb 3b 4e 58 35 be 2a 5b 40 3e
       -0.08057873 0.0062030363 -0.17709467 0.18784776
0002c0 21 00 0e 3d a4 3c 15 bd b2 0d 4a bd 5f 06 87 3d
       0.03466809 -0.036434785 -0.049329467 0.06593012
0002d0 43 3d 70 bd a1 cf 43 3e 92 ea 96 bd 95 b4 ba 3d
       -0.058652174 0.19122173 -0.073689595 0.091164745
0002e0 ae 7a 07 3d 68 ed 01 3d 2b e3 70 be fd 7b 4b bd
       0.03307598 0.03172055 -0.23524158 -0.04967879
0002f0 90 59 8f bd e2 09 a5 bd f0 b9 8f be 0a 60 1b 3d
       -0.069995046 -0.080585256 -0.28071547 0.037933387
000300 87 09 02 bd bc 24 16 3e db 61 21 3e 3a 41 eb 3d
       -0.031747367 0.1466245 0.15759985 0.1148705
000310 34 cd 43 be 4b c2 ec bd 88 58 25 bd c0 cc 83 bd
       -0.19121248 -0.11560496 -0.040367633 -0.06435537
000320 61 57 25 bc 5c d7 03 3e 71 d2 30 bd 07 27 69 bc
       -0.010091634 0.12875122 -0.043169443 -0.014230496
000330 43 e8 9f 3d 9c 32 7c bd fd 3d 9f 3d 07 a8 04 3e
       0.07807972 -0.061571702 0.07775495 0.12954722
000340 a1 bb 63 bd 58 d8 40 bd 6f 7d 33 3e e5 f7 17 3e
       -0.05559886 -0.04708132 0.17528318 0.14840658
000350 b0 5c 84 3e 14 f7 a1 3c 8d c8 de 3d 83 0f f3 bd
       0.25851965 0.019771136 0.10878096 -0.11868193
000360 01 ff 09 3e c5 6d 10 3e f4 cc 93 bc ac 3c 89 bc
       0.13476183 0.14104374 -0.018042065 -0.016752563
000370 12 5b 8f bd ef 2f 29 3e d5 6f 4b 3e c9 d6 b1 3c
       -0.06999792 0.16522191 0.1986688 0.021708863
000380 4c 7e a3 bd 93 1e c7 3c de a7 c3 bd 8a 7a 4c be
       -0.079830736 0.024306571 -0.095535025 -0.1996862
000390 95 76 99 be 59 4d f6 bc 8a 0a c2 3c 59 8f 6f be
       -0.29973283 -0.03006618 0.023686666 -0.23394527
0003a0 48 cd f0 3d 1d b0 6c 3e 2e 97 df bb 83 6c 8a 3d
       0.11757904 0.23114057 -0.006823442 0.06758978
0003b0 19 b1 b4 3d ce 76 33 bd ed e5 81 3d ee d4 d9 bc
       0.08822841 -0.043814473 0.06342683 -0.02659079
0003c0 20 fa 18 bd a7 f8 1c be 19 21 0f be 78 0c 70 3d
       -0.037347913 -0.15329228 -0.1397747 0.05860564
0003d0 b7 42 9e bd 7e 14 21 bd 91 4b 9a be 65 6d aa be
       -0.077275686 -0.039326183 -0.30135778 -0.33286586
0003e0 ec 42 b9 3d 3d ca fb bd eb eb fc bc 96 df 97 3d
       0.090459675 -0.12294433 -0.030874213 0.074156925
0003f0 a3 ff 88 3e d2 9a f5 3d 75 ac b7 3c 16 76 f7 bd
       0.26757535 0.1199242 0.022421101 -0.1208307

hidden.bias f4 [32]
000000 57 cb eb bb ce cc 05 ba 32 09 58 bc 7c b9 29 3b
       -0.007195871 -0.00051040656 -0.013185786 0.002589791
000010 a2 60 f7 ba a1 ab 11 ba 00 00 00 00 9d 0b 3b 3c
       -0.0018873403 -0.0005556886 0.0 0.011416343
000020 14 5f fb bb 6d f6 48 3b 2b 32 93 bc 76 92 b3 3c
       -0.0076712463 0.003066446 -0.017968258 0.021920424
000030 bf d7 ca bb 51 ba c1 3c e8 49 bf bb fa f3 93 3b
       -0.0061902697 0.023648413 -0.0058376677 0.0045151683
000040 97 7b 05 3b 8a cc fc 3b f5 2f 9f bb c2 46 f5 bb
       0.0020367855 0.0077148126 -0.004858012 -0.0074852416
000050 99 5e bf 3a bd 11 0e bb 1e 2f b0 bc b3 0f dd bb
       0.0014600336 -0.0021678053 -0.021506842 -0.0067462563
000060 00 00 00 00 32 87 6b bb c0 50 14 bc c9 2d 09 bc
       0.0 -0.0035938737 -0.009052455 -0.008372732
000070 8c 94 04 3c 00 00 00 00 00 00 00 00 11 1b d1 3b
       0.008092057 0.0 0.0 0.0063814004

mu_layer.weight f4 [2, 32]
000000 16 6d 67 bd eb 9f 43 3e ed c7 c2 3e 55 56 dc bd
       -0.056500517 0.19103973 0.38043156 -0.10758654
000010 fb 77 03 3e 4b 71 c2 be 3a 89 8f 3e 43 9d f4 be
       0.12838738 -0.3797706 0.28034383 -0.4777623
000020 e3 7d a3 bd a8 22 30 be d5 77 6e 3e 7f cf 2c be
       -0.07982995 -0.1720072 0.232879 -0.16876028
000030 65 25 ae 3e e7 5f 4e bd a5 66 96 bd f6 f3 be 3c
       0.34012905 -0.05038443 -0.07343797 0.023309689
000040 5f 67 83 be 62 f8 01 be fb 56 9e 3c a0 83 72 3e
       -0.25664803 -0.12692407 0.019328585 0.23683023
000050 73 12 86 3e b7 6c 12 be 75 af cc 3e fe 13 5a be
       0.2618595 -0.14299284 0.39977613 -0.21296689
000060 d0 22 41 3a 41 25 91 3e c1 87 b0 3d 23 94 00 bd
       0.0007367553 0.28348735 0.08619643 -0.031391274
000070 9e 0a 2b 3f 5e 32 bc 3c 69 ac a6 3d 94 ec cc 3e
       0.66813076 0.022973236 0.081383534 0.40024245
000080 c8 65 49 3f 7f fe 10 3d af e9 d5 3d 61 87 35 3e
       0.7867093 0.035398956 0.10444962 0.17727424
000090 0b de b5 3e 97 7e 66 bc 2a f3 6e be ea eb b9 3e
       0.35520968 -0.014068267 -0.23334947 0.363128
0000a0 a4 27 86 be df 0b 95 be 82 df a5 be 65 87 39 3e
       -0.26202118 -0.2911062 -0.32397085 0.18118055
0000b0 4b 58 b4 3d d5 62 19 3e fe 34 8c be 83 1b 21 be
       0.08805903 0.14979108 -0.2738418 -0.15733151
0000c0 80 f2 01 3e 4e 9f 08 bd 26 85 e6 3e 77 80 15 be
       0.12690163 -0.03335505 0.4502346 -0.14599787
0000d0 9d 87 a6 be 75 7e 38 bd 02 88 60 3e 34 fb 26 3e
       -0.3252534 -0.045042474 0.21926883 0.16306764
0000e0 13 3a 33 3e f4 46 04 be 56 21 6a bd a9 12 1e 3f
       0.17502622 -0.12917691 -0.057160698 0.61747223
0000f0 d4 f1 57 3d 46 fe ff 3e 5b 8d f0 3d c9 16 cb 3e
       0.05272086 0.49998683 0.117457114 0.3966582

mu_layer.bias f4 [2]
000000 fc af 42 bb b1 85 b9 bc
       -0.0029706946 -0.022646757

log_std_layer.weight f4 [2, 32]
000000 a6 a4 99 bd 69 a1 81 be 99 81 b9 bc 63 f5 67 3e
       -0.07502107 -0.2531846 -0.022644805 0.22652201
000010 7d 7d e1 3e c4 6a 55 3e 2f c7 80 3d b6 ed e3 3d
       0.44041052 0.20841509 0.06287991 0.11129324
000020 2f 85 95 be 46 2b a4 3e 42 9f 09 bf 97 3f f7 bc
       -0.29203174 0.32064265 -0.53758633 -0.03018169
000030 45 02 35 be bf 23 a0 be 81 d8 81 3e 95 df 5b bd
       -0.17676647 -0.31277272 0.25360492 -0.05368002
000040 4b 31 11 bd cd bf e2 be 56 19 98 3d f8 1f 9b 3e
       -0.0354474 -0.44286957 0.074267074 0.30297828
000050 03 c0 93 be 5b 2a 48 3d 3a e5 48 3e e3 ff 2d 3b
       -0.2885743 0.04886852 0.19618693 0.0026550225
000060 0f 31 00 bf fa ef 4c 3d a5 3c 7f 3e dd 13 cf 3e
       -0.5007486 0.050033547 0.24925478 0.40444842
000070 e4 b8 74 3e ed 34 33 3e 80 1d 2c be 7a 6f c1 bc
       0.23898655 0.17500658 -0.16808128 -0.023612726
000080 0c fd ed 3d 8f 95 81 3e fb 00 9e 3e a6 bc 0d bf
       0.116205305 0.25309417 0.30860123 -0.5536598
000090 5e fa f0 bd c2 0f 68 3c 45 3b 9e 3c 3b 1c 89 3e
       -0.11766504 0.014163913 0.019315371 0.2677935
0000a0 7f 68 06 be e7 75 86 bd 5e a5 46 3d ec 3e 00 3e
       -0.131258 -0.06565457 0.04849755 0.12524003
0000b0 90 40 b5 3e d3 12 f3 bd 6e 65 24 3f 94 da fb 3b
       0.3540082 -0.11868825 0.6421727 0.0076859687
0000c0 b9 2b 6b 3e df 1f e2 3d 97 00 43 be d8 76 ad bd
       0.22965898 0.11041235 -0.19043194 -0.08469933
0000d0 b7 b9 4f 3d 65 a6 b9 3d c6 00 6c 3e 6a cc bd 3d
       0.05071422 0.0906494 0.2304717 0.092675045
0000e0 08 8b 68 bc f8 17 28 3e 41 67 1d bf 40 46 c4 3e
       -0.014193304 0.16415393 -0.6148568 0.38334846
0000f0 50 bf 85 3e be 7c a1 be 99 bb 55 be a3 59 1f 3e
       0.26122522 -0.31540483 -0.20872344 0.15561537

log_std_layer.bias f4 [2]
000000 e6 b3 c0 bc 96 56 0e bc
       -0.023523282 -0.008687636
