train_history/olympics-running/11_22_14_16/critic.pth (torch, 47330 bytes, 11 tensors)

encoder.0.weight f4 [8, 4, 3, 3]
000000 6b 8a 1f 3f af 0d d3 be 2c 38 f5 be f7 6b 6a bc
       0.62320584 -0.41221377 -0.47894418 -0.014307967
000010 e9 8d 2f 3d 02 83 90 3e 33 3c 71 3e e5 18 ba bf
       0.042859945 0.2822495 0.2355812 -1.4538847
000020 1a 65 c6 bf 99 fd de 3e 23 66 a6 3e 2f 39 bc 3f
       -1.5499604 0.43552855 0.324998 1.4704951
000030 d7 c1 4f 3f 22 1b aa 3c cd 2e 96 be 8f 18 4b be
       0.8115515 0.020764891 -0.2933258 -0.19833587
000040 5e 07 74 bf 7b f1 e3 be fd 10 ec 3d 8c 7b 6c bd
       -0.9532374 -0.44520172 0.11526678 -0.05773501
000050 1a b3 71 3f f2 70 0e be 2d 91 70 3e 84 80 85 be
       0.9441391 -0.13910273 0.2349288 -0.26074612
000060 c7 5b 32 3d 15 01 55 bf 6f c7 ea 3d eb c0 d2 3e
       0.043544557 -0.83204776 0.1146382 0.4116281
000070 e1 65 f9 be 4c d2 c6 be b0 2b 34 3e 8e 9c 9c 3f
       -0.4871054 -0.3883232 0.1759479 1.2235277
000080 9b d3 3e 3f 24 7c 8d 3e b2 1a 70 bf 6c 1c 24 3e
       0.74541634 0.27633774 -0.93790734 0.16026467
000090 b5 1d 30 3e ef 3f a2 be 96 81 6a bf 9d 51 3d be
       0.17198832 -0.31689402 -0.9160398 -0.18488164
0000a0 9c 67 45 3e fd fe 76 bf 97 2b 8e 3e 4f 94 f8 3e
       0.19277805 -0.9648283 0.2776763 0.4855065
0000b0 bb e5 0a 3f fe 8b 16 bf 10 f1 25 bf ed 08 d1 be
       0.5425679 -0.5880736 -0.6482096 -0.40827122
0000c0 55 cd c8 3e b7 2d b6 3e a5 6b a7 bf 93 18 66 3e
       0.39219156 0.35581753 -1.3079726 0.22470312
0000d0 10 6b 9f 3f 08 7b e5 3e 1d 69 10 3b fe 6c f9 3e
       1.2454548 0.44820428 0.0022035309 0.48715967
0000e0 29 5a aa bd aa 6b 37 3d 31 33 d4 be 08 1e 8a be
       -0.08317978 0.04478041 -0.41445306 -0.26976037
0000f0 9a 1e d0 be 8d 94 29 3e aa 83 e9 be f8 be fc 3c
       -0.40648347 0.16560574 -0.45608264 0.03085278
000100 88 c7 0f bf d7 95 83 bf 99 9d 28 3f e0 a8 51 bd
       -0.56163836 -1.0280102 0.65865475 -0.051186442
000110 db a4 8e bf 93 a5 98 3e 75 ce c8 3f f4 ba 58 3f
       -1.114406 0.29813823 1.5688006 0.8466027
000120 1c 71 34 3e 92 97 36 3e 91 54 af 3e 9b cc 86 3d
       0.17621273 0.17831257 0.34244207 0.06581994
000130 a9 93 8f 3e 02 b5 2b 3e d9 b3 81 bf be 22 bf be
       0.28042343 0.16768268 -1.013301 -0.37331194
000140 e1 43 e7 be 56 c1 79 bf 77 d7 f4 bd 18 27 ac bf
       -0.45168975 -0.9756063 -0.11955159 -1.344943
000150 a8 59 29 3f 91 8a 14 be 82 c8 dc 3d 3f 3b 5f bf
       0.6615243 -0.14505984 0.10780431 -0.8719978
000160 a3 81 4b 3f cc 0e d7 bd 4b ee c8 3e 39 eb 1e bf
       0.79494685 -0.10500869 0.39244303 -0.6207767
000170 76 2b 73 3d 65 d7 11 3f 12 20 99 3f 81 a1 8a bd
       0.05936762 0.5696929 1.1962912 -0.06769086
000180 3a 5f 12 bd 4e 9d 8d 3e 61 a5 d5 3e cb b2 01 bf
       -0.035735346 0.27659076 0.41727737 -0.5066344
000190 1f 5c 64 bf 01 3d ba bd 0b 11 90 be 0c 96 90 be
       -0.89203066 -0.09093667 -0.28138003 -0.28239477
0001a0 92 a0 5e bf b6 9b 96 3e 8b 3b 7a be ca 6d 3f bf
       -0.8696376 0.29415673 -0.24436776 -0.747769
0001b0 ca 05 fb 3e d3 df d7 bd 67 2b 18 3e 81 c5 e0 be
       0.49027854 -0.10540738 0.14860307 -0.43900684
0001c0 dc 65 d9 3e cc db 84 bf 8a 95 f9 3e f2 47 0f 3f
       0.42460525 -1.0379577 0.48746902 0.55969155
0001d0 b4 f7 55 3f af 16 4e bf 10 35 de be 14 db 14 bf
       0.8358109 -0.8050336 -0.43399858 -0.58146787
0001e0 3a 51 40 bf 1f d4 12 bf ea 0d 58 bf e4 0e 65 be
       -0.7512394 -0.5735492 -0.8439623 -0.22368962
0001f0 ed ae c4 bd d0 77 8b be f8 13 62 3e e2 05 2a 3e
       -0.09603677 -0.27239847 0.2207793 0.16603807
000200 d1 51 02 be 5a 10 81 3e 53 5d 6e 3e f8 16 e1 3e
       -0.12726523 0.25207788 0.23277788 0.43962836
000210 82 d9 f5 be 67 73 1e 3f f7 0e d8 be 75 d1 28 3d
       -0.48017508 0.6189484 -0.42198917 0.04121538
000220 b9 82 12 bf e5 83 c7 bf f5 73 33 3d b8 46 3e 3f
       -0.57230717 -1.5587126 0.043811757 0.7432666
000230 47 81 3a 3f 55 cb 45 be 9f 5c 45 bf c7 c3 2e be
       0.7285351 -0.19315846 -0.77094454 -0.1706687
000240 0c 38 80 bd a5 ff b4 be 13 49 03 3d 57 56 9e bf
       -0.0626069 -0.3535129 0.03205211 -1.2370099
000250 99 bb 82 be 71 81 c7 be d6 f2 59 3e ae 7b c6 3e
       -0.2553375 -0.38965943 0.21284041 0.38766235
000260 f0 c8 3b 3f fc b9 48 be 63 96 d3 bd a5 d3 64 3d
       0.7335348 -0.19602197 -0.10331418 0.055865902
000270 e1 1b ea 3d 08 fe ad be b7 6b 25 3f 74 ef 1e be
       0.11431099 -0.33982873 0.64617485 -0.15521032
000280 e5 09 8a 3e 1f f3 7e bd 9c 0a 2d 3f 1f af 34 3e
       0.26960674 -0.062243577 0.67594314 0.17644928
000290 04 66 86 3e 7c 7b aa bf 6b dd 8c bf a5 ec d7 be
       0.26249707 -1.3318934 -1.1005071 -0.42172733
0002a0 ab c1 5d 3e f5 97 bf 3d 07 65 ab 3e 9d dc 9c 3d
       0.2165591 0.093551554 0.33475515 0.07659266
0002b0 8b 2f 82 3f 58 41 30 3f bc 23 69 bd 45 86 ae bf
       1.0170759 0.68849707 -0.056918845 -1.3634726
0002c0 07 37 35 bf a5 06 7a bf 8c 68 5e 3d 41 ad 49 be
       -0.7078709 -0.9766639 0.054298922 -0.19694997
0002d0 5c 64 0e 3f 81 67 ad 3e c9 5b 88 3e cc 58 91 3e
       0.55621886 0.3386803 0.26632527 0.2838806
0002e0 12 68 e9 3e 3b 74 05 3f 4d 9a 5b 3b 0a aa 77 3d
       0.45587212 0.5213048 0.0033508718 0.060464896
0002f0 03 4f 3f be 31 83 42 3e e3 b2 b7 3e 1e 96 40 3f
       -0.18682484 0.18995358 0.35878667 0.7522906
000300 04 5b f6 3d 08 7e 19 3e 35 f9 5e 3f 79 75 00 bd
       0.120290786 0.14989483 0.8709901 -0.03136203
000310 13 0e f2 3e b6 1b 4d 3f 4a 31 79 3e 92 91 03 3f
       0.47276363 0.8012041 0.24335209 0.51394
000320 79 60 b7 3e 3e f1 f5 3e bd 75 11 3f 92 77 f5 3e
       0.3581579 0.48035616 0.5682028 0.47942787
000330 14 7b 01 be f0 cc 6c 3e 69 65 1c 3f 75 01 de 3e
       -0.12644607 0.23125052 0.6109224 0.43360487
000340 bf b9 4b bc a2 c8 1b 3e 1b 91 3e 3f 0f 3a a9 3e
       -0.012434422 0.15213254 0.74440163 0.33052108
000350 f8 8a cf 3e 9c ab 36 3e 7c ae 08 3f 86 be 21 3f
       0.40535712 0.17838901 0.5339124 0.6318134
000360 ff a2 82 bd 48 26 c5 bd c7 50 82 3d 98 82 b2 bd
       -0.06378745 -0.09626442 0.06363063 -0.08716315
000370 c5 7d 55 be 2e a7 07 bd 71 d9 c8 bc c1 70 27 be
       -0.20848759 -0.03311842 -0.024517747 -0.16351606
000380 6d 66 79 be b9 42 dd 3e ce a4 b8 3e 8e e1 ec 3e
       -0.24355479 0.43214968 0.36063236 0.46265835
000390 c1 39 69 3f aa 11 44 3f 66 a6 51 3f b5 18 e3 3d
       0.9110375 0.76589453 0.8189453 0.11088697
0003a0 86 f6 9f be e2 60 44 be e0 ba a1 3e 78 48 db 3d
       -0.3124277 -0.19177583 0.31587887 0.10707182
0003b0 be 0e 87 3e bc f1 29 3f 86 7c 43 3f 91 75 28 3f
       0.26378435 0.6638448 0.7636188 0.6580439
0003c0 17 de 1d 3e b3 e2 5e 3f cf 69 82 3f d3 f1 f0 bd
       0.15416752 0.87064666 1.018854 -0.11764874
0003d0 5a 90 12 be 3d a6 10 3f 59 da bc 3d d4 dc 37 3f
       -0.14312878 0.5650366 0.09221334 0.7182133
0003e0 0a 5b 2f 3f fa dd ce 3e 5e f3 78 3f 77 dc b5 3e
       0.6849829 0.4040373 0.9724635 0.35519764
0003f0 23 c4 75 be 66 38 c6 bd b1 93 07 bf 05 13 a7 bd
       -0.24000601 -0.09678726 -0.52959734 -0.081579246

encoder.0.bias f4 [8]
000000 d3 76 1f bd 62 7c a0 bd d0 e0 63 3d be e1 2b be
       -0.03893168 -0.07836224 0.05563432 -0.16785333
000010 82 ba 07 be 3b 49 2e 3e f9 23 ee 3d 9e a3 e5 3c
       -0.13254741 0.17020123 0.11627955 0.02803212

encoder.3.weight f4 [8, 8, 3, 3]
000000 42 5a 08 bf 90 4a 34 3e 3b d8 9c 3e cf 31 f0 be
       -0.5326272 0.17606568 0.3063372 -0.46913
000010 1d ac 3d 3e 01 87 f9 3e 6f 68 5a be b4 b0 1d bd
       0.18522687 0.48735812 -0.21328901 -0.038498595
000020 1d 9b ac 3c 05 17 f6 bd e1 33 05 be 41 7c 84 be
       0.021070058 -0.120161094 -0.13008071 -0.25876048
000030 a9 9f 7e bf de 10 b2 3c ff 7a 00 3f 73 2f 80 bf
       -0.9946237 0.021736559 0.5018768 -1.001448
000040 8b 20 bc bd 6e ed 42 3f 52 91 38 bf 51 12 e9 bc
       -0.091858946 0.7614354 -0.7209674 -0.028451117
000050 ce 68 45 3f 5d 3d 7c bf d9 bd fa 3b af 12 0c 3f
       0.77113044 -0.9853113 0.007652026 0.5471601
000060 a6 c5 ed be 1f 99 c5 be 2b 57 23 3e c5 37 be be
       -0.46439856 -0.38593385 0.1595122 -0.37151924
000070 4d de 70 be 14 c6 db 3e 9d f0 d0 be 26 73 01 bf
       -0.23522301 0.4292456 -0.40808573 -0.5056633
000080 4a 32 e2 3e 44 3f 56 be 12 83 05 bf 06 f5 10 be
       0.44178993 -0.20922571 -0.5215312 -0.14155969
000090 e3 9f 8f be 8a 39 14 be 21 5b 7b be ca 6f 0d bf
       -0.2805167 -0.14475074 -0.24546482 -0.552487
0000a0 de 0e ee 3c c7 60 30 3d c3 f4 09 bf 4e 7c 11 be
       0.029059824 0.043061044 -0.538891 -0.14207575
0000b0 86 75 1d bf a6 e7 a9 3d 01 48 c9 3e 9d ec d4 3e
       -0.6150745 0.082961366 0.39312747 0.41586772
0000c0 ce 18 a2 be 07 61 c6 3e b3 9e b8 3e 7f 5d 8c 3c
       -0.3165955 0.387459 0.36058578 0.017134426
0000d0 25 1a b4 3e 9c 4b 82 3e 24 1b ae be 9b ca 1a 3e
       0.35176197 0.2544831 -0.34005082 0.1511635
0000e0 7b 36 f3 3e 28 ef 43 bf e0 ca e3 3e 03 21 b8 3e
       0.47502503 -0.765368 0.4449072 0.35962686
0000f0 39 97 96 be c1 5f 82 3e b6 73 14 3f 80 cb 76 be
       -0.2941225 0.2546368 0.5798906 -0.24101067
000100 ff 01 00 3c a6 07 d6 3d 58 8e 57 bf d0 91 d2 be
       0.007812976 0.104506776 -0.84201574 -0.4112687
000110 d9 a6 e6 bd 7d 3b 2a bf 2b 73 d3 be 97 1f 3f bf
       -0.112622924 -0.6649702 -0.41298804 -0.7465758
000120 18 15 05 3f 9c a9 a3 3e 0d 75 f6 3e a1 d6 95 3d
       0.5198531 0.3196534 0.48136178 0.07316328
000130 a7 1f a6 3e b4 da 73 3d 17 cc 77 3e 8f 50 69 be
       0.32446024 0.059534743 0.24198948 -0.22784637
000140 be 9d 32 be b3 f0 f4 bd 79 fe a9 3e 32 8c 85 3e
       -0.17442986 -0.11959972 0.3320196 0.26083523
000150 35 8b ee 3e ca 7c 16 be b5 47 81 be 95 1a 90 3e
       0.46590582 -0.14696041 -0.2525002 0.2814528
000160 06 47 e9 3d 2f 2a 5a be e1 5e 25 3d 42 1e cf bd
       0.113905 -0.21305154 0.040373687 -0.10113193
000170 6c 3f a8 bd 94 13 90 3e 64 46 11 be 8d 32 14 3e
       -0.08215222 0.28139937 -0.14187008 0.14472409
000180 32 3a fe 3e c5 ce 06 3f 8a 46 1c 3f ea e8 a7 3e
       0.49653774 0.52659255 0.61045134 0.32794887
000190 50 6d a8 3e f6 58 d2 3e b2 d1 1d 3f 47 b7 22 3f
       0.328959 0.41083497 0.61648095 0.6356091
0001a0 e3 21 b5 3e a7 5e 42 3f 59 fd 5f 3f 2a a5 07 3f
       0.35377416 0.7592568 0.8749595 0.52986395
0001b0 fd ef db 3e 3a da 7a 3e 7a 21 28 bb 5d 8d 2c 3e
       0.42956534 0.2449731 -0.002565472 0.16850801
0001c0 60 42 0a be 02 1e 56 be 41 b6 c1 3e 61 4c af 3d
       -0.13501883 -0.20909885 0.3783436 0.0855949
0001d0 cc a5 e3 bd bc 86 b4 bd bf 45 28 be ad c4 e8 3c
       -0.111156076 -0.08814761 -0.16432856 0.028414095
0001e0 b6 ce 0a be b7 11 8f 3c 45 9a b5 3d 13 0a 89 be
       -0.13555416 0.017464502 0.08867315 -0.267655
0001f0 16 61 50 be fa 82 18 3e 84 bc 88 bd f7 88 04 3d
       -0.20349535 0.14893714 -0.066765815 0.032357182
000200 cf 10 7f bd 72 1c 13 be 16 aa 2c 3e 60 d1 09 3d
       -0.06227189 -0.1436632 0.16861758 0.03364694
000210 8f 92 94 be c9 98 f9 be 71 dc f5 be a4 57 11 be
       -0.29018065 -0.48749378 -0.48019746 -0.14193588
000220 e2 c4 3a 3e 3f c9 1c 3d a9 63 b6 bd 65 c2 95 bd
       0.18239167 0.03827786 -0.089057274 -0.073124684
000230 8e e4 69 be 26 e2 3c 3f 2e fe 3c 3f 82 09 10 3f
       -0.22841093 0.73782575 0.7382535 0.5626451
000240 02 dd 2c be 08 49 6a bf 02 f5 48 bf a0 33 de 3d
       -0.16881183 -0.91517687 -0.7849885 0.108496904
000250 44 3b cd be 9e fb 52 bf ce f3 14 3f ba 54 93 be
       -0.4008428 -0.8241519 0.58184516 -0.2877558
000260 fe fc 4d bf e7 b3 ea 3d b9 13 51 be 01 8e e9 be
       -0.8046416 0.11460095 -0.2041768 -0.45616153
000270 4a 07 9b 3d 3a f4 0d 3f 4f 36 65 3f 3f bf 7d 3f
       0.0756975 0.55450785 0.89535993 0.99119943
000280 cb f8 79 3f 3d 4d 9a 3f ba ba 17 3f f9 de 82 be
       0.9764525 1.2054821 0.592693 -0.2556074
000290 a4 33 a2 bf bc 19 57 3f 87 5e 13 3f 04 b8 0f bf
       -1.267201 0.8402364 0.5756611 -0.5614016
0002a0 bc 79 80 3f 6d 01 8c 3f 52 b5 fe 3e ab e9 1f 3e
       1.003715 1.0937935 0.4974771 0.15616481
0002b0 11 f6 ac 3c 98 af 8f bf 1c 0e 39 be 7d 9a 52 3c
       0.021113427 -1.1225462 -0.18071789 0.012854216
0002c0 d2 eb e0 be 9b 09 12 3f 8b 37 38 3f 91 8b 07 3f
       -0.43929917 0.57045907 0.7195975 0.52947336
0002d0 3e 9d 88 bc ac 72 b2 be 5c d9 76 bf 92 a3 36 be
       -0.016676541 -0.34853113 -0.96425414 -0.17835835
0002e0 c3 99 9a be c3 70 9c be 1d aa 43 bc 5f 61 7a 3e
       -0.30195436 -0.3055478 -0.011942414 0.24451207
0002f0 59 ad ae be e3 95 86 bd 2c ee 8a be 8e 0b d4 be
       -0.3411663 -0.065715574 -0.27134836 -0.41415066
000300 94 3f fe 3e de 5a 15 3e 0d b1 1f be 05 64 12 3f
       0.4965788 0.14585444 -0.15594883 0.5718387
000310 7f 75 3f 3e bf ba d2 3e f6 74 ce 3b 46 8c 47 be
       0.18697165 0.411581 0.006300564 -0.19487104
000320 62 01 18 bf 0d 03 5a 3f fb c2 fa 3d 52 0f 63 bc
       -0.5937711 0.85160905 0.12244221 -0.013858633
000330 c0 b0 50 3f 71 5f 07 3f 5f 07 2b 3f b1 9f 55 3d
       0.815197 0.5288001 0.6680812 0.052154247
000340 48 fe 0e bf 79 8e 88 bf ea 62 2d 3f 7d 4d 06 3f
       -0.5585675 -1.0668479 0.67729056 0.5246199
000350 42 c8 ad be 2f 33 94 3f d2 47 bc 3f 78 93 4d 3f
       -0.33941847 1.157812 1.4709418 0.80303144
000360 9d 1d b4 3f f1 1d 53 3f 22 62 ba 3e c5 1c be bd
       1.4071537 0.8246756 0.36402994 -0.09282831
000370 3c 87 30 bf f5 06 0b bf f6 b5 67 3f 80 c4 54 3f
       -0.6895635 -0.5430749 0.90512025 0.83112335
000380 be da 69 3f 8a ba 86 3f 46 51 12 3f 51 26 94 3f
       0.913494 1.0525677 0.57155263 1.1574193
000390 8e 5a a9 3d 77 84 4d 3e ff b5 40 3f 9f 43 16 bd
       0.08269225 0.20070063 0.75277704 -0.036685582
0003a0 26 de 5b 3e fa bb cc 3f c5 23 79 bc d2 c8 e9 3e
       0.21471462 1.5994866 -0.015206282 0.45661026
0003b0 0a c8 1f 3f cc 36 85 3d c3 51 0d be c0 05 27 bd
       0.6241461 0.06504592 -0.13800721 -0.040776968
0003c0 54 d0 15 3f 7e 5c b8 3e 4a e9 94 3f 3f f3 af bd
       0.5852101 0.36008066 1.1633694 -0.085913174
0003d0 91 e5 ac 3d 50 48 a7 3e f7 d5 21 be d4 0e c0 be
       0.08442224 0.32672358 -0.15804277 -0.37511313
0003e0 aa e5 94 be 98 03 9b 3e a2 14 22 3f 03 d7 55 3f
       -0.2908147 0.3027618 0.63312733 0.83531207
0003f0 2d f4 1d 40 00 8d 00 40 51 86 c6 3f 8b cc d7 bd
       2.4680283 2.008606 1.550974 -0.1053706

encoder.3.bias f4 [8]
000000 c8 c2 32 3f b9 36 93 be 2c e4 d6 be bf d0 91 bf
       0.6982846 -0.28752688 -0.41970956 -1.1391829
000010 50 50 3f bf 53 c4 8c be a5 60 5b be 6f e1 86 be
       -0.7473192 -0.27493533 -0.21423586 -0.26343867

cnn_net.0.weight f4 [16, 8, 3, 3]
000000 ab 49 53 3e 27 5c df be 35 24 4d bf 2b 17 a9 be
       0.20633571 -0.43624994 -0.8013337 -0.33025488
000010 4f 35 16 bf f8 f8 68 bf c5 e5 00 be f6 f7 95 bf
       -0.5867509 -0.91004896 -0.1258765 -1.1716297
000020 05 f3 0e c0 8f 40 c1 3e 6d 05 87 3e 19 90 f6 bd
       -2.2335827 0.37744567 0.26371327 -0.12039203
000030 1b 12 c5 3d 3b a9 c3 3e f5 ac 0a 3f 8c dd f5 3e
       0.09622594 0.3821505 0.5417016 0.4802059
000040 fb 21 a8 3e 3e ca 2e 3f f4 85 3a be 47 7c 13 3e
       0.32838425 0.6827735 -0.18215162 0.14402877
000050 7e 39 ce 3e dd 01 68 bd fe 83 55 3e 35 b8 98 3e
       0.40278238 -0.056642402 0.20851132 0.2982804
000060 2b 34 9a be 65 12 37 bf 30 0b 47 be a8 61 35 be
       -0.30117926 -0.7151244 -0.19437861 -0.17713034
000070 49 42 c1 3e 34 ea e7 3e 87 25 8a bd a8 75 9f be
       0.37745884 0.4529587 -0.06745439 -0.31144452
000080 b5 75 26 3e 3d 94 77 3c 90 5e 9f 3e 22 51 9a 3d
       0.16255839 0.015111026 0.31126833 0.07535006
000090 4f af 73 bd fb b0 15 3d 18 cb d3 3d 31 50 37 be
       -0.05949336 0.036545735 0.103414714 -0.17901684
0000a0 dc 1c 10 3e 60 4e 77 3d da e1 d2 be 27 ea 99 be
       0.14073509 0.06037748 -0.41187936 -0.30061457
0000b0 a4 63 c6 bd 82 c3 05 3f f7 96 17 3f 2e 4f c6 3e
       -0.09686974 0.52251446 0.5921473 0.38732284
0000c0 50 46 12 3f 06 f1 28 3f 9a 96 93 3d 2b 27 1f 3f
       0.5713854 0.6599277 0.07206459 0.6216914
0000d0 02 48 cc 3e 43 db 0b 3f 33 f3 1a 3f 32 89 f8 bd
       0.39898688 0.5463144 0.6052734 -0.12135543
0000e0 14 d0 e7 3d 01 18 c3 3e 09 f1 02 3f 28 18 29 3f
       0.11318985 0.3810425 0.5114904 0.66052485
0000f0 3a 92 18 3f 7f 26 3c 3e c2 4c f7 3e 07 e7 0e 3e
       0.59598124 0.1837406 0.4830075 0.13955317
000100 fe e0 58 3e b4 dd 26 3e 48 70 8d 3e d2 45 7f bc
       0.21179578 0.1629551 0.27624726 -0.015580611
000110 77 f6 a6 3e be fa 02 be 86 55 6b be 91 d3 06 be
       0.32609913 -0.12790963 -0.22981843 -0.13166644
000120 fb 1e 6b 3c ca ba cb 3e cd d8 df 3e 2f 93 3a be
       0.014350648 0.39790946 0.43720093 -0.18220209
000130 dc c6 43 3c 38 35 97 be ad 07 ca be ef ef 19 bf
       0.011949267 -0.2953279 -0.3945898 -0.60131735
000140 52 3f b4 be 92 4b c3 be 12 f0 ab 3e 07 36 e2 3e
       -0.3520456 -0.38143593 0.33581597 0.44181845
000150 2c e5 4a 3f 3a 7b 4c 3f 8f 46 9d 3f 83 86 bd 3d
       0.7925594 0.7987553 1.2287158 0.09254172
000160 61 51 84 be 70 41 95 3e 13 0c c9 be 35 30 cd bd
       -0.25843337 0.29151487 -0.39267024 -0.100189604
000170 e9 21 72 3d 63 21 f5 bc 3f 55 86 be 0d b3 57 3d
       0.05911437 -0.029923147 -0.26236913 0.05266099
000180 7f 5b 20 3e 2b 9f 15 bf e8 0f 34 be a2 45 a0 be
       0.15659903 -0.58445996 -0.17584193 -0.31303126
000190 77 92 02 be ee 0d c9 3b 3d ef 8a 3e 57 44 a4 3e
       -0.12751184 0.0061356938 0.2713565 0.3208339
0001a0 64 30 b8 3e 9f 1e 9c be 81 98 e3 be 76 f7 c6 3d
       0.3597442 -0.30492112 -0.4445229 0.09715168
0001b0 c0 f8 4d be c8 e8 be be 1b 46 b0 be f3 fc a3 3e
       -0.20114422 -0.37286973 -0.34428486 0.32028922
0001c0 ad 37 fb 3d 15 b6 f1 bd 9a 76 8a be ab 5a 04 bf
       0.12266479 -0.118023075 -0.2704361 -0.5170085
0001d0 d1 0d 3c be 11 fd b7 3b 30 4a ac bb 58 92 2b 3f
       -0.18364646 0.0056148847 -0.0052578673 0.6702018
0001e0 82 ce 34 3f fe 50 1a 3f 31 b7 51 3f 36 3e ff 3d
       0.70627606 0.60279834 0.8192015 0.12463038
0001f0 2e 51 ee 3e 86 61 ee 3d 53 5f 6f bd 40 2d 3c 3f
       0.4654631 0.11639695 -0.058440518 0.73506546
000200 da 07 0b 3f 2f 54 25 3f 46 44 3f 3f 90 24 73 3f
       0.54308856 0.6458158 0.7471355 0.94977665
000210 bc 03 9d be b3 59 c4 3d 26 e3 38 3e b9 79 9b be
       -0.30666912 0.09587421 0.180554 -0.30366305
000220 55 7f c9 bc 56 f1 40 be 65 7b e4 3e 02 5a cd 3e
       -0.02459685 -0.18842062 0.44625393 0.40107733
000230 e3 52 05 3f 6b 53 0e be 91 78 82 be 8a 6c 6a be
       0.520796 -0.13899009 -0.2548261 -0.22892967
000240 aa 01 5d 3d 88 77 0c bf f9 f7 81 be 35 ae 38 bf
       0.053956665 -0.5486989 -0.253845 -0.7214082
000250 ed d6 81 bf 09 ad 91 be 20 b3 d1 bf b0 bc 67 bf
       -1.0143715 -0.28452328 -1.638279 -0.9052229
000260 1c 2c c6 bf 63 8e e7 3e 6e 95 93 ba b6 0a 93 3e
       -1.5482211 0.4522582 -0.0011259743 0.2871911
000270 e0 bf f6 3e bf 0c 91 3e fd 3e 17 3e 5b 4d e9 3d
       0.48193264 0.28330037 0.14770122 0.113917075
000280 d1 34 d8 bd 2b 7a 3a 3e 37 44 21 bc 06 5d f1 be
       -0.10556949 0.18210666 -0.009842924 -0.47141284
000290 d8 f4 7a bc 14 d4 40 3d 8e b4 b8 3e 75 fc 5e 3e
       -0.015317164 0.047077253 0.36075252 0.21775992
0002a0 ac 70 ac bd 53 cc 80 3d 90 96 15 bf 15 53 28 3e
       -0.08419928 0.06288972 -0.58432865 0.16437943
0002b0 9d 40 5d bd cd c8 98 3e 2b f2 a9 3e 19 0f cb 3c
       -0.0540167 0.298407 0.33192572 0.024787473
0002c0 96 08 74 3e ca a5 91 bd 85 4d 50 be f2 80 f1 3e
       0.238314 -0.071117 -0.20342071 0.4716869
0002d0 c3 2d ca bd 04 ff d4 be 88 2a 10 3e a2 a9 13 3e
       -0.098720096 -0.4160081 0.14078724 0.14420179
0002e0 f1 5a e3 3d 93 b6 92 3e 21 b0 23 bf fa 1b a0 be
       0.1110133 0.28654918 -0.63940626 -0.31271344
0002f0 93 36 1b be 9b 62 27 3f a3 b7 89 3e 20 57 77 3e
       -0.15157537 0.65384835 0.26897916 0.2415433
000300 82 2b 5f 3f 66 11 72 3f 54 0f f2 3e 32 43 39 3f
       0.8717576 0.945578 0.4727732 0.72368157
000310 23 db 9e 3e 5a 9c 5d 3e 59 65 0f 3f 3b a2 94 3e
       0.31026563 0.21641675 0.5601402 0.29030022
000320 ab 0a c4 3e 18 b6 4a 3f 99 4b b9 3e 35 4d 1c 3f
       0.3828939 0.79184103 0.3619049 0.6105531
000330 23 fb 90 3e 08 39 53 3e 60 61 08 3f 30 b1 8b 3e
       0.28316602 0.20627224 0.5327358 0.2728362
000340 3d 1e 9c be 97 74 c7 3e c3 2b 95 3e 9c 31 aa 3e
       -0.3049182 0.38956138 0.2913495 0.33240974
000350 e2 a0 df bd 34 a3 68 3e e3 39 13 be 6f c3 c4 3d
       -0.10919358 0.22718507 -0.14377551 0.096075885
000360 65 12 2c bf bd 42 60 bf ee 9a eb be 52 5d 9b bf
       -0.6721557 -0.87601835 -0.4601664 -1.2137854
000370 b9 38 6b bf 86 fa 7b bf b4 8f 58 bf 20 b8 c8 be
       -0.91883427 -0.98429143 -0.84594274 -0.39202976
000380 8a 2e ba bf 24 d1 03 3f 7f ca 43 3e ed 43 a3 3e
       -1.4545453 0.51491 0.19120215 0.3188776
000390 62 85 6a 3e d2 d6 ef 3e 41 98 3e 3f 1c 2f a8 3d
       0.22902444 0.46843582 0.7445107 0.082121104
0003a0 f2 46 22 be e6 bf c7 3e 45 54 b3 3e bc 5a c9 3c
       -0.15847376 0.39013594 0.3502523 0.024579398
0003b0 4f 09 8a be 64 01 64 bd cb 40 2c 3e 5a 43 91 3e
       -0.26960227 -0.05566539 0.16821592 0.28371698
0003c0 d0 8c fb be 8e 37 32 bf d1 ba 31 be 15 07 d8 3d
       -0.4913087 -0.6961602 -0.17356421 0.10548226
0003d0 40 70 20 3e 81 25 ed 3d 9f 44 c9 3e 1c 9d 50 3d
       0.1566782 0.11579419 0.39310166 0.05093108
0003e0 48 d6 80 3e 3b 66 da 3d 10 52 24 3d ad 72 99 3e
       0.25163484 0.1066403 0.040117323 0.29970303
0003f0 d2 1c 99 3e 9b f8 92 3d 34 84 31 3e 24 7a e4 bd
       0.299048 0.07176324 0.17335588 -0.11156109

cnn_net.0.bias f4 [16]
000000 1d 1c 9d be 7d 70 de bd b2 53 98 be 58 02 ea be
       -0.3068551 -0.10861299 -0.29751354 -0.45704913
000010 de 45 dc be 28 93 f0 be 9b d9 c2 be 01 fb 2d be
       -0.43022054 -0.4698727 -0.38056645 -0.16990282
000020 ca 9d 61 be 12 3e bd be 48 5a 0e bf 66 99 15 bf
       -0.22032848 -0.36961418 -0.5560651 -0.5843719
000030 95 c1 da bd 7c 52 dd be b3 8d bc be fd d9 81 3e
       -0.10681454 -0.43226993 -0.36826858 0.25361624

cnn_net.3.weight f4 [32, 16, 3, 3]
000000 aa 48 1a bd ae f3 0a bf a1 e7 3a bf be dc 41 3f
       -0.037666954 -0.54278076 -0.7300969 0.7572745
000010 74 e8 04 3f b5 92 1a bf 78 03 b7 3f 34 9a e2 bd
       0.51917195 -0.6038011 1.4297934 -0.11064568
000020 c4 e0 0d be 57 9c a1 be 00 19 ae bf 18 ff 3a bf
       -0.13855273 -0.3156459 -1.3601379 -0.7304549
000030 09 be 18 3f 19 fc 88 3d 56 48 bc 3c fb 02 1d bc
       0.5966497 0.06688709 0.022983711 -0.00958323
000040 12 fc 1f bf c8 1a ca 3c 28 e3 90 3e 9f ef 6b bf
       -0.62494004 0.024670973 0.28298306 -0.9216251
000050 a0 6b 17 bb d2 f2 12 3f 1e b5 a5 3d 0b 32 5b 3e
       -0.002310492 0.57401764 0.08091186 0.21405809
000060 0c 8f 12 3f b2 67 81 bf fa 6e bb bd ab cb 14 3e
       0.5724952 -1.010977 -0.091520265 0.14530818
000070 3b 7a c7 be 77 27 08 bf 71 26 91 3f 50 78 48 3f
       -0.38960442 -0.5318522 1.1339856 0.7830858
000080 4f b5 2d 3d 62 37 87 3f 37 80 da be bb 8f cf be
       0.042409237 1.0563776 -0.42675945 -0.40539345
000090 cf 68 7f be 69 0f 71 bf 86 0a 6d be 0f 89 4c 3f
       -0.24942325 -0.9416414 -0.23148546 0.79896635
0000a0 36 85 c3 be 96 20 73 be c1 04 66 3f e8 90 78 bf
       -0.3818757 -0.237429 0.89851004 -0.9709611
0000b0 11 13 c2 be 77 d3 84 3e 28 8a 52 3e 4d 5a df bc
       -0.37905172 0.25942585 0.20560515 -0.027264738
0000c0 04 3f 36 3f ee 35 24 3e 6d 4b 21 3e 42 d0 9e 3d
       0.71189904 0.16036198 0.15751429 0.07754566
0000d0 0f 01 bb 3e 36 b2 68 3e 99 92 f1 3e be 69 3a 3a
       0.36524245 0.22724232 0.47182158 0.0007111094
0000e0 79 7e 65 3d 37 c8 81 3f 8c 3f 2a 3e b6 de 2e 3e
       0.056028817 1.0139226 0.16625804 0.17077145
0000f0 2e 93 15 3f 77 f2 c2 3d 78 36 91 3d 0d 1f fa 3d
       0.58427703 0.09518903 0.07090467 0.12212954
000100 14 a4 13 3f ab f8 a9 bd f6 7c 22 3f e7 1d 2f 3f
       0.5767224 -0.08299383 0.63471925 0.68405
000110 74 15 33 be 33 80 1f 3f 8d 52 99 3e bf ee b6 be
       -0.17488652 0.6230499 0.29945794 -0.35729024
000120 a5 df 9c be 7a 03 82 3e 77 15 68 be 3d a7 9b 3e
       -0.30639377 0.25393277 -0.22664438 0.3040103
000130 9d c1 31 3f f0 d5 13 be a0 dc 43 3e b4 f6 7c 3e
       0.69436055 -0.1443708 0.1912713 0.24703485
000140 a2 3a 96 be 0c ff 86 3f b8 28 47 3a 23 22 49 bc
       -0.29341608 1.0546584 0.0007597315 -0.012276205
000150 29 72 21 3f d6 c6 40 3f 3d 36 89 be e5 90 3f 3f
       0.6306482 0.753034 -0.26799193 0.74830467
000160 e9 c2 91 3d 8f d0 9d be ad 06 19 3f 88 0b 7a be
       0.07117254 -0.3082318 0.5977581 -0.24418461
000170 f5 68 82 3c e1 06 62 3f a7 9c 7e be 20 06 10 3d
       0.015919188 0.88291746 -0.24864446 0.03516209
000180 ee 55 61 3f 66 51 2f bf ef 30 cf bd f9 ba e0 3e
       0.88021743 -0.6848358 -0.10116755 0.4389265
000190 01 ac 60 bf 98 99 29 bf ab 87 8e 3f 1c 39 45 3e
       -0.8776246 -0.6624999 1.1135153 0.19260067
0001a0 6c 70 4f 3d 90 13 8e 3f 03 db fc be a1 2e 9c be
       0.050644323 1.109972 -0.49385843 -0.30504325
0001b0 9f 55 d7 3e f9 3c fe 3e 5f b2 4f 3e 49 cd 19 3f
       0.4205751 0.49655893 0.20282887 0.60078865
0001c0 0e 83 75 3e c1 1b 21 bd 01 23 a1 3e bd 0f b7 3e
       0.23975775 -0.03933311 0.31472018 0.35754195
0001d0 13 28 82 3e 56 8b 8b 3f 30 b1 31 bf 63 86 c8 be
       0.254212 1.0901897 -0.6941099 -0.3916503
0001e0 c2 45 cc 3f 91 51 49 3f 63 37 06 be ba b2 8f 3f
       1.5958788 0.78640085 -0.13107066 1.1226418
0001f0 08 0c 4b 3c ce 96 4d 3e b9 0e b1 be b6 bd 6c be
       0.012393005 0.20077059 -0.34581545 -0.23119244
000200 b8 24 70 be 55 63 7b be f4 a4 a6 3e 5b d5 a5 3e
       -0.23451507 -0.24549611 0.32547724 0.3238934
000210 75 9f 63 3e 1f 1a 5c 3e b8 34 d3 3d 52 16 07 bf
       0.22228797 0.2149434 0.1031279 -0.52768433
000220 a3 a4 bd bd 1b ff 8a 3e a9 20 cb be 5b 81 22 3e
       -0.092599176 0.27147755 -0.39673355 0.15869658
000230 f2 25 ec bc fc 16 59 bf da 86 c9 bd 54 3d 0e 3f
       -0.028826687 -0.84800696 -0.09840174 0.5556233
000240 ca 45 32 be 88 cb d6 be ed cd 2e bf 01 57 24 3e
       -0.17409435 -0.41952157 -0.6828297 0.16048814
000250 6c d6 f6 3e ac eb 43 3d 72 a9 80 3e 0c c9 bc 3e
       0.48210466 0.047832176 0.25129277 0.36872137
000260 88 b4 60 3d 65 ce 25 be 44 0c 0a 3f e2 35 df b9
       0.054859668 -0.16192015 0.53924966 -0.0004257402
000270 61 91 d2 3e 94 be c8 3e c9 cb 80 be 37 09 a6 3e
       0.4112654 0.392079 -0.25155476 0.32428905
000280 f1 f2 25 3e d8 38 5c 3d 7e 58 af bd d6 b7 68 be
       0.16205956 0.053765148 -0.085618004 -0.22726378
000290 3b 22 13 bd d6 ff 48 3f 11 48 ed 3e 72 29 cc bd
       -0.035921317 0.78515375 0.46344045 -0.099688426
0002a0 38 5f ce 3e a1 62 22 3e 28 1a 3d be 75 34 0d bf
       0.4030702 0.15857936 -0.18467009 -0.5515817
0002b0 84 b0 7e be 09 12 d1 bc fc 0a f1 3d 35 68 89 bc
       -0.24872023 -0.025521295 0.11769673 -0.016773323
0002c0 d4 e2 a7 be 4b a4 69 3d cb 7a 95 3e 79 8c 28 3e
       -0.32790244 0.057041448 0.29195246 0.16459836
0002d0 e0 80 58 be 34 66 94 bd ed 62 c4 be 2f 3a e1 3e
       -0.21142912 -0.07246056 -0.38356724 0.43989703
0002e0 d3 de 67 3c 9d e3 e4 be a4 c1 16 3f 44 c5 34 3e
       0.0141522465 -0.44704905 0.5888922 0.17653376
0002f0 17 0c 2b bd a0 c6 b7 3d 4a e9 10 3e cc 7a 16 3e
       -0.041759577 0.089734316 0.14151493 0.14695281
000300 7d bb 4f 3e 3a da 18 3e 08 2a 3b 3e 7e b8 7d be
       0.20286365 0.14926997 0.18277752 -0.2477741
000310 95 fc 33 be b5 47 16 3d 8a 59 d0 bd c6 bf 42 3e
       -0.17576821 0.03668948 -0.10173328 0.19018468
000320 ef 82 c0 3e 54 28 08 3e fb 52 0c 3e 95 3b c5 3e
       0.37599894 0.13296634 0.1370353 0.3852202
000330 27 06 74 be ba 7f 64 be 94 5c dd 3d 22 29 63 be
       -0.23830472 -0.22314349 0.108086735 -0.2218366
000340 e6 17 23 bc 9d 82 a7 3d 2b fa 1f 3e 42 6c 4e 3e
       -0.009954428 0.081792094 0.15622775 0.20158485
000350 7b 93 fe bd 6f 94 a7 be 7c e0 3e bd 83 ff 0c 3f
       -0.124304734 -0.32730433 -0.046600804 0.5507738
000360 2a 93 55 bd ac a0 23 bd 40 3f e1 3d 01 3a 6a 3e
       -0.0521423 -0.03994815 0.10998392 0.22873689
000370 b0 01 43 3e 34 c8 53 3d 7c d4 c4 3c 38 43 58 3e
       0.19043612 0.0517046 0.024027102 0.21119392
000380 d7 29 e9 3d d6 34 4a be 0c 1a 81 3d 94 5d 4a 3d
       0.113849334 -0.19746718 0.06303796 0.04940565
000390 a8 03 bc 3e e7 37 ce 3e d4 cc 2d bb 44 40 8a be
       0.3672154 0.40277025 -0.0026519792 -0.27002156
0003a0 da 63 10 3e 0c c5 93 3e 10 2c b3 be c4 43 ce bd
       0.1410059 0.28861272 -0.34994555 -0.10071519
0003b0 22 be 28 be cf 7a d4 3e 91 d0 36 3e 35 30 0d 3d
       -0.1647878 0.41499946 0.17853 0.034469802
0003c0 ce 56 db bd 81 71 07 3e a9 d8 8a 3c f8 a1 aa 3e
       -0.10709916 0.13226892 0.016949015 0.33326697
0003d0 36 99 86 3e 27 44 a3 be 80 73 ee 3e 8b 7b c0 3e
       0.26288766 -0.31887934 0.46572495 0.37594256
0003e0 06 69 a1 be 05 98 0b be 29 f7 e4 3e 79 70 8e 3e
       -0.3152544 -0.1363221 0.44719818 0.27820185
0003f0 8d 19 ba b9 b4 6a 00 3e 4a 02 7a 3e 1d 84 e6 3d
       -0.0003549572 0.12540704 0.24414936 0.11255667

cnn_net.3.bias f4 [32]
000000 f1 de 2e bd 97 2e 7e 3d d6 e8 73 be 5b f6 0f be
       -0.042693082 0.06205615 -0.23819289 -0.14058821
000010 8c 3d ce be f0 bb 80 3c ea bf 9a bd dc 02 cd be
       -0.40281332 0.015714616 -0.07556136 -0.40041244
000020 16 8e a3 bd e3 c9 09 bf cb 49 82 3c 43 8d e4 be
       -0.07986085 -0.5382368 0.015904328 -0.44639024
000030 44 34 b4 be b4 0b 02 3d 85 96 11 be 88 ca 22 3e
       -0.35196126 0.031749442 -0.14217575 0.15897572
000040 82 6d 1e bf 8d 86 b1 bd 12 a4 27 be 2f 31 85 3c
       -0.61885846 -0.08668242 -0.16371182 0.016258804
000050 62 91 36 3c de 05 37 3c 91 66 50 3d 4a b7 d1 bc
       0.01114306 0.011170832 0.050879065 -0.025600094
000060 53 5c f9 bd f1 86 4c 3d 2d 3e 80 3d 60 54 04 3b
       -0.121758126 0.049933378 0.06261859 0.0020191893
000070 df 7f 3d 3d 03 bd 16 3f 89 cf 25 be ce 0f 05 bd
       0.046264526 0.5888216 -0.1619245 -0.032485776

hidden.weight f4 [32, 128]
000000 8a 1e a6 be b7 9c 4d be 6e 39 a0 be d3 f3 df bd
       -0.32445174 -0.20079313 -0.31293815 -0.10935178
000010 83 35 ad bd 34 38 5a bd de 44 d3 3c ba 1e 0e 3e
       -0.08457472 -0.053276256 0.025789674 0.13878909
000020 d7 e2 09 3e 22 d0 48 3e c5 8b 87 3e 2f 5a a1 3e
       0.13465439 0.19610646 0.26473823 0.31514117
000030 34 b2 e4 3d 5c d0 5c 3d c1 76 c9 bd 22 cb b1 3d
       0.11166802 0.053909644 -0.09837104 0.08681323
000040 b7 2c e6 bd ff de 6d be 83 9e ae bc 4a a4 f0 3d
       -0.112389974 -0.23229598 -0.021315819 0.11750086
000050 5a ed 10 3e a4 d5 da 3d 62 9c 11 bd 4a 5d 04 bc
       0.14153042 0.1068528 -0.03554953 -0.0080788825
000060 65 44 c8 bd cb 8f 09 be 38 bb 26 be 61 d5 96 3d
       -0.0977867 -0.13433759 -0.16282356 0.073649175
000070 f1 42 5e be 7e 1b 47 be 0f ec b7 be 86 26 a4 be
       -0.21705224 -0.19444081 -0.35922286 -0.3206064
000080 c6 8c d7 3d ed a4 fe 3d f7 5b 41 3e af 78 6d be
       0.10524897 0.12433801 0.18882738 -0.23190568
000090 47 65 ea 3c 40 67 74 be e6 c6 6b be 2f 7d 5f be
       0.028612746 -0.23867512 -0.23025092 -0.21825098
0000a0 98 dd 66 3d b2 8b 47 3d a0 08 9f 3e 4a 3e 87 bc
       0.056363672 0.04871721 0.31061268 -0.016509194
0000b0 43 d6 19 be da ff 57 3f 35 cd 7e 3e ee 4c 43 be
       -0.1502314 0.84374774 0.24882968 -0.19072315
0000c0 04 13 9b bd ed 65 9e be bf 57 c9 be e8 30 9e be
       -0.07571986 -0.30937138 -0.39324757 -0.30896688
0000d0 21 33 fe bd e6 9c fd 3d 04 99 4d be 90 4f 61 bc
       -0.12412096 0.123834416 -0.20077902 -0.013751879
0000e0 d7 7f 25 3e 68 10 4d 3e 4d 22 df 3c b3 d7 07 be
       0.16162048 0.2002579 0.027238036 -0.13265876
0000f0 ea 7c fd bd 8f b6 f0 3d 4d ae fa 3c 8f cb 1f 3e
       -0.12377341 0.1175357 0.030600691 0.15604995
000100 79 2f d8 3e 10 e6 b7 3e 56 d5 94 3e 19 ce c7 3e
       0.4222372 0.3591771 0.29069012 0.39024428
000110 24 5c 87 be dd c2 5a 3e 1c 80 99 3d c7 a9 5d 3d
       -0.26437485 0.21363397 0.07495138 0.05411699
000120 e3 54 af be 47 ab 33 3e a3 fe 4a be bd 0a 88 bd
       -0.3424445 0.17545806 -0.19823699 -0.06642673
000130 1e be 79 3c ff 1a 0a 3e a9 bb 40 be 85 f4 7d bd
       0.015243081 0.1348686 -0.18821587 -0.06200077
000140 13 af 2b 3d cc 32 24 3e f8 ec a8 bb 09 e0 68 be
       0.04191501 0.16035002 -0.005155202 -0.22741713
000150 ec 9f 08 bd e6 0b 45 3d e1 3e ea 3d 4b d0 4f 3e
       -0.03335564 0.04810705 0.114377744 0.20294301
000160 f4 68 1d be f3 a4 0b 3d 8c 1c a6 3e 69 4f 6c bd
       -0.15372068 0.034092855 0.32443655 -0.05769292
000170 df f8 9f be f4 c4 38 be d1 29 0a be 8b 0c 39 be
       -0.3124456 -0.18043882 -0.13492514 -0.18071191
000180 07 e4 e1 3d bc 77 98 3e ca 4d 08 3e d2 f9 10 3e
       0.11029821 0.2977885 0.13310924 0.14157799
000190 d6 34 72 ba b1 b7 65 3e c2 61 14 bc 9b e2 13 3c
       -0.00092394406 0.22433354 -0.00905651 0.009026195
0001a0 0e 33 ce 3d 80 00 44 3e 57 07 91 3e ee 76 e5 3d
       0.10068332 0.19140816 0.28325912 0.11204325
0001b0 3a ac 15 be 98 22 0c 3e 81 f3 8d 3d 08 48 5d bd
       -0.1461648 0.13685071 0.0693121 -0.054023772
0001c0 ec 8b e9 3c d3 fe 62 3e de 2f f6 3d 18 18 0b 3d
       0.028509103 0.2216752 0.12020849 0.033958524
0001d0 54 61 36 bf ea 79 b0 bd 07 fe 6b 3e b3 01 7b bf
       -0.7124226 -0.08617003 0.23046122 -0.9804947
0001e0 91 a9 ca 3e 74 35 4e 3e 54 ef f8 3d 51 01 08 3e
       0.39582494 0.20137578 0.12155023 0.13281752
0001f0 5f 02 ca bd 1c 5c a1 be 59 1a ac be 49 a3 a5 be
       -0.098637335 -0.31515586 -0.33613852 -0.3235114
000200 cc cf 7d bd 8e a0 b7 3d 8b c7 7e 3b d8 d5 b8 3b
       -0.06196575 0.0896617 0.003887626 0.0056407265
000210 92 1e 2f 3e 9b 34 2a be 63 60 98 3c 2e c5 a1 3d
       0.17101505 -0.1662163 0.018600648 0.07898937
000220 1d 0d 55 bd 53 47 73 be 30 5a 2a be 0c 6d b1 be
       -0.05201446 -0.23757677 -0.16635966 -0.3465351
000230 47 4b c6 bc c4 fc 7e be 61 37 b4 bd ba 81 34 3e
       -0.024205817 -0.2490111 -0.08799625 0.17627612
000240 ad e5 df bc 52 00 98 bd 2c 7f a4 3c db b7 89 be
       -0.027331198 -0.07421936 0.020080172 -0.26898083
000250 4c fc 5d 3d 67 a8 13 3c 11 de e4 3d 46 e4 f4 bd
       0.054195687 0.009012318 0.11175168 -0.11957602
000260 b4 09 cb bd de ad 4c 3c c6 61 d0 bd 1a 2a 12 3e
       -0.0991396 0.012492625 -0.10174899 0.14273873
000270 80 78 c1 bd dd b7 37 3e 40 39 2c 3e 80 0c a0 bd
       -0.09446812 0.17941232 0.16818714 -0.07814884
000280 81 58 54 bc 28 29 dc 3d a4 45 56 bd 2a 5f 35 bd
       -0.012960554 0.107500374 -0.05231251 -0.04428021
000290 0b 98 a8 3c c8 31 af 3d 4b 3a 79 3e 6d 8b 90 bc
       0.020580312 0.08554417 0.24338643 -0.017644608
0002a0 b3 9d e3 bd 11 0e e9 3c b9 53 26 3d bb 08 d6 bb
       -0.11114063 0.02844909 0.040607188 -0.0065318025
0002b0 76 b1 1d 3e ed 41 0c 3d e3 a4 8e 3d d9 fb 39 bd
       0.15399727 0.03424256 0.069650434 -0.045406196
0002c0 4d 2a 9d bd 00 cd 59 bd 62 cd a0 bd f7 bc 07 bd
       -0.07674084 -0.05317402 -0.07851674 -0.033139195
0002d0 59 0c d1 be a8 d3 12 3e 88 e9 33 be f7 fe 88 3b
       -0.40829733 0.14338553 -0.17569554 0.004180785
0002e0 b5 6c 8e be 76 66 e2 bc c8 c1 52 bc ed fd 7c bc
       -0.27817312 -0.027636748 -0.012863584 -0.0154414
0002f0 09 07 85 bd b9 66 1a be 41 d6 79 3d 84 3b 54 bd
       -0.064954825 -0.15078248 0.060995344 -0.05181457
000300 ee 05 4f 3d a8 2a 6a bd 98 5c 64 bd e9 57 59 be
       0.050542764 -0.057169586 -0.055752367 -0.21224941
000310 93 74 ad bd 4a b0 0c be 26 ae 6c bd a0 fc 36 3c
       -0.084695004 -0.13739124 -0.05778327 0.011168629
000320 f5 74 70 bc f1 99 54 3d f8 12 27 be 7b b7 43 3e
       -0.014676322 0.051904622 -0.1631583 0.19112961
000330 da 00 fd bc f0 ca bb 3d 37 43 1c 3e 54 96 49 3c
       -0.030884195 0.09169567 0.15260015 0.012303907
000340 62 2f d5 3d eb 9a b7 bb 62 59 97 3c 7a 4b e6 bd
       0.10409428 -0.0056031845 0.018475238 -0.11244865
000350 08 25 42 bd e6 9b 36 be cd 67 25 bd ee cd 23 be
       -0.047398597 -0.17832908 -0.040382195 -0.15996525
000360 25 95 38 bd 41 f5 6d bd b2 66 31 3e 36 c5 ac 3c
       -0.04506411 -0.05809522 0.17324331 0.021090131
000370 0a 52 c7 bd e2 72 60 bc e5 77 82 be e0 df d1 bd
       -0.097324446 -0.013699265 -0.25482097 -0.10247779
000380 74 f3 bd bd 20 1d 55 3d 53 b1 91 3b e6 a2 ac bd
       -0.092749506 0.05202973 0.0044461875 -0.08429508
000390 f9 37 26 bd c6 ef 57 be 0a 81 72 bd 96 ce cc bd
       -0.040580723 -0.2108756 -0.059205092 -0.10000341
0003a0 1f d7 8b 3e ad da 3c bc 4f 0b c2 bb fe db 63 bd
       0.27312562 -0.011526746 -0.0059217582 -0.055629723
0003b0 07 76 b5 be ff 8a d0 bc b2 8c 99 3d e8 21 3b b9
       -0.3544161 -0.025456904 0.074975386 -0.00017846341
0003c0 ed 96 ff bb 75 81 67 3e 9b a2 c1 3d df 5b 94 bd
       -0.007799974 0.22607978 0.09454843 -0.072440855
0003d0 ff 75 c4 3d e8 16 bd bd ca a1 2f bd 1a 25 4e 3e
       0.095928185 -0.09232885 -0.042878903 0.2013134
0003e0 27 00 45 3e ce eb ac 3d c6 bb 02 be 86 76 5d be
       0.1923834 0.08443414 -0.12766942 -0.21627244
0003f0 31 59 a3 bd cf 6f 57 3e c0 db 7f 3c 02 cd 09 be
       -0.07975996 0.21038745 0.015616357 -0.1345711

hidden.bias f4 [32]
000000 8f 05 fd bd e9 f1 54 bc e2 7d 32 be a5 4c 29 be
       -0.12354576 -0.012997129 -0.17430833 -0.16533144
000010 2c 9c 69 3e b4 57 6f 3e 77 43 29 be da fd 9d bb
       0.22813481 0.233733 -0.16529642 -0.004821521
000020 3e 40 b9 bd 9b 19 2f be 56 e5 36 be ff ba 5a 3e
       -0.09045456 -0.17099611 -0.17860922 0.21360396
000030 ae b8 24 be a4 f4 23 3e 82 43 42 be d0 29 6c 3e
       -0.16086075 0.16011292 -0.18971065 0.23062825
000040 ed 30 61 3e 68 86 08 be 11 5b 8d bd dd cb a9 be
       0.2199132 -0.13332522 -0.06902135 -0.33163348
000050 45 3f 50 3e 5c e5 44 bd 00 c2 5c 3e 63 c1 59 bd
       0.20336635 -0.048070297 0.2155838 -0.053162944
000060 79 0e 7b bd f2 5f f4 bc 8b e3 31 be 4c 19 0e 3e
       -0.0612931 -0.029830907 -0.17371957 0.13876837
000070 fd 07 62 3e 00 00 00 00 ab f9 a7 be d8 d7 6b 3e
       0.2207336 0.0 -0.3280767 0.23031557

out.weight f4 [1, 32]
000000 8d 68 fd be 51 ad 2a be be d4 98 be 69 9d 06 be
       -0.49493828 -0.16667677 -0.2984981 -0.13145985
000010 e9 3d a1 3e 92 b7 06 3f 75 a4 d8 be 13 04 60 bd
       0.31492546 0.52623856 -0.4231297 -0.054691385
000020 c1 70 2b 40 20 51 8a be 11 fa 0d be 33 2d 16 3e
       2.678757 -0.27015018 -0.13864924 0.1466568
000030 4f d3 8a be c3 a4 07 3e 5a 70 0d bf 65 16 c9 3e
       -0.2711434 0.13246445 -0.5524956 0.39274898
000040 c1 47 8d 3e 9e d4 23 40 a2 54 36 40 0b 21 d8 bf
       0.27593806 2.5598521 2.8489156 -1.6885084
000050 55 44 aa 3d f0 eb 3d 40 26 f0 12 3e 0d 96 45 40
       0.083138146 2.9675255 0.14349422 3.0872834
000060 b5 ee 3f 40 24 e4 ea 3d d1 db 00 bf 09 16 80 bb
       2.9989445 0.114692956 -0.50335413 -0.003908877
000070 92 ff 4b 3e 9f 78 a6 3e 59 2f d8 bf 86 34 ba 3e
       0.19921711 0.32513902 -1.6889449 0.36368197
