termproject_olympic/train_history/olympics-running/11_15_19_22/actor.pth (torch, 47899 bytes, 14 tensors)

encoder.encoder.0.weight f4 [8, 4, 3, 3]
000000 62 73 99 be 32 cb a3 be 25 1f 8f be 6c f0 88 3c
       -0.29970843 -0.31990963 -0.2795345 0.016716205
000010 f5 3d b3 be 08 9e 59 bd 1f 48 d6 bd 8a a2 38 3e
       -0.35008207 -0.053129226 -0.10462975 0.18030754
000020 e0 ca b1 be 96 03 1e 3c cb 49 34 3e a3 1d ae be
       -0.34725094 0.00964441 0.17606275 -0.34006986
000030 87 c1 99 3d fa 82 3e 3e 44 57 89 bc 70 34 d0 bd
       0.075076155 0.18604651 -0.016765244 -0.10166252
000040 e8 1f 6e 3e 0d ff 20 bd e2 67 90 be 0b 97 27 3e
       0.23254359 -0.039305735 -0.28204256 0.16366212
000050 b3 cf f1 bd b7 5e 97 bc 66 cf 21 be 9d a7 a4 be
       -0.118071936 -0.01847778 -0.15801772 -0.3215913
000060 06 d3 c4 be bb 7c 34 3d e8 4d 83 3d 09 4d 11 3f
       -0.38442248 0.044064265 0.06411344 0.5675817
000070 1f 63 89 3e e1 41 9d 3e ef b3 ea be 88 fe 05 bd
       0.26833436 0.30714324 -0.45840403 -0.032713443
000080 b8 62 52 3e 8e 3e 87 3d 59 da 2d be d1 83 c0 bd
       0.2054547 0.06603728 -0.16977824 -0.09400142
000090 a1 00 9a 3e 71 4a ff bd 54 b8 5e 3e 9f 8e bc be
       0.30078605 -0.124653704 0.21750003 -0.3682756
0000a0 6c 84 5b 3d e3 cc 47 3e 76 22 27 be fb e8 29 3c
       0.053593084 0.19511752 -0.1632174 0.010370488
0000b0 4f 49 12 3e 18 26 36 3d af 0d f1 bd cc 8e 36 3e
       0.14285778 0.044469923 -0.11770188 0.1782791
0000c0 6a 8b 42 3e 49 2c e8 3d ba eb 9f be c1 c6 d8 3d
       0.18998495 0.11336572 -0.31234533 0.10584784
0000d0 c8 82 09 3d b7 41 44 be e3 0c 99 3d b0 6b ec 3e
       0.03357199 -0.19165693 0.07473161 0.4617591
0000e0 e3 b2 8e be 1b 98 20 bf 0a 56 70 bd dc 01 82 be
       -0.27870855 -0.62732095 -0.058675803 -0.25392044
0000f0 93 27 fd 3e 89 b1 2c 3e a4 d7 38 3e a4 b8 22 be
       0.49444255 0.168646 0.1805101 -0.15890747
000100 8f 20 96 3e e1 f8 21 3e 2f e4 86 be bf 2f b5 3d
       0.29321715 0.15817596 -0.26345965 0.088469975
000110 0f 27 ce 3c 8b d8 d3 3d 4e e1 80 be 47 d5 2b 3e
       0.025165109 0.10344037 -0.25171894 0.16780578
000120 8b f5 29 3d 87 a7 5b be 0a ea c9 bb 38 8f 7e 3e
       0.041493934 -0.21450625 -0.006161933 0.24859321
000130 c3 4f e8 be ce 6f 8f bd f4 67 4f 3e 51 78 48 3d
       -0.45373353 -0.07003747 0.20254499 0.048942868
000140 b5 5d 97 ba bf 19 a3 be 95 61 65 be 2b 87 b3 3d
       -0.0011548313 -0.3185558 -0.22400506 0.087660156
000150 25 79 58 3e 41 0b 34 3d 40 ff cc 3e 79 54 7d 3e
       0.21139963 0.043956045 0.4003849 0.24739255
000160 2d 51 4f 3d e4 33 09 be 97 9f eb 3e 81 8f 9c 3e
       0.050614525 -0.13398701 0.46020195 0.30578235
000170 56 84 a9 be f5 a0 c0 bc f2 97 0a 3e b7 cd 4f bd
       -0.33108777 -0.02351425 0.13534525 -0.050733294
000180 7f 81 02 be 4c 0b bd be db 79 08 bd 09 35 c3 be
       -0.12744711 -0.3692268 -0.033319335 -0.381264
000190 bd 7c 22 be 7e 88 40 3d f9 6a 68 bd 5b c3 d2 be
       -0.15867896 0.04700517 -0.056742642 -0.4116467
0001a0 8c 31 ef 3e e7 ca 21 3d cf 65 38 3e 17 c7 be bc
       0.4671749 0.039500143 0.18007587 -0.023288293
0001b0 51 5b 9e 3c 85 a5 98 3d 6d 12 54 3e 53 ed 63 ba
       0.019330652 0.07453445 0.20710154 -0.0008694727
0001c0 6f 6d 7b be b3 4d 01 bd 16 fb 3c 3e 7b 63 d9 3d
       -0.24553464 -0.03156824 0.18455157 0.106146775
0001d0 86 ad 07 be f8 e5 13 bd 10 df aa 3d a0 9f e5 bb
       -0.13249788 -0.036107987 0.08343327 -0.007007554
0001e0 81 55 25 bf 8e 3c 57 be fa 72 1e 3e 63 19 92 be
       -0.64583594 -0.21019194 0.15473548 -0.28534994
0001f0 89 c6 8e 3e fa 61 d9 3d 38 9a c1 be e7 74 ef 3d
       0.27885845 0.10614391 -0.37812972 0.11692219
000200 0e ba 8d be d9 2e 05 3e c4 8e b8 3e f7 fe 10 3e
       -0.2768101 0.13006152 0.36046422 0.14159761
000210 d2 59 cc 3e 25 c5 ae bc 3a 36 b8 3e ec 1e 89 be
       0.39912277 -0.02133424 0.35978872 -0.26781404
000220 61 50 48 be d7 67 49 3e 7f 7d ae be 56 da 16 3e
       -0.19561912 0.19668518 -0.3408012 0.14731726
000230 db ed fb 38 48 b6 b1 be e9 67 2e bd 8c 5c 82 be
       0.00012012917 -0.34709382 -0.042579565 -0.25461233
000240 dd 58 f8 3d a5 fe 5a 3e a9 23 91 bd 48 7b a5 3e
       0.12126324 0.21386202 -0.0708688 0.3232062
000250 ab 04 3c be 48 5b de bd f7 d4 a1 3c ea 23 01 3f
       -0.18361156 -0.10857254 0.01975487 0.50445426
000260 3d 01 74 ba 2b c7 18 be 3d f5 ad 3e 7f e6 3c 3e
       -0.0009308046 -0.14919727 0.33976164 0.18447302
000270 34 73 be 3d 3b 59 7c 3e 24 cb bd be fb a3 11 be
       0.09299317 0.24643414 -0.37069046 -0.1422271
000280 4e 6b 84 bd 5f 0b 52 be e8 e6 7c 3e cc bd b9 be
       -0.06465779 -0.2051215 0.24697459 -0.36277616
000290 7f 41 1d be 18 80 12 bd f8 1b 9a 3d 53 8d 1d 3e
       -0.15357016 -0.03576669 0.07524866 0.15385942
0002a0 4c 02 02 3f e4 64 a1 be b6 0a ab be 61 0a b6 3e
       0.50784755 -0.31522286 -0.3340661 0.35554793
0002b0 93 72 63 3e d5 b7 3b 3e 2f 54 63 3b 14 d9 85 3c
       0.22211675 0.18331845 0.0034687629 0.016338862
0002c0 ed 84 00 3d 1c ae af be fc cc 37 3e b3 59 bc 3d
       0.031376768 -0.34312522 0.17949289 0.09196796
0002d0 fc e7 73 3e 7c 37 e8 be 2f 5c 70 be 12 5c 11 bd
       0.23818964 -0.4535483 -0.23472665 -0.035488196
0002e0 a1 5e d6 bd 52 dc ca bd 36 33 d3 3d 6d aa af be
       -0.10467268 -0.09905304 0.10312502 -0.34309712
0002f0 a8 07 34 3e 93 28 ef 3e a2 09 60 bd a2 97 c0 bd
       0.17581046 0.46710643 -0.054696687 -0.09403922
000300 1c 22 7a 3e 0a a3 8f bd b0 39 58 3d 2a 43 cb bc
       0.24427074 -0.07013519 0.05278939 -0.0248123
000310 07 ae 18 3e 8d a1 6b 3e ba dc 60 bd a8 8c 1d bd
       0.14910136 0.23010845 -0.054898 -0.03846422
000320 16 ee bd 3e 92 37 1b 3e 08 45 d9 3e 55 18 2c 3e
       0.37095708 0.15157917 0.4243548 0.16806157
000330 ef 6b 09 3f e1 cb 6e be ce fc 40 3e c3 d2 b2 3e
       0.5368032 -0.23319961 0.18846437 0.34926423
000340 cd 24 21 3e 14 48 af bd 43 18 10 3e fe d9 90 be
       0.15736695 -0.0855867 0.14071755 -0.28291315
000350 8c 05 94 3e d2 b9 12 3d 68 ad 42 be 0e c5 23 bd
       0.28910482 0.035821743 -0.19011462 -0.039982848
000360 a0 d6 2f be 0e 59 1c 3e cb e9 98 bd e5 11 0f 3e
       -0.17171717 0.15268347 -0.074664675 0.1397167
000370 00 36 d0 bd 81 fd 71 bd 64 64 5d 3e 37 b6 6b be
       -0.1016655 -0.05907965 0.21620327 -0.23018728
000380 12 9c b0 bd e9 71 e1 3e 94 20 ac 3e e3 4d 78 3e
       -0.08623518 0.4403222 0.33618605 0.24248461
000390 c1 6a fb 3d 49 bb 5f be 31 3c db 3d 01 75 71 3e
       0.12276221 -0.21848787 0.1070484 0.2357979
0003a0 99 5e 8e bd 2f a8 f7 bd 83 26 fc 3e 15 c1 9b 3e
       -0.06951637 -0.12092625 0.49248132 0.30420747
0003b0 7e ea 3f 3d bc 81 55 3e b5 16 9c bd f5 89 cd 3d
       0.04685449 0.20850271 -0.076215185 0.10036079
0003c0 27 9b 11 be 67 75 93 3c 99 d6 7d 3e 95 a9 0d be
       -0.14219342 0.018000318 0.24788894 -0.13834222
0003d0 93 1b 13 3f 29 94 aa 3e 9f 25 09 3d 1f 1a 6d 3e
       0.5746395 0.33316162 0.033483144 0.23154496
0003e0 c5 20 ba be c0 67 6c be 05 80 5d bd b0 1e a5 be
       -0.36353126 -0.23086452 -0.054077167 -0.32249975
0003f0 c5 be e2 bd ec 35 5d 3e 8c 5f c3 3e 4d 82 01 3f
       -0.11071543 0.21602601 0.38158834 0.5058945

encoder.encoder.0.bias f4 [8]
000000 00 00 00 00 00 00 00 00 00 00 00 00 00 00 00 00
       0.0 0.0 0.0 0.0
000010 00 00 00 00 00 00 00 00 00 00 00 00 00 00 00 00
       0.0 0.0 0.0 0.0

encoder.encoder.3.weight f4 [8, 8, 3, 3]
000000 2c a8 ed 3d 73 9e 1b 3e 57 95 99 be be c1 53 3e
       0.11604342 0.15197162 -0.2999675 0.20679376
000010 b9 a0 29 3e 66 99 f4 bc 76 95 c4 bd 62 b7 1c be
       0.16565217 -0.029858302 -0.0959882 -0.1530433
000020 b9 05 09 be ef 08 99 3d 11 9c e0 bd 1f 0e 32 bd
       -0.1338109 0.07472407 -0.10967267 -0.0434705
000030 66 0d d2 3d 6b 9a 0a 3e 9f 7f 18 be ec b7 d0 bc
       0.10256462 0.13535468 -0.14892434 -0.025478326
000040 a2 81 3c 3d b7 b1 6c 3e 5b ae 20 be c2 da 86 bd
       0.046022065 0.23114668 -0.15691511 -0.065846935
000050 13 18 c9 bb a2 b3 59 3e 84 32 06 3e 40 ee 2b be
       -0.006136903 0.2125993 0.13105208 -0.16790104
000060 3f 33 86 bd df 21 97 3c 54 24 0f bd c1 21 7b be
       -0.06552743 0.018448768 -0.034946755 -0.24524595
000070 cc 46 65 be e6 46 8d bd 7e b0 32 3e e6 d5 8f be
       -0.22390288 -0.068982884 0.17450139 -0.2809288
000080 fe 94 b2 bd 89 a9 3e 3e 4b 8f ba bd b7 27 49 be
       -0.08719824 0.1861936 -0.09109362 -0.19644056
000090 e2 eb 86 3d 7e 16 c6 be ad bf 08 bd f7 89 55 3e
       0.0658796 -0.38689035 -0.03338592 0.2085341
0000a0 95 14 0e bd ee 39 46 be d7 90 2a bd 67 27 a9 bc
       -0.034687597 -0.19358036 -0.041642036 -0.020648671
0000b0 f4 01 b3 be 64 3f b6 3d 51 a4 33 3e 97 2b 20 be
       -0.34962428 0.088988096 0.1754315 -0.15641628
0000c0 af 6e c3 3e 0b 16 a3 3e 3a c3 aa 3d bf 10 4c 3e
       0.38170382 0.31852755 0.08338018 0.19928263
0000d0 8c 88 70 bc dd c5 31 be 7b f7 0d be 86 9f 46 be
       -0.014680993 -0.17360635 -0.13863938 -0.19396791
0000e0 15 66 b6 ba 30 51 7f 3c 9f 79 fd bd b5 51 05 be
       -0.0013915921 0.015583321 -0.12376713 -0.1301945
0000f0 42 64 dd be ea c8 9e 3d 44 00 a4 3b 63 b7 98 3d
       -0.43240553 0.07753165 0.0050049145 0.07456853
000100 9e 78 6f be 8b 83 86 3d 44 26 a6 bc 12 fc 45 3d
       -0.23385856 0.065680586 -0.020281918 0.048336096
000110 e4 52 b3 bc 0f 1c 5e be 86 1f 4c be f4 3e 42 3c
       -0.021890111 -0.21690391 -0.199339 0.0118558295
000120 3f e0 39 3e b2 c4 00 bf 59 65 a4 3e 85 89 a5 3c
       0.1815195 -0.50300133 0.32108572 0.020207176
000130 6b 90 78 bd 28 2f 07 3e a3 62 4c 3e e5 a9 4c bb
       -0.060684603 0.13201582 0.19959502 -0.0031229195
000140 7e 31 16 3c 89 4f a3 be 47 b0 1a bc e9 f6 e5 bd
       0.009167073 -0.31896618 -0.009441442 -0.11228735
000150 5e ce fd 3c e2 4d 7c 3d be 7e e1 3b e3 9d 87 be
       0.030982193 0.061597712 0.006881564 -0.26487646
000160 56 9e 70 3e 11 73 7f 3d 8a f4 3d 3e 4b a3 39 be
       0.234979 0.062365595 0.18550315 -0.18128698
000170 b6 b5 2a 3e ad a5 bc 3d dd cc 7b 3d 71 16 37 bd
       0.1667088 0.09211288 0.06147467 -0.044699136
000180 62 83 d5 3d 1e 93 13 be 97 51 d0 3d 72 dc 4e 3e
       0.1042545 -0.1441159 0.10171812 0.2020128
000190 0c e7 79 3e a9 6f 19 be dd 9d a5 bd af ed 23 3e
       0.24404544 -0.14984001 -0.08086751 0.16008638
0001a0 83 d5 24 bc 52 15 0d bd e5 3f 83 3e 6f a2 73 bd
       -0.010060671 -0.03444416 0.25634685 -0.05948108
0001b0 4e a8 4f be 8b 7b 2b 3d 5e 2c 67 be 67 e8 64 3e
       -0.20279047 0.041865867 -0.22575518 0.2235428
0001c0 a6 73 a7 be 62 cd 9f be aa 06 54 bd 0a e0 b8 bd
       -0.3270542 -0.31211382 -0.051764168 -0.09027107
0001d0 69 0f 9e bd a9 55 bc 3e ca 3d 12 3c 68 e2 f3 3c
       -0.07717783 0.36784104 0.0089258645 0.029771045
0001e0 c2 98 19 3d 7a 24 27 3e 97 67 c2 3e de f8 4c bd
       0.037499197 0.16322508 0.37969658 -0.050042026
0001f0 b3 09 a5 bc 31 42 19 be 88 03 6a bd 3c 1a d7 3c
       -0.020146227 -0.14966656 -0.057132274 0.026257627
000200 96 c0 38 be 1a 2a a2 bd d6 b9 23 3e b1 d8 ae 3c
       -0.18042216 -0.079181865 0.1598886 0.02134356
000210 13 ca 00 be 29 a9 1c 3e cf 13 59 bd ec 67 ee 3d
       -0.12577085 0.15298904 -0.052997407 0.11640915
000220 7c 24 ae 3b 27 11 87 3d a5 2d 02 3d 1f c8 42 be
       0.005314408 0.065950684 0.03178181 -0.19021653
000230 24 04 43 be 13 e7 a7 3d 71 ba c5 bd 61 ad ac bd
       -0.19044548 0.08198371 -0.096547015 -0.08431507
000240 20 98 20 be 2a b3 1b be 52 d8 14 3e 9b 47 34 3e
       -0.15683031 -0.15205064 0.14535645 0.1760544
000250 af 41 e1 bd e2 86 bc be 51 e7 2e be 38 3f 17 3d
       -0.10998856 -0.36821657 -0.17080428 0.036925524
000260 6e 97 6f 3e e4 1a c4 bc 28 2b 8b be 09 3f c7 bd
       0.2339761 -0.023938604 -0.27181363 -0.0972882
000270 f3 2a 8c bd 05 2a 78 bd 21 d6 1b be 2e 55 24 be
       -0.068441294 -0.060586948 -0.15218402 -0.16048118
000280 be da 58 3e 33 d0 32 be 68 9c db bd 4e c0 11 3e
       0.21177194 -0.17462234 -0.107231915 0.14233515
000290 c3 c0 fc 3d 81 62 ad 3d ad e8 ee 3d 9c 97 7f be
       0.12341454 0.08466054 0.11665473 -0.24960178
0002a0 7e c4 ef bd fb fc 9b 3e a6 c2 3a bd 18 b9 a7 3d
       -0.117074 0.30466446 -0.045595787 0.08189601
0002b0 6f 87 a2 be e8 09 04 3e 47 82 db 3e 02 13 72 3e
       -0.31743953 0.12894404 0.4287283 0.23640063
0002c0 cd 3a 8b 3d f7 4b 54 3d f0 07 ae 3d af 7f b7 bd
       0.06798325 0.05183026 0.08497608 -0.089599006
0002d0 06 fe af 3d a5 03 48 be a6 17 9e be cd c7 c4 3d
       0.08593373 -0.1953264 -0.30877417 0.096084215
0002e0 4d 2d 07 3e 28 4f 85 bd 6f ee 52 be 58 27 99 bd
       0.13200875 -0.065092385 -0.20598768 -0.07478207
0002f0 1c d8 4f 3e a0 f7 6b 3d 1b ee 42 be 4e 96 bc bd
       0.20297283 0.0576092 -0.19036143 -0.09208356
000300 48 e7 2f 3b af 75 a3 3d 29 27 32 be 0a 1a 1e bd
       0.0026840735 0.07981431 -0.17397751 -0.03859905
000310 ce 7e c0 bd 79 ef e1 3d 12 a8 0a 3e 4a 1a 24 3d
       -0.09399186 0.11032004 0.13540676 0.040064134
000320 b1 94 64 3e 1b a1 75 3e de ce a7 3e dd a6 b0 3e
       0.22322346 0.23987238 0.32775015 0.34502307
000330 96 1c 22 bc ae 5a 5e 3c d4 1c 45 be c7 5e 19 3e
       -0.009894511 0.013571424 -0.19249278 0.14977561
000340 6d d8 86 3d f5 ef b0 3d f2 45 13 bd f3 bf fc 3d
       0.06584249 0.08639518 -0.035955377 0.12341299
000350 14 f2 11 3c 33 b7 35 3d cf 7d ee 3d e9 cf 0f 3b
       0.008907814 0.044364166 0.1164509 0.0021943992
000360 50 f4 e6 bc 28 70 9b 3d c3 6d 1f be ca a3 a6 3d
       -0.02819267 0.075897515 -0.15569215 0.08136709
000370 18 17 ba 3d c6 6e 0b 3e 0d ee a3 3e a3 9d 3b bd
       0.09086436 0.13616475 0.32017556 -0.04580463
000380 bd 86 52 be b3 30 88 3e dc aa 89 bd 5b f0 ed bd
       -0.20559211 0.26599655 -0.06722042 -0.1161811
000390 3a 17 78 bd 2d c9 5a 3d b4 e6 a5 3d 9a 00 cf 3d
       -0.060569026 0.053414512 0.08100644 0.101075366
0003a0 d2 41 c2 3d 7d a1 30 3d df 0a 26 be 01 57 f5 bd
       0.094852105 0.043122757 -0.16215084 -0.11979485
0003b0 62 7b 28 be a2 8d 0e 3e 88 79 f8 3d 86 82 e5 3d
       -0.16453317 0.13921216 0.12132555 0.11206536
0003c0 96 df 20 3e f1 17 75 bc 99 3f 90 be 3f da db 3d
       0.15710291 -0.014959321 -0.2817352 0.107349865
0003d0 89 40 1d be b6 53 1d 3e ce a1 74 3e 4a 6b e8 3d
       -0.1535665 0.15363964 0.23889849 0.11348589
0003e0 16 9d 9e be 52 be 91 3e 47 78 e7 bd e5 c1 b7 bc
       -0.30979222 0.28465515 -0.11302238 -0.022431323
0003f0 0a 2b 9f 3e 15 82 6b 3e 87 c2 3f be 7c 70 4e be
       0.31087524 0.22998841 -0.1872655 -0.20160097

encoder.encoder.3.bias f4 [8]
000000 00 00 00 00 00 00 00 00 00 00 00 00 00 00 00 00
       0.0 0.0 0.0 0.0
000010 00 00 00 00 00 00 00 00 00 00 00 00 00 00 00 00
       0.0 0.0 0.0 0.0

cnn_net.0.weight f4 [16, 8, 3, 3]
000000 c2 2f a7 3c 2e a1 6d be e9 c2 28 be 8c 07 cc 3e
       0.020408515 -0.23206016 -0.16480602 0.39849508
000010 ae d1 79 3e 9c a3 7a bd dc 4d 36 3e 17 76 95 3e
       0.24396393 -0.061191186 0.17803138 0.29191658
000020 b0 90 c0 bd 62 fc 36 3e fe 76 c7 bd 32 84 85 3c
       -0.09402597 0.17869714 -0.09739493 0.016298387
000030 e5 10 20 3e a4 92 04 be 8d 61 c1 3c 96 3d 86 3e
       0.15631445 -0.12946564 0.023606086 0.2621886
000040 24 1a 97 3d 84 63 51 3e e3 97 2f be 1d 67 1e be
       0.07378033 0.20448118 -0.17147784 -0.15469022
000050 5b c6 27 3e 2b bf 07 3e 1b 4e ea 3d c9 a5 aa bd
       0.1638426 0.13256519 0.11440679 -0.08332402
000060 6b b1 af 3e 21 0d db bd 61 14 e5 3c fc ff 50 3e
       0.34315047 -0.106958635 0.027963819 0.2041015
000070 06 f5 9f 3e 59 cb 31 bc ee a7 8d bd 72 10 5f 3e
       0.31241626 -0.0108517045 -0.06916796 0.21783617
000080 2b 91 85 3c 03 15 3e 3d 13 04 a6 3d 4b 27 76 3c
       0.016304573 0.046406757 0.08106246 0.015024017
000090 4d d2 88 3d ab c6 35 be db 7e 88 bd 6a d9 21 3e
       0.06680737 -0.17751567 -0.06664821 0.15805593
0000a0 4f da b8 3d ca 3f 46 3c 1d 59 01 3e 43 5c 0f be
       0.09026014 0.012100169 0.1263165 -0.14000039
0000b0 47 b3 6f bd 97 e8 8d 3e c0 1b 23 3c 99 93 4c be
       -0.05852058 0.27716514 0.009955347 -0.19978179
0000c0 47 0d c5 3d 38 46 50 3e 10 4d f0 bd f8 b4 72 be
       0.09621673 0.20339286 -0.117334485 -0.23701847
0000d0 84 2f cd bb 1d ff 14 bd 8e ac fc bb ad be 09 be
       -0.006261768 -0.036376107 -0.007711 -0.13451643
0000e0 c7 e8 ea 3d 3f df 17 3e a3 7d b4 be 8d 96 db bd
       0.1147018 0.14831255 -0.35252103 -0.10722075
0000f0 ee 43 e5 b9 ae 02 81 3d 5e 12 ed 3d d4 93 c3 3e
       -0.00043728895 0.06299339 0.11575769 0.3819872
000100 57 41 b5 be a2 0f c3 bd 83 c7 8d 3d 4d c4 3a be
       -0.35401413 -0.09524466 0.069228195 -0.18238945
000110 3c 28 ba bd 38 07 14 bd e5 d9 64 bc 24 37 44 3e
       -0.09089705 -0.036139697 -0.013967966 0.1916166
000120 f8 cb 6c 3e 63 43 e7 ba 79 06 f2 bd 54 71 ec bd
       0.23124683 -0.0017643984 -0.11817641 -0.11545053
000130 44 2f b5 3d da d3 3b 3e 5b 2b e3 3d 2b 8e 79 bc
       0.08846906 0.18342534 0.11092254 -0.015231649
000140 8e b8 65 3d 2c 81 a3 3e c9 c5 88 bd 5b 44 37 be
       0.05608421 0.31934488 -0.066783495 -0.1789717
000150 4e ba 0e 3e dc 2b 58 bd b4 49 69 3c 0d 28 92 3e
       0.13938257 -0.052776203 0.014238764 0.2854618
000160 22 e6 fc 3d 31 20 61 3d ce 5d 3b 3e a7 01 82 3d
       0.12348582 0.05496234 0.18297502 0.063479714
000170 c6 40 4d bd df 60 93 3d 3a 04 82 3e 4f 8f 6e bc
       -0.0501106 0.07196211 0.2539385 -0.014560535
000180 b3 91 27 be 01 3d 8f bc 42 f0 62 3e 4d 36 68 be
       -0.16364174 -0.017485144 0.22161964 -0.22676964
000190 59 9b b3 3c d5 c9 40 be 79 fe e8 bd f4 b4 8e 3d
       0.021924661 -0.18826993 -0.11376662 0.06968108
0001a0 39 d8 ac bd 07 24 d8 3d 74 3a 82 bd 30 3d 39 3e
       -0.08439679 0.10553747 -0.06358805 0.18089747
0001b0 75 e3 db be 76 77 d7 bd 27 2e 45 bd a9 a6 d9 be
       -0.42946973 -0.10520832 -0.048139717 -0.42509964
0001c0 df 3b 22 3d e2 eb e1 3d 4f 8a 06 be 9e 22 af 3b
       0.03960788 0.11031319 -0.13138698 0.005344703
0001d0 e2 79 b5 be 42 86 67 3e 65 5b b0 ba 6c 19 56 be
       -0.35444552 0.22609809 -0.0013454972 -0.20908135
0001e0 43 78 be 3d ce 71 2d be 60 3b 3e be 26 cf d6 3d
       0.09300282 -0.16937944 -0.18577337 0.10488729
0001f0 2d d5 72 3e c3 1f 7e be 63 62 78 3d 14 bf 24 3d
       0.23714133 -0.24816804 0.060640704 0.04022129
000200 0a 52 02 be 51 ae fa 3c c3 ab 63 3e 39 a9 fb 3d
       -0.12726608 0.030600699 0.2223349 0.12288136
000210 3e fa 96 bd ae 69 49 be 38 73 d8 39 3e 1d d6 bd
       -0.07371949 -0.1966922 0.00041284575 -0.10454796
000220 80 49 81 be 17 16 58 3e 74 6b 29 3e dc 97 ae 3e
       -0.2525139 0.21102177 0.16544896 0.34100235
000230 8f 47 fc bd 08 0d 70 3d 14 23 df bd 22 37 0d 39
       -0.12318336 0.058606178 -0.108953625 0.00013467346
000240 66 6f 7a 3d 30 83 88 3c bc d8 2e 3d 4a 64 d2 ba
       0.061141394 0.016664118 0.042687163 -0.0016051617
000250 c5 00 58 3d 45 15 68 bd ab 6c 6f be 5a dd af 3e
       0.05273511 -0.05666091 -0.23381297 0.34348565
000260 e4 2d 33 3e fa d3 24 3e a1 d0 34 be 77 9b c0 3d
       0.17497975 0.16096488 -0.1765771 0.094046526
000270 d0 31 2a be 69 49 25 3e e6 a9 11 bd 70 34 a1 3d
       -0.16620564 0.16141285 -0.03556242 0.0787133
000280 59 86 d7 3d a2 2a 30 3d 7f 11 cd 3d 1b 21 a3 3d
       0.10523672 0.043009408 0.10013103 0.07965299
000290 9b c5 fe 3d 8a 1d 03 be 86 38 d8 bd 95 a8 7b 3e
       0.12440034 -0.12804237 -0.10557656 0.24576028
0002a0 09 f6 89 3d 41 2e de 3d bb 02 d1 be 02 e2 c0 3e
       0.067363806 0.10848666 -0.40822396 0.3767243
0002b0 6f 5b 21 3e 56 f6 7f be f9 18 93 3c 00 27 19 be
       0.15757535 -0.24996313 0.017956244 -0.14956284
0002c0 38 18 61 be a8 18 a2 be a0 09 22 3d 58 e3 67 be
       -0.21981895 -0.31659436 0.03955996 -0.22645319
0002d0 01 17 03 3c 1b 80 95 3e e5 68 9c bd e5 b6 84 be
       0.00800109 0.291993 -0.076371945 -0.25920787
0002e0 c5 d9 24 3e f1 1d 8a bd ff ab 8a 3e b2 cb ce 3d
       0.16098697 -0.06743992 0.27084348 0.100974455
0002f0 e0 83 73 3e 38 43 15 3e 97 20 b3 3d 4f 3c 31 3e
       0.23780775 0.14576423 0.087464504 0.17308162
000300 b1 ca aa 3d 8c 40 2e 3e 6f 63 9e ba e1 9b 4b 3c
       0.083394416 0.1701681 -0.0012084077 0.012427301
000310 bf d4 bc 3d 42 a8 1b be b1 70 a1 bc 7f ec b4 3d
       0.092202656 -0.15200904 -0.019707056 0.088341706
000320 0e c4 ac be c7 90 3a be 67 ae 18 3e ae 99 f9 3d
       -0.33743328 -0.1821929 0.14910279 0.12187515
000330 6c 89 03 3e b0 89 37 bc 9f 03 c0 3d 81 05 a0 bd
       0.12845391 -0.011202261 0.09375691 -0.0781355
000340 08 0b 64 be be 26 15 bc 31 b3 db 3d a6 03 43 bc
       -0.22269833 -0.009103475 0.107275374 -0.011902725
000350 65 65 9f be 24 a8 7d 3c ae 8e 49 bd 0e d1 61 be
       -0.31132045 0.015481982 -0.049208336 -0.22052404
000360 7b 7e 40 be 7b 2e 49 be 2f 7d 6c 3d 73 eb 92 3e
       -0.18798248 -0.19646637 0.057736572 0.28695258
000370 f8 ab f0 bb aa 21 d6 bb 78 0f 7e be cc 34 ea bc
       -0.007344719 -0.006534775 -0.24810588 -0.028589629
000380 ea 84 f5 3d 40 43 5b 3e 2c 94 6f 3d a1 2a fe bd
       0.11988242 0.21412373 0.058490917 -0.124104746
000390 06 a6 aa 3e c4 f4 4b bd 41 fa 17 3e e9 5d 8b 3c
       0.3332979 -0.049793974 0.14841558 0.017012553
0003a0 c3 86 0c be 8e ba 0a 3e a9 b2 3a 3e 8b 48 0d 3e
       -0.13723283 0.13547727 0.18232216 0.13797204
0003b0 3f 29 e2 3d 51 b6 df 3c b6 62 a3 bd 00 b9 ab 3e
       0.11043023 0.027308615 -0.07977812 0.3353958
0003c0 00 93 12 be ba ac 0c be 46 cb 30 be 00 4e 9d bd
       -0.14313889 -0.13737765 -0.17265043 -0.07680893
0003d0 6c 12 68 3d b8 5d 3b be 76 d2 54 3e ce 1e 61 3e
       0.056658193 -0.1829747 0.2078341 0.21984407
0003e0 4a d5 e2 bd 4a 1a d5 bd 94 92 d1 3d 17 98 e0 3e
       -0.11075838 -0.10405405 0.10233036 0.43866035
0003f0 4d 8f 7d 3a da 2b 4d bd 73 89 38 3c 65 c3 09 be
       0.00096725376 -0.05009065 0.011263239 -0.13453443

cnn_net.0.bias f4 [16]
000000 00 00 00 00 00 00 00 00 00 00 00 00 00 00 00 00
       0.0 0.0 0.0 0.0
000010 00 00 00 00 00 00 00 00 00 00 00 00 00 00 00 00
       0.0 0.0 0.0 0.0
000020 00 00 00 00 00 00 00 00 00 00 00 00 00 00 00 00
       0.0 0.0 0.0 0.0
000030 00 00 00 00 00 00 00 00 00 00 00 00 00 00 00 00
       0.0 0.0 0.0 0.0

cnn_net.3.weight f4 [32, 16, 3, 3]
000000 cb 7a 0f 3e 70 11 f1 bd ae b7 7a 3d 64 4e 8f 3d
       0.14011686 -0.11770904 0.061210327 0.06997374
000010 bd 4d e7 bd f0 af 92 3d 82 a9 ca bd c8 35 11 bd
       -0.11294124 0.07162464 -0.09895612 -0.03545168
000020 9f 0e 98 bd 07 02 1c be 76 b1 dd 3d d0 43 c3 3c
       -0.07424664 -0.15235148 0.108248636 0.023836046
000030 4d 46 85 bc 0d 0a 58 3e ce 1e 0e 3e ec b8 6f 3e
       -0.016268874 0.21097584 0.13878939 0.23410386
000040 1c 91 4a be dc 4c 78 3d b0 a6 6b 3d 20 18 f4 bd
       -0.19781917 0.060620174 0.057532012 -0.11918664
000050 8c 95 07 3e 5c fa ec bd 5e d0 fd bb cc 04 b4 bd
       0.13240641 -0.1157119 -0.0077457866 -0.087899774
000060 8c 1d 8e 3e 5d ac 5b 3e fd 45 64 be a1 f7 97 bc
       0.27756917 0.2145247 -0.22292323 -0.018550696
000070 6d 46 53 3d 80 03 c9 3d f9 1c a6 bd 88 74 a8 3d
       0.051580835 0.09815121 -0.08110995 0.082253516
000080 27 20 28 3e 75 2d 20 be ba 08 67 bd 66 ab da 3d
       0.16418515 -0.1564234 -0.056404807 0.10677223
000090 c7 7a cd bc 44 5e 07 3d ba 00 aa bd 90 a2 0d 3e
       -0.025082959 0.033048883 -0.0830092 0.13831544
0000a0 66 35 99 3e fa f1 fd 3d c2 a8 92 bb 78 f9 4a bd
       0.29923552 0.12399669 -0.004475684 -0.04955432
0000b0 58 1a 53 3d e3 7b ad be cb eb 5b 3b 93 6d 34 be
       0.051538795 -0.3388358 0.0033557292 -0.17619924
0000c0 b7 82 f0 3d e1 fe 74 3c b7 71 9e 3d ca 65 db bd
       0.11743682 0.014953346 0.07736533 -0.10712774
0000d0 a1 1e d6 3d 6c c9 84 3d 8c 21 a1 bc 77 96 4d bb
       0.10455061 0.06483731 -0.019669317 -0.0031370202
0000e0 d0 d2 25 3e 9d 1c b1 bc 10 e0 bf 3d 3c 2f e4 bc
       0.161937 -0.02162009 0.093689084 -0.027854554
0000f0 7d 0a 93 bd f7 1b 15 bb 40 9a e2 bd e4 f6 5f 3d
       -0.07179735 -0.0022752264 -0.11064577 0.054678813
000100 0a cf 78 3e 53 74 b9 3c 01 dd 61 bc 15 25 32 bd
       0.24297729 0.022638476 -0.013785602 -0.043492395
000110 2f fc 97 bd 63 3b 7a be 57 73 c1 3d 43 d5 a2 3d
       -0.07421147 -0.24436717 0.094458275 0.07950833
000120 45 86 a5 3d 23 43 01 38 fa 27 45 bd 6d ff bd bc
       0.080822505 3.0818523e-05 -0.048133828 -0.023193086
000130 5c bb b0 3d 96 b4 13 be 09 9d 66 3d 97 11 cd 3d
       0.08629486 -0.14424357 0.056302104 0.100131206
000140 be 93 7c be d4 b7 44 be bc e4 51 bd a3 67 7f 3b
       -0.24665734 -0.1921075 -0.05124353 0.0038971684
000150 9b 1f 4e 3e 0e 72 88 3c e4 a9 12 be 10 b8 24 bd
       0.20129244 0.016655948 -0.1432262 -0.0402146
000160 82 12 95 3d 24 3c 01 3d 13 26 1e be 70 7b 3d bd
       0.07278921 0.031551495 -0.15444212 -0.046260297
000170 5e 8a 79 3c cf 76 9f 3d 0b c9 20 be 11 d5 b0 bd
       0.015230743 0.07786333 -0.15701692 -0.08634389
000180 4f c0 8b 3d 36 e9 c3 3d e4 7d bd 3d a9 92 9a 3c
       0.06823789 0.09565966 0.09252527 0.018868761
000190 7d 9b d7 bc 94 f2 7d 3d eb 4a 05 bc 9a a4 9c bd
       -0.02631926 0.06199892 -0.008135538 -0.07648583
0001a0 02 5e 4d 3d 01 64 40 3e e2 a8 e4 3d 9a 53 19 3e
       0.05013848 0.18788148 0.11165024 0.14973298
0001b0 71 97 ce 3c c7 02 5b 3e fd 3f dc 3d f0 95 14 3b
       0.025218697 0.21387778 0.10754392 0.0022672378
0001c0 b5 89 49 3e d8 fa 3c bd 8d 59 3b be 00 91 6d be
       0.19681437 -0.04613766 -0.1829588 -0.23199844
0001d0 06 e6 06 bc 4c 8a 7c 3c af 81 9e 3d 6a d5 a6 bd
       -0.008233553 0.015413832 0.07739579 -0.08146174
0001e0 c6 48 3d bc b1 ea 30 3d 75 66 c9 3a e1 78 6d 3e
       -0.011552995 0.04319257 0.0015365618 0.23190643
0001f0 9b c5 6e 3d 01 da 61 3d bf ad 3e be 09 4f 94 3b
       0.05829392 0.055139545 -0.18620966 0.0045260233
000200 ec f4 24 3e 8f 56 18 3e d4 cc de 3c b1 ea 09 3d
       0.16109055 0.1487677 0.027197279 0.033671085
000210 e4 e5 0b be 7e 6e 78 3d f8 38 d7 3d da 51 24 be
       -0.13661915 0.06065225 0.10508913 -0.16046849
000220 f9 69 2c 3c 03 5a 2f bd c3 5b 88 bd ab d8 f5 3d
       0.010523313 -0.04281045 -0.06658127 0.12004217
000230 22 d3 34 3e f4 8b 20 3e ef 47 34 3d d3 10 26 3d
       0.17658666 0.15678388 0.044013914 0.04054339
000240 a4 aa 8f be 65 5a 16 bd 4d 71 9a 3e 47 d0 4a be
       -0.28059876 -0.0367073 0.30164567 -0.19806014
000250 8e 00 8a bd a5 6f 26 3d e1 88 1c 3d a8 84 1e 3e
       -0.06738387 0.040633816 0.038216475 0.15480292
000260 98 d5 aa bd 5a 93 41 bd 17 f0 a7 3c 3b db 10 3e
       -0.08341521 -0.047259666 0.020500226 0.1414613
000270 89 0b 2b 3d 5b c5 0d 3d c2 0c b1 3a b7 50 f0 3d
       0.041759048 0.03461204 0.001350783 0.11734145
000280 0e a7 5d 3d 72 0b 4e 3d 44 3a 94 3d eb c1 1a 3d
       0.054114394 0.050303884 0.07237676 0.03778259
000290 32 0a 45 bc 91 99 89 3d 2a a3 06 bd 8d f8 e6 3d
       -0.0120263565 0.067187436 -0.03287045 0.11277876
0002a0 93 8a c5 bd 0c 37 9e bd ba 86 97 bc 98 6c 15 b9
       -0.096455716 -0.07725343 -0.01849686 -0.00014250202
0002b0 50 af 11 3e b1 ad 41 3e f8 dd ed 3c 51 e3 10 be
       0.14227033 0.18913914 0.029036507 -0.14149214
0002c0 88 56 1b 3d eb e4 5b 3d fa 34 6e 3d c7 fc ac 3d
       0.03792432 0.05368511 0.05815599 0.08446651
0002d0 87 52 4b 3d ae 9d d0 bc 86 06 f8 3d da 55 c9 bc
       0.04963925 -0.025465813 0.12110619 -0.02457707
0002e0 b2 bb 3d be 49 1e 27 bc 86 95 4b 3e f0 7e 0e 3e
       -0.18528631 -0.010200092 0.19881257 0.1391561
0002f0 7f b7 1b 3e 21 cf 15 bd 0e 3a 45 3e cb 82 66 3c
       0.15206717 -0.036574487 0.19260427 0.014069269
000300 a2 35 17 be 61 55 cf bd 62 99 b8 bc 0a 3d f7 bd
       -0.14766553 -0.101237066 -0.022534076 -0.12072189
000310 e3 b8 bd 3d 18 c0 4a 3c 3e b1 11 3d e5 34 4b 3e
       0.0926378 0.0123749 0.035569422 0.19844396
000320 1c 5d 47 3c 55 1a b5 be b9 fb 0b 3e bc fe db 3c
       0.012168195 -0.35371652 0.13670243 0.026854865
000330 dc 6a fe 3c da 62 b3 3c f6 3b 9f 3d 7b db a5 3c
       0.031056814 0.021897722 0.077751085 0.020246258
000340 62 32 38 bd d0 a8 13 3e c7 ae ba 3d 67 8f 12 be
       -0.044969924 0.14419866 0.091153674 -0.14312516
000350 b5 40 12 3e 43 5c a9 3d 72 74 37 3b be 5f f6 bc
       0.14282496 0.08269551 0.002799299 -0.03007495
000360 f6 da 8c 3e 75 d6 17 3d fa e8 d3 bc 35 e6 2b be
       0.27510804 0.037069757 -0.025867928 -0.16787036
000370 34 95 74 bc 82 6f 1a be b3 a0 e6 bd 59 c8 36 3e
       -0.014928151 -0.150816 -0.1126112 0.17849864
000380 f7 f0 ce bd 03 71 32 be 74 00 b1 bd 62 fb 10 3e
       -0.10104554 -0.17425923 -0.086426646 0.14158395
000390 02 47 ca 3d b7 68 c2 bd 8b 60 88 be f9 2d 33 3e
       0.09876825 -0.09492629 -0.26636156 0.17498006
0003a0 92 58 06 3e 06 cb 03 3e 52 ab 06 3c f9 c7 b8 3d
       0.13119724 0.12870416 0.008219557 0.09022517
0003b0 29 91 c8 bd ff 26 82 bd ad 80 c1 bd 3f c6 61 be
       -0.09793312 -0.06355094 -0.09448371 -0.22048281
0003c0 cf 39 b0 bd 15 0b 09 bd 40 31 9c bc ac 80 b8 bd
       -0.08604776 -0.033457834 -0.019066453 -0.09008917
0003d0 22 26 dc 3d ed 73 22 3d d1 16 14 3e 1d 6e 8a bd
       0.10749461 0.039661337 0.14461829 -0.06759284
0003e0 fe 8a 3c bd c4 07 13 bd fc 63 09 bd aa 14 d4 bd
       -0.04603099 -0.035896078 -0.03354262 -0.10355504
0003f0 19 5c 70 bd 98 10 80 be 8e dd 5f be 78 cf 49 bd
       -0.05868158 -0.2501266 -0.2186186 -0.049270123

cnn_net.3.bias f4 [32]
000000 00 00 00 00 00 00 00 00 00 00 00 00 00 00 00 00
       0.0 0.0 0.0 0.0
000010 00 00 00 00 00 00 00 00 00 00 00 00 00 00 00 00
       0.0 0.0 0.0 0.0
000020 00 00 00 00 00 00 00 00 00 00 00 00 00 00 00 00
       0.0 0.0 0.0 0.0
000030 00 00 00 00 00 00 00 00 00 00 00 00 00 00 00 00
       0.0 0.0 0.0 0.0
000040 00 00 00 00 00 00 00 00 00 00 00 00 00 00 00 00
       0.0 0.0 0.0 0.0
000050 00 00 00 00 00 00 00 00 00 00 00 00 00 00 00 00
       0.0 0.0 0.0 0.0
000060 00 00 00 00 00 00 00 00 00 00 00 00 00 00 00 00
       0.0 0.0 0.0 0.0
000070 00 00 00 00 00 00 00 00 00 00 00 00 00 00 00 00
       0.0 0.0 0.0 0.0

hidden.weight f4 [32, 128]
000000 4e 65 c8 3c 37 55 6c 3e 91 60 2f bd 71 8d 2d be
       0.024462368 0.23079382 -0.042816702 -0.16948487
000010 68 3a 8a bb e5 73 1a be 94 b5 1d bd b4 b8 ab bc
       -0.0042183883 -0.15083273 -0.038503245 -0.020962097
000020 9d d4 12 bd b6 6c b6 bd 50 60 ac 3d 99 99 d3 bd
       -0.035847295 -0.08907454 0.08416808 -0.10332031
000030 97 6a 29 3d 62 e6 95 bd 18 67 9f 3e 01 95 9f bd
       0.041361418 -0.07319333 0.31133342 -0.07792092
000040 9f cf 30 3d 0f cd 6a be c3 77 0d bd 39 77 43 3b
       0.043166753 -0.22929786 -0.03453804 0.00298257
000050 d1 b0 11 be 3a 54 71 be 78 64 a2 bd b1 d4 36 be
       -0.14227606 -0.23567286 -0.07929319 -0.17854573
000060 7f 30 4b 3c 52 18 9b 3d 0f b0 92 bb 29 c2 61 3d
       0.012401699 0.07572998 -0.004476554 0.055116806
000070 fa a7 79 bd c6 ba ca bd c1 c6 01 3d 8e 1e 8a 39
       -0.06095121 -0.098989055 0.031683687 0.00026344176
000080 0e 15 00 3e b3 86 19 3c ad 4c 24 3e 5c a2 74 3c
       0.12508032 0.009370494 0.16044874 0.014931288
000090 c9 6b bc 3e 30 4b ab bd 15 7b ae bd 79 04 b4 3d
       0.36800984 -0.0836395 -0.0851957 0.087899156
0000a0 7c 4f c0 bb e6 c6 c2 3d b0 3c 46 bd 11 19 ee bd
       -0.0058688503 0.09510593 -0.04839772 -0.11625875
0000b0 f2 b2 b1 be 64 f1 43 3d cf 02 d7 bd f9 1c 5b bd
       -0.34706837 0.04783763 -0.104985826 -0.053494427
0000c0 bb 28 02 be e8 77 2a 3d 79 92 69 be 4d 19 3c 3e
       -0.1271085 0.041618258 -0.22809781 0.18369026
0000d0 27 62 8e 3e 92 da a1 3d e6 51 e2 bd e4 e6 9b bd
       0.2780926 0.07903017 -0.11050777 -0.07612398
0000e0 cb 3d 2c 3e aa 02 a0 3d 08 c1 7a 3e a8 0a b8 3d
       0.16820447 0.07813008 0.24487698 0.089864075
0000f0 59 c4 38 bd 2c 75 0c b8 76 29 3d 3d 13 14 ea bd
       -0.045109127 -3.3487726e-05 0.04618212 -0.1142961
000100 3e f1 a8 3d 60 a2 ca bd b4 fc fa 3d 7d 11 30 be
       0.08249138 -0.09894252 0.122552305 -0.17194171
000110 a2 3c 13 3e 0a 4e 35 bc 37 2e 2d bc d3 72 50 3e
       0.14378598 -0.011065969 -0.0105701005 0.20356302
000120 1a 9f 69 3d 54 22 51 3d fd c8 85 3d 6d bd 34 3e
       0.057036497 0.05105813 0.06532476 0.17650385
000130 46 be 2a 3d 1b 24 44 3d a0 e4 30 3e ca 24 7d bc
       0.041685365 0.047885995 0.17274714 -0.015450666
000140 56 d2 4a 3d cb de c9 bd 3a 68 92 bc 75 98 73 bc
       0.049517 -0.098569475 -0.017871965 -0.014867892
000150 b4 f2 03 bd 25 51 04 3d 31 b8 40 3e bb 06 52 3d
       -0.03221388 0.032303948 0.18820263 0.05127595
000160 5a c5 16 bd 44 b9 de bd a8 dc 4d bd b4 2d 4d 3d
       -0.036809303 -0.1087518 -0.050259262 0.050092414
000170 c3 cf 13 bd 81 95 a0 bb 72 ed 38 bd 54 7f cf bc
       -0.03608681 -0.0049006348 -0.04514832 -0.02532927
000180 6e aa 82 3b ec 9f 64 be 68 2f e6 bc c2 94 00 3d
       0.003987602 -0.2232663 -0.028098777 0.031391867
000190 87 3b 31 3e e6 ec 4a bd a9 b4 d2 bd 76 fd 0f 3d
       0.17307864 -0.04954233 -0.102883644 0.03515383
0001a0 66 61 1c be 31 68 17 3e 1b 5c cb 3d fe 6b c0 bd
       -0.1527153 0.1478584 0.09929677 -0.09395598
0001b0 bb 3e 1b be 10 34 7c be de 93 5b 3e 42 dd b0 bd
       -0.15160649 -0.24629235 0.21443126 -0.086359516
0001c0 17 86 5e 3d c2 88 ef bd 9d 0f e7 bd 91 bb 9c 3c
       0.054327097 -0.11696006 -0.11282275 0.019132407
0001d0 ef 3a be bd 52 85 47 be 7f 0f 8c 3d be af 2b bc
       -0.092885844 -0.19484451 0.06838893 -0.010478912
0001e0 73 81 4b be 01 d6 93 3e b5 87 d8 3c fb 0e b1 bd
       -0.198736 0.2887421 0.026431898 -0.086454354
0001f0 73 79 56 bc 43 95 98 bc 79 9c 09 be dc f5 8a be
       -0.013090479 -0.018625861 -0.13438596 -0.271407
000200 7c ed 1a 3e ea 50 9c 3d a6 35 90 3d 3a bc 14 be
       0.15129656 0.07632621 0.070414826 -0.14524928
000210 f6 5c fc 3a 86 15 90 3e 11 bc 7d bd 56 2b 0d be
       0.0019253779 0.2814142 -0.061946932 -0.13786063
000220 39 60 98 bd c6 23 43 bd 8e 16 76 3e 4f ec 07 be
       -0.07440228 -0.047641538 0.24032041 -0.13273738
000230 77 7d 12 3e 74 d2 72 bd f5 42 fc bd e4 fe 83 be
       0.14305674 -0.059282735 -0.123174585 -0.25780404
000240 63 30 d8 3d 13 f9 d0 3d f7 59 01 3c b2 c9 ec 3d
       0.10556104 0.10203757 0.007894984 0.11561908
000250 00 cb 77 3e e6 73 08 be ef 07 2f 3e bc a2 8d be
       0.24198532 -0.13325462 0.1709287 -0.2766322
000260 21 ec b2 3d 79 43 77 3e e2 5d c0 3d 1d c3 26 be
       0.08736444 0.24146833 0.09392907 -0.16285367
000270 56 14 c1 bd 35 f9 bf 3d c6 a9 4e 3d 55 5c 3b be
       -0.09427707 0.09373704 0.050454877 -0.1829694
000280 8b 14 32 3a 0d 74 a5 3d 19 45 96 3c 7f ec 02 3e
       0.0006793222 0.080787756 0.018343495 0.12785529
000290 3f b1 9c bd cb 7e 0c bd 7d 58 c6 bb 5a 5f fc 3d
       -0.076509945 -0.034300607 -0.006053029 0.12322874
0002a0 ca 8a 8f bc 69 a8 14 3d d7 8a fe bc 8b 75 65 bc
       -0.017522234 0.03629342 -0.031072063 -0.014005075
0002b0 15 cd 91 3d 72 60 15 3d 02 e7 eb bd fd 83 89 be
       0.071191944 0.03646893 -0.115186706 -0.26858512
0002c0 e9 a9 35 3d 1f f9 df bd 5d fd 2b 3e 11 03 51 3d
       0.044351492 -0.10936188 0.16795869 0.051028315
0002d0 0d ff 09 3e b7 22 00 3b 20 32 21 be 3e 1a 10 3e
       0.134762 0.0019551942 -0.15741777 0.1407251
0002e0 72 e5 b6 bd 3f 4e cf 3c 44 de 3e be ea 44 10 3e
       -0.08930482 0.025305865 -0.18639475 0.14088789
0002f0 70 e4 52 bd cf dd 88 be 4b f4 72 be 49 91 bf bd
       -0.051487386 -0.26731727 -0.23726003 -0.09353883
000300 8f 88 81 bd 62 e2 00 be 6e 68 6f 3d f3 b6 54 3e
       -0.063248746 -0.12586358 0.0584492 0.20772915
000310 88 dd 40 3d a8 92 57 3c da 74 69 bd b8 4f b4 bd
       0.04708627 0.013157524 -0.056996204 -0.08804268
000320 34 da 10 3d 7b c7 23 be 3b e7 88 3e b0 94 4b bd
       0.035364345 -0.15994065 0.26738915 -0.049702346
000330 41 6f 83 be fb 44 41 3d 04 fb 12 3c 0d ce 21 3e
       -0.25670817 0.047184926 0.00897098 0.15801258
000340 90 18 6b 3d f1 f2 01 3e 07 a1 28 be b4 7e f3 bc
       0.05739647 0.12690331 -0.16467677 -0.029723503
000350 ab 2a c8 b9 47 b8 27 3d 45 fd 36 bd 9c 01 64 bd
       -0.00038178763 0.040947225 -0.04467513 -0.055665597
000360 68 ab 9a bc 41 54 15 be 52 3c 53 3d d2 7e a5 3d
       -0.018880561 -0.14582922 0.051571198 0.0808083
000370 7c b7 b3 bd 84 f2 0f be b4 56 64 3d 17 22 3b bd
       -0.08775231 -0.14057356 0.05574675 -0.045686807
000380 7a 63 f9 3c c7 ba 4f bd 6f d3 7c 3d c3 f0 10 bd
       0.030442942 -0.050715234 0.061725076 -0.03538586
000390 87 5a 26 be 38 e5 80 bc a8 63 c9 3d 6e bd 19 3e
       -0.16245471 -0.0157343 0.09833461 0.15013668
0003a0 24 82 05 bd a1 6e 73 bd 95 5a bc bd 30 07 25 be
       -0.032594815 -0.059431676 -0.09196965 -0.16116023
0003b0 48 5f f4 bd 95 48 12 be c4 7f 13 be fa a3 b0 bb
       -0.11932236 -0.142855 -0.14404207 -0.0053906413
0003c0 54 74 68 3d 2d 24 56 bd 13 05 1c 3e f7 1a 4f 3d
       0.056751564 -0.052280594 0.1523631 0.050562825
0003d0 c3 2a 46 be 0c be 85 be c9 ff 89 3e 04 f3 91 bd
       -0.1935225 -0.26121557 0.2695296 -0.0712643
0003e0 66 a7 fb 3d 61 bc 90 bd b5 fe df 3c 80 6e 10 be
       0.12287788 -0.070671804 0.027343133 -0.14104652
0003f0 34 43 95 bc df 70 5e 3d b2 f7 df 3d 14 2c b8 3d
       -0.018220522 0.05430686 0.10935916 0.08992782

hidden.bias f4 [32]
000000 00 00 00 00 00 00 00 00 00 00 00 00 00 00 00 00
       0.0 0.0 0.0 0.0
000010 00 00 00 00 00 00 00 00 00 00 00 00 00 00 00 00
       0.0 0.0 0.0 0.0
000020 00 00 00 00 00 00 00 00 00 00 00 00 00 00 00 00
       0.0 0.0 0.0 0.0
000030 00 00 00 00 00 00 00 00 00 00 00 00 00 00 00 00
       0.0 0.0 0.0 0.0
000040 00 00 00 00 00 00 00 00 00 00 00 00 00 00 00 00
       0.0 0.0 0.0 0.0
000050 00 00 00 00 00 00 00 00 00 00 00 00 00 00 00 00
       0.0 0.0 0.0 0.0
000060 00 00 00 00 00 00 00 00 00 00 00 00 00 00 00 00
       0.0 0.0 0.0 0.0
000070 00 00 00 00 00 00 00 00 00 00 00 00 00 00 00 00
       0.0 0.0 0.0 0.0

mu_layer.weight f4 [2, 32]
000000 8b 78 17 3e f5 02 23 be 51 75 fd 3d 76 ab 0f be
       0.14792077 -0.15919097 0.12375892 -0.14030251
000010 6d eb 82 be 1b 04 37 be a9 8f b0 3c 8d 15 d1 3b
       -0.2557024 -0.1787266 0.021552878 0.006380743
000020 44 39 de 3d 21 27 67 3e 7b e1 81 3e 61 bc 8d be
       0.10850766 0.2257352 0.2536734 -0.27682784
000030 4d 05 40 3e c8 47 4e 3e 26 0e 0c 3e 47 26 35 bf
       0.18752022 0.2014457 0.13677272 -0.7076153
000040 55 88 ad be 51 c4 85 3e 0a 5f 01 be 60 16 e3 3d
       -0.33893076 0.2612634 -0.12633911 0.11088252
000050 69 04 d6 3e bc bd 11 3d d9 1b 92 3e 5c 45 4f be
       0.4180024 0.035581335 0.2853687 -0.20241302
000060 ef 5c b9 3d 35 15 39 bc bb cf 39 be 60 b8 ab 3e
       0.09050929 -0.01129656 -0.18145649 0.33539104
000070 67 5a c5 3d 50 2e 29 3e ad b8 0c bf 3b 62 0c be
       0.096363835 0.16521573 -0.5496929 -0.13709347
000080 57 f5 05 be 66 52 07 3e 74 6f 9e 3d 80 be 52 3e
       -0.13081871 0.13215026 0.07736102 0.20580482
000090 20 82 54 be 06 12 c3 be a0 7c 40 bb 5b 30 94 3e
       -0.20752764 -0.38099688 -0.0029371157 0.28943142
0000a0 ca 6f fa bd 04 56 6f 3d 79 08 a7 be cc df b3 be
       -0.12228353 0.05843164 -0.32623652 -0.3513168
0000b0 af 90 6e be 59 62 39 3e e8 a9 0f be dc 51 e8 bc
       -0.2329738 0.18103923 -0.14029658 -0.028359346
0000c0 6a 6e 09 3d f9 e0 e4 3e 7a ea 99 3d 56 a5 4f 3e
       0.033552565 0.4470289 0.07515426 0.20277914
0000d0 55 da 0f be 5a d0 b7 3d 83 d9 46 bd e8 22 0e bf
       -0.14048131 0.08975287 -0.04854728 -0.5552201
0000e0 c4 09 97 3e d6 19 48 3e 89 63 d6 3d e6 91 ad bd
       0.29499638 0.19541106 0.104682036 -0.084750935
0000f0 2f 69 17 3f 8f c7 aa bd 23 49 e5 3e eb 3e 4d 3d
       0.5914487 -0.08338844 0.4478236 0.05010883

mu_layer.bias f4 [2]
000000 00 00 00 00 00 00 00 00
       0.0 0.0

log_std_layer.weight f4 [2, 32]
000000 ee f7 8b bd 93 7f 80 3d a0 7d c8 be c5 ec db bd
       -0.06834398 0.06274333 -0.39158344 -0.107385196
000010 55 af 0c be 98 82 ed bd 00 84 0a be 07 2d 0c be
       -0.13738759 -0.115971744 -0.13526917 -0.13689052
000020 ea a5 6c 3d 70 1b 7c bd 72 16 93 3d 43 65 8f bd
       0.057775415 -0.061549604 0.071820155 -0.07001736
000030 da fd 86 3e 8e 61 2e 3f 6f 84 3e 3e b7 85 7a 3e
       0.26365548 0.68117607 0.18605207 0.2446507
000040 87 2c f9 3d f8 f8 93 3c 4d d8 12 3e fc cf b5 3e
       0.12166696 0.018063053 0.14340325 0.35510242
000050 a8 99 56 bd 49 c1 40 3d c8 47 80 3e 19 5e 9a be
       -0.05239263 0.04705933 0.25054765 -0.30149916
000060 9d 93 84 3e 44 bf 6d be 93 bb af 3e 46 e3 01 be
       0.2589387 -0.23217493 0.34322795 -0.12684354
000070 8c ee dc be f7 30 96 3e 65 dd c9 3e 7f 0d a9 be
       -0.43150747 0.29334232 0.39426723 -0.3301811
000080 e9 f4 a1 3e 03 30 1e be 23 f9 01 bf e8 0b 4f 3e
       0.31632164 -0.15448003 -0.5077078 0.20219386
000090 8c a0 80 be df 4b 39 bd c9 56 8d 3e 12 77 1f 3f
       -0.25122488 -0.045238372 0.27605274 0.6229106
0000a0 07 1d 9f be 44 7f e4 3d ea 1b 39 bd eb 6a 9f 3e
       -0.31076834 0.111570865 -0.045192637 0.3113626
0000b0 6d 66 14 be 82 52 6e bd a2 bc 96 3d cc aa 8a 3d
       -0.14492197 -0.058184154 0.073601976 0.06770858
0000c0 b1 b2 c3 be a9 06 3e 3e 70 5e 1b be b9 1f 27 3d
       -0.38222268 0.18557228 -0.15172744 0.040801737
0000d0 c6 93 76 be f2 97 29 bd 0f 7b 33 3d 72 da 07 3f
       -0.24079809 -0.041404672 0.04381853 0.53067696
0000e0 75 9e 30 3d 03 bf 73 be f5 b9 91 3e 71 94 e2 3d
       0.043119866 -0.23803334 0.28462186 0.11063469
0000f0 46 24 88 3d 2e 52 0d be 88 9f 84 3e e1 9f f9 bd
       0.066475436 -0.1380088 0.25902963 -0.121886976

log_std_layer.bias f4 [2]
000000 00 00 00 00 00 00 00 00
       0.0 0.0
