_06_PPO/train_history/actor.pth (torch, 2707 bytes, 4 tensors)

hidden1.weight f4 [32, 6]
00000000: cbdf 6a3e 4eb7 b1be 06ac 6f3d 3497 ef3d
00000010: 3f61 80be 520c 65be e7b5 c7be 7cb6 c4bd
00000020: cdf8 c93e 8d6c 1fbb 38e0 79be 7eb8 08be
00000030: 051a f0be 30f8 a0bd 95e3 54bd 3be9 483d
00000040: 1793 893e 9451 ddbe 2beb 453c 60b3 75be
00000050: 9db5 753e de99 b5be 8848 92be 0f0f 803d
00000060: c0f0 4a3b c318 043e 5963 403e ccd2 e6bd
00000070: bd4d e83e 1e0f 053f 1c64 5a3e 8d23 99be
00000080: c659 173f 0127 e73e 7f2f 383f b85f fcbe
00000090: a66b 973d 4dae 0ebe 180f 603d 2d07 4abe
000000a0: ed8d d93e 4814 b9bb 2ac5 dbbd 6721 133f
000000b0: 3c31 ffbe 4b80 c03e 9abc 723d 7f47 823d
000000c0: 13c1 f8be 9805 603e ca6a ee3e 65a4 56be
000000d0: 6283 973d eb3f a13d 70d3 003e bca1 cd3e
000000e0: b7b1 653e 911f dbbc c88e 243e 8b5c a0be
000000f0: 6992 41be 8828 d23e 5444 a6be d26c 5cbe
00000100: 1d63 ae3c a0c3 e3bd 2164 c5be ad2e 3cbc
00000110: 6b02 253e 9829 e93d 448d e1be c009 01be
00000120: fc90 6abe 4f35 a6be 3f94 2c3e 963c a5be
00000130: 4fe2 ec3e a965 3cbe 2a70 ab3d 8162 983d
00000140: a511 18bd 7746 d3bd a480 013e 530f 93be
00000150: d3ff 073d 6d80 c5bc 9000 afbd 0560 b0bd
00000160: f6c7 b63e f4ac 743e dc86 30be 33c9 3abe
00000170: 2c61 c3be 5d40 d8bd b0f3 c9be 9afa f6bd
00000180: 5492 0cbe a6b2 4fbd 4d1a 643d 4964 043f
00000190: b5f8 36be ca6f a9bd acf8 17bf b543 dd3c
000001a0: b5cf 21be 88ca 8e3e f7de f3bd 44cb 503e
000001b0: f1d7 85bc 3931 e03e 7d53 113e 569d 753e
000001c0: dcd9 ee3e 2e3f 3a3e bbd5 d9bd 65a0 8bbd
000001d0: 770d 593e 8600 89be 7848 61be 1e96 483d
000001e0: c9c3 6cbe 5ce1 4b3e d3d4 ee3d dce4 2f3e
000001f0: 1321 013b 153b 2cbe 970b 14be 683f d2bc
00000200: ec4b 00be c2f4 05bf aee4 bf3d b40a 533e
00000210: fa5e bebe 140c 403e b9c6 623e f6eb 12be
00000220: 65a6 183e fde1 e1bd b8a5 c6be f4e8 fdbe
00000230: 3da9 e5be cec9 0c3f d556 d23e 859e 343e
00000240: 2420 b13e 7cb8 12bd 5b36 3a3c 85d5 01bf
00000250: 91f0 83be aa24 b63e 5bf1 ba3c 3d25 26be
00000260: 9c4d ec3d 7190 c23d a822 763e d7b5 db3e
00000270: 8bef b23e 6ac8 683e 1019 f73d 0d16 713c
00000280: 30ed ebbd a6b0 4c3e 3574 423e bb61 9ebe
00000290: 4a89 03be a951 a33d dd64 a83e 6a47 2ebe
000002a0: ec0e cf3e b10c 833d e2d4 8c3e c652 05be
000002b0: aff7 b6bd 5997 c53e 3130 aebb 5a7b 403e
000002c0: 8f76 b9bd 1705 783b e011 3dbe 09ff 563f
000002d0: 3e59 3a3e 1219 543e d1e4 1fbe 5947 d13d
000002e0: 2c7b 533e cc50 773c 1fbe 4fbd 8b72 93bc
000002f0: 5591 c6be 0173 273e 532e 383d 6937 58be
0.22936933 -0.34710163 0.058513664 0.116987616 -0.25074193 -0.22367981 -0.39005968 -0.09605119
0.39447632 -0.0024326176 -0.24401939 -0.13351628 -0.4689485 -0.07859838 -0.05197485 0.04905055
0.26870033 -0.43226302 0.012079994 -0.23994207 0.23995061 -0.35468954 -0.28570962 0.06252872
0.0030966252 0.12900071 0.18787898 -0.11270675 0.4537181 0.5197619 0.21327251 -0.29909936
0.5912136 0.45146945 0.71947473 -0.49291778 0.07393579 -0.13933678 0.054701895 -0.197293
0.42491093 -0.0056481697 -0.107309654 0.5747284 -0.4984225 0.3759788 0.059261896 0.06361293
-0.48584804 0.21877134 0.4656585 -0.20961149 0.07398106 0.078735195 0.12580657 0.40162456
0.22431074 -0.02674845 0.16070092 -0.31320605 -0.18903507 0.41046548 -0.32474005 -0.21525887
0.021287495 -0.11121297 -0.38552955 -0.011485738 0.16114204 0.113848865 -0.4405309 -0.12601376
-0.2290687 -0.32462546 0.16853426 -0.32272786 0.4626641 -0.18398155 0.08371003 0.07440663
-0.037126202 -0.103161745 0.12646729 -0.2872263 0.033202957 -0.02410909 -0.08545029 -0.08612064
0.35699433 0.23894101 -0.17238945 -0.18240814 -0.38160074 -0.10559151 -0.3944373 -0.12059517
-0.13727695 -0.05070748 0.055689145 0.51715523 -0.17868312 -0.08273275 -0.5936382 0.027009824
-0.1580189 0.27888894 -0.119077615 0.2039004 -0.01633832 0.43787554 0.14192005 0.239858
0.4665059 0.18188164 -0.10636469 -0.06817702 0.21196543 -0.26758212 -0.22000301 0.048971288
-0.23121561 0.19910187 0.11661687 0.17177147 0.0019703552 -0.16819413 -0.14457546 -0.025665
-0.12528962 -0.52326596 0.09369789 0.20609552 -0.37181836 0.18754607 0.22146119 -0.14347824
0.14907224 -0.11029432 -0.38798308 -0.49591792 -0.4485568 0.5499543 0.41081873 0.17638595
0.34594834 -0.03582047 0.011365498 -0.5071643 -0.25769475 0.35574847 0.022820165 -0.16225143
0.1153824 0.09500206 0.24036658 0.4291217 0.34948382 0.22732702 0.12065327 0.01471473
-0.11519849 0.19989261 0.18989642 -0.30933937 -0.1284534 0.0797456 0.32889453 -0.1701943
0.40441072 0.06398905 0.27506167 -0.13019857 -0.08933961 0.38592032 -0.0053158035 0.18797055
-0.090558164 0.003784483 -0.1846385 0.839829 0.18198106 0.20712689 -0.1561463 0.102186866
0.20652455 0.015094947 -0.050718423 -0.017998954 -0.38782755 0.16352464 0.044966053 -0.21114887

hidden1.bias f4 [32]
00000000: cb4c 98bd 598d 82bd 96de f13d 38a0 2d3e
00000010: 779d 7dbc bc4e 493e 0923 243e fd2f b2bb
00000020: f361 1a3d e6b8 c33c f18c 08be f86e 10be
00000030: f070 423e 42ae c6bc d968 21be 8b5a 093c
00000040: a8f7 29be f009 11be c3f6 1f3d e570 fa3d
00000050: 2b37 df3c 50e7 923d fc3f d8bd f85f 833b
00000060: 5594 703e 5fb4 d9bc 0675 3e3e b8d1 583d
00000070: 4802 3b3e 6d57 743e d5ae ee3d be92 03be
-0.07436522 -0.06374616 0.11810033 0.1695565 -0.015479437 0.19658941 0.1602899 -0.0054378496
0.037691068 0.023891877 -0.13335015 -0.14104831 0.18988395 -0.024253014 -0.15762652 0.0083834035
-0.1659838 -0.14163947 0.03905369 0.12228564 0.027247986 0.071730256 -0.10559079 0.004009243
0.23494084 -0.026575265 0.18599328 0.05293438 0.18262589 0.23861475 0.1165444 -0.12848946

hidden2.weight f4 [3, 32]
00000000: 1d1b 5ebe bdb4 a8be 6d0e b0be 9c88 023f
00000010: 0b68 b83d 5cb7 dbbe 7b20 ccbe 328e b93e
00000020: b855 af3e e782 babd 720a a1bc 9f7a 4dbe
00000030: 0524 65be a2b2 e13d fcf2 913d e26b c53e
00000040: 3918 7cbd 852c 8cbe a679 d1bd d947 163f
00000050: bc26 dabe ca1d d23e ce40 7fbd 34ca 27be
00000060: ddc9 743e cd54 783d 0059 c73e 815f e4be
00000070: 3834 a73e 519a a3bd f708 e7bd ab61 49be
00000080: 296d 72be 5596 84be c070 d73d 5ce7 fbbe
00000090: af04 e0be d3a6 1a3f 8453 2d3e ae23 09bf
000000a0: a026 a13e 839f 533e 84da e6bd 09dc 67be
000000b0: 8153 7c3e 075f 983e 9a63 0b3e d730 e4be
000000c0: d7a0 723d 9539 e1bc 2a37 5e3e 2627 c5be
000000d0: 9197 b3bd 8acd b13e 85fb 593d ea69 99be
000000e0: 844d 72be f2c6 53be 9b8a 21be 11db 2ebe
000000f0: ed89 5fbc 8b0a 10bf 2c94 2b3e 8bca 1fbe
00000100: ffa7 c43e a307 af3d 9c51 c4be 635c 5bbe
00000110: 0852 d93e c847 3dbc 26e3 d63c ea2e 123e
00000120: ba95 3b3d a9c2 31bf 5d93 0a3d 7dfd a53e
00000130: a704 0c3e 8848 f5bd a8ec 8b3e 6b77 a53e
00000140: 0250 3cbd 747b 6bbd 50d5 a03e 17cd 19bd
00000150: e610 0cbe 3150 04be 2957 d83d 2ba9 abbe
00000160: 23e0 e7bd 651e 7f3e a3d5 9cbd 8dd6 0dbf
00000170: aa11 6abe ddac e2bd a1e8 373e 637f 86bd
-0.2169003 -0.32950392 -0.34386006 0.509897 0.090042196 -0.4291333 -0.3986853 0.362413
0.34245086 -0.09106999 -0.019658301 -0.20066307 -0.22377022 0.110204 0.07126424 0.3855887
-0.061546538 -0.27377716 -0.10228281 0.5870338 -0.42607677 0.41038352 -0.062317662 -0.16385728
0.2390513 0.060627747 0.3893509 -0.44604114 0.32657027 -0.07988418 -0.11281007 -0.19666164
-0.23674454 -0.25895944 0.10519552 -0.4919995 -0.43753573 0.60410804 0.1692639 -0.5357007
0.3147478 0.20666318 -0.11272147 -0.2264253 0.24641229 0.2976 0.13612214 -0.44568512
0.05923542 -0.027493278 0.21700731 -0.3850643 -0.087691434 0.34727126 0.053218383 -0.2996362
-0.23662382 -0.2068136 -0.1577553 -0.17075755 -0.013643724 -0.5626609 0.16755742 -0.15604608
0.3840942 0.085463785 -0.38343513 -0.21421961 0.42445397 -0.0115527585 0.02623136 0.14275709
0.045797087 -0.6943765 0.033831943 0.3241996 0.1367365 -0.11976725 0.27328992 0.3231767
-0.04597474 -0.05749078 0.31412745 -0.037549105 -0.13678321 -0.12921216 0.105634995 -0.33527502
-0.113220476 0.24913938 -0.076579355 -0.55405504 -0.22858301 -0.11068127 0.17959835 -0.06567266

hidden2.bias f4 [3]
00000000: 2f6e 9a3d 1638 773c 052e adbd
0.07540547 0.0150890555 -0.08456043
