_06_PPO/train_history/critic.pth (torch, 3481 bytes, 3 tensors)

hidden.weight f4 [64, 6]
000000 b4 4c 98 3f 31 3a 2d be 32 c8 28 3f 93 84 67 3d
       1.1898408 -0.1691673 0.65930474 0.056522917
000010 33 78 06 3f 3f 97 5d 3e 85 9c 86 3f a3 6d 7d 3e
       0.5252716 0.21639727 1.0516516 0.24748854
000020 59 c8 7c 3e 27 a2 e3 bb c7 4e e4 3e f0 9a 0e 3e
       0.24685802 -0.0069468203 0.44591352 0.13926291
000030 0f 34 44 3f b4 b4 2a 3e 2c bf 77 3e f6 f6 b5 bd
       0.76641935 0.16670495 0.2419402 -0.08884995
000040 1b 5a b0 3e 50 6d ac 3d 81 52 2f 3f cc ea 39 3f
       0.34443745 0.08419287 0.68485266 0.72623897
000050 13 e8 a9 be 9b cf 25 bf 26 b4 20 3e 7d a0 53 be
       -0.3318487 -0.64769906 0.15693721 -0.2066669
000060 ec 19 8d 3f 8f dc 0f be ae 21 90 3f 9d 3d 81 3e
       1.1023536 -0.1404898 1.1260278 0.2524232
000070 a2 4a 36 3e ba 4c 78 3e dc 84 98 3d 0c 63 67 3f
       0.17801908 0.24248019 0.07447216 0.9038551
000080 99 d7 08 3f bb 59 94 bf d0 b9 00 3e 41 f8 38 3d
       0.53453976 -1.1589884 0.12570882 0.04515863
000090 53 22 fb be 64 c1 96 3e 77 ef d4 be 5c 14 ad bc
       -0.49049625 0.2944442 -0.41588947 -0.021127872
0000a0 1c e4 30 bb ad 90 8a bd 9f 67 7d 3f 5b 73 93 3e
       -0.0026991433 -0.06765876 0.9898624 0.28798947
0000b0 c6 6b b0 3e 61 f7 6a 3d cc 52 0e be fb e1 0b 3e
       0.34457225 0.057364825 -0.13898772 0.13660423
0000c0 8a d7 da bf de 0a f0 3f 58 61 b4 bf d3 b8 cf bf
       -1.7097027 1.8753316 -1.4092207 -1.6228279
0000d0 e7 9b 75 3e 39 c7 c9 3e 52 f5 b7 3e b4 d6 7f be
       0.23985253 0.39409807 0.35929352 -0.24984246
0000e0 13 51 ca 3e 9a 51 d8 3f 5a 10 fe 3e d7 89 f0 be
       0.3951498 1.6899903 0.4962185 -0.46980163
0000f0 ce 98 90 3f ef f2 21 be b9 6a 97 3e 06 d8 3b bd
       1.1296632 -0.15815328 0.2957361 -0.045860313
000100 0d 83 e1 be 78 be 0e be 7e fc 5c 3f c6 b2 03 3e
       -0.44045296 -0.13939846 0.8632277 0.12861165
000110 7d 26 6d 3e ab 9f d7 3c 71 30 b0 3e 6b bf 95 3d
       0.23159213 0.026321253 0.34411958 0.07311901
000120 16 ab 60 3f 6b 43 6a 3e aa 86 a3 3e 77 4b 74 bd
       0.87761056 0.2287728 0.31938678 -0.05964228
000130 c4 89 9c 3e 2f f4 54 3d ea f7 8d 3f 39 38 96 3c
       0.30573857 0.051990684 1.1091282 0.018337356
000140 44 15 84 3e 5f ed fc bd 0b f8 9e be 5f f9 4c bc
       0.25797474 -0.123499624 -0.31048617 -0.012510627
000150 11 c4 6f 3d 6f e0 2d 3d 3f 17 19 be f3 c3 09 3d
       0.058536593 0.042450365 -0.14950274 0.033634137
000160 e7 7e dc bb 04 59 1e ba d3 fd 4d 3f 90 15 4f 3e
       -0.006728995 -0.0006040486 0.8046543 0.20223069
000170 ae 31 79 3f 16 f5 3d be 41 ff e4 be a6 a0 71 be
       0.9734143 -0.18550524 -0.44725993 -0.23596439
000180 aa 42 39 3f 31 88 21 bf f7 7d 17 3f e9 09 03 be
       0.72367346 -0.63098437 0.5917658 -0.12796749
000190 e8 59 1d bc 25 ac 80 bf 74 ad 96 3f 28 85 a8 3d
       -0.009603955 -1.0052534 1.1771684 0.082285225
0001a0 b5 78 4e 3e 7a 7c 1d 3e 3d 2d e3 3e db 47 e2 3d
       0.20163234 0.15379515 0.44370452 0.110488616
0001b0 1a 0b a3 3d 77 32 1d 40 ef 29 8b 3e c8 df 5c 3f
       0.07961102 2.4562051 0.2718043 0.86278963
0001c0 40 46 a1 3f f7 0f 85 3f 6c 38 62 3f e9 79 a6 3c
       1.2599564 1.0395497 0.8836734 0.020321803
0001d0 2d 7e 7a 3e fb 30 94 3d f6 cb 97 3e e4 de 44 3c
       0.24462195 0.07235905 0.29647797 0.012016032
0001e0 be 13 8f 3f 6e 0f 07 3e e3 91 55 3e 15 6f d3 3d
       1.11779 0.1318948 0.20856433 0.103239216
0001f0 eb 36 db 3e bc 28 c5 3d e3 6e 27 3e 72 71 07 3f
       0.42815337 0.0962691 0.16350894 0.5290748
000200 34 13 1c 3f 02 05 17 3f 17 03 cd bf e7 f0 88 be
       0.609668 0.58992016 -1.6016568 -0.26746294
000210 30 ad d1 3e 4c 4c a8 be ce 38 0a 3f 6e d8 12 40
       0.40952444 -0.3287071 0.5399293 2.2944598
000220 a1 f1 58 3f c9 7a 5c bd 43 23 66 3d 76 04 a9 3f
       0.84743696 -0.053828035 0.056185972 1.3204486
000230 94 08 23 3f b1 dd a6 bf 95 c5 6f 3e d1 f4 90 3e
       0.63684964 -1.3036405 0.23415215 0.2831178
000240 24 2b 68 3f aa 5e db be 58 7a ec 3e 74 a1 84 3d
       0.9069083 -0.4284566 0.4618709 0.06476107
000250 68 22 cb be c2 58 7d be 04 5e 76 3f b5 81 c3 3e
       -0.39674687 -0.2474089 0.96237206 0.38184896
000260 d9 b8 f1 3e 3d 3b 6c be 9d b3 ee 3e eb 93 83 3e
       0.4721134 -0.23069473 0.4662141 0.2569879
000270 98 d1 9a 3e e3 ec 86 bf 56 3d bd 3f 11 3e 26 3f
       0.30238032 -1.0541042 1.4784343 0.64938456
000280 b6 9e 33 3e 02 20 90 3d a8 70 6f 3f 59 01 d4 be
       0.17541012 0.07037355 0.93531275 -0.41407278
000290 8e f7 ac 3f 59 b3 d2 3d 14 65 c3 3e 71 c9 78 3e
       1.3513048 0.10288114 0.38163054 0.24295594
0002a0 41 1b 48 3d 03 b1 72 bf 33 8c c5 3d f1 45 d8 3f
       0.048854116 -0.9480135 0.096458815 1.6896344
0002b0 b8 0f 82 bf de 1e 88 3e b7 4a 3a 3d e4 47 8e 3e
       -1.0161047 0.2658605 0.04548141 0.27789223
0002c0 8c cf 0f 3e 2f 9a b4 bd 2f b1 3c 3e 63 6a 80 3e
       0.14044017 -0.08818471 0.18426965 0.25081167
0002d0 b9 21 3f bd 43 52 b3 be 51 4d ad 3e 15 d5 39 bd
       -0.04666302 -0.35023698 0.3384805 -0.045369226
0002e0 05 70 54 be 81 b5 63 be a3 2b 65 3f 64 5e 2a 3e
       -0.20745857 -0.22237207 0.8951971 0.1663757
0002f0 55 7f 76 3e 24 ae 6c 3d 9a f4 b7 3e 8b 0c d2 3d
       0.24072011 0.05778326 0.35928804 0.10256299
000300 4e 95 88 3f 08 c9 44 bf ef 7d f8 3e c0 83 7f 3f
       1.0670564 -0.7686925 0.4853358 0.9981041
000310 f2 c6 d6 bb 43 02 8a 3e c7 bf 8d 3f e4 6b cf 3c
       -0.006554478 0.2695485 1.1074151 0.025320001
000320 21 7a 47 3e 71 04 34 be d7 b4 a6 be ea d9 01 bd
       0.19480182 -0.1757982 -0.32559845 -0.03170196
000330 71 2c 78 3f 86 1b ef 3d 5f 0d 59 3e 13 20 ab 3d
       0.9694281 0.116751716 0.21196507 0.08355727
000340 12 c0 b7 3e 19 1c 96 3d 27 a3 91 3f 1e 61 cd 3c
       0.35888726 0.07329578 1.1377915 0.025070723
000350 6e bb 4e 3e d4 67 33 be 41 d6 ad be 08 d8 07 bd
       0.20188686 -0.17520076 -0.33952525 -0.033165008
000360 f2 be 65 3d 37 30 80 3e d3 eb e5 3d ab 56 ab bd
       0.056090303 0.25036785 0.112266205 -0.0836614
000370 03 12 34 3e c5 99 6c 3e 82 d3 f9 bf d7 da 04 c0
       0.17584996 0.23105533 -1.9517672 -2.075857
000380 bd 05 06 c0 e3 62 db 3f 76 9c da 3c c8 d3 9c bd
       -2.0941002 1.7139553 0.026685935 -0.076575816
000390 fc 06 7c 3f 1e 3a bc be 87 a0 74 3f 67 cc 70 3e
       0.9844816 -0.3676309 0.95557445 0.23515473
0003a0 5e b5 0f 3f 6b 6c 64 3e 54 b4 14 3e e0 13 75 3e
       0.5613612 0.22306983 0.14521915 0.23933363
0003b0 50 ed 0b 3d b0 a2 d3 bd f1 3d 44 3e 3f ec 88 3e
       0.034161866 -0.103337646 0.19164254 0.2674274
0003c0 73 27 bd be 48 03 99 bf a3 75 16 3f b7 b0 7e 3f
       -0.3694416 -1.1954126 0.5877325 0.99488395
0003d0 62 f0 9a bd a8 48 30 be ef 3f 0c 3e 30 6f e0 bf
       -0.07565381 -0.17215216 0.13696264 -1.7533932
0003e0 3c 53 0c 3f 2a 9e d8 3f cc 6f 9c bc c8 a4 93 3c
       0.54814506 1.6923268 -0.019096278 0.01802291
0003f0 15 3c 0d 3e fc 91 2a bf f1 ac d1 3e e0 ce 9e 3e
       0.1379245 -0.66629004 0.40952256 0.31017208

hidden.bias f4 [64]
000000 7c 35 4c 3f 8e 60 88 3f 25 dc 73 3f a9 1d 5f 3f
       0.7976911 1.0654466 0.9525779 0.8715463
000010 b7 38 2b 3f ce 34 b6 3e 66 31 0c 3f 92 39 95 3f
       0.66883415 0.35587162 0.54762876 1.1658194
000020 ec 23 ee 3d 04 5e e6 3d f6 d1 88 3f aa 95 78 3f
       0.11627945 0.11248401 1.0689075 0.9710337
000030 f1 10 7f 3f 8d b4 81 3f df 7a 9a be d0 df 4e 3f
       0.99635226 1.0133225 -0.30171868 0.8081026
000040 50 44 35 3e 61 4b 8f 3f 20 00 ec bb be 81 84 3f
       0.1770184 1.1194879 -0.0072021633 1.0352094
000050 db 0b 90 3f 75 8a 23 bf 80 75 f7 be 79 7d ab 3e
       1.1253618 -0.63883144 -0.48331833 0.33494166
000060 52 c5 58 3f 19 f5 4d 3f dd b2 2c 3f 80 4b 04 3f
       0.84676087 0.80452114 0.67460424 0.51677704
000070 76 2a 64 be c7 08 8f 3f 3b 5b 7b 3f eb c3 6d 3f
       -0.22281823 1.1174554 0.9818608 0.9287707
000080 82 1d 20 3f fe 1c 84 3f 30 67 81 3f 72 3e 89 3f
       0.62545025 1.0321348 1.0109615 1.0722182
000090 96 69 84 3f ad 42 6a be a9 e5 41 3f f6 df 9b 3f
       1.0344722 -0.22876997 0.7574106 1.2177722
0000a0 a4 e2 be 3e 55 6a bf 3e 9e 62 2c bf 25 ef 5a 3f
       0.37282288 0.37385812 -0.6733798 0.85521156
0000b0 54 01 79 3f ce 67 72 3f 00 0b 3d 3f ee ee 90 3f
       0.9726765 0.94689643 0.7384491 1.1322916
0000c0 fb 24 93 3d 39 03 7c 3f ab bf 61 bf 72 fb 51 3e
       0.07184788 0.9844242 -0.8818309 0.20506075
0000d0 99 ae 8b 3f d9 8c 59 3f 07 df c7 be e0 e1 b4 bc
       1.0912658 0.8498054 -0.39037344 -0.022080362
0000e0 de af 81 3f 0a 16 83 3f ea 29 06 bd e9 7e 91 3f
       1.0131795 1.0241101 -0.032754816 1.1366855
0000f0 37 e3 80 3f 47 8c 54 3f ed b5 41 bf 95 ae b2 be
       1.006934 0.83026546 -0.7566822 -0.3489882

out.weight f4 [1, 64]
000000 e0 65 5b bf c1 ac 36 bf 80 c3 d1 be 0d a9 32 bf
       -0.85702324 -0.7135735 -0.40969467 -0.697892
000010 17 50 10 bf c5 75 d5 be 2f 18 5f bc 12 b3 f6 be
       -0.5637221 -0.41691414 -0.013616606 -0.48183495
000020 66 42 00 c0 23 77 4d 3f b9 99 4d bf ec 02 37 bf
       -2.0040526 0.80259913 -0.8031269 -0.71488833
000030 7d d4 e5 be c1 22 0f bf 2d eb 7f 3d 4a 9f 3f bf
       -0.44888678 -0.55912405 0.06248014 -0.7485243
000040 f4 53 86 3f 40 f4 7d bf 17 0a f3 3f 2f af d8 be
       1.049437 -0.9920082 1.8987454 -0.42321154
000050 ab 15 4b bf f5 85 b7 3f 89 46 83 3f 8f 31 46 bf
       -0.7932994 1.4337755 1.0255901 -0.7741937
000060 5a c3 5a bf fc 86 06 bf ac 10 0e bf 48 70 13 bf
       -0.8545433 -0.5254972 -0.5549419 -0.575932
000070 6f 12 a5 3f 4c 5a 2c bf f1 86 32 bf 07 66 ff be
       1.289625 -0.6732528 -0.69737154 -0.49882528
000080 d9 fb 2c bf 33 be 21 bf ae ed 66 bf 4c 71 45 bf
       -0.6757179 -0.63180846 -0.9020642 -0.77126
000090 8e 84 5c bf ad 6f 00 c0 7d 55 49 bf 98 9b 1a bf
       -0.8613976 -2.0068161 -0.7864607 -0.6039367
0000a0 ab 22 44 bf 72 ca 5f bf c0 bf 52 3f a4 8a 49 bf
       -0.766154 -0.8741828 0.8232384 -0.78727174
0000b0 dc 70 30 bf b5 22 d0 be 51 e1 4c bf 3a 37 1c bf
       -0.6892221 -0.4065148 -0.80031306 -0.6102177
0000c0 b3 23 69 3f 8b 46 8a bf 7d cb bf 3f 94 7a e5 3f
       0.910701 -1.0802778 1.4983975 1.7928033
0000d0 05 c9 08 bf 80 46 43 bf ee 14 ba 3f c6 91 8c 3f
       -0.5343173 -0.7627945 1.4537637 1.0981987
0000e0 c0 a9 19 bf c1 f6 26 bf b6 51 0b 40 a2 89 12 bf
       -0.6002464 -0.65220267 2.1768622 -0.5724126
0000f0 ea 58 5c bf 33 4b 08 bf 25 aa 4c 3f ba 0b d2 3c
       -0.8607317 -0.53239745 0.7994712 0.025640357
