train_history/olympics-wrestling/11_28_21_25/critic.pth (torch, 47330 bytes, 11 tensors)

encoder.0.weight f4 [8, 4, 3, 3]
00000000: 9556 5a3e 659e 13bd 2368 84be 20aa 193e
00000010: fbb7 ddbd d4ca 8abc 6f5d 14be 23f9 96be
00000020: 4078 b4be 787d 253d b3c9 703d 403a 053f
00000030: 56f1 7b3e c330 903e 6c33 d7be 81b8 f5bc
00000040: 7be7 403e 6203 783d 3668 1fbe b684 b0bd
00000050: c819 dc3e 26a3 0abd 2c9b a93e e737 d3be
00000060: 2126 313e 398b 6e3e 4af1 15be 3105 41bd
00000070: 2ca0 8a3e 7584 3c3d e4d0 3fbe 947a 9d3e
00000080: 6e13 3e3e 36d8 843d 20fe adbe 70a4 193e
00000090: a13a cc3b 66fd 28be 79fb c03d 9306 c83e
000000a0: 6c7a 6fbe c21d 0dbf 47dc 12bd 4b28 44be
000000b0: 30fa f23e a4b9 133e 9d5f 1c3e 64de 49be
000000c0: 9f1d 6d3e d167 de3d 3ab1 3ebe bc7a a63d
000000d0: 8f2c ca3a 5b30 ad3d 6fca 51be 472c 213e
000000e0: 1cf4 e33d 32c3 8cbe 86b6 1f3d 48d9 3e3e
000000f0: c288 febe 697f 01bd 886b 3a3e 7b98 793d
00000100: 58e7 cb3c afb9 aebe 4933 8bbe 65fa 063e
00000110: 7c13 903e 79b3 a43d 8bdb bb3e 32e3 973e
00000120: 2839 e83d 0904 18be 96e9 c43e b6e2 b73e
00000130: 1c56 bcbe 8eb0 30bd b1a2 ba3d f5ef 11be
00000140: 1651 5fbe 9e2e b4be 49fb 40bc 6628 6dbe
00000150: 567a a2bd 6dde 073e 1ac4 3dbe 884a d5be
00000160: 7250 053f 1371 733d 2d0d 033e f1c6 35bd
00000170: 151a 583d 830a ae3d 7148 793e 2485 9fbd
00000180: 2d69 4abe 4ecf c939 6164 163e 34ac db3d
00000190: cb80 f8bd 8682 b73b 81af ca3d 7e51 743b
000001a0: ac55 2cbf df9a 55be e7c9 963d 7576 a0be
000001b0: 8c11 a13e b439 113e 7f96 f1be c987 823d
000001c0: e07a 80be 4e8a 5f3e e54d bb3e e97b 1b3e
000001d0: 5f29 a83e 388e 84bc c8fe bc3e 5de1 37be
000001e0: 0edc 53be 78a8 603e a60e c0be 0a26 2c3e
000001f0: 7429 2cbc eeb0 c1be 587f 2fbd ec46 9abe
00000200: 44a7 7a3d 92ff 243e 9a6b a0bd 6e2f 6f3e
00000210: 0f96 1abe 4a1e b1bd 87fd 30bc 5c27 db3e
00000220: aa09 3ebd 2889 b0bd bcff a43e e5d9 cd3d
00000230: c73a 053d 8404 543e 5bd9 adbe f3ee 29be
00000240: bd96 903d 7a76 45be 9a79 023e 35cb 9dbe
00000250: 8070 81be 218c 783d 388e e33d c6f4 c03d
00000260: 15af bc3e d2d1 bfbe 7f0f 8dbe ee37 f73e
00000270: f9cf 653e 4e4b a13e bafe 46be 2c63 00bd
00000280: f4bf 233e 994a cabe 91a6 2c3e b9ae 4cbc
00000290: a02d 5f3d e6a4 dcbe 4426 adbe dd4e 303d
000002a0: bd09 01be 0571 1abe 2ca7 cf3d 9067 9fbe
000002b0: c213 3e3d 3a15 ed3e 5c98 073d 356b 6cbe
000002c0: e48c 1b3e f923 a1bd d500 ea3d 160e ccbd
000002d0: c994 173e 4927 883e a522 41bd 8b4b c83d
000002e0: 1861 da3e e327 7e3e d19b 713e 86ba 06ba
000002f0: 9b9a eebd 9d26 29be ff6a 383e f484 a83e
00000300: 94fc 7f3d 929d 1bbe 4176 0d3e b724 d3be
00000310: 5122 c73e a17d 8f3e f818 39be 8356 9abd
00000320: ebd1 20be bb5e a83d d4f3 66bd c4a0 813e
00000330: 80b7 d2be 7821 70bd cbcf 833e bf08 05bd
00000340: e873 17be 27ea 673e 0b91 aa3e a16b b73e
00000350: 7565 a23e 76f1 a4bd cc85 113e 637f c73e
00000360: 9ab1 2dbd c30e c9bd e97d b83e d890 5a3e
00000370: 7623 793d 37b3 793e 6cc3 d0bd e1cb a73d
00000380: b358 4cbe cf2b 223d d159 563e aa59 8eba
00000390: 194a 0c3f e345 ae3e dda4 51bc 7b16 833e
000003a0: 0d9b babe d79a 75be 1a47 5dbd 39f5 a3be
000003b0: e521 d9bd 6370 813e e726 b63e 7b7f e63e
000003c0: 26eb 983d 3644 ac3e 1e99 623d 2d40 28be
000003d0: 5a13 d1be 067d 733e 4bed 53bd b1b1 af3d
000003e0: c68c 8c3d 4253 543d a7bf 603e 1ce5 2abe
000003f0: 33b6 89be 0eb7 e23e eb81 c43c dc69 6b3e
0.21322091 -0.03603973 -0.258607 0.15006304 -0.10826107 -0.01694242 -0.14488767 -0.2948695
-0.35247993 0.04040286 0.058786105 0.5204201 0.24603781 0.28162202 -0.4203142 -0.029995205
0.18838303 0.0605501 -0.15567097 -0.086190626 0.4298842 -0.033846997 0.331262 -0.41253588
0.17299701 0.23295297 -0.14642826 -0.04712409 0.27075326 0.04602476 -0.18732029 0.30757582
0.185621 0.064865515 -0.33982944 0.15004134 0.006232575 -0.16502914 0.094229646 0.39067516
-0.23386544 -0.5512353 -0.035854604 -0.19155996 0.47456503 0.14426285 0.15270849 -0.19713742
0.23155831 0.10859645 -0.18622294 0.081288785 0.0015424656 0.08456489 -0.20487379 0.15739547
0.111305445 -0.27492672 0.038992427 0.18637574 -0.49713713 -0.03161565 0.18205082 0.060936432
0.024890587 -0.3412604 -0.27187565 0.13181455 0.28139865 0.08042044 0.36690935 0.29665524
0.11339027 -0.1484529 0.38459462 0.35915154 -0.36784446 -0.043137126 0.09113062 -0.14251693
-0.21808276 -0.35191816 -0.011778661 -0.23159942 -0.0793349 0.13268442 -0.18531838 -0.41658425
0.52075875 0.059434008 0.12797995 -0.04437918 0.05275925 0.08498099 0.2434404 -0.077890664
-0.19766684 0.00038492162 0.14686729 0.107262045 -0.1213394 0.0056002764 0.09896756 0.0037280018
-0.67318225 -0.2085986 0.073627286 -0.31340376 0.314587 0.14182168 -0.47185132 0.06373555
-0.25093746 0.21830103 0.36582866 0.15183987 0.32844064 -0.016181096 0.36913133 -0.17957063
-0.20689413 0.21939266 -0.37511176 0.16811386 -0.01050793 -0.378303 -0.042846054 -0.30132234
0.061194673 0.16113117 -0.07833023 0.23357937 -0.15096305 -0.08648355 -0.010802633 0.42803466
-0.046395935 -0.086199105 0.3222636 0.10051326 0.032526758 0.20704848 -0.33954892 -0.16595058
0.07060001 -0.19283476 0.127417 -0.30819097 -0.25281143 0.060680512 0.111111104 0.09421687
0.36852327 -0.37464768 -0.27550885 0.48284858 0.22442617 0.31502765 -0.19433108 -0.031344578
0.15991193 -0.39510038 0.16860415 -0.012492829 0.05448687 -0.43094558 -0.33818257 0.04304396
-0.12601371 -0.15082176 0.101393074 -0.311337 0.04640556 0.46305257 0.033104286 -0.23087771
0.15190464 -0.07868189 0.1142594 -0.09963624 0.14802851 0.26592472 -0.04715218 0.09780034
0.42652202 0.24819903 0.23594595 -0.00051394885 -0.116505824 -0.16518636 0.18009566 0.32913935
0.062496737 -0.15196827 0.13814642 -0.4123895 0.3889337 0.28025535 -0.18075931 -0.07536032
-0.15705077 0.082211934 -0.056384876 0.25317967 -0.41155624 -0.05862567 0.2574447 -0.032479044
-0.14790308 0.22647916 0.33313784 0.35824302 0.3171803 -0.080538675 0.14211196 0.38964376
-0.042405702 -0.09817269 0.36033562 0.21344316 0.060824834 0.24384771 -0.10193524 0.08193184
-0.19955711 0.03959256 0.209327 -0.0010860462 0.54800564 0.34037694 -0.012795654 0.2560309
-0.3644642 -0.23984848 -0.054022886 -0.32023028 -0.10602168 0.25281057 0.35576555 0.45019135
0.07466726 0.3364579 0.055321805 -0.16430731 -0.40835077 0.23778161 -0.051739972 0.08578814
0.06862788 0.051837213 0.2194811 -0.16688961 -0.2689682 0.44280285 0.023987731 0.22989601

encoder.0.bias f4 [8]
00000000: 0000 0000 0000 0000 0000 0000 0000 0000
00000010: 0000 0000 0000 0000 0000 0000 0000 0000
0.0 0.0 0.0 0.0 0.0 0.0 0.0 0.0

encoder.3.weight f4 [8, 8, 3, 3]
00000000: 6d2c 333d c3f9 603e d3b9 18be 8f2d 80bd
00000010: 5423 bfbb 65ec 4e3e 4c1b ff3d 226b 23be
00000020: af1c 7fbd 5da6 8f3c 180e 08bd cfb2 6ebe
00000030: dbec 59be 4d48 86bd b6d7 293e dfb6 88be
00000040: 93bd a9bd 0339 353e c352 b1bd 3232 3fbe
00000050: d63d 803d da47 bcbe 78fa 01bd 7df7 4a3e
00000060: cd0b 07bd 8969 3cbe 061f 22bd 7ac7 a0bc
00000070: 2425 aabe 8339 ad3d 78bf 2a3e 873d 18be
00000080: b3c1 b93e 0603 9b3e eb4e a23d 57f6 413e
00000090: ef9f 64bc b4f8 28be 24f0 06be 17ca 3cbe
000000a0: 4b5e adba 34ad 723c fbec f0bd ef6f fdbd
000000b0: 416e d2be 6bec 963d a8e1 9b3b cd27 913d
000000c0: 789d 63be 55b5 7f3d 6cec 9dbc bd2e 3c3d
000000d0: 1272 aabc f41c 53be 6204 42be 01a1 383c
000000e0: a997 063e a3b7 debe 2fb3 9d3e 5a02 6bbc
000000f0: 1892 98bd b2be e63d 9e36 363e 8468 a63c
00000100: f661 e13c 1493 8bbe 94c3 0d3c e82e afbd
00000110: b7e9 243c f7e0 f73c 628a e43c 5e6a 5abe
00000120: 49eb 713e 164e a73c 7732 653e 2ca4 34be
00000130: 8c4d 333e 866f 613d 7d05 1f3d 23c3 68bc
00000140: d8a8 f83d 369a 1dbe 4a25 e73d 9826 843e
00000150: d07d 983e 6a6d 12be d8ca f1bd be91 623e
00000160: 2ae1 cf3b 513b 93bd 28ee 913e 338f c5bc
00000170: 7aa9 65be 1677 f23d 7f90 6abe 9e90 453e
00000180: bb42 abbe db91 93be 9540 3cbd 49b3 b8bd
00000190: 66ea 54bc 5dad bb3e 5341 c9bc d1f0 7a3d
000001a0: 1cb2 0dbd 8ec1 de3d 6d90 c23e dcbb b9bd
000001b0: 51f2 94bc e31a fbbd e876 06bd d1d0 843d
000001c0: b176 40be 7f56 afbd 6247 433e 1230 423d
000001d0: 9463 43bd d319 143e 936b 66bd 3538 db3d
000001e0: 94b1 4f3d 7bdb 653d 54d9 173d acc2 54be
000001f0: 1d1e 47be 4a79 023e 41df 7ebd b4d4 b8bd
00000200: ff45 11be 2a2a 54be bf9d 373e 4cc9 3f3e
00000210: 8816 f1bd 785a bcbe 6b4e 21be 7e28 123d
00000220: f2f6 763e a52b 68bd 4059 91be f048 e7bd
00000230: 8a79 87bd 62be 5ebd 59c3 22be 2882 46be
00000240: 1c36 8c3e b3b1 27be f5af 96bd 08d3 da3d
00000250: 898c 293e dcfc e63d 9c14 0d3e 15f4 8bbe
00000260: 1d16 cdbd 1f67 923e 06bf d1bc 6493 003e
00000270: 02de 8fbe 4f6b cc3d 2258 dd3e e4a2 8d3e
00000280: 9826 893d 7e8f 4c3d 563e 133e 3a0d e2bd
00000290: 8591 3b3d 9c90 4ebe 38d0 bebe fd81 1d3e
000002a0: 6cad 833d b047 10be a77b 68be 298a c9bd
000002b0: 9c44 403e 9beb 123e 6abe 45be 3d2e bdbd
000002c0: b8fa 963c 9492 003e 0d6c c3bd 74bd 42bd
000002d0: e169 d2bd 26a3 a03d 86d5 003e 08c5 333d
000002e0: 3738 453e 155b 6e3e 23e9 bf3e fa4e b93e
000002f0: e092 3ebd c33c 4b3d b371 59be ddd3 3b3e
00000300: 87d4 853d 5608 d93d 9765 fcbc fdd5 b23d
00000310: abf9 08bd bc0a 773d 00e3 c43d fed8 84bc
00000320: b29f 2ebd 13a9 9a3d 01d7 05be 37d5 4b3d
00000330: b14b 983d 3142 133e 0782 a63e 1c7c e2bc
00000340: af8d 45be c783 863e dbe8 38bd 4e01 d3bd
00000350: 9c21 91bd 6a30 143d 7beb cf3d b6f8 ea3d
00000360: 0238 2c3d 0aff 863d 0de0 2abe 4222 fabd
00000370: 0c57 49be bb64 f83d cd99 cd3d 7d57 163e
00000380: 9e28 243e 206c 30bd e4f1 90be 72ee 8e3d
00000390: bd42 0bbe 61b5 163e 7e48 403e 03a4 6b3d
000003a0: 6246 a2be 0438 903e 8d6f 1abe 8a4d 01bc
000003b0: b636 a23e 9ea5 783e 06cf f6bd 1a14 6cbe
000003c0: 0fcf 8fbd eeb3 38bc de8d 0c3d ed70 0ebe
000003d0: 3f2a 17bc a658 c83d f466 03be 4490 efbd
000003e0: f245 1ebe cdf7 0ebe a5a8 843e 8c81 803b
000003f0: a0f9 4a3d c769 75bd 28cd 08be 18b3 6fbd
0.04374354 0.21970277 -0.14914636 -0.062586896 -0.005833069 0.20207365 0.12456378 -0.15958837
-0.062283214 0.017535383 -0.033216566 -0.23310398 -0.2128176 -0.06556759 0.16586193 -0.2670202
-0.082881115 0.1769753 -0.08658364 -0.18671492 0.06261794 -0.36773568 -0.031733006 0.19820972
-0.03297024 -0.18399633 -0.039580368 -0.019626368 -0.3323146 0.08458235 0.16674602 -0.14867221
0.36280593 0.30275744 0.07925209 0.18941627 -0.013954147 -0.16501123 -0.13177544 -0.18436466
-0.0013226954 0.014811803 -0.117639504 -0.12374865 -0.41099742 0.07369312 0.004757125 0.070876695
-0.22228038 0.06242879 -0.019277774 0.04594301 -0.020806346 -0.20616513 -0.18946984 0.011268855
0.13143791 -0.4349948 0.3080077 -0.014343822 -0.0744974 0.11266841 0.17794272 0.020313509
0.027512532 -0.2726065 0.0086525865 -0.085538685 0.010065488 0.030258639 0.027898017 -0.21329638
0.2362491 0.020422976 0.22382532 -0.17640752 0.1751005 0.055037998 0.038823593 -0.0142066805
0.121415794 -0.15390858 0.11286409 0.25810695 0.29783487 -0.1429955 -0.118062675 0.22125909
0.0063439803 -0.07189048 0.2850201 -0.024116134 -0.22427931 0.1183912 -0.22906683 0.19293448
-0.3344935 -0.28822216 -0.045960028 -0.09018571 -0.012995338 0.36655703 -0.024567282 0.061264817
-0.034593686 0.108767614 0.38000813 -0.090690345 -0.018181952 -0.122609876 -0.03282824 0.06485141
-0.18795277 -0.0856142 0.19070199 0.047409125 -0.047702387 0.14462976 -0.056254935 0.1070408
0.05070646 0.056117516 0.037072495 -0.20777386 -0.19445081 0.1274158 -0.06222463 -0.09024945
-0.14186858 -0.2071921 0.17931269 0.18729132 -0.117718756 -0.36787772 -0.1575257 0.035683148
0.2411764 -0.056682248 -0.28388405 -0.112932086 -0.066149786 -0.054380782 -0.15894832 -0.19385588
0.27385032 -0.1637638 -0.0735778 0.10684782 0.16557516 0.11278698 0.13777393 -0.27334657
-0.100139834 0.285943 -0.025603782 0.12556225 -0.28099066 0.09981405 0.43231302 0.27663338
0.06696814 0.049941532 0.14379248 -0.11037679 0.045793075 -0.20172352 -0.37268233 0.15381618
0.06429562 -0.14089847 -0.2270342 -0.09840805 0.18776172 0.14347689 -0.19310918 -0.09237335
0.018430099 0.12555915 -0.095420934 -0.047543958 -0.10274101 0.07843618 0.12581453 0.043889076
0.19259726 0.23276933 0.37482557 0.36193067 -0.04652679 0.049618494 -0.21234779 0.18342538
0.06534677 0.10597293 -0.03081016 0.08732221 -0.033441227 0.06031297 0.09613609 -0.016216751
-0.042632766 0.075517796 -0.13070299 0.049763884 0.07436312 0.14380719 0.32521078 -0.02764707
-0.19292329 0.26272413 -0.045143943 -0.10302983 -0.070864886 0.036178984 0.10152336 0.11473219
0.0420456 0.065916136 -0.16687031 -0.122135654 -0.19662112 0.12128588 0.10039101 0.14681812
0.16031119 -0.043071866 -0.28309548 0.069790736 -0.13599677 0.14717628 0.18777654 0.05752946
-0.31694323 0.28167737 -0.15081616 -0.007892022 0.31682366 0.24281928 -0.12051205 -0.23054543
-0.07021915 -0.011273367 0.034314983 -0.13910265 -0.009226381 0.09782533 -0.12832242 -0.11697438
-0.1545637 -0.13961716 0.25909916 0.003921693 0.049554467 -0.05991533 -0.13359511 -0.058520406

encoder.3.bias f4 [8]
00000000: 0000 0000 0000 0000 0000 0000 0000 0000
00000010: 0000 0000 0000 0000 0000 0000 0000 0000
0.0 0.0 0.0 0.0 0.0 0.0 0.0 0.0

cnn_net.0.weight f4 [16, 8, 3, 3]
00000000: 116c 7a3e b587 6bbc 33b5 41bd c1db b6bc
00000010: f7e5 38be ef2f d73d f1a5 013e 7fad acbe
00000020: b671 ddbb a4a2 72bd 1065 6bbb ab63 98be
00000030: bc24 95be 5deb 13bd 9ae5 fe3d 4aa8 303d
00000040: 3f9e 7dbd ffca 8b3e 8d1d 8dbe 44a8 b93c
00000050: 61c6 683e d761 c53c 2bbc fa3d 61ba e63d
00000060: c2b5 dbbd 4163 37be 4a26 753d fca8 32be
00000070: 6683 c53e 4b69 9e3e 4769 cabd 5ad2 c7be
00000080: ec99 0abe 1be5 ef3d 9e0f a73e 8a8c f7bc
00000090: 8898 0fbe 42b9 d0bd 89ff 21be ed77 20be
000000a0: 606e 8b3d b9cf 0dbe 4d96 07be c367 95bc
000000b0: dc00 0abd 01c3 23bd cb1f 7c3e 2c59 b33c
000000c0: ab7c 823d 292e 0dbb 9d96 bbbe 7848 7c3c
000000d0: f394 4bbc 90e2 c23d 8864 493e 806a 0f3d
000000e0: 8163 843e 24c3 7dbe 55b4 03be b19e 173e
000000f0: 4d8e 8d3d 283a 12be 89bf 423e e1f9 8ebd
00000100: 9442 633d 7373 32bd fd29 fb3d 684d 21be
00000110: d221 a93d 37b3 3fbd ee66 3abe e77b 05be
00000120: d58a 3fbd 0029 c9bd bad2 413d 8547 10bd
00000130: 3485 313e f47d 1f3d a699 84be f2ee a33d
00000140: 8459 943e 4b43 96be 55a7 413e dd78 7a3c
00000150: d33c 3f3e bbf8 273e f63d c93e 15d2 f7bd
00000160: 0f2b 90be 1239 ca3c b31b 00be 345e 5d3e
00000170: 72bc 803e 051a 94bd 2465 0fbd 785f d43c
00000180: 66f1 df3d cf1c 9bbe d36f 7e3e 690b 25be
00000190: 417a 813d dd99 3a3d 284b 563c 5b15 ff3d
000001a0: 5419 8abd 95ec e4bd 064d 38be 7979 0e3e
000001b0: df16 17bd 4837 36be fb78 04be e9f9 bf3e
000001c0: 90be 443e 1af4 f0bd cb85 f0bc 8fb6 36be
000001d0: a8f9 bd3d d970 3fbe d0cf 29be c50e aa3e
000001e0: 9126 a53d 0915 7ebd 9991 f23d 1dcc 8fbe
000001f0: 0ecf 643e fbc3 bfbd 4a35 50be f97f 693e
00000200: 8928 063e f6b5 443d 9364 a6bd 43f0 073d
00000210: e06e 03be 32bc df3d f5aa c3bc b5db 0ebe
00000220: adab 7d3d f54b 89be 7ba0 0b3d 542c df3d
00000230: 1db1 b83d 8307 45bd e976 8ebd f346 76be
00000240: 62c4 153d 8198 f53c 604c 623c 1833 4fbd
00000250: 340d a93d da2b 083e d11b a4be 1310 9dbe
00000260: fea2 90bd 71d2 7abd f1ef 3ebe 3bb1 e23d
00000270: 6be8 b63c 1163 483c c209 d7bd b226 22be
00000280: c7cb 6ebe ef88 163d e31b 943d 2008 1fbe
00000290: b359 213e 37f3 ca3d c4c5 ac3e 7512 953c
000002a0: ca15 a43e a152 313e bc70 8bbe dc94 3e3e
000002b0: cc64 4a3d ccfe bd3d 5b61 e13d 6e50 fb3c
000002c0: 9b44 4abd e76a 85bd 46c7 4dbe cc0b 313e
000002d0: 5e31 923d 5d82 83be ecfe 80bc 588d 3d3e
000002e0: 95ce 9c3d 3ab1 003e 29ab cdbe 118e 6bbe
000002f0: 8bc8 21be 9d68 263e e996 55bd 6a2c f5bd
00000300: 0991 093e 1128 d83e 5a51 17be ed68 003e
00000310: b0e7 a53d 9bb7 ae3d c6c4 c1bd 3c23 9fbd
00000320: d050 1e3e ea5d 7fbc 03f8 03be d81f f63c
00000330: 6b5b d2bd 69b7 efbd 6073 603e d972 df3d
00000340: 04e3 90be 4033 3d3e 6ea9 b4bd e6ce 7c3e
00000350: a14e 96be 00c6 413e 0367 0f3d bdf1 d43b
00000360: 1bcd 80be a691 94be c966 0fbd 5a5b d5be
00000370: b4d7 ecbd 538e 30be 9d1b c8bd c24a 943e
00000380: ac3a ae3d c5dd b3bd 4e0b 76bd f07a bfbd
00000390: bcea 7ebd c4ca 0a3e 1cdc 0ebd 6c65 be3c
000003a0: a0dc c3be e210 54be ba8b 723e 3485 79bd
000003b0: cf0f dfbe 6d00 97bd 70fb 1f3d f1ba ef3d
000003c0: 739f 95bc a9d6 36be 5472 803e 4277 a7bd
000003d0: 6037 393e 301d e9bd ae72 ca3d 3558 9fbd
000003e0: f7b0 fabd 9e52 823d 42db e1bb d59c a0bd
000003f0: 0ba7 3d3e d6e4 d3bc 3707 d2bd 7717 6bbe
0.24455287 -0.014375617 -0.047291946 -0.022321584 -0.18056475 0.105071895 0.12660958 -0.33726117
-0.00675794 -0.059237137 -0.0035918392 -0.2976354 -0.2912959 -0.03611313 0.12446137 0.043129243
-0.061918493 0.2730331 -0.27561608 0.022663243 0.22731926 0.024094505 0.122429214 0.11266018
-0.10728027 -0.17908956 0.05985097 -0.17447275 0.38576812 0.30939707 -0.09883361 -0.39027673
-0.13535279 0.1171362 0.32629102 -0.030218381 -0.1402303 -0.10191585 -0.15820135 -0.15670748
0.06808162 -0.13848771 -0.13240929 -0.018237954 -0.033692226 -0.039980892 0.24621503 0.021893106
0.06371435 -0.0021542406 -0.36638346 0.015398137 -0.012425649 0.095158696 0.19667256 0.035013676
0.25857165 -0.24781471 -0.1286176 0.1480663 0.06911907 -0.14279997 0.19018377 -0.06981254
0.055483416 -0.043567132 0.12263868 -0.15752184 0.08258404 -0.046801772 -0.18203327 -0.13035546
-0.04676326 -0.09822273 0.047320105 -0.035224456 0.17335969 0.038938478 -0.25898474 0.080045596
0.28974545 -0.29348215 0.18911488 0.015287605 0.18675546 0.16403477 0.39305085 -0.12100617
-0.2815785 0.024685416 -0.12510566 0.21617967 0.25143772 -0.07231525 -0.035008565 0.02592443
0.10934715 -0.30295417 0.24847345 -0.16117634 0.06322146 0.04555689 0.013079442 0.12455245
-0.06743112 -0.11177937 -0.17998132 0.13913526 -0.036887046 -0.17794526 -0.12936775 0.37495354
0.19213319 -0.11765309 -0.029360672 -0.17843078 0.09276134 -0.18695392 -0.1658318 0.33214393
0.080639966 -0.06203178 0.11844177 -0.28085414 0.2234461 -0.09363552 -0.20332828 0.22802724
0.131014 0.048025094 -0.08124652 0.033188116 -0.12835264 0.10924567 -0.02388523 -0.13950999
0.0619313 -0.26815763 0.034088593 0.10897127 0.09018157 -0.048102867 -0.06956274 -0.24050502
0.03656424 0.029979946 0.0138121545 -0.050585836 0.082544714 0.13297978 -0.32052472 -0.30676326
-0.07062338 -0.06123585 -0.18646218 0.1106896 0.022327622 0.0122306505 -0.10499908 -0.15835074
-0.23319922 0.036751684 0.072318815 -0.15530443 0.15756874 0.09909671 0.33744633 0.018197278
0.32047874 0.17316677 -0.27234447 0.18611473 0.049412534 0.09277114 0.11004897 0.030678
-0.049381834 -0.06514531 -0.20095548 0.17289656 0.07138322 -0.25685397 -0.015746556 0.1851095
0.0765659 0.12567607 -0.40169647 -0.23003413 -0.15799157 0.16250844 -0.052145872 -0.11971362
0.13434233 0.42218068 -0.14777127 0.12540026 0.081008315 0.08531114 -0.0946136 -0.07770392
0.15460515 -0.015586356 -0.12887578 0.030044481 -0.10271343 -0.117049046 0.21919012 0.10910577
-0.282982 0.18476582 -0.08821379 0.246883 -0.29356864 0.18923187 0.03501035 0.006498544
-0.25156483 -0.2901737 -0.035010133 -0.41671258 -0.115645796 -0.17241792 -0.09770892 0.28963286
0.085072845 -0.087825336 -0.060069375 -0.0934962 -0.06223558 0.13553911 -0.03487788 0.023241721
-0.3825426 -0.20709565 0.23686114 -0.060918048 -0.43566748 -0.07373128 0.03905815 0.11705578
-0.018264508 -0.17855324 0.25087225 -0.081770435 0.1808753 -0.1138252 0.09885155 -0.07780496
-0.122407846 0.06363414 -0.0068925926 -0.07842413 0.18520753 -0.025865953 -0.10255282 -0.2295817

cnn_net.0.bias f4 [16]
00000000: 0000 0000 0000 0000 0000 0000 0000 0000
00000010: 0000 0000 0000 0000 0000 0000 0000 0000
00000020: 0000 0000 0000 0000 0000 0000 0000 0000
00000030: 0000 0000 0000 0000 0000 0000 0000 0000
0.0 0.0 0.0 0.0 0.0 0.0 0.0 0.0
0.0 0.0 0.0 0.0 0.0 0.0 0.0 0.0

cnn_net.3.weight f4 [32, 16, 3, 3]
00000000: 8d5c abbd a033 d2bd 578a 9cbe 8352 cabc
00000010: a0ba 0dbe a329 b83c d6f0 313e 5ef4 a0bd
00000020: 619f 9f3c 7dac 05bd 4fbf 403c 2547 413d
00000030: cc91 cf3c f91a 6e3d 3cb5 10be 27b2 1b3e
00000040: 9a7f e7bd ba9a 663d 5409 123e 0a8f a5bc
00000050: e246 61bd 8ef0 9d3d a515 dcbd 6e6a c2bb
00000060: 3582 b7bc 6dce 06bd 130f a3bc 624a 6ebd
00000070: 0680 733a bf41 053d 6447 5c3e 2726 fcbd
00000080: 7a84 c83d 3626 efbd b545 39be 147a 22be
00000090: 413a d13d 7412 c5bb eef9 14bd 6446 653d
000000a0: 21ed 1cbe bda4 cc3c 25b0 413c 5f66 793b
000000b0: 4b8e 57be 35da 833d 7dd4 c5bc a366 803c
000000c0: 9788 673e a603 23be 9fbc aa3d 4835 78bd
000000d0: f3ec 3e3d 4463 1d3e 7f4a f8bc d7fb 5bbe
000000e0: cda9 3a3d c7f8 263e 86ff a3bd aca4 4e3d
000000f0: 6adf 943d dca1 c9bd 95bf fbbc ad6b fc3c
00000100: 2ac1 1d3e a242 013d ac1a 9a3c 9aa7 69bd
00000110: 015b 0f3c 36a4 573d 03d5 d0bd 52f3 0abe
00000120: 4c31 19be e18c 95bd da18 7abd 0af1 883d
00000130: a29a 1e3e 7e49 e6bb 516d 903c bf6f aabd
00000140: d7f0 f0bd 0266 513e dbac 3dbe b6dc ca3d
00000150: b49d 6a3c 7090 deb9 06cc abbd 2632 b93c
00000160: d25b b9bd 7eea d3bd 3d5f 4fbe 5382 fa3d
00000170: dadd 1cbd e4e3 dd3d 0a82 7dbe cdfd 1c3d
00000180: 943e 4cbd 4451 353e 3a1c 7e3d 1e87 4b3d
00000190: 3a3f c23c ff18 80bd 6ae5 1abe 6121 3abe
000001a0: da2a 213e 141e 87be cc68 d7bc 4b9e 9c3d
000001b0: 624e 5a3d 44e9 533e 2949 633e 2c65 5d3e
000001c0: d03f fbbd 7afe 2fbe 6e04 4f3e 3c32 2c3c
000001d0: 642e 3f3e 73f9 c0bb 3e99 19bd 24fa 733d
000001e0: caf9 02bd 527d ea3d a1d6 27be b5f7 a23c
000001f0: d045 95be 5139 8a3d 06df 1bbe 0824 26bd
00000200: bfb5 66be b7a8 adbd a022 493c 223b a0bc
00000210: 62fc bbbd 6f52 f7bd 7de3 c4bd af29 a73d
00000220: 3103 6dbd a5f0 9b3d 052b 203e 0cab da3b
00000230: 3847 27be 6b50 543d c262 39be 369f 863e
00000240: bded 193e a903 3c3a 30bd ecbc a7ee 96bd
00000250: c0ce 6e3e f65b 96bc 1ae3 86bc 62bc 45bc
00000260: 00a5 f8bd 6cd0 2ebb ce03 0cbd 4592 d33d
00000270: 6e50 a6be 4b7b ba3c 82cc 243d 20f8 a8bd
00000280: 7189 efbd e522 59bd cc61 343e 4ffc 47be
00000290: 7a3f 553e daa8 a53e d0cd a03e b202 ab3c
000002a0: e5ba fa3d 5db7 2c3e d89e f2bd 665a 9cbd
000002b0: a0cb 3dbe c3cc ae3d e2a5 2abd ba2a 07bd
000002c0: aae6 0bbe 10a8 173e bca5 75bd 2f90 0abd
000002d0: 974c 17be 02a0 7f3c 33a5 d43c fc37 aebc
000002e0: 96e5 1cbe db07 8fbc a924 4c3e 541e 84bd
000002f0: f539 103e 5c57 fc3d 6fb7 a33d e928 f03d
00000300: 8b78 0d3d bbb6 173b 69e4 0d3a 70ea ffbd
00000310: 3938 a4bd c066 1bbe ce7a 59bc 5101 fe3d
00000320: cbf1 a33e 503e 6e3d a4bb bc3c bd5d 523e
00000330: 9596 cbbd 3d52 17be 9005 98bd c751 793d
00000340: 06b2 c63b b133 c9bc e24c e6bc e5ed 263d
00000350: 58d7 6ebe c3e6 51be 7272 44bd c694 c83e
00000360: debb ac3d 4677 a4bc 5abf 34bd d276 763c
00000370: a2b2 a63c 2726 7fbd 19db 1f3d 5241 363e
00000380: 9f57 debd 0de3 c2bc 3ec8 c23d faf2 febc
00000390: d421 123d b0b4 a03d 6ab4 abbd 41c8 123e
000003a0: 6b4c 7b3d 973c 933d a307 11bd 4cd5 b1bc
000003b0: 6d0d 95bd 2741 143e cb45 383c 304c 9b3d
000003c0: 0eda 71be faac 11bd e9cb 2eba 0553 683d
000003d0: ff71 d73c 9852 02be c207 553d 43aa ecba
000003e0: 425d eebd 2667 3a3c 8eea 133c a36d 563e
000003f0: 7da2 05bd 0e6d 3dbc 417c f83d 1582 2e3c
-0.08367262 -0.10263753 -0.30574295 -0.024697548 -0.13840723 0.022480791 0.17377028 -0.07859109
0.019485177 -0.0326352 0.0117643615 0.04718699 0.025338076 0.058131192 -0.14131635 0.15204678
-0.11303635 0.056299902 0.14261371 -0.020209808 -0.05499924 0.07711898 -0.10746316 -0.0059330976
-0.022400955 -0.032911707 -0.019904649 -0.058176406 0.00092887913 0.032533403 0.21511608 -0.123119645
0.09790893 -0.1167721 -0.18092997 -0.15866882 0.10216189 -0.0060141627 -0.036371164 0.055975333
-0.15324832 0.024980897 0.011821781 0.0038055403 -0.21050374 0.06438104 -0.024149174 0.015673941
0.22610699 -0.1591936 0.08336758 -0.060597688 0.04661269 0.15369898 -0.03030896 -0.21482788
0.04557209 0.16305839 -0.080077216 0.050450012 0.07269175 -0.09845325 -0.030731002 0.030813063
0.15405717 0.031557687 0.018811546 -0.057044603 0.008749724 0.052646838 -0.10196879 -0.13569382
-0.14960212 -0.07302261 -0.061058857 0.066865996 0.15488675 -0.007027804 0.017630251 -0.08322095
-0.117646866 0.20449069 -0.1852297 0.099053785 0.014319826 -0.00042450754 -0.08388524 0.02260692
-0.090507165 -0.1034746 -0.20251174 0.122318886 -0.03829751 0.10834482 -0.24756637 0.03832798
-0.049864367 0.17706782 0.062038638 0.049689405 0.02371179 -0.062547676 -0.15126577 -0.18176796
0.15739003 -0.26390135 -0.026295088 0.076473795 0.053297408 0.20694453 0.22195877 0.21620625
-0.12268031 -0.17186919 0.20216534 0.010510024 0.1867004 -0.0058891117 -0.03749966 0.059564725
-0.0319765 0.11449684 -0.16390468 0.019893507 -0.29154825 0.067492135 -0.15221795 -0.040561706
-0.22530268 -0.084794454 0.012276322 -0.019559447 -0.091789976 -0.1207627 -0.096137024 0.081622474
-0.05786437 0.07614259 0.1564141 0.0066732224 -0.16335762 0.051834505 -0.1810408 0.26293343
0.15032096 0.0007172176 -0.028898805 -0.07369738 0.23321056 -0.018354397 -0.016465712 -0.01206884
-0.12140846 -0.0026674522 -0.034183316 0.10330633 -0.32483238 0.022763869 0.040234096 -0.08250451
-0.11696137 -0.053011794 0.17615432 -0.19529842 0.20824996 0.32355386 0.31407022 0.020875309
0.122426786 0.16866823 -0.11846703 -0.0763443 -0.18534708 0.08535149 -0.041662104 -0.03299973
-0.1366221 0.14810205 -0.05997251 -0.03382891 -0.1477531 0.015602114 0.02595768 -0.02126693
-0.15321955 -0.0174598 0.1993586 -0.06451097 0.14084609 0.1232135 0.079939716 0.11726553
0.034538787 0.0023149687 0.0005412759 -0.12495887 -0.08018536 -0.15175915 -0.013273908 0.12402595
0.3202041 0.058164895 0.023038693 0.20543571 -0.099408306 -0.14777465 -0.07422936 0.060869005
0.0060637025 -0.024560781 -0.028112832 0.040754218 -0.23324335 -0.20498185 -0.047960706 0.39176005
0.0843427 -0.020076405 -0.0441278 0.015042977 0.02034885 -0.062292244 0.039027307 0.17798355
-0.10856556 -0.023789907 0.095108494 -0.03112172 0.035676792 0.078469634 -0.083840206 0.14334203
0.061352175 0.07189291 -0.035407674 -0.021708153 -0.072779514 0.14477979 0.011247109 0.07582891
-0.23618338 -0.035565354 -0.0006667958 0.0567198 0.026299475 -0.1272682 0.05200935 -0.0018056113
-0.11638881 0.011377132 0.00902809 0.2094026 -0.032625664 -0.011561645 0.121330746 0.010651131

cnn_net.3.bias f4 [32]
00000000: 0000 0000 0000 0000 0000 0000 0000 0000
00000010: 0000 0000 0000 0000 0000 0000 0000 0000
00000020: 0000 0000 0000 0000 0000 0000 0000 0000
00000030: 0000 0000 0000 0000 0000 0000 0000 0000
00000040: 0000 0000 0000 0000 0000 0000 0000 0000
00000050: 0000 0000 0000 0000 0000 0000 0000 0000
00000060: 0000 0000 0000 0000 0000 0000 0000 0000
00000070: 0000 0000 0000 0000 0000 0000 0000 0000
0.0 0.0 0.0 0.0 0.0 0.0 0.0 0.0
0.0 0.0 0.0 0.0 0.0 0.0 0.0 0.0
0.0 0.0 0.0 0.0 0.0 0.0 0.0 0.0
0.0 0.0 0.0 0.0 0.0 0.0 0.0 0.0

hidden.weight f4 [32, 128]
00000000: 1d82 e2bd 5b3d 44be 3ab2 edbd af85 fabd
00000010: 36af d1bd 72ce 6abe a41d edbc 9d32 933d
00000020: 2652 d7bc 8932 99bd d071 503e f711 ce3d
00000030: 743d 34bd 4342 cbbd 8c47 3d3d 6500 523d
00000040: 3874 a03c c2e2 703c 1234 dbbd b9fe c73c
00000050: f7ef 883e 871a b9bc 185c 9fbc 5b33 2dbd
00000060: fc43 6b3d 1f62 19be a4b6 3f3d 38d5 aebb
00000070: 8b92 a03c 24fc aebb b6cf fcbc 316b 8ebd
00000080: 90c4 72bd efac 7dbc c7a9 153e 58a1 6dbe
00000090: a426 143e be5b ddbd bacf 52bd 8376 f9bd
000000a0: 6a50 653e 84a7 9dbd 08cd 243e d336 68bc
000000b0: 3a24 f2bb 306c 293e 7e6c b03d 7efa 76be
000000c0: fb0e 8f3c 632a e3bc 275c 10be 988f a23c
000000d0: 0bdb 20bd 5c10 1abe 31e4 5abe c2fe 51bd
000000e0: 46a1 a23d 9724 c73d 371d 983d 0a31 803d
000000f0: ddb1 98bd d010 69b9 5bcc 2839 d6f0 d13d
00000100: 1b9e e53d 349f 84be 11d6 bc3d 7618 9a3e
00000110: 4256 3fbe dd90 9c3d ccac bcbd 9746 403d
00000120: 6d4d a2bd 6def 0d3e bec6 95bd 9de4 343c
00000130: 614e c9bc ed82 d33d c6ac 38bd 2dc0 fcbc
00000140: f892 623d fbc1 e13d 1f73 91bb 6037 58be
00000150: db42 b3bc 8229 603d 76f6 753d 81d9 f63d
00000160: 400c 14be b0db c7bd 79b1 9c3e 049d dbbd
00000170: 9e53 29be 8cbf 8abe 197f 253d c8e2 45be
00000180: 40e4 883b 3785 a73d 268a 1b3e af0c 4c3e
00000190: c9b9 8fbd ae3c 84bc ec31 59bd a8a9 27bc
000001a0: cc00 a2bc 7b6f 023e 9dfd 5d3e 05f4 9b3d
000001b0: aafc 0bbd f35a 423b 68c8 673d 5cd4 0cbe
000001c0: c928 c73d 331a d338 2a7f 543d f348 4ebc
000001d0: cbb6 88be 08ab 88bd 64c8 2b3e bd8e 68be
000001e0: 5278 9b3d fa7c 913e 8c3e e7bd ab81 ba3d
000001f0: bdca 013e 649c 40be 3814 4bbe eb5d 65be
00000200: 5f93 48bd da3e d23d ef51 8a3c 71ae 983c
00000210: b06d 3c3e 81e5 1cbe a86c 013d 6963 bc3d
00000220: 1e0d 55bd 5647 73be 160b 1dbe 85c5 aabe
00000230: a0a4 37bc aaad 71be 2e99 99bd d8d0 413e
00000240: b0e5 dfbc 5300 98bd 177f a43c dcb7 89be
00000250: 649c 893d 2c4d b43c 4d7c ff3d 1346 dabd
00000260: 7f6b b0bd e4cf d03c 90c3 b5bd 3679 1f3e
00000270: 8278 c1bd dfb7 373e 4339 2c3e 466e 85bd
00000280: 743c 1938 63c7 f63d 2c09 21bd b222 00bd
00000290: 0f98 a83c ca31 af3d 4f3a 793e 6f8b 90bc
000002a0: 7eff c8bd 88c3 293d 3790 5b3d 28db d33b
000002b0: 78b1 1d3e ef41 0c3d e5a4 8e3d dcfb 39bd
000002c0: 4e2a 9dbd 02cd 59bd 65cd a0bd f8bc 07bd
000002d0: d164 cabe abd3 123e 6e9a 26be aeb8 8c3c
000002e0: 2cc5 87be edda 6fbc 9008 0c39 0830 20bb
000002f0: a5d1 54bd a017 0dbe 6089 973d 0eff 1ebd
00000300: ef05 4f3d b02a 6abd 995c 64bd e957 59be
00000310: 9774 adbd 4cb0 0cbe ab71 37bd 48f7 c53c
00000320: 5119 dcba 38eb 843d dec3 19be 9f06 513e
00000330: d787 92bc 2869 d63d 5692 293e 2244 cf3c
00000340: 9acd ef3d ca48 f23b 30e9 003d 45ad cbbd
00000350: 9be8 0cbd e89b 36be a956 e0bc d77e 16be
00000360: bc58 03bd cfb8 38bd d0b5 3e3e 1b9f 0b3d
00000370: d3b3 acbd e30c 38ba b7a0 77be a741 b7bd
00000380: 3955 a3bd d02c 853d 4fe5 8e3c b104 92bd
00000390: 02f7 e1bc aea0 4abe 9444 3dbd 6130 b2bd
000003a0: ac7e 923e e5b9 c03a 99d8 e73b 859f 2ebd
000003b0: 7ece aebe e98a d0bc ea2a b43d 7005 523c
000003c0: c096 ffbb 7781 673e d540 dc3d 6e7b 73bd
000003d0: ff75 c43d b278 a2bd a4ca f4bc 3974 5b3e
000003e0: 2b00 453e cfeb ac3d 58d9 eabd 6c27 50be
000003f0: 02bb 88bd edbe 643e db66 ea3c d3fb f8bd
-0.110599734 -0.1916403 -0.1160626 -0.12232529 -0.10238497 -0.22930315 -0.028944798 0.07187388
-0.026284289 -0.07480342 0.20355916 0.1006202 -0.04400392 -0.09924748 0.04621081 0.051269908
0.019586667 0.014702501 -0.10703291 0.024413453 0.2674558 -0.022595657 -0.019453093 -0.042285305
0.05743788 -0.14978836 0.04680504 -0.0053354762 0.019601127 -0.005340116 -0.030860763 -0.06954039
-0.059269488 -0.015483125 0.14615546 -0.23206079 0.14467865 -0.10808514 -0.051467635 -0.121808074
0.22393957 -0.07697967 0.16093838 -0.014173227 -0.0073895724 0.16545177 0.08614443 -0.24118993
0.017463198 -0.027730173 -0.14097653 0.019843861 -0.039271396 -0.15045303 -0.2137611 -0.051268347
0.07940917 0.09723776 0.07427447 0.062593535 -0.074558 -0.00022226875 0.00016097857 0.10251014
0.11211797 -0.25902712 0.092205174 0.30096787 -0.18685248 0.07644818 -0.09212646 0.04694232
-0.07924924 0.13860865 -0.07313298 0.011040834 -0.024573507 0.103277065 -0.045086645 -0.030853355
0.05531594 0.11023327 -0.0044387723 -0.21114874 -0.021882465 0.054727085 0.060049497 0.12053204
-0.14457798 -0.09758699 0.3060415 -0.10723308 -0.16535804 -0.27099264 0.040404413 -0.19324791
0.0041776 0.081797056 0.15189418 0.19926713 -0.070178576 -0.016142216 -0.053026125 -0.01023332
-0.01977577 0.12737839 0.21678777 0.076149024 -0.034176506 0.002965626 0.056587607 -0.13752884
0.09724576 0.00010066144 0.051879086 -0.012590635 -0.2670196 -0.066732466 0.16775662 -0.227107
0.07591309 0.28415662 -0.11291227 0.091067635 0.12674995 -0.18809658 -0.19831932 -0.22399108
-0.04896867 0.10265894 0.016884772 0.018637868 0.18401217 -0.15321924 0.031597763 0.091986485
-0.052014463 -0.23757681 -0.1533626 -0.3335382 -0.011208683 -0.23601404 -0.0749992 0.18927324
-0.027331203 -0.07421937 0.020080132 -0.26898086 0.06719282 0.022009455 0.1247488 -0.10657897
-0.08614253 0.025489755 -0.08875191 0.15573582 -0.09446813 0.17941235 0.16818719 -0.065151736
3.6534344e-05 0.12049749 -0.039315388 -0.031283088 0.02058032 0.085544184 0.24338649 -0.017644612
-0.09814356 0.04144624 0.05360433 0.0064653344 0.1539973 0.034242567 0.06965045 -0.045406207
-0.076740846 -0.053174026 -0.07851676 -0.0331392 -0.39530042 0.14338557 -0.16269848 0.017177906
-0.26517618 -0.014639598 0.0001335463 -0.0024442691 -0.051957745 -0.13778543 0.07399249 -0.038817458
0.050542768 -0.057169616 -0.05575237 -0.21224941 -0.084695034 -0.13739127 -0.044786137 0.024165764
-0.0016792213 0.06490177 -0.15016124 0.20412682 -0.01788704 0.10469276 0.16559729 0.025301043
0.11709137 0.007393931 0.031472385 -0.09945158 -0.034401517 -0.17832911 -0.027385073 -0.14696823
-0.032067046 -0.045098122 0.18624043 0.03408728 -0.08432736 -0.0007020963 -0.24182402 -0.08948069
-0.07975239 0.06502688 0.017443327 -0.07129801 -0.027583603 -0.19787857 -0.04620798 -0.08700634
0.28612268 0.0014703838 0.007075381 -0.0426326 -0.34141916 -0.025456863 0.08797248 0.012818679
-0.007799953 0.2260798 0.10754553 -0.059443884 0.095928185 -0.07933177 -0.029881783 0.21431054
0.19238345 0.084434144 -0.11467236 -0.20327538 -0.06676294 0.22338457 0.028613498 -0.12157407

hidden.bias f4 [32]
00000000: 0000 0000 0000 0000 0000 0000 0000 0000
00000010: 0000 0000 0000 0000 0000 0000 0000 0000
00000020: 0000 0000 0000 0000 0000 0000 0000 0000
00000030: 0000 0000 0000 0000 0000 0000 0000 0000
00000040: 0000 0000 0000 0000 0000 0000 0000 0000
00000050: 0000 0000 0000 0000 0000 0000 0000 0000
00000060: 0000 0000 0000 0000 0000 0000 0000 0000
00000070: 0000 0000 0000 0000 0000 0000 0000 0000
0.0 0.0 0.0 0.0 0.0 0.0 0.0 0.0
0.0 0.0 0.0 0.0 0.0 0.0 0.0 0.0
0.0 0.0 0.0 0.0 0.0 0.0 0.0 0.0
0.0 0.0 0.0 0.0 0.0 0.0 0.0 0.0

out.weight f4 [1, 32]
00000000: 3123 65be 70fc 37be 05eb 4abe 3f99 a6bd
00000010: 3404 883e 39f7 0a3f 517a 89be efb6 6fbd
00000020: 2251 333e 6882 34be a37d 54bd 1dfb 063e
00000030: 9022 ecbd 4fe5 7f3d 4c15 e9be 8702 993e
00000040: c1e9 953e 66f7 3c3d 74bc ac3e 73e0 70be
00000050: cbd0 583d a758 5a3e 2ccf 193e 2c3a b53e
00000060: 3a51 a73e e6d8 113e 7104 c7be d9a4 c4ba
00000070: 9b10 443e a078 a63e f232 0bbe 06cd c13e
-0.22376706 -0.17967391 -0.19816215 -0.08134698 0.26565707 0.5428348 -0.26851133 -0.05852407
0.17511418 -0.17627871 -0.05187763 0.1318173 -0.1153003 0.062474545 -0.4552406 0.2988474
0.29279903 0.046134375 0.33737528 -0.2352312 0.052933495 0.2132288 0.15020436 0.35395944
0.32679158 0.14242896 -0.38870576 -0.0015002742 0.1914696 0.32513905 -0.13593653 0.37851733
