train_history/olympics-running/11_23_12_14/critic.pth (torch, 47330 bytes, 11 tensors)

encoder.0.weight f4 [8, 4, 3, 3]
0	0x3f010953	0.5040485
1	0xbec23130	-0.37928152
2	0xbf0af2c8	-0.54276705
3	0x3e489a07	0.19590007
4	0x3d8b0228	0.06787521
5	0x3eabf61d	0.33586207
6	0x3e41909f	0.18902825
7	0xbf9fe963	-1.2493099
8	0xbfc0d862	-1.5066035
9	0x3eb4446e	0.35208458
10	0x3e96a2a5	0.29420963
11	0x3fb6d578	1.4283895
12	0x3f5005c6	0.8125881
13	0x3dcbe54b	0.099558435
14	0xbe5d2452	-0.21595886
15	0xbdf827a0	-0.12116933
16	0xbf826770	-1.0187817
17	0xbf4efcfe	-0.80854785
18	0x3d8c3b4a	0.06847246
19	0x3d6dd3a1	0.058063153
20	0x3f40cfbd	0.75316983
21	0xbeb65c7d	-0.35617438
22	0x3e9479d4	0.28999197
23	0xbe91b43b	-0.28457817
24	0x3d6a9645	0.057272214
25	0xbf317eb2	-0.69333947
26	0x3e03f73d	0.12887283
27	0x3f290bf8	0.6603389
28	0xbf3681fb	-0.71292084
29	0xbefbd03c	-0.49182308
30	0x3dec2620	0.11530709
31	0x3fae954d	1.3639313
32	0x3f322007	0.6958012
33	0x3ced19fc	0.028943054
34	0xbf68130a	-0.9065405
35	0x3e88a7be	0.26690477
36	0x3eb90e68	0.36143804
37	0xbe9fe2c3	-0.31227693
38	0xbf52e484	-0.8237994
39	0xbe655064	-0.22393948
40	0x3ea3cca0	0.31992054
41	0xbf654444	-0.8955729
42	0x3e50eca8	0.20402777
43	0x3ee6aab5	0.45052114
44	0x3f0870b4	0.5329697
45	0xbf211d18	-0.6293502
46	0xbf29cc45	-0.66327316
47	0xbea919cc	-0.33027494
48	0x3f195ad4	0.5990422
49	0x3de56521	0.112009294
50	0xbfb37c9a	-1.40224
51	0x3defd899	0.117112346
52	0x3faedd37	1.366126
53	0x3eec76ab	0.46184286
54	0x3d3b1d9d	0.04568254
55	0x3f22281e	0.63342464
56	0xbe53c1e3	-0.2067943
57	0x3d991a7f	0.07475757
58	0xbebc6731	-0.3679748
59	0xbead78f9	-0.33881357
60	0xbe7779d3	-0.24167566
61	0x3e23097d	0.15921588
62	0xbec0246c	-0.37527788
63	0x3e160840	0.14651585
64	0xbe98dd1d	-0.29856196
65	0xbf65b88f	-0.8973474
66	0x3f46fe5f	0.7773189
67	0xbd76d357	-0.060260143
68	0xbf927371	-1.144148
69	0x3e925491	0.28580144
70	0x3fd506c7	1.6642693
71	0x3f592526	0.8482231
72	0x3dc3adaa	0.09554608
73	0x3d2c559c	0.04207383
74	0x3e0264e2	0.12733796
75	0xbdd9b66c	-0.10630497
76	0x3e628735	0.2212189
77	0x3e75abf3	0.23991375
78	0xbf6a855f	-0.9160976
79	0xbf0e3265	-0.55545646
80	0xbea0a057	-0.3137233
81	0xbf6e7aaa	-0.9315592
82	0x3d93c2cd	0.0721489
83	0xbf90140a	-1.1256115
84	0x3f28b4cc	0.65900874
85	0xbe0c164c	-0.1368038
86	0x3e0e021d	0.13867994
87	0xbf798bd2	-0.97478974
88	0x3f34935a	0.7053734
89	0xbeb6d244	-0.35707295
90	0x3ebcebd0	0.3689866
91	0xbf22cdba	-0.63595164
92	0x3dcb58fd	0.099290825
93	0x3f17365d	0.59067327
94	0x3fa1271d	1.2590061
95	0xbd9be8b2	-0.076127425
96	0x3daedf16	0.08538644
97	0x3e8920ff	0.26782987
98	0x3f07f2ee	0.53105056
99	0xbf18a427	-0.59625477
100	0xbf307769	-0.68932205
101	0xbe06e0d5	-0.13171704
102	0xbe88b712	-0.26702172
103	0xbe184a5d	-0.14872117
104	0xbf5b26e4	-0.8560622
105	0x3e4d3211	0.2003863
106	0xbe5e4be5	-0.21708639
107	0xbf052197	-0.5200438
108	0x3eb71fde	0.357665
109	0xbe6d5a08	-0.23178875
110	0x3ea31274	0.31850016
111	0xbf04431c	-0.516649
112	0x3edca491	0.43094304
113	0xbf52b8f0	-0.8231344
114	0x3ec5da85	0.3864328
115	0x3f1abd96	0.60445535
116	0x3f5af4cc	0.8552978
117	0xbf80b00d	-1.0053726
118	0xbee3a5f8	-0.44462562
119	0xbf0b356e	-0.543784
120	0xbf43850c	-0.7637489
121	0xbf20fe6f	-0.62888235
122	0xbf0a81c0	-0.5410423
123	0xbea7e3ac	-0.32790887
124	0xbdca7c97	-0.09887045
125	0xbe590414	-0.21192962
126	0x3e617289	0.22016348
127	0x3e4ba36a	0.19886556
128	0xbd8acee4	-0.067777425
129	0x3eaaf7f4	0.33392298
130	0x3dd9e076	0.10638516
131	0x3ec33315	0.3812491
132	0xbf3dca80	-0.74137115
133	0x3f070dda	0.5275551
134	0xbec905ee	-0.39262336
135	0x3e3784e5	0.17921789
136	0xbedbac52	-0.42904907
137	0xbfcfc8ef	-1.6233195
138	0x3b2ea26e	0.0026647109
139	0x3f5079d8	0.8143592
140	0x3f46d502	0.77668774
141	0xbe8ed29e	-0.27895063
142	0xbf2d9bce	-0.67815864
143	0xbcbcdafe	-0.023053642
144	0x3d726cf3	0.059185933
145	0xbe41d591	-0.18929125
146	0xbd81cae8	-0.063375294
147	0xbf985bbc	-1.1902995
148	0xbe52c78f	-0.20583938
149	0xbe9ae044	-0.30249226
150	0x3d41edb1	0.04734582
151	0x3eb7a6d8	0.3586948
152	0x3f38d4c1	0.72199637
153	0x3d2110eb	0.039322775
154	0x3d5074eb	0.05089275
155	0x3d57939e	0.052631013
156	0x3ddacc7e	0.10683535
157	0xbe87d184	-0.26527035
158	0x3f175e27	0.5912804
159	0xbde71c38	-0.11284679
160	0x3e1c91af	0.15289949
161	0xbe02e5c4	-0.12782961
162	0x3f1f2ee6	0.62180936
163	0x3d8e137c	0.0693731
164	0x3e17e4db	0.14833395
165	0xbfa2448d	-1.267717
166	0xbfae59b6	-1.3621128
167	0xbec023b6	-0.37527245
168	0x3e23e848	0.16006577
169	0x3e017c80	0.12645149
170	0x3e98b7ed	0.29827824
171	0xb61efe14	-2.3691728e-06
172	0x3f981588	1.1881571
173	0x3f13ab99	0.5768371
174	0x3e0d57e1	0.13803054
175	0xbfe91491	-1.8209401
176	0xbf173c4e	-0.5907639
177	0xbf881c29	-1.0633594
178	0xbe0fe2f2	-0.14051417
179	0xbe91894f	-0.2842507
180	0x3f164f2b	0.5871455
181	0x3e762dff	0.24040984
182	0x3ea4bc20	0.32174778
183	0x3e722d71	0.23650147
184	0x3ed3c1c2	0.41358763
185	0x3efa3047	0.48864958
186	0xbd2a66a9	-0.04160181
187	0xbb9f07ee	-0.00485324
188	0xbe6dd117	-0.23224293
189	0x3dcdbeaa	0.10046132
190	0x3e778fd9	0.24175967
191	0x3f3995fe	0.72494495
192	0x3dbfe49b	0.09369775
193	0x3e473eda	0.1945757
194	0x3f592a3c	0.8483007
195	0xbd3b043a	-0.045658328
196	0x3ecf5432	0.40493923
197	0x3f462e28	0.7741418
198	0x3e870ea2	0.2637835
199	0x3f03d4e7	0.5149674
200	0x3ebe5bb9	0.37179354
201	0x3ed66301	0.4187241
202	0x3f0b4be8	0.544127
203	0x3f04bf1f	0.5185413
204	0xbde8c28a	-0.113652304
205	0x3e5cb647	0.21553908
206	0x3f27b19c	0.65505385
207	0x3ee6d32c	0.45082986
208	0xbda9cd04	-0.08291057
209	0x3e1de1d5	0.1541818
210	0x3f4ba818	0.79553366
211	0x3e90ff7f	0.28319928
212	0x3eef15d5	0.46696344
213	0x3e2c3554	0.16817218
214	0x3f05c313	0.52250785
215	0x3f2774eb	0.6541278
216	0xbd8bf5fc	-0.06834027
217	0xbe053b66	-0.1301094
218	0xbc883204	-0.016625412
219	0xbdda6ded	-0.10665498
220	0xbe69fd80	-0.22850609
221	0xbd963e02	-0.07336046
222	0xbcc9be58	-0.024626896
223	0xbe52ee91	-0.20598818
224	0xbe68fe03	-0.22753148
225	0x3efcc53f	0.49369237
226	0x3ec47605	0.38371292
227	0x3ece2de6	0.40269393
228	0x3f60bea5	0.877909
229	0x3f3f51a2	0.74733937
230	0x3f48eec0	0.78489304
231	0x3d59c306	0.053164504
232	0xbe9d7a2e	-0.30757278
233	0xbe34a775	-0.17642005
234	0x3ed4f511	0.4159322
235	0x3db760dc	0.08954021
236	0x3e78c72a	0.24294725
237	0x3f2f9fd4	0.68603253
238	0x3f4f7d70	0.8105078
239	0x3f2d9265	0.67801505
240	0x3e176973	0.1478632
241	0x3f60d39b	0.87822884
242	0x3f940e8f	1.1566943
243	0xbe3fd9f9	-0.18735494
244	0xbe1468b2	-0.14493063
245	0x3f196328	0.59916925
246	0x3e0198d6	0.12655959
247	0x3f3cb35a	0.7371117
248	0x3f3a839a	0.7285706
249	0x3ed93d99	0.42429808
250	0x3f8414fc	1.0318904
251	0x3ed551b0	0.41663885
252	0xbea67f11	-0.3251882
253	0xbe66e11b	-0.22546808
254	0xbf1dbc09	-0.61615044
255	0x3b557baf	0.0032574942

encoder.0.bias f4 [8]
0	0xbc29596f	-0.010336264
1	0xbd2d6547	-0.042332914
2	0x3d24165a	0.04006038
3	0xbe191b9e	-0.14951941
4	0xbdecd3ec	-0.115638584
5	0x3e462cec	0.19353074
6	0x3de0d56f	0.10978209
7	0xbc2c6c02	-0.010523798

encoder.3.weight f4 [8, 8, 3, 3]
0	0xbf2ecde0	-0.6828289
1	0x3e405abb	0.18784611
2	0x3ec25132	0.37952572
3	0xbf17fe92	-0.5937282
4	0x3e39fe1b	0.1816334
5	0x3ed6f5cb	0.419844
6	0xbe84ff76	-0.2597615
7	0x3b497b4a	0.0030743652
8	0xbc2889b3	-0.010286736
9	0xbe0cc9fc	-0.13748926
10	0xbe024ec4	-0.12725359
11	0xbe83b7e8	-0.25726247
12	0xbf85e5f1	-1.0460798
13	0x3d63896a	0.05555097
14	0x3f052726	0.5201286
15	0xbf8fd420	-1.123661
16	0xbd8888d0	-0.0666672
17	0x3f3eebc6	0.7457851
18	0xbf2c8a7c	-0.6739881
19	0x3c25087c	0.010072824
20	0x3f47c842	0.78039944
21	0xbf73ee3e	-0.95285404
22	0xbdd59ec8	-0.10430676
23	0x3f013edc	0.5048654
24	0xbed5074e	-0.41607136
25	0xbed4e058	-0.4157741
26	0x3e1f2663	0.15541987
27	0xbf052978	-0.520164
28	0xbe9d2d96	-0.30698842
29	0x3edc4fb7	0.43029568
30	0xbecd379b	-0.40081486
31	0xbee59388	-0.4483912
32	0x3f0eabdb	0.5573098
33	0xbe22400f	-0.15844749
34	0xbed18dd8	-0.4092853
35	0x3d912392	0.070868626
36	0xbea20ef3	-0.3165203
37	0xbe2da1b7	-0.1695622
38	0xbe54ee96	-0.20794138
39	0xbf1d3c09	-0.6141973
40	0x3cc75026	0.02433021
41	0x3d87ea07	0.06636434
42	0xbf0f1e6a	-0.55905783
43	0xbe0ec8f5	-0.13943847
44	0xbf1269b9	-0.5719257
45	0x3d10f54c	0.035390183
46	0x3eb71cc7	0.35764143
47	0x3ec35596	0.38151234
48	0xbebe74ab	-0.37198386
49	0x3eb0668f	0.34453246
50	0x3eac97ca	0.33709556
51	0xbca1f4a0	-0.019769967
52	0x3ea53281	0.32265094
53	0x3e74e96b	0.23917167
54	0xbecbf3a4	-0.3983432
55	0x3e10e37d	0.1414928
56	0x3eed7c1b	0.46383747
57	0xbf540be5	-0.8283065
58	0x3ee0821b	0.43849263
59	0x3eb63331	0.3558593
60	0xbeab36b7	-0.33440182
61	0x3e80e5cf	0.2517533
62	0x3f1519d8	0.5824256
63	0xbe8d1063	-0.27551565
64	0x3babf9cb	0.0052482835
65	0x3daf343e	0.08554886
66	0xbf6c5766	-0.9232086
67	0xbec9cb55	-0.39412943
68	0xbe1ea9a9	-0.15494408
69	0xbf36e5f9	-0.7144466
70	0xbeec6a7c	-0.4617499
71	0xbf2c5643	-0.67319125
72	0x3f0725e1	0.52792174
73	0x3eb66c89	0.3562968
74	0x3f029bff	0.5101928
75	0x3d0e2551	0.034703556
76	0x3ea226bf	0.31670186
77	0x3d9b688d	0.07588301
78	0x3e38202b	0.17981021
79	0xbe8f59e1	-0.2799826
80	0xbe4f50d4	-0.20245677
81	0xbded470b	-0.11585816
82	0x3ec2f2d5	0.3807589
83	0x3eae80d7	0.34082672
84	0x3ed91864	0.4240142
85	0xbe09985a	-0.13437024
86	0xbe13dff0	-0.14440894
87	0x3e9e5fbc	0.30932415
88	0x3d25805d	0.04040562
89	0xbe9d5cf2	-0.30734974
90	0xba6df55a	-0.0009077393
91	0xbdae369e	-0.08506511
92	0x3d1dff97	0.038573828
93	0x3e8c5b31	0.27413324
94	0xbe2ab283	-0.1666966
95	0x3df38a56	0.1189162
96	0x3f00301d	0.50073415
97	0x3f04be09	0.5185247
98	0x3f208c14	0.6271374
99	0x3eb84150	0.3598733
100	0x3ebc4679	0.36772516
101	0x3efa66f1	0.48906663
102	0x3f24568a	0.6419455
103	0x3f2c54cb	0.67316884
104	0x3ed85c32	0.4225784
105	0x3f4543b1	0.77056414
106	0x3f536f0c	0.8259132
107	0x3f080ac3	0.5314142
108	0x3ef80798	0.48443294
109	0x3e8a86b8	0.27055907
110	0xbccf0bcf	-0.025274185
111	0x3e20b3ae	0.15693542
112	0xbdf3d9e8	-0.11906797
113	0xbe523a4e	-0.20530054
114	0x3eb533df	0.35391137
115	0x3d26cc3e	0.040722124
116	0xbdd98e30	-0.10622823
117	0xbdc40d4c	-0.09572849
118	0xbe3d97fb	-0.18515007
119	0x3b82d1f7	0.003992315
120	0xbe0c2b37	-0.1368836
121	0xbcbf9f5c	-0.023391418
122	0x3d8413ac	0.064490646
123	0xbe71a124	-0.23596627
124	0xbe4eea30	-0.20206523
125	0x3de05a8d	0.10954771
126	0xbd859805	-0.06523136
127	0x3d42bbc0	0.047542334
128	0xbda88e43	-0.08230259
129	0xbdd186e9	-0.1023081
130	0x3e1ecf0e	0.15508673
131	0x3caad637	0.020854099
132	0xbe80e6d5	-0.2517611
133	0xbef5d02d	-0.48010388
134	0xbf0ae02a	-0.542483
135	0xbe2a1c6a	-0.16612402
136	0x3de7bcd7	0.11315315
137	0x3d21369c	0.03935872
138	0xbda2e4de	-0.07953809
139	0xbde48edc	-0.11160061
140	0xbea6a09a	-0.32544404
141	0x3f432c46	0.7623943
142	0x3f3bcde9	0.7336107
143	0x3f02b714	0.51060605
144	0xbc456dd2	-0.012050109
145	0xbf51e2c8	-0.81986666
146	0xbf3ed681	-0.74546057
147	0x3e3711c5	0.17877872
148	0xbeb7898d	-0.3584713
149	0xbf5a3118	-0.8523116
150	0x3f2a8c3d	0.66620237
151	0xbe985761	-0.29754165
152	0xbf61ef90	-0.8825617
153	0x3d3769cc	0.04477863
154	0xbe88602c	-0.26635873
155	0xbf068941	-0.5255318
156	0x3d69c148	0.057069093
157	0x3f149a71	0.5804816
158	0x3f4e9a03	0.80703753
159	0x3f73767d	0.95102674
160	0x3f852717	1.0402554
161	0x3f960e6a	1.1723149
162	0x3f41c18f	0.7568597
163	0xbe43d3a0	-0.19123697
164	0xbf9fceea	-1.248502
165	0x3f738215	0.95120364
166	0x3f1d2104	0.613785
167	0xbf177356	-0.59160364
168	0x3f8f799f	1.1208991
169	0x3f943850	1.1579685
170	0x3f172b1b	0.5905015
171	0x3e2d4447	0.16920577
172	0x3de63b24	0.11241749
173	0xbf7f18db	-0.996473
174	0xbd9f8571	-0.07789124
175	0x3e077997	0.13229977
176	0xbeead589	-0.4586604
177	0x3f37001b	0.71484536
178	0x3f554848	0.8331342
179	0x3f0507d7	0.5196509
180	0xbe04b722	-0.12960485
181	0xbe871159	-0.26380423
182	0xbf7a5f0d	-0.97801286
183	0xbe8f7865	-0.2802154
184	0xbe604c8d	-0.21904202
185	0xbe8276e2	-0.25481325
186	0x3c1be409	0.009514817
187	0x3e5731cf	0.21015094
188	0xbeae7950	-0.3407693
189	0xbe117ef8	-0.14208591
190	0xbed39381	-0.41323474
191	0xbee90e71	-0.4551883
192	0x3efe39ba	0.49653417
193	0x3d844b89	0.0645972
194	0xbe6c7620	-0.23091936
195	0x3f190cba	0.59785044
196	0x3e4dc03a	0.2009286
197	0x3ecaa939	0.39582232
198	0x3d9dc349	0.07703263
199	0xbe7a38d5	-0.24435742
200	0xbf2991f7	-0.6623835
201	0x3f6addb6	0.91744554
202	0x3e0ac191	0.13550402
203	0xbdff5378	-0.12467092
204	0x3f5e63cf	0.86871046
205	0x3f180e9c	0.5939729
206	0x3f2a97ab	0.66637677
207	0x3e086988	0.13321507
208	0xbf1296ae	-0.5726117
209	0xbf92b880	-1.1462555
210	0x3f3665a8	0.71248865
211	0x3ed6b49b	0.41934666
212	0xbedc237c	-0.42995822
213	0x3f9e27f5	1.2355944
214	0x3fba5c8f	1.4559497
215	0x3f43d7a2	0.76500905
216	0x3faeed4e	1.366617
217	0x3f54684d	0.8297165
218	0x3f18fccd	0.59760743
219	0x3d13339b	0.035937887
220	0xbf3ccd69	-0.7375093
221	0xbe88b770	-0.26702452
222	0x3f850866	1.0393188
223	0x3f734082	0.95020306
224	0x3f6f1c6f	0.9340276
225	0x3f7920f4	0.9731591
226	0x3f0d0d24	0.55098176
227	0x3f9074ca	1.1285641
228	0x3cbe71e3	0.023247665
229	0xbde05074	-0.10952845
230	0x3f129d6e	0.5727147
231	0x3e55946e	0.20857403
232	0x3dfea3bc	0.124335736
233	0x3fd08105	1.6289374
234	0x3e4d624c	0.20057029
235	0x3efd4285	0.49464813
236	0x3f2d2fbe	0.67650974
237	0x3de674a1	0.11252714
238	0xbeabf6ba	-0.33586675
239	0xbcb02326	-0.021501135
240	0x3f3cee56	0.7380117
241	0x3edef354	0.4354502
242	0x3f9d8687	1.230668
243	0x3e098135	0.13428195
244	0x3e866887	0.26251623
245	0x3f01e6ef	0.50743
246	0xbe62c561	-0.22145607
247	0xbe93b2cc	-0.2884735
248	0x3d5b7214	0.05357559
249	0x3eca236f	0.3948016
250	0x3f3aa722	0.72911274
251	0x3f794f18	0.9738631
252	0x401dd4e3	2.4661186
253	0x4005dacb	2.091479
254	0x3fd6af39	1.6772224
255	0xbe9e04d4	-0.3086306

encoder.3.bias f4 [8]
0	0x3f56d385	0.83916503
1	0xbe92c6c5	-0.28667274
2	0xbef81c52	-0.48459107
3	0xbf973b9b	-1.1815065
4	0xbf42b22b	-0.7605311
5	0xbe7081aa	-0.23486963
6	0xbe6a0ab5	-0.22855647
7	0xbe8f5c22	-0.2799998

cnn_net.0.weight f4 [16, 8, 3, 3]
0	0x3e696eb2	0.22796133
1	0xbed4f89d	-0.41595927
2	0xbf4af2eb	-0.79276913
3	0xbe9b5936	-0.303415
4	0xbf111e3d	-0.56686765
5	0xbf60eba9	-0.8785959
6	0x3dc6040f	0.09668743
7	0xbf6bf248	-0.92166567
8	0xc016956f	-2.3528707
9	0x3ede713b	0.43445763
10	0x3eb64f0c	0.35607183
11	0x3cb72f99	0.022361564
12	0xbdd024b7	-0.10163253
13	0x3ecbd32a	0.39809543
14	0x3f1645d8	0.58700323
15	0x3edf0d26	0.4356472
16	0x3ea6d8d8	0.32587314
17	0x3f282f5f	0.6569728
18	0xbe58683f	-0.21133517
19	0x3df88b99	0.12136001
20	0x3ec03c8c	0.37546194
21	0xbd77d31d	-0.060504068
22	0x3e6c7761	0.23092414
23	0x3e90b23c	0.28260982
24	0xbe42988b	-0.19003503
25	0xbf1d75da	-0.6150795
26	0xbe14dbd9	-0.1453699
27	0xbe3dbb17	-0.185284
28	0x3ec0b932	0.37641293
29	0x3ef54bf8	0.47909522
30	0xbdb5e29e	-0.088811144
31	0xbeafa2de	-0.34303945
32	0x3e1bfdfa	0.15233603
33	0x3d3123a1	0.04324687
34	0x3eb13014	0.34606993
35	0x3d9616c3	0.0732856
36	0xbd9389aa	-0.07203992
37	0x3c91e3ad	0.01780876
38	0x3dae7fbe	0.08520459
39	0xbe44ba02	-0.19211581
40	0x3df6edfc	0.12057111
41	0x3cc76df9	0.024344431
42	0xbeada906	-0.33918017
43	0xbe1fe7c6	-0.15615758
44	0xbdd32eb8	-0.10311645
45	0x3f0930c1	0.5359002
46	0x3f07e86d	0.5308903
47	0x3eb82e4f	0.3597283
48	0x3f0e5b55	0.5560811
49	0x3f3bb187	0.7331776
50	0x3e2d3fa4	0.16918808
51	0x3f3dc76a	0.74132407
52	0x3f0649db	0.52456445
53	0x3f1e6935	0.61879283
54	0x3f2458a7	0.6419777
55	0xbda8456b	-0.082163654
56	0x3e8611c6	0.26185435
57	0x3ebe1b25	0.37130085
58	0x3f15d88d	0.58533555
59	0x3f66c45d	0.90143377
60	0x3f40cc79	0.75312
61	0x3e0d9cb4	0.13829309
62	0x3ee25f1d	0.4421319
63	0x3e185b8a	0.1487867
64	0x3e5aa7d0	0.21353078
65	0x3e3d07f1	0.1846006
66	0x3e810e7b	0.2520636
67	0x3b8d916b	0.0043203137
68	0x3ea9c493	0.33157787
69	0xbdc877e4	-0.09788492
70	0xbe36a211	-0.17835261
71	0xbe1f4393	-0.15553121
72	0x3e10c10b	0.1413614
73	0x3ed80b73	0.42196235
74	0x3eb82ce4	0.3597175
75	0xbdced9d5	-0.10100142
76	0xbd5172d2	-0.05113489
77	0xbeaec2df	-0.3413305
78	0xbec1a9b8	-0.37824798
79	0xbf20d3ab	-0.6282298
80	0xbebadb5f	-0.36495492
81	0xbec81a60	-0.39082623
82	0x3e9bcbd8	0.30428958
83	0x3ee9541f	0.45571992
84	0x3f682eb3	0.9069626
85	0x3f55c42b	0.83502454
86	0x3fa29bc5	1.2703787
87	0x3e213992	0.15744618
88	0xbe5e82d7	-0.21729599
89	0x3eb8161c	0.35954368
90	0xbeb6fa7c	-0.3573798
91	0xbdac2dac	-0.08407149
92	0x3caa8fd9	0.020820545
93	0xbd4421ea	-0.047883905
94	0xbed97ee5	-0.42479625
95	0xbc48b602	-0.012250425
96	0x3e8edfc7	0.27905104
97	0xbf2cc7b8	-0.67492247
98	0xbe960135	-0.29297796
99	0xbe925e7a	-0.28587705
100	0xbdebdc83	-0.11516669
101	0xbd79726a	-0.06090013
102	0x3e900970	0.281322
103	0x3e8d91bb	0.27650246
104	0x3ea8d783	0.32976922
105	0xbea71fd9	-0.32641485
106	0xbf03bf55	-0.51463825
107	0x3da5b7fe	0.08091734
108	0xbe1a0fec	-0.15045136
109	0xbe9f9f8d	-0.31176415
110	0xbecfdb05	-0.40596786
111	0x3ea68736	0.32525033
112	0x3d6752ba	0.05647538
113	0xbe267e21	-0.16259052
114	0xbe0416b8	-0.12899292
115	0xbf0ca6f0	-0.54942226
116	0xbe4ee95d	-0.20206209
117	0x3cf9351d	0.030420834
118	0xbda1b5fa	-0.078960374
119	0x3f16f2ad	0.58964044
120	0x3f3cc662	0.7374021
121	0x3f1782b5	0.5918382
122	0x3f5320a7	0.824717
123	0x3e1ba37f	0.15199088
124	0x3eea354e	0.45743793
125	0x3df7bcf9	0.120965905
126	0x3d0dee04	0.034650818
127	0x3f43eaea	0.76530325
128	0x3ee4ffe3	0.44726476
129	0x3f28e058	0.6596732
130	0x3f3cf6be	0.73814
131	0x3f6d6233	0.92727965
132	0xbeaddbc3	-0.33956727
133	0x3cd5ced8	0.026099607
134	0x3e3146e1	0.17312194
135	0xbebd94ab	-0.37027487
136	0xbd990135	-0.07470933
137	0xbe7fa19f	-0.24963997
138	0x3eec8810	0.46197557
139	0x3ebe7bb2	0.37203747
140	0x3f0590c1	0.52174
141	0xbe05a357	-0.1305059
142	0xbe9955d3	-0.2994829
143	0xbe51646d	-0.20448466
144	0x3d5cda3f	0.053919073
145	0xbef87652	-0.4852777
146	0xbd9dd951	-0.077074654
147	0xbf35cca4	-0.7101538
148	0xbf7a16d7	-0.976911
149	0xbe25025d	-0.16114183
150	0xbfc35d66	-1.5262878
151	0xbf25c817	-0.6475844
152	0xbfbd7c6c	-1.4803596
153	0x3ebdf933	0.37104186
154	0x3cd8b72c	0.02645453
155	0x3eb6ede9	0.35728386
156	0x3f059423	0.52179164
157	0x3e9033bd	0.28164473
158	0x3e25f7c2	0.16207793
159	0x3e6932c2	0.22773269
160	0xbc88f4b6	-0.01671825
161	0x3e85d061	0.26135543
162	0x3c2c47b7	0.010515145
163	0xbf09e1b5	-0.53860027
164	0xbcb89c81	-0.022535564
165	0x3e878705	0.264702
166	0x3ef034f1	0.4691539
167	0x3e5efaee	0.2177541
168	0xbd6d13b9	-0.057880137
169	0x3ded1928	0.11577064
170	0xbf00f4a8	-0.50373316
171	0x3e453416	0.1925815
172	0xbd4cdcc0	-0.05001521
173	0x3eb17d27	0.34665796
174	0x3ee1050b	0.4394916
175	0x3ad38dcd	0.0016140282
176	0x3e742027	0.2384039
177	0x3df3ec7f	0.119103424
178	0xbe2aab43	-0.16666894
179	0x3ee8747e	0.45401376
180	0xbda76042	-0.081726566
181	0xbebeabd3	-0.37240466
182	0x3e4a179f	0.19735573
183	0x3e688017	0.22705112
184	0x3e11ce00	0.14238739
185	0x3e8d7267	0.27626345
186	0xbee43550	-0.44571924
187	0xbe2270a6	-0.15863284
188	0xbdb31123	-0.08743503
189	0x3f306529	0.6890436
190	0x3e9664d3	0.29373798
191	0x3e312910	0.1730082
192	0x3f6957d3	0.91149634
193	0x3f639f7f	0.88915247
194	0x3ed68eab	0.41905722
195	0x3f59b287	0.85038036
196	0x3ec79a44	0.38984883
197	0x3e833d07	0.25632498
198	0x3f15bd22	0.5849172
199	0x3e97810c	0.29590642
200	0x3ee4a694	0.4465834
201	0x3f59fe46	0.85153615
202	0x3ea35e28	0.31907773
203	0x3f23ebb6	0.6403154
204	0x3ed0b209	0.4076083
205	0x3e87c891	0.26520208
206	0x3f20cab8	0.62809324
207	0x3e960a47	0.29304716
208	0xbeae62a6	-0.34059638
209	0x3ec4e73f	0.38457677
210	0x3ee112e0	0.43959713
211	0x3eab5999	0.33466795
212	0xbe02c00d	-0.12768574
213	0x3ebe459a	0.37162477
214	0xbdcb706c	-0.09933552
215	0x3d910368	0.07080728
216	0xbf36c473	-0.7139351
217	0xbf762667	-0.9615235
218	0xbf01cf9b	-0.50707406
219	0xbf9f5738	-1.2448492
220	0xbf82ff24	-1.0234113
221	0xbf80d7fc	-1.0065913
222	0xbf522d52	-0.82100403
223	0xbeb1e7ca	-0.34747154
224	0xbfb42d3f	-1.4076308
225	0x3ef32bdf	0.47494408
226	0x3dfd12ed	0.123571254
227	0x3e667bba	0.22508135
228	0x3e33e0ba	0.17566195
229	0x3ec565d6	0.38554257
230	0x3f2b6a4c	0.6695907
231	0xbd381939	-0.04494593
232	0xbea59f2f	-0.3234801
233	0x3e9416c6	0.28923625
234	0x3eb7f00c	0.3592533
235	0x3bde9483	0.0067926063
236	0xbea45179	-0.3209341
237	0xbcbf5f6b	-0.023360929
238	0x3e2dc938	0.1697129
239	0x3e353b55	0.17698415
240	0xbed703b4	-0.41995013
241	0xbf2d33d2	-0.67657197
242	0xbe90844c	-0.28225935
243	0x3dae0869	0.08497698
244	0x3e01e28b	0.12684076
245	0x3d5cc293	0.053896498
246	0x3ed0b406	0.40762347
247	0x3cb5f7dd	0.022212917
248	0x3e589a4b	0.21152608
249	0x3e49a5bb	0.19692127
250	0x3af8b281	0.0018974097
251	0x3e7f4428	0.24928343
252	0x3e916f0e	0.2840504
253	0x3c585725	0.013204371
254	0x3da11df6	0.07867043
255	0xbdd4458b	-0.10364827

cnn_net.0.bias f4 [16]
0	0xbe9a2912	-0.3010946
1	0xbdc71232	-0.09720267
2	0xbe920d47	-0.28525755
3	0xbee6c9c0	-0.45075798
4	0xbeba92f7	-0.3644025
5	0xbf0868cb	-0.532849
6	0xbecd6cbf	-0.4012203
7	0xbe5f1e3b	-0.21788876
8	0xbe760373	-0.24024753
9	0xbeb69da5	-0.35667148
10	0xbefbc667	-0.49174806
11	0xbef5771d	-0.4794244
12	0xbe06ed8a	-0.13176551
13	0xbee91177	-0.45521137
14	0xbecdb14d	-0.40174332
15	0x3e82632a	0.2546628

cnn_net.3.weight f4 [32, 16, 3, 3]
0	0xbddbc1a3	-0.10730293
1	0xbe8f4998	-0.27985835
2	0xbf290253	-0.6601917
3	0x3f3d4dde	0.7394694
4	0x3f1995e9	0.5999437
5	0xbf299a48	-0.6625104
6	0x3fa5eeb4	1.2963471
7	0xbe35976c	-0.17733544
8	0xbe35ac97	-0.17741619
9	0xbe1dda7a	-0.15415373
10	0xbfb9e262	-1.4522212
11	0xbf2eea84	-0.6832659
12	0x3f13ab33	0.57683104
13	0x3e1b0e68	0.15142214
14	0x3bab3fad	0.0052260966
15	0xbd55a0a5	-0.052155156
16	0xbf35698f	-0.70864195
17	0xbd882fe7	-0.06649762
18	0x3e9bcc88	0.30429482
19	0xbf614832	-0.88000786
20	0x3d6b5d2e	0.05746191
21	0x3f271998	0.6527343
22	0x3e030c58	0.12797678
23	0x3e410b39	0.18851937
24	0x3f081252	0.53152955
25	0xbf90816d	-1.1289498
26	0xbe4464ad	-0.1917903
27	0x3e152cf7	0.14567934
28	0xbe935b28	-0.28780484
29	0xbee741a1	-0.45167258
30	0x3f93d3f9	1.1549064
31	0x3f46cfd8	0.77660894
32	0x3c23e419	0.010003113
33	0x3f6891cc	0.9084747
34	0xbf0ebb2a	-0.5575434
35	0xbeeb8415	-0.45999208
36	0xbeb43b3b	-0.3520144
37	0xbf75bcd4	-0.95991254
38	0xbe05e855	-0.13076909
39	0x3f3aee45	0.7301982
40	0xbeb7e962	-0.35920244
41	0xbe9f33d8	-0.3109424
42	0x3f445849	0.7669721
43	0xbf83c9f0	-1.0296001
44	0xbee9aec5	-0.4564115
45	0x3e92b1a2	0.28651148
46	0x3e922e32	0.2855087
47	0x3c730739	0.014833265
48	0x3f2499e7	0.64297336
49	0x3e2718da	0.16318074
50	0x3e211004	0.15728766
51	0x3c9f8d9d	0.019476706
52	0x3ec3a906	0.38214892
53	0x3e55f98a	0.20895973
54	0x3f052524	0.520098
55	0x3d524e6e	0.051344328
56	0x3dd5b86a	0.10435565
57	0x3f787e36	0.9706758
58	0x3e1e2d27	0.15446912
59	0x3e3588d8	0.17727983
60	0x3f1995b3	0.5999405
61	0x3e07a41a	0.13246194
62	0x3d99d98f	0.07512199
63	0x3db6ad1d	0.089197375
64	0x3f35127d	0.70731336
65	0xbd96ba88	-0.07359797
66	0x3f09b971	0.53798586
67	0x3f3ecfe2	0.74535954
68	0xbe527fd1	-0.2055657
69	0x3f04e426	0.51910627
70	0x3e4fc6f9	0.20290746
71	0xbedc1095	-0.429814
72	0xbeabc392	-0.33547646
73	0x3eb9c982	0.3628655
74	0xbe54f616	-0.20797
75	0x3e5027f0	0.20327735
76	0x3f36e301	0.7144013
77	0xbe245a55	-0.16050084
78	0x3d64ec16	0.05588921
79	0x3e4056e1	0.18783142
80	0xbeac1e0a	-0.33616668
81	0x3f8b0d9e	1.0863531
82	0x3d3fb46d	0.046802927
83	0x3c936b54	0.017995514
84	0x3f010485	0.5039752
85	0x3f47bebb	0.78025407
86	0xbe8cfbb8	-0.27535796
87	0x3f25fd06	0.6483921
88	0x3c96329d	0.018334681
89	0xbeb047e5	-0.3442985
90	0x3f203597	0.6258177
91	0xbe3430a4	-0.1759668
92	0x3d623d07	0.05523398
93	0x3f37467f	0.71591944
94	0xbebc2527	-0.36747095
95	0xbc91d492	-0.017801557
96	0x3f6bee34	0.92160344
97	0xbf623ea1	-0.88376814
98	0xbde63e86	-0.11242394
99	0x3eae1145	0.3399755
100	0xbf7c0681	-0.98447424
101	0xbf119e67	-0.5688233
102	0x3f804d16	1.0023525
103	0x3e269daa	0.16271082
104	0x3ab80b9a	0.0014041543
105	0x3f902e2d	1.1264092
106	0xbf0dd8a9	-0.5540872
107	0xbe7c01b3	-0.24610023
108	0x3ee60dc8	0.4493239
109	0x3f10f1c4	0.56618905
110	0x3e784cd2	0.24248055
111	0x3f11a5ef	0.5689382
112	0x3e7778e6	0.24167213
113	0xbd14e396	-0.036349855
114	0x3e866b45	0.26253715
115	0x3ec759ab	0.389356
116	0x3e83304f	0.25622794
117	0x3f99dad9	1.2019912
118	0xbf3b6514	-0.7320111
119	0xbe244049	-0.16040148
120	0x3fdabc47	1.7088708
121	0x3f48e580	0.7847519
122	0xbdcc2ef3	-0.09969892
123	0x3f9152f3	1.1353439
124	0xbda1c45c	-0.07898781
125	0x3de85db5	0.11345998
126	0xbe8c0a9a	-0.27351838
127	0xbe11c0df	-0.1423373
128	0xbe44f500	-0.19234085
129	0xbe9a5b55	-0.30147806
130	0x3eab4ca6	0.33456916
131	0x3eaf04b5	0.3418328
132	0x3e44633a	0.19178477
133	0x3e4f0e8c	0.20220393
134	0x3d952906	0.07283215
135	0xbefed8e3	-0.49774846
136	0xbda0851e	-0.0783789
137	0x3ea0fbe2	0.3144217
138	0xbee75af3	-0.45186576
139	0x3e1544db	0.14577048
140	0xbc85111f	-0.016243516
141	0xbf5fe793	-0.8746273
142	0xbd95df44	-0.07317975
143	0x3f1322bc	0.57474875
144	0xbe8ae9de	-0.27131552
145	0xbee6a0b0	-0.4504447
146	0xbf34fb3d	-0.7069586
147	0x3e180009	0.14843763
148	0x3ef29d66	0.4738571
149	0x3cc52d69	0.024069505
150	0x3e2f4704	0.17116934
151	0x3eb6f9ca	0.3573745
152	0x3d60b85f	0.05486333
153	0xbe5c0351	-0.2148564
154	0x3e9dc849	0.30816868
155	0xbded57f0	-0.11589038
156	0x3ee325bf	0.44364735
157	0x3ee090d4	0.43860495
158	0xbe885b74	-0.26632273
159	0x3e94232e	0.2893309
160	0x3e1ef456	0.15522894
161	0xbd3b3ce0	-0.04571235
162	0xbe064e76	-0.13115868
163	0xbe2cdd8d	-0.1688139
164	0x3db9c765	0.090712346
165	0x3f459207	0.77175945
166	0x3ee9331c	0.45546806
167	0xbdf13494	-0.117776066
168	0x3eca030a	0.39455444
169	0x3e43b603	0.191124
170	0xbe053379	-0.13007917
171	0xbf1ec5c2	-0.62020504
172	0xbe780eb0	-0.24224353
173	0x3d41dd40	0.04733014
174	0x3df7cee1	0.12100006
175	0xbc4c420b	-0.012466918
176	0xbeb0e050	-0.34546137
177	0x3d6e80fe	0.058228485
178	0x3e965d8c	0.29368246
179	0x3e351891	0.17685153
180	0xbde1b792	-0.110213414
181	0x3ab6a72f	0.0013935323
182	0xbea220cb	-0.31665644
183	0x3ed64ffa	0.41857892
184	0xbcfd3025	-0.030906746
185	0xbf037641	-0.51352316
186	0x3f1124f6	0.5669702
187	0x3e4ba497	0.19887005
188	0x3bb5be75	0.005546386
189	0x3dbef8bb	0.09324785
190	0x3e1ad9b2	0.15122107
191	0x3e310a84	0.17289168
192	0x3e51bffd	0.20483394
193	0x3e0e34d8	0.13887346
194	0x3e384329	0.1799437
195	0xbe815a80	-0.2526436
196	0xbe4e8ee6	-0.20171699
197	0x3d92aadc	0.07161495
198	0xbddabd13	-0.10680594
199	0x3e44bf1e	0.1921353
200	0x3ec48a28	0.38386655
201	0x3e0bba69	0.13645329
202	0x3e0295df	0.12752484
203	0x3ebf98cc	0.37421262
204	0xbe53f149	-0.20697512
205	0xbe890165	-0.26758876
206	0x3de4aab9	0.11165375
207	0xbe5f123c	-0.217843
208	0x3cde342e	0.02712449
209	0x3e0bda9a	0.13657609
210	0x3e1ccc49	0.15312304
211	0x3e586d3e	0.21135423
212	0xbe038a7b	-0.12845795
213	0xbeb0f312	-0.34560448
214	0xbd225f8d	-0.039641906
215	0x3f0fa01f	0.561037
216	0xbd2a7a1a	-0.04162035
217	0xbcb745b6	-0.022372108
218	0x3e1adb4a	0.15122715
219	0x3e6fc06a	0.23413244
220	0x3e4eaa2d	0.20182104
221	0x3d5da97e	0.05411672
222	0x3cb505db	0.022097519
223	0x3e558a7a	0.20853606
224	0x3de88418	0.1135332
225	0xbe3bf399	-0.18354644
226	0x3dad6438	0.08466381
227	0x3de1f141	0.11032344
228	0x3ebddadf	0.37081048
229	0x3ed0069a	0.40630037
230	0xbb93ba9f	-0.004508331
231	0xbe8d774c	-0.2763008
232	0x3e232452	0.15931824
233	0x3eac0488	0.33597207
234	0xbeaef558	-0.34171557
235	0xbd4e5894	-0.050377443
236	0xbdce4aed	-0.10072885
237	0x3ed1835e	0.40920538
238	0x3e1de80f	0.15420555
239	0xbd02fd16	-0.031979643
240	0xbdce2020	-0.10064721
241	0x3e3c4c94	0.18388587
242	0x3dc0ecca	0.09420164
243	0x3eef5f61	0.46752456
244	0x3e51ecfc	0.20500559
245	0xbecf99d7	-0.40547058
246	0x3eda6a38	0.42659163
247	0x3eb0e224	0.34547532
248	0xbea72ab8	-0.3264978
249	0xbe3099bb	-0.17246144
250	0x3ee4ce6a	0.4468873
251	0x3e818cb8	0.25302672
252	0x3aa70ffe	0.0012745855
253	0x3e05e1f3	0.13074474
254	0x3e89c586	0.2690851
255	0x3de6f39e	0.11276935

cnn_net.3.bias f4 [32]
0	0xbd539307	-0.051653888
1	0x3d7af706	0.061270736
2	0xbe853319	-0.26015547
3	0xbe09a852	-0.13443115
4	0xbebe4a85	-0.3716623
5	0x3c880825	0.016605446
6	0xbda6f64a	-0.08152445
7	0xbece0385	-0.4023706
8	0xbdd2a5e4	-0.102855474
9	0xbf0817a3	-0.53161067
10	0x3b82b24f	0.003988541
11	0xbee27009	-0.442261
12	0xbeca40f3	-0.39502677
13	0x3cf9d615	0.03049759
14	0xbe16f6fe	-0.14742658
15	0x3e24743c	0.16059965
16	0xbf2d4ec0	-0.6769829
17	0xbdb1f377	-0.08689015
18	0xbe24daa4	-0.1609903
19	0x3c221e89	0.009894975
20	0x3c54df91	0.0129927555
21	0x3c2bb412	0.010479944
22	0x3d5284a2	0.05139602
23	0xbd0296f6	-0.03188225
24	0xbe0618b3	-0.1309536
25	0x3d2ea8ac	0.042641327
26	0x3d69b591	0.05705792
27	0xbc349f45	-0.011024301
28	0x3d22f2dd	0.039782394
29	0x3f1dcaed	0.61637765
30	0xbdff791b	-0.12474271
31	0xbd489f57	-0.048980083

hidden.weight f4 [32, 128]
0	0xbede8a6f	-0.4346499
1	0xbe4bf901	-0.19919206
2	0xbece2b4f	-0.40267417
3	0xbe0a51a1	-0.13507701
4	0xbe115c80	-0.14195442
5	0xbd8c2fb4	-0.06845036
6	0xbcb40624	-0.021975584
7	0x3e0496e6	0.12948188
8	0x3dbf04cf	0.09327089
9	0x3e760e29	0.24028839
10	0xbd91d607	-0.071209006
11	0x3ec429bb	0.38313088
12	0x3d9cc877	0.07655423
13	0x3cf05ea3	0.029342001
14	0xbdecd24b	-0.11563548
15	0x3dac44c5	0.08411554
16	0xbe39a7a7	-0.1813036
17	0xbe7e621a	-0.2484211
18	0xbe3aa788	-0.1822797
19	0x3dfdd247	0.12393623
20	0x3dd10207	0.10205465
21	0x3db38192	0.08764948
22	0xbd988853	-0.07447877
23	0xbcac6974	-0.021046378
24	0xbe2c1a63	-0.1680694
25	0xbe1be719	-0.15224876
26	0xbe704512	-0.23463848
27	0x3d4f0934	0.050545886
28	0xbe29fb7c	-0.1659984
29	0xbe036ea3	-0.12835173
30	0xbeb7ec0f	-0.35922286
31	0xbe85ffd5	-0.26171747
32	0x3ded6a55	0.11592547
33	0x3e4a9e29	0.19786896
34	0x3e57e7dc	0.21084541
35	0xbe582c36	-0.21110615
36	0x3cea6547	0.028612746
37	0xbe2791b0	-0.16364169
38	0xbe6bc6e6	-0.23025092
39	0xbe6dd791	-0.23226763
40	0xbd7a75ae	-0.061147384
41	0x3d277f71	0.040893022
42	0x3e4bd8e5	0.19906957
43	0x3d7eaf59	0.062178943
44	0xbeac98e2	-0.3371039
45	0x3f5e9087	0.8693928
46	0x3e561a03	0.2090836
47	0xbe40e4c4	-0.18837267
48	0xbe3e7639	-0.18599786
49	0xbe9654d7	-0.29361603
50	0xbe83f345	-0.25771537
51	0xbe8b3d80	-0.27195358
52	0xbe472e52	-0.19451264
53	0x3de2930c	0.11063203
54	0xbe833e8c	-0.25633657
55	0xbcf6c228	-0.030121878
56	0x3e3708ac	0.17874402
57	0x3e3851e5	0.1799999
58	0xbc0c53ed	-0.008564931
59	0xbe13c2bd	-0.14429756
60	0xbe3f5021	-0.1868291
61	0x3db53805	0.088485755
62	0xbd22f480	-0.039783955
63	0x3e0fbf71	0.14037873
64	0x3ee6ed44	0.45102894
65	0x3ed2614a	0.4108985
66	0x3e8c88b7	0.27448055
67	0x3ed2c447	0.41165373
68	0xbe9cb0c5	-0.30603614
69	0x3e5561b2	0.20838049
70	0x3ca8af41	0.02059138
71	0x3d206e5d	0.03916775
72	0xbf194b32	-0.59880364
73	0x3e2171f8	0.15766132
74	0xbe720eb1	-0.23638417
75	0xbdb1cf89	-0.08682162
76	0xbd6ca96e	-0.05777877
77	0x3d855a29	0.06511337
78	0xbe77616b	-0.24158256
79	0xbda8bf58	-0.08239621
80	0x3cbea4c1	0.02327192
81	0x3e108d8a	0.14116493
82	0xbd63aebb	-0.055586558
83	0xbe7d2245	-0.24720104
84	0xbe2770cf	-0.16351627
85	0x3d81305a	0.063080505
86	0xbd162f1e	-0.03666603
87	0x3e3bef42	0.18352988
88	0xbe39a727	-0.1813017
89	0x3c5d563d	0.01350933
90	0x3e8bb6df	0.27287957
91	0xbd8e9f56	-0.06963985
92	0xbec01073	-0.3751255
93	0xbe724cd2	-0.23662117
94	0xbe521de9	-0.20519222
95	0xbe425d17	-0.18980823
96	0x3da1767d	0.07883928
97	0x3e8d37cc	0.27581632
98	0x3dd836c2	0.10557319
99	0x3ded4949	0.11586244
100	0xbd28a051	-0.041168515
101	0x3e598005	0.21240242
102	0xbd83c5aa	-0.06434186
103	0xbbb06a68	-0.0053837784
104	0x3d0d321b	0.034471612
105	0x3e152910	0.14566445
106	0x3e447291	0.19184329
107	0x3db69b64	0.08916357
108	0xbe9838d5	-0.2973086
109	0x3dffac9a	0.12484093
110	0x3b89aa01	0.0042011742
111	0xbd9ba0a4	-0.07598999
112	0xbd054f9a	-0.032546617
113	0x3e447f0f	0.19189094
114	0x3d72e63f	0.05930161
115	0x3d18b5c7	0.03728273
116	0xbf506f5f	-0.8141994
117	0xbd8d8687	-0.06910425
118	0x3e53378e	0.20626661
119	0xbf8ed3e4	-1.1158414
120	0x3e482941	0.19546987
121	0x3e3e17c0	0.18563747
122	0xbda1828c	-0.07886228
123	0x3e098c19	0.1343235
124	0xbe1f21be	-0.15540215
125	0xbe9c9d60	-0.30588818
126	0xbea0fcc5	-0.31442848
127	0xbf0de010	-0.5542002
128	0xbd7dcfcc	-0.06196575
129	0x3db7a08e	0.0896617
130	0x3b7ec78b	0.003887626
131	0x3bb8d5d8	0.0056407265
132	0x3e2f1e92	0.17101505
133	0xbe2a349b	-0.1662163
134	0x3c986063	0.018600648
135	0x3da1c52e	0.07898937
136	0xbd550d1d	-0.05201446
137	0xbe734753	-0.23757677
138	0xbe2a5a30	-0.16635966
139	0xbeb16d0c	-0.3465351
140	0xbcc64b47	-0.024205817
141	0xbe7efcc4	-0.2490111
142	0xbdb43761	-0.08799625
143	0x3e3481ba	0.17627612
144	0xbcdfe5ad	-0.027331198
145	0xbd980052	-0.07421936
146	0x3ca47f2c	0.020080172
147	0xbe89b7db	-0.26898083
148	0x3d5dfc4c	0.054195687
149	0x3c13a867	0.009012318
150	0x3de4de11	0.11175168
151	0xbdf4e446	-0.11957602
152	0xbdcb09b4	-0.0991396
153	0x3c4cadde	0.012492625
154	0xbdd061c6	-0.10174899
155	0x3e122a1a	0.14273873
156	0xbdc17880	-0.09446812
157	0x3e37b7dd	0.17941232
158	0x3e2c3940	0.16818714
159	0xbda00c80	-0.07814884
160	0xbc545881	-0.012960554
161	0x3ddc2928	0.107500374
162	0xbd5645a4	-0.05231251
163	0xbd355f2a	-0.04428021
164	0x3ca8980b	0.020580312
165	0x3daf31c8	0.08554417
166	0x3e793a4b	0.24338643
167	0xbc908b6d	-0.017644608
168	0xbde39db3	-0.11114063
169	0x3ce90e11	0.02844909
170	0x3d2653b9	0.040607188
171	0xbbd608bb	-0.0065318025
172	0x3e1db176	0.15399727
173	0x3d0c41ed	0.03424256
174	0x3d8ea4e3	0.069650434
175	0xbd39fbd9	-0.045406196
176	0xbd9d2a4d	-0.07674084
177	0xbd59cd00	-0.05317402
178	0xbda0cd62	-0.07851674
179	0xbd07bcf7	-0.033139195
180	0xbed10c59	-0.40829733
181	0x3e12d3a8	0.14338553
182	0xbe33e988	-0.17569554
183	0x3b88fef7	0.004180785
184	0xbe8e6cb5	-0.27817312
185	0xbce26676	-0.027636748
186	0xbc52c1c8	-0.012863584
187	0xbc7cfded	-0.0154414
188	0xbd850709	-0.064954825
189	0xbe1a66b9	-0.15078248
190	0x3d79d641	0.060995344
191	0xbd543b84	-0.05181457
192	0x3d4f05ee	0.050542764
193	0xbd6a2aa8	-0.057169586
194	0xbd645c98	-0.055752367
195	0xbe5957e9	-0.21224941
196	0xbdad7493	-0.084695004
197	0xbe0cb04a	-0.13739124
198	0xbd6cae26	-0.05778327
199	0x3c36fca0	0.011168629
200	0xbc7074f5	-0.014676322
201	0x3d5499f1	0.051904622
202	0xbe2712f8	-0.1631583
203	0x3e43b77b	0.19112961
204	0xbcfd00da	-0.030884195
205	0x3dbbcaf0	0.09169567
206	0x3e1c4337	0.15260015
207	0x3c499654	0.012303907
208	0x3dd52f62	0.10409428
209	0xbbb79aeb	-0.0056031845
210	0x3c975962	0.018475238
211	0xbde64b7a	-0.11244865
212	0xbd422508	-0.047398597
213	0xbe369be6	-0.17832908
214	0xbd2567cd	-0.040382195
215	0xbe23cdee	-0.15996525
216	0xbd389525	-0.04506411
217	0xbd6df541	-0.05809522
218	0x3e3166b2	0.17324331
219	0x3cacc536	0.021090131
220	0xbdc7520a	-0.097324446
221	0xbc6072e2	-0.013699265
222	0xbe8277e5	-0.25482097
223	0xbdd1dfe0	-0.10247779
224	0xbdbdf374	-0.092749506
225	0x3d551d20	0.05202973
226	0x3b91b153	0.0044461875
227	0xbdaca2e6	-0.08429508
228	0xbd2637f9	-0.040580723
229	0xbe57efc6	-0.2108756
230	0xbd72810a	-0.059205092
231	0xbdccce96	-0.10000341
232	0x3e8bd71f	0.27312562
233	0xbc3cdaad	-0.011526746
234	0xbbc20b4f	-0.0059217582
235	0xbd63dbfe	-0.055629723
236	0xbeb57607	-0.3544161
237	0xbcd08aff	-0.025456904
238	0x3d998cb2	0.074975386
239	0xb93b21e8	-0.00017846341
240	0xbbff96ed	-0.007799974
241	0x3e678175	0.22607978
242	0x3dc1a29b	0.09454843
243	0xbd945bdf	-0.072440855
244	0x3dc475ff	0.095928185
245	0xbdbd16e8	-0.09232885
246	0xbd2fa1ca	-0.042878903
247	0x3e4e251a	0.2013134
248	0x3e450027	0.1923834
249	0x3dacebce	0.08443414
250	0xbe02bbc6	-0.12766942
251	0xbe5d7686	-0.21627244
252	0xbda35931	-0.07975996
253	0x3e576fcf	0.21038745
254	0x3c7fdbc0	0.015616357
255	0xbe09cd02	-0.1345711

hidden.bias f4 [32]
0	0xbe0e2431	-0.13880993
1	0xbc54f1e9	-0.012997129
2	0xbe2ce9e1	-0.16886093
3	0xbe2823e6	-0.16419944
4	0x3e5f1c3f	0.21788119
5	0x3e65c037	0.22436605
6	0xbe22e275	-0.15906699
7	0xbb9dfdda	-0.004821521
8	0xbd9c4c5e	-0.076317534
9	0xbe2a0510	-0.16603494
10	0xbe369aea	-0.17832533
11	0x3e4dd199	0.20099486
12	0xbe1f6bce	-0.15568468
13	0x3e14c030	0.14526439
14	0xbe3b713a	-0.18304911
15	0x3e620ec3	0.22075944
16	0x3e5658b9	0.20932283
17	0xbe0f8ef3	-0.14019375
18	0xbd964c06	-0.07338719
19	0xbe98c1c1	-0.29835322
20	0x3e3cfb68	0.18455279
21	0xbd198f6d	-0.037490297
22	0x3e4f651c	0.20253414
23	0xbd230aad	-0.039805103
24	0xbd573cce	-0.052548222
25	0xbcf45ff2	-0.029830907
26	0xbe2ade75	-0.16686423
27	0x3e1c00c0	0.15234661
28	0x3e561869	0.20907749
29	0x00000000	0.0
30	0xbeaf627b	-0.34254822
31	0x3e61a965	0.22037275

out.weight f4 [1, 32]
0	0xbf29a642	-0.66269314
1	0xbe2aad51	-0.16667677
2	0xbe872275	-0.26393476
3	0xbdc4f2d1	-0.09616626
4	0x3e975845	0.29559532
5	0x3efe2fab	0.49645743
6	0xbec8f6cf	-0.392508
7	0xbd600413	-0.054691385
8	0x4032168e	2.7826266
9	0xbe6aa916	-0.22916064
10	0xbd9ec6e2	-0.07752778
11	0x3de819db	0.113330565
12	0xbe7b2ce0	-0.24528837
13	0x3ec2a3e0	0.38015652
14	0xbf05da27	-0.52286
15	0x3ebcbbab	0.3686193
16	0x3e7f9499	0.2495903
17	0x4029a913	2.6509445
18	0x403cb6f8	2.9486675
19	0xbffdea78	-1.9837179
20	0x3d3ae484	0.045628086
21	0x40449f99	3.072241
22	0x3de4f4d2	0.11179508
23	0x404bc44b	3.1838558
24	0x404529ed	3.080684
25	0x3deae424	0.114692956
26	0xbef30d93	-0.47471294
27	0xbda59b1d	-0.08086226
28	0x3e2f2585	0.17104156
29	0x3ea6789f	0.32513902
30	0xc006ce5c	-2.1063452
31	0x3ea97000	0.33093262
