train_history/olympics-wrestling/11_28_21_32/actor.pth (torch, 48200 bytes, 14 tensors)

encoder.0.weight f4 [8, 4, 3, 3]
-0.4357854 0.14121997 0.1761378 -0.056721833 -0.0926481 -0.35258937 -0.35783985 0.01068825
0.1676633 -0.14493394 -0.037254166 0.08551291 -0.33394915 -0.11747083 -0.11861767 -0.052965853
-0.5980205 -0.018666774 0.09264093 0.04233559 -0.027504815 -0.18310249 0.280902 0.40951166
0.32341248 0.42413607 -0.13886137 0.1154854 0.17286466 -0.20260625 0.0009875143 0.18217272
0.16190965 -0.052887097 -0.39617372 -0.19594339 0.10298147 -0.01755269 -0.4123369 0.090201125
0.41404495 -0.22154787 0.10413699 -0.09064779 0.3347503 0.5772089 0.073112756 0.22571036
-0.030813133 0.08758008 0.25065115 -0.016099934 -0.037123084 0.5616473 0.15076405 -0.45647082
0.101305716 0.119812496 0.3241714 0.033594564 0.17771666 0.29270682 0.039943486 -0.19752605
0.14746875 -0.0041863276 0.26844698 -0.17836751 -0.0140943285 -0.0053943605 0.090881616 0.16543664
-0.13242549 0.38633972 0.18860434 0.37679362 0.28362077 0.041991353 -0.10972075 0.27803066
0.051444504 0.047450498 0.0459429 -0.6506851 -0.06495845 -0.34505346 0.07462864 -0.0061256783
0.12375164 0.0016267188 0.09241261 0.52731246 -0.22416991 0.17179227 0.32849285 -0.060990836
0.14200425 0.18163787 0.21648833 -0.12051374 0.08331903 0.24434057 -0.044503015 -0.23084444
0.08623667 0.07301483 0.1388037 0.40376157 0.18266495 0.23684604 -0.0646983 0.05247812
0.4232489 0.12178843 0.2602454 0.14421241 0.04716262 -0.3732383 0.20344125 0.11924869
-0.27829465 -0.09250271 -0.3422735 0.03838784 0.141152 0.20591913 0.18677783 0.07176752
0.1866642 -0.71544087 -0.30266163 -0.050871447 -0.10659301 0.41531897 -0.088588 0.079276584
-0.2067411 0.021579016 -0.015483468 -0.31459513 -0.32522714 -0.10014636 -0.1408749 -0.005249614
0.08755142 -0.10764204 0.14714189 0.5032813 -0.457102 0.16126613 0.215465 0.06801494
0.134364 -0.05868801 0.21706693 0.20259722 -0.0030721193 -0.049750593 0.024036389 0.11078199
0.10598726 0.068148576 -0.50644964 0.12520729 0.6321574 -0.08840254 0.4628307 -0.33045676
0.124220766 0.15688136 -0.20700033 -0.03972334 0.044546932 -0.13851815 -0.13474257 -0.0026385423
0.26993814 -0.2669805 -0.034173723 0.08242282 -0.35582653 0.21604112 -0.39846882 0.08204041
-0.090312704 0.21962623 -0.17728671 0.10480908 -0.05497702 -0.12822041 -0.07941808 0.0045846165
-0.17167944 -0.03380996 -0.09716806 -0.11925337 0.11370488 0.31464562 0.39659628 0.0391571
0.11526497 0.0041293306 0.30084595 -0.42526826 -0.3979803 -0.3164232 0.4104583 -0.074957035
-0.15452892 -0.013840811 0.2976835 0.23749079 0.22848265 -0.19603638 -0.29653928 -0.38294306
0.06931231 0.5009867 -0.13154252 0.3344679 -0.23824428 -0.3284761 0.28140885 -0.048877206
-0.34891286 -0.12924033 0.29994464 0.21716842 0.5879475 -0.25222537 0.11450518 -0.016617307
0.148925 -0.06537374 0.110191636 -0.20959853 -0.15885441 0.122029305 0.06318809 0.08861113
0.24019575 0.13016553 0.3532226 0.44820255 0.052386157 -0.030628439 -0.043569554 0.018943567
-0.21744777 0.051719405 -0.1670136 -0.22795242 0.014647286 -0.3889373 0.23767415 0.20664726
00000000: 441f dfbe f89b 103e 785d 343e 2755 68bd
00000010: 49be bdbd 9886 b4be c936 b7be c51d 2f3c
00000020: eeaf 2b3e 9069 14be d397 18bd 6421 af3d
00000030: 62fb aabe 8c94 f0bd d2ed f2bd b9f2 58bd
00000040: df17 19bf 10eb 98bc 87ba bd3d 1568 2d3d
00000050: c751 e1bc 387f 3bbe 63d2 8f3e 83ab d13e
00000060: 5296 a53e 5d28 d93e ad31 0ebe 9c83 ec3d
00000070: 6f03 313e 0378 4fbe 7b6f 813a 7c8b 3a3e
00000080: a5cb 253e 24a0 58bd 48d7 cabe 62a5 48be
00000090: f3e7 d23d a9ca 8fbc d21d d3be 5ebb b83d
000000a0: b3fd d33e 72dd 62be c645 d53d 8ca5 b9bd
000000b0: 6464 ab3e f6c3 133f 24bc 953d 9e20 673e
000000c0: d36b fcbc 2f5d b33d 5955 803e 02e4 83bc
000000d0: 600e 18bd 1ec8 0f3f e461 1a3e 8bb6 e9be
000000e0: 5f79 cf3d 4160 f53d cbf9 a53e 749a 093d
000000f0: 5bfb 353e abdd 953e c89b 233d 4544 4abe
00000100: 0c02 173e 762d 89bb e271 893e f9a5 36be
00000110: e6eb 66bc 2dc3 b0bb 2420 ba3d 3968 293e
00000120: 8c9a 07be 52ce c53e 7f21 413e 18eb c03e
00000130: be36 913e 20ff 2b3d 46b5 e0bd 095a 8e3e
00000140: 79b7 523d 745b 423d 9f2e 3c3d 4c93 26bf
00000150: f008 85bd d9aa b0be e7d6 983d eab9 c8bb
00000160: 8071 fd3d a037 d53a d342 bd3d f3fd 063f
00000170: cc8c 65be 50ea 2f3e 3730 a83e 87d1 79bd
00000180: 9069 113e 47ff 393e 1eaf 5d3e e8cf f6bd
00000190: 2ba3 aa3d 6a34 7a3e cb48 36bd 7c62 6cbe
000001a0: da9c b03d cd88 953d 8f22 0e3e d6b9 ce3e
000001b0: 850c 3b3e c587 723e 8b80 84bd 4cf3 563d
000001c0: 14b4 d83e 366c f93d e33e 853e 6bac 133e
000001d0: 972d 413d 1719 bfbe e752 503e a838 f43d
000001e0: a37c 8ebe 1072 bdbd 793e afbe 913c 1d3d
000001f0: 268a 103e 77dc 523e b042 3f3e d9fa 923d
00000200: e624 3f3e 2227 37bf 77f6 9abe 945e 50bd
00000210: 704d dabd b0a4 d43e a06d b5bd c35b a23d
00000220: f0b3 53be 7ac6 b03c 5fae 7dbc 9d12 a1be
00000230: 2c84 a6be 8919 cdbd 8341 10be f404 acbb
00000240: 294e b33d 6e73 dcbd 5dac 163e 0bd7 003f
00000250: 4609 eabe f322 253e dba2 5c3e 6b4b 8b3d
00000260: b796 093e d762 70bd cb46 5e3e a575 4f3e
00000270: 9c55 49bb 47c7 4bbd f6e7 c43c abe1 e23d
00000280: d90f d93d 7b91 8b3d afa6 01bf 5736 003e
00000290: 11d5 213f 640c b5bd 25f8 ec3e a131 a9be
000002a0: 7567 fe3d 82a5 203e e5f7 53be f1b4 22bd
000002b0: d876 363d b4d7 0dbe f5f9 09be 65eb 2cbb
000002c0: 5535 8a3e abb1 88be bff9 0bbd 4ccd a83d
000002d0: e52e b6be e239 5d3e 1b04 ccbe cd04 a83d
000002e0: def5 b8bd b3e5 603e a68a 35be 25a6 d63d
000002f0: 952f 61bd 364c 03be f2a5 a2bd 8d3a 963b
00000300: bccc 2fbe 507c 0abd 0c00 c7bd 1c3b f4bd
00000310: 1bde e83d 3b19 a13e ab0e cb3e 3263 203d
00000320: 0a10 ec3d 564f 873b 7b08 9a3e c3bc d9be
00000330: 13c4 cbbe 3902 a2be 9727 d23e 1383 99bd
00000340: d43c 1ebe 92c4 62bc f969 983e c930 733e
00000350: 5bf7 693e c3bd 48be ffd3 97be 1d11 c4be
00000360: 9df3 8d3d aa40 003f 15b3 06be 603f ab3e
00000370: 4ff6 73be 052e a8be d214 903e 7733 48bd
00000380: b5a4 b2be 9457 04be 5892 993e 6661 5e3e
00000390: ba83 163f af23 81be b181 ea3d 0521 88bc
000003a0: cc7f 183e abe2 85bd 27ac e13d ffa0 56be
000003b0: bbaa 22be 80ea f93d c268 813d c179 b53d
000003c0: e0f5 753e 1d4a 053e 98d9 b43e ce7a e53e
000003d0: de92 563d 7ee8 fabc fd75 32bd 8a2f 9b3c
000003e0: a1aa 5ebe bad7 533d 9d05 2bbe 5c6c 69be
000003f0: 2cfb 6f3c ca22 c7be da60 733e 579b 533e

encoder.0.bias f4 [8]
0.0 0.0 0.0 0.0 0.0 0.0 0.0 0.0
00000000: 0000 0000 0000 0000 0000 0000 0000 0000
00000010: 0000 0000 0000 0000 0000 0000 0000 0000

encoder.3.weight f4 [8, 8, 3, 3]
0.08197141 -0.4006869 0.016460001 0.21268165 -0.012224077 0.20701027 -0.12158149 0.16436435
0.04126154 0.034603804 -0.039702594 -0.1764861 -0.0964871 0.06322867 -0.2822885 -0.03630223
0.23025545 -0.079893544 0.03392221 -0.025770793 -0.072000615 0.20293884 -0.1686513 -0.09402564
0.1944031 -0.08190693 -0.29294682 -0.12751488 -0.017458769 -0.18742935 0.09240639 0.069067955
0.45697504 -0.07713618 0.1086968 -0.12508129 0.11979154 -0.12600122 -0.07872836 0.019527972
-0.071716875 -0.3617668 -0.12992474 0.3905443 -0.17795974 0.17223752 -0.014145574 0.07048111
-0.117213205 0.37790504 -0.04596497 0.039191872 0.30021924 6.7291454e-05 -0.09080866 0.015406704
0.16461267 0.05115559 0.17809123 0.24695171 0.13081889 -0.17486498 0.20283209 0.11055314
0.027684778 0.24062215 -0.046420522 0.04725969 -0.07132525 0.117987975 0.09460221 0.08962376
-0.29480863 -0.072130345 0.28061697 -0.008002491 -1.421072e-05 0.0029721293 0.008886458 -0.018355446
-0.042059746 -0.043535672 -0.048076335 0.08061486 0.0061181714 -0.23746999 0.20485018 0.060406357
0.37263152 0.0001614627 -0.057988532 0.019568803 0.2892287 -0.16664284 -0.06484396 0.057141595
0.08723843 0.037395287 -0.04723142 0.041755762 -0.0060360115 -0.1704255 0.1359304 0.039841972
0.04790232 -0.020777497 -0.38365442 -0.05245421 0.009527455 -0.20657781 -0.02999633 -0.037698776
0.0036735982 0.3139807 0.13735463 0.45437154 0.1988886 0.35689762 0.124366716 0.41454184
-0.09518598 -0.15811665 -0.019055625 -0.15949512 -0.18088095 -0.22292283 0.15134545 0.032435823
0.12972428 -0.09939274 0.123405546 0.12957378 0.1450543 0.18324158 -0.20380498 0.12510228
-0.11202749 -0.087644346 0.050830662 0.27736324 -0.022320868 0.039456803 -0.13618377 -0.23975997
-0.113712996 0.07019609 -0.028353924 0.11164243 -0.33609647 -0.18094657 0.027820125 -0.011220166
0.021285512 -0.021184495 0.20865016 0.082431674 -0.15056942 -0.13921759 -0.008156916 0.3095188
-0.05040007 -0.12088327 0.16505414 -0.062840804 0.462212 -0.24455658 -0.2949675 -0.231519
0.15397595 -0.24576071 0.1103933 -0.16873933 -0.06776111 0.14184316 0.28228137 -0.011168825
0.11197757 0.15263776 0.291566 -0.16543841 -0.20778602 0.11222884 -0.04274232 -0.07076632
-0.036063656 -0.22765361 0.15126196 -0.099401146 -0.076585315 -0.07508596 0.27201968 -0.13600025
0.07399212 -0.09280184 -0.17024337 -0.01899593 0.13630772 -0.072668165 0.029456748 -0.041761737
0.07641263 0.2552045 0.019728456 0.15861711 0.14594764 0.04538928 -0.21304801 -0.20153305
0.45601422 -0.15959023 0.07399922 -0.010210963 0.034183692 0.043564677 0.027044607 -0.14882223
0.22546753 0.020228812 -0.09592062 0.16771469 -0.035218693 0.07670654 0.13395408 0.091613725
-0.024536686 0.0715561 -0.47846466 -0.1937511 -0.14415762 -0.19528635 0.006656982 -0.05580438
0.15853475 0.036810555 -0.15114473 0.015321546 -0.13453537 -0.16321354 -0.034096632 -0.0013819959
0.18524624 -0.029993983 0.13925748 -0.08930643 -0.0040658643 0.32941556 0.17762585 -0.16692363
-0.13735446 -0.08570665 -0.11482595 0.09451803 0.27755302 -0.11643202 0.2519476 -0.23574372
00000000: a0e0 a73d d526 cdbe 20d7 863c 38c9 593e
00000010: 7f47 48bc 80fa 533e b7ff f8bd 214f 283e
00000020: dc01 293d b8bc 0d3d 309f 22bd c6b8 34be
00000030: 079b c5bd 087e 813d 1e88 90be a6b1 14bd
00000040: 16c8 6b3e 3a9f a3bd 04f2 0a3d 451d d3bc
00000050: 0f75 93bd 33cf 4f3e edb2 2cbe 8490 c0bd
00000060: 9b11 473e d2be a7bd 20fd 95be 4393 02be
00000070: b105 8fbc 7bed 3fbe 903f bd3d 8073 8d3d
00000080: a2f8 e93e 93f9 9dbd 6e9c de3d 4f15 00be
00000090: 4455 f53d 7706 01be 563c a1bd 20f9 9f3c
000000a0: 4ce0 92bd 7f39 b9be fe0a 05be 6cf5 c73e
000000b0: 143b 36be 085f 303e d6c2 67bc 6658 903d
000000c0: 7a0d f0bd c57c c13e c445 3cbd a887 203d
000000d0: 56b6 993e d31e 8d38 e4f9 b9bd 666c 7c3c
000000e0: 3990 283e 8688 513d 8c5d 363e e9e0 7c3e
000000f0: 63f5 053e ce0f 33be 37b3 4f3e af69 e23d
00000100: 30cb e23c a765 763e 7223 3ebd 6093 413d
00000110: f912 92bd aea3 f13d cebe c13d a98c b73d
00000120: 28f1 96be 13b9 93bd 07ad 8f3e e11c 03bc
00000130: 946a 6eb7 0ec8 423b 8298 113c 295e 96bc
00000140: d746 2cbd 7652 32bd b1eb 44bd 6719 a53d
00000150: f17a c83b 552b 73be 3fc4 513e a86c 773d
00000160: 8fc9 be3e 504e 2939 6285 6dbd c14e a03c
00000170: c915 943e 6ca4 2abe e9cc 84bd 4e0d 6a3d
00000180: 10aa b23d cd2b 193d bc75 41bd 1708 2b3d
00000190: bcc9 c5bb 0684 2ebe 5731 0b3e 5631 233d
000001a0: 3935 443d 9235 aabc 5a6e c4be 3ada 56bd
000001b0: 0b19 1c3c 2289 53be ddba f5bc 086a 1abd
000001c0: c0c0 703b 14c2 a03e b1a6 0c3e 63a3 e83e
000001d0: 74a9 4b3e 49bb b63e fab3 fe3d d43e d43e
000001e0: def0 c2bd 55e9 21be 8b1a 9cbc b052 23be
000001f0: db38 39be e245 64be 4dfa 1a3e 6ddb 043d
00000200: 71d6 043e 6c8e cbbd 0cbc fc3d fdae 043e
00000210: 1d89 143e aea3 3b3e 41b2 50be d01a 003e
00000220: ab6e e5bd e17e b3bd d033 503d 8e02 8e3e
00000230: 41da b6bc 759d 213d c273 0bbe a383 75be
00000240: 5ce2 e8bd f8c2 8f3d 7d46 e8bc c9a4 e43d
00000250: d614 acbe 0f4a 39be 08e7 e33c cad4 37bc
00000260: f45e ae3c 1b8b adbc 63a8 553e f0d1 a83d
00000270: df2e 1abe 0e8f 0ebe 96a4 05bc 4079 9e3e
00000280: 4e70 4ebd a691 f7bd f403 293e aeb2 80bd
00000290: 0da7 ec3e 0a6d 7abe fb05 97be 5113 6dbe
000002a0: dfab 1d3e b2a8 7bbe e215 e23d 01ca 2cbe
000002b0: 56c6 8abd 553f 113e 2f87 903e 73fd 36bc
000002c0: 7f54 e53d 134d 1c3e 2448 953e b068 29be
000002d0: dcc5 54be 3cd8 e53d 9212 2fbd efed 90bd
000002e0: 7cb7 13bd 071e 69be 6ae4 1a3e d492 cbbd
000002f0: c3d8 9cbd abc6 99bd 2a46 8b3e a643 0bbe
00000300: 2e89 973d e40e bebd 4754 2ebe 5a9d 9bbc
00000310: 4094 0b3e 0cd3 94bd 474f f13c 5b0e 2bbd
00000320: 3a7e 9c3d 2aaa 823e 929d a13c 866c 223e
00000330: 4c73 153e 1cea 393d 4229 5abe ae5e 4ebe
00000340: b27a e93e 9f6b 23be e78c 973d e24b 27bc
00000350: 3304 0c3d e070 323d a78c dd3c db64 18be
00000360: f6e0 663e e5b6 a53c 0872 c4bd 66bd 2b3e
00000370: 7a41 10bd 5218 9d3d 422b 093e fa9f bb3d
00000380: 2901 c9bc 018c 923d 52f9 f4be b066 46be
00000390: 0e9e 13be 25f9 47be d022 da3b 2293 64bd
000003a0: ef56 223e aac6 163d afc5 1abe 3907 7b3c
000003b0: a4c3 09be 7321 27be e9a8 0bbd 1624 b5ba
000003c0: 31b1 3d3e f1b5 f5bc 8399 0e3e 4ae6 b6bd
000003d0: f13a 85bb 28a9 a83e 8de3 353e 07ee 2abe
000003e0: a6a6 0cbe f886 afbd de29 ebbd ab92 c13d
000003f0: 6e1b 8e3e e973 eebd 47ff 803e cd66 71be

encoder.3.bias f4 [8]
0.0 0.0 0.0 0.0 0.0 0.0 0.0 0.0
00000000: 0000 0000 0000 0000 0000 0000 0000 0000
00000010: 0000 0000 0000 0000 0000 0000 0000 0000

cnn_net.0.weight f4 [16, 8, 3, 3]
0.03957117 0.14138167 -0.068840414 0.23199803 -0.30788362 -0.5280289 0.15483296 0.011569793
0.050585467 -0.21504827 0.110693745 -0.08254651 -0.2900534 0.18295616 0.04021406 0.093918614
-0.02009045 -0.21868402 0.045360487 0.033320546 0.25961182 -0.083476536 -0.13359375 0.010135077
0.20783913 0.077799745 0.2625383 -0.20754045 0.10403104 -0.043233532 -0.09798445 -0.03164426
0.038672727 0.059976593 0.117007524 0.26697317 0.098381184 -0.24960421 0.25459665 -0.12855831
-0.33314157 0.19604944 -0.034270313 -0.048163436 -0.044815432 0.079141654 0.080850415 0.22702296
-0.00045858702 -0.026316188 0.16531901 0.22916885 0.26831704 0.043471523 0.25436148 -0.035791267
0.055454146 0.22463068 -0.07942824 0.062184054 -0.11404135 -0.060278453 0.014376895 0.07983845
0.060278106 0.11154722 0.20200317 0.20543954 0.2525603 -0.21202575 -0.022114778 0.14036445
-0.11027052 0.036932055 0.0507116 -0.116372146 0.04801521 -0.07781305 0.39303318 0.014901389
0.08566295 0.24479254 -0.0067142495 -0.18721926 0.033739954 -0.023677936 0.19217189 0.019868806
0.048398606 0.2508434 -0.15882799 -0.06107908 0.3809124 0.03851414 -0.012960082 -0.18561853
-0.004524576 0.00011209346 0.034355726 0.007173546 -0.18507217 -0.17266694 0.093150236 -0.24574594
0.11479495 0.035428513 0.04702159 -0.26993364 -0.11107376 0.11152442 0.107450366 0.1435097
-0.14064966 0.31748483 -0.114019245 0.07666377 -0.060132768 0.03018582 -0.34332696 0.013681016
0.052276563 -0.111546345 0.07972702 0.24649265 0.2857756 -0.39824557 -0.21046586 -0.12991083
0.0070510223 -0.04474357 -0.18302272 -0.2754172 0.11399512 0.040601842 -0.054082908 -0.113614365
-0.14856763 0.2116173 -0.24106948 0.2168935 -0.16259177 0.10082966 0.25173205 -0.22372596
0.46313086 0.21735916 0.08338638 -0.30589423 0.42187107 0.22196895 0.15982127 -0.21626574
-0.15277976 -0.14138956 -0.040448118 -0.022480201 -0.09739276 -0.090466745 -0.10765936 0.050720472
0.09162074 0.1796185 0.09024964 0.28308162 0.13282494 0.04349297 -0.13683634 0.1252046
-0.027959745 -0.0367518 0.05951572 -0.09876904 0.07264191 0.03841765 0.26589105 0.012993613
-0.13654187 0.034795098 0.027288096 0.13815337 0.06589074 -0.23086184 0.2023841 0.1707357
0.024399254 0.27075166 0.12540004 -0.11880654 0.2505517 0.044718813 0.123800814 0.20867041
0.008045687 0.118080504 0.1689323 0.103043266 0.035749335 0.26308078 -0.09669366 0.083559595
-0.040245485 -0.13582267 -0.29069424 -0.18181452 0.06811094 0.17128468 -0.0036134762 -0.16215998
0.19625187 -0.15906143 -0.21246375 -0.084932186 -0.023502162 -0.24491602 -0.26263145 -0.08093981
0.3157116 -0.05047909 0.05139649 0.19905217 0.025314583 -0.31486872 0.018409085 -0.23591645
-0.15827031 -0.07762693 0.07967136 0.28482917 0.2271558 0.035993963 0.11855157 0.10005298
0.17541522 -0.1433285 0.35685715 0.06263855 0.21044533 0.047684997 -0.11377171 0.1401701
0.35241705 0.14418927 0.23442385 -0.13234173 -0.11273635 -0.16946585 0.29201767 0.12699857
0.0828069 0.08176478 -0.18841931 -0.08634663 -0.09540136 0.1074824 -0.030534511 0.10387863
00000000: 6115 223d 5bc6 103e 34fc 8cbd e490 6d3e
00000010: eca2 9dbe e72c 07bf 888c 1e3e 3b8f 3d3c
00000020: b532 4f3d 9d35 5cbe 67b3 e23d 250e a9bd
00000030: e181 94be dc58 3b3e 80b7 243d 6758 c03d
00000040: ba94 a4bc b4ee 5fbe ebcb 393d 207b 083d
00000050: d7eb 843e bff5 aabd cdcc 08be 980d 263c
00000060: c8d3 543e 7955 9f3d 6c6b 863e 7c85 54be
00000070: 3a0e d53d a515 31bd 12ac c8bd 699d 01bd
00000080: 4b67 1e3d 04aa 753d a4a1 ef3d b5b0 883e
00000090: 137c c93d 3f98 7fbe 7e5a 823e caa4 03be
000000a0: 8891 aabe 2fc1 483e 075f 0cbd 0647 45bd
000000b0: 6390 37bd 0515 a23d e794 a53d b578 683e
000000c0: 826e f0b9 0c95 d7bc 6349 293e 3dab 6a3e
000000d0: da60 893e 320f 323d ab3b 823e dd99 12bd
000000e0: e323 633d 9605 663e 46ab a2bd b5b4 7e3d
000000f0: 838e e9bd 8ae6 76bd 118d 6b3c 5782 a33d
00000100: 2de6 763d de72 e43d ebd9 4e3e be5e 523e
00000110: 954f 813e 471d 59be 0d2a b5bc b3bb 0f3e
00000120: 83d5 e1bd 1146 173d f7b6 4f3d 8554 eebd
00000130: 99ab 443d 735c 9fbd a53b c93e f524 743c
00000140: 0f70 af3d e5aa 7a3e 3503 dcbb 68b6 3fbe
00000150: e832 0a3d 3bf8 c1bc b5c8 443e e8c3 a23c
00000160: 9e3d 463d 8c6e 803e cea3 22be 0f2e 7abd
00000170: f306 c33e 01c1 1d3d 8656 54bc c912 3ebe
00000180: e542 94bb b813 eb38 97b8 0c3d 1110 eb3b
00000190: 8f83 3dbe 9acf 30be 8dc5 be3d d3a4 7bbe
000001a0: 9d19 eb3d 7d1d 113d b699 403d be34 8abe
000001b0: a47a e3bd ea66 e43d f00e dc3d 35f4 123e
000001c0: 7706 10be 5f8d a23e ec82 e9bd e501 9d3d
000001d0: c74d 76bd 4148 f73c 8dc8 afbe 5726 603c
000001e0: f31f 563d 6972 e4bd eb47 a33d 9268 7c3e
000001f0: 2e51 923e d8e6 cbbe 5d84 57be 5807 05be
00000200: 430c e73b 0945 37bd 4f6a 3bbe 7c03 8dbe
00000210: 4676 e93d 1e4e 263d 0a86 5dbd a6ae e8bd
00000220: 1d22 18be 35b2 583e ebda 76be 5419 5e3e
00000230: 757e 26be c87f ce3d 06e3 803e 6b18 65be
00000240: 7d1f ed3e 6693 5e3e 7ac6 aa3d 2b9e 9cbe
00000250: 7cff d73e d44b 633e 30a8 233e c474 5dbe
00000260: 4c72 1cbe 6dc8 10be edac 25bd 6628 b8bc
00000270: db75 c7bd a146 b9bd 837c dcbd 45c0 4f3d
00000280: a8a3 bb3d e9ed 373e ced4 b83d 13f0 903e
00000290: 4303 083e af25 323d d31e 0cbe a235 003e
000002a0: d60b e5bc 0e89 16bd c1c6 733d 6c47 cabd
000002b0: 48c5 943d d35b 1d3d df22 883e 2ae3 543c
000002c0: a2d1 0bbe 4e85 0e3d 498b df3c 1478 0d3e
000002d0: b9f1 863d 0c67 6cbe c73d 4f3e 57d5 2e3e
000002e0: f2e0 c73c f69f 8a3e de68 003e d850 f3bd
000002f0: 5048 803e 132b 373d 488b fd3d b2ad 553e
00000300: 0fd2 033c 31d4 f13d 97fc 2c3e 5908 d33d
00000310: e56d 123d 86b2 863e 5307 c6bd 4b21 ab3d
00000320: 73d8 24bd 1915 0bbe e0d5 94be 962d 3abe
00000330: c07d 8b3d 4065 2f3e 12d0 6cbb 440d 26be
00000340: 40f6 483e 00e1 22be 1990 59be edf0 adbd
00000350: 9b87 c0bc 44cb 7abe a177 86be c5c3 a5bd
00000360: f3a4 a13e 2ac3 4ebd 2085 523d 55d4 4b3e
00000370: 8760 cf3c 7936 a1be a6ce 963c 1594 71be
00000380: 9d11 22be defa 9ebd bd2a a33d 21d5 913e
00000390: 889b 683e 686e 133d 2acb f23d 94e8 cc3d
000003a0: 0ca0 333e b5c4 12be fbb5 b63e a448 803d
000003b0: fb7e 573e 5851 433d 2401 e9bd c088 0f3e
000003c0: 0270 b43e 5aa6 133e ce0c 703e 9784 07be
000003d0: 51e2 e6bd 7588 2dbe 5783 953e ea0b 023e
000003e0: aa96 a93d 4b74 a73d fef0 40be 80d6 b0bd
000003f0: ca61 c3bd bc1f dc3d 8323 fabc 52be d43d

cnn_net.0.bias f4 [16]
0.0 0.0 0.0 0.0 0.0 0.0 0.0 0.0
0.0 0.0 0.0 0.0 0.0 0.0 0.0 0.0
00000000: 0000 0000 0000 0000 0000 0000 0000 0000
00000010: 0000 0000 0000 0000 0000 0000 0000 0000
00000020: 0000 0000 0000 0000 0000 0000 0000 0000
00000030: 0000 0000 0000 0000 0000 0000 0000 0000

cnn_net.3.weight f4 [32, 16, 3, 3]
-0.2865183 0.1691083 -0.1299958 0.13077739 -0.06208759 -0.018500965 0.18852197 0.13104749
0.09945479 -0.00876144 -0.06110746 0.08861195 0.05601091 0.034652814 0.06974805 -0.04039578
-0.17484531 0.10783571 -0.108303666 -0.026723243 -0.01688133 0.035556678 0.06004769 -0.14173299
-0.02734789 0.015682245 -0.140704 -0.057140935 0.03714209 0.04750612 0.19812 -0.07230726
-0.14183843 0.07923258 -0.09093728 -0.037823547 -0.12943806 0.21170458 0.093610875 -0.19993152
0.10199445 -0.19266626 0.11214745 -0.15876918 0.15550952 -0.0050464314 -0.03001614 -0.12811135
0.087128386 0.12617935 0.118104264 0.038372867 -0.06386921 -0.1378126 -0.14836955 0.116756715
-0.01086102 0.020013407 0.1021759 0.10219238 -0.045028843 0.101078674 0.032554634 -0.11153872
-0.042910527 0.10105907 -0.08851635 -0.108500704 0.015833339 -0.12703964 0.004386854 0.0110260565
0.081645824 -0.26285207 -0.06429775 -0.014157487 -0.19180326 -0.017084451 0.27941257 -0.00077735086
-0.06984305 -0.050484348 0.020752003 -0.09495724 -0.062172897 -0.15020391 -0.19184165 -0.09084058
0.008797258 0.08510014 -0.06735529 -0.02202078 0.12799649 -0.08689569 0.026103677 0.049346805
0.21969724 -0.11947581 0.03237588 -0.019830108 -0.12934084 -0.06800038 -0.20519884 -0.13539127
0.17874014 -0.09432422 -0.043347344 -0.16819088 0.10795042 -0.026831703 -0.049872834 0.011720456
-0.07605889 0.27923352 -0.066825494 -0.021735944 0.035989814 0.21100649 0.079047896 0.16413118
-0.2077177 -0.079230554 -0.15348813 0.08550684 0.09978748 0.028446238 -0.25635877 -0.09243015
0.1811796 0.22030969 -0.14744566 0.1433584 0.13169473 -0.10912329 -0.012611596 -0.2140189
-0.02647539 -0.026685067 -0.023208065 -0.14943206 0.021516087 0.08734536 -0.15734825 -0.06263127
0.028369239 -0.17947647 -0.12415288 0.062956005 -0.00031185654 0.04282453 -0.1154066 -0.22531012
0.0242034 -0.15759976 0.049043976 0.09239356 -0.04225655 -0.07253049 -0.037570726 0.100205235
0.03201064 -0.012494512 -0.010470538 0.115414836 -0.22941422 0.06028846 -0.024237264 0.12089449
-0.0349685 0.03229233 -0.010044404 -0.14454249 -0.17373267 0.23823929 -0.072199106 -0.0044520036
-0.022920925 -0.04748337 0.011305603 0.04975772 0.18856777 0.23319569 0.069647305 -0.1605008
0.113057725 0.01565593 -0.01796754 -0.09800898 0.0807451 0.16076806 0.025811478 -0.029363694
0.022970403 -0.03777577 0.068420686 0.11412443 0.045666605 0.22816685 0.14923154 0.025571251
-0.065270655 -0.06660884 0.09402835 0.21797113 -0.07585972 0.04271401 -0.18507366 -0.25820458
0.083233505 -0.32112384 0.07131261 -0.022120953 -0.10658251 0.20253149 -0.06112073 -0.014569094
-0.06808507 0.036802832 -0.21466133 0.1500485 -0.0028720472 -0.07302375 0.14339931 0.030039113
0.019734723 -0.0049379887 0.010176727 0.08735753 0.05571042 -0.005696125 -0.11783233 0.019126164
-0.044821393 0.06060929 0.041440386 -0.15852192 -0.0560184 0.12079811 0.13863915 0.22814807
-0.08755578 -0.050433476 -0.08158929 0.04999906 0.19038302 -0.11240734 -0.07341474 -0.20443097
-0.0024660367 -0.051836792 -0.09238515 -0.06919243 0.07173187 -0.00991801 -0.16583443 0.12135521
00000000: 87b2 92be ba2a 2d3e 9e1d 05be 82ea 053e
00000010: 8f4f 7ebd 568f 97bc e70b 413e 5031 063e
00000020: f4ae cb3d 258c 0fbc d14b 7abd 2f7a b53d
00000030: b26b 653d 1cf0 0d3d 11d8 8e3d 0c76 25bd
00000040: a60a 33be f8d8 dc3d 50ce ddbd b4ea dabc
00000050: b74a 8abc e1a3 113d 91f4 753d 7422 11be
00000060: af08 e0bc 0d78 803c b614 10be 9d0c 6abd
00000070: 4e22 183d c795 423d f8df 4a3e d415 94bd
00000080: 183e 11be b144 a23d 533d babd ddec 1abd
00000090: 698b 04be 16c9 583e 0fb7 bf3d d9ba 4cbe
000000a0: 77e2 d03d 4e4a 45be 90ad e53d 6394 22be
000000b0: e33d 1f3e 895c a5bb 68e4 f5bc 9f2f 03be
000000c0: 5e70 b23d 2935 013e a6e0 f13d de2c 1d3d
000000d0: dccd 82bd bf1e 0dbe 30ee 17be 251e ef3d
000000e0: 6bf2 31bc 28f3 a33c 9941 d13d 3d4a d13d
000000f0: 2a70 38bd 5602 cf3d 0258 053d 6a6e e4bd
00000100: f3c2 2fbd 0ff8 ce3d 0f48 b5bd 9e35 debd
00000110: ebb4 813c ae16 02be 99bf 8f3b a2a6 343c
00000120: ed35 a73d 8c94 86be 8aae 83bd cef4 67bc
00000130: 1368 44be b1f4 8bbc 2a0f 8f3e 22c7 4bba
00000140: df09 8fbd adc8 4ebd 1b00 aa3c f178 c2bd
00000150: 02a9 7ebd 0ecf 19be 2372 44be a00a babd
00000160: 6022 103c fb48 ae3d 92f1 89bd ec64 b4bc
00000170: 8311 033e 5ef6 b1bd 61d7 d53c e01f 4a3d
00000180: 50f8 603e bcaf f4bd 929c 043d c072 a2bc
00000190: ed71 04be c943 8bbd a51f 52be 02a4 0abe
000001a0: a807 373e 0f2d c1bd fc8c 31bd 3b3a 2cbe
000001b0: 1c15 dd3d 29ce dbbc 7547 4cbd 2807 403c
000001c0: c3c4 9bbd b2f7 8e3e cedb 88bd 940f b2bc
000001d0: 0e6a 133d 1612 583e dde3 a13d 0112 283e
000001e0: f3b3 54be a143 a2bd fe2b 1dbe 361e af3d
000001f0: 615d cc3d 1608 e93c 7541 83be 054c bdbd
00000200: 2587 393e dd98 613e fffb 16be 8bcc 123e
00000210: fcda 063e 087c dfbd dea0 4ebc c527 5bbe
00000220: ebe2 d8bc a49a dabc d71e bebc b804 19be
00000230: 8142 b03c 20e2 b23d e61f 21be d344 80bd
00000240: 9b66 e83c aec8 37be dd43 febd 14ef 803d
00000250: ad80 a3b9 c668 2f3d 4c5a ecbd b2b7 66be
00000260: 3546 c63c d561 21be 56e2 483d d638 bd3d
00000270: 3415 2dbd de8a 94bd c3e3 19bd 6738 cd3d
00000280: 971d 033d c8b5 4cbc 9f8c 2bbc 9d5e ec3d
00000290: 90eb 6abe 08f1 763d 3a8d c6bc 8897 f73d
000002a0: 213b 0fbd f644 043d 4991 24bc f202 14be
000002b0: fae6 31be 00f5 733e 20dd 93bd 1de2 91bb
000002c0: aac4 bbbc ec7d 42bd 233b 393c c0ce 4b3d
000002d0: e917 413e daca 6e3e 3fa3 8e3d 525a 24be
000002e0: cf8a e73d dd40 803c aa30 93bc efb8 c8bd
000002f0: b05d a53d 62a0 243e 9872 d33c 218c f0bc
00000300: 6d2c bc3c c4ba 1abd 2520 8c3d 12ba e93d
00000310: e80c 3b3d 92a4 693e 27d0 183e cd7a d13c
00000320: 9fac 85bd 376a 88bd f091 c03d d333 5f3e
00000330: 575c 9bbd e3f4 2e3d f383 3dbe 6433 84be
00000340: 5476 aa3d 586a a4be 580c 923d 0037 b5bc
00000350: ee47 dabd 6a64 4f3e bb59 7abd 36b3 6ebc
00000360: 2f70 8bbd 91be 163d 2ed0 5bbe 50a6 193e
00000370: f538 3cbb 7a8d 95bd 45d7 123e 9614 f63c
00000380: b7aa a13c dace a1bb 49bc 263c 81e8 b23d
00000390: 9c30 643d 8fa6 babb 1452 f1bd 79ae 9c3c
000003a0: a396 37bd 7241 783d 65bd 293d 9253 22be
000003b0: 8d73 65bd 0065 f73d 6cf7 0d3e a69f 693e
000003c0: 7250 b3bd 5593 4ebd 4918 a7bd d0cb 4c3d
000003d0: c4f3 423e d235 e6bd 785a 96bd 5a56 51be
000003e0: 3b9d 21bb d152 54bd 6d34 bdbd c3b4 8dbd
000003f0: 29e8 923d 267f 22bc 80d0 29be 1589 f83d

cnn_net.3.bias f4 [32]
0.0 0.0 0.0 0.0 0.0 0.0 0.0 0.0
0.0 0.0 0.0 0.0 0.0 0.0 0.0 0.0
0.0 0.0 0.0 0.0 0.0 0.0 0.0 0.0
0.0 0.0 0.0 0.0 0.0 0.0 0.0 0.0
00000000: 0000 0000 0000 0000 0000 0000 0000 0000
00000010: 0000 0000 0000 0000 0000 0000 0000 0000
00000020: 0000 0000 0000 0000 0000 0000 0000 0000
00000030: 0000 0000 0000 0000 0000 0000 0000 0000
00000040: 0000 0000 0000 0000 0000 0000 0000 0000
00000050: 0000 0000 0000 0000 0000 0000 0000 0000
00000060: 0000 0000 0000 0000 0000 0000 0000 0000
00000070: 0000 0000 0000 0000 0000 0000 0000 0000

hidden.weight f4 [32, 128]
-0.105726376 -0.104291625 -0.041751027 -0.067296974 0.19509833 -0.2010983 0.2762611 -0.07808233
0.15549308 0.031378176 -0.04442951 0.13390431 0.017024875 -0.049932305 0.031834573 -0.113111116
-0.23057327 -0.050168928 0.1049967 -0.047155067 -0.077686526 -0.13693766 0.06998279 -0.12564859
-0.25149515 0.041659236 -0.18793227 -0.08068447 0.05753658 0.03454101 -0.055058993 0.007957525
-0.15391879 -0.13168481 -0.19314353 0.16982356 -0.14203739 0.04990697 -0.07570263 0.23252812
0.10726019 0.03036563 -0.023478301 -0.077946045 -0.090438135 -0.27046934 -0.1964226 -0.035287216
0.13524652 -0.11316842 0.16133846 -0.27052182 -0.064055994 -0.03748478 0.09947114 -0.02892048
0.05733191 -0.19070353 -0.0049499557 -0.15339261 -0.13528602 -0.15338194 0.10316852 0.011398602
0.08118191 -0.058140274 -0.09225282 -0.13890095 -0.12277857 0.032237906 -0.018535668 -0.020616528
0.05791975 0.10913571 -0.22419299 -0.12565002 -0.02534105 -0.12218651 0.11303086 0.19535865
-0.04494567 0.11082173 0.19373311 -0.10421658 -0.033140823 0.057630014 -0.058807384 0.03655601
0.014729037 -0.0018949369 0.23769262 0.19720961 -0.047686834 0.116948076 -0.22789513 -0.025864094
0.09806169 -0.0015858993 0.106965855 0.17026196 0.07007456 0.039516144 0.012858455 0.04094052
0.010274572 0.30576578 -0.08227421 0.3951096 -0.0017463724 0.029752152 0.07620413 -0.10713185
-0.15171729 0.06766829 -0.005452766 -0.02711259 0.007318569 0.21674925 -0.02023743 0.029138735
0.18187383 -0.041168716 0.119968966 0.14107667 -0.039040882 -0.08684551 0.0027342308 0.04115464
0.02813769 -0.10183806 0.15708214 -0.14119042 -0.00993907 0.1294088 -0.1904525 -0.31218415
0.3779151 -0.06545649 -0.008055742 -0.018080715 0.2239606 0.026061673 -0.0659992 0.0051954035
-0.046674047 0.24809268 -0.055587113 0.10075046 0.10328817 -0.101517014 -0.11817486 -0.117651254
-0.08776727 0.09180107 0.065072976 0.036947038 -0.17775662 -0.038133793 0.10499913 -0.12878704
-0.02600185 0.10618351 0.18848702 0.059417848 0.12166729 -0.035546523 -0.07057284 0.10596867
-0.020492388 -0.15201251 0.11544486 -0.06195099 -0.04693053 0.068614215 -0.16364124 0.100239284
0.08320491 0.007644407 -0.055546407 0.03501763 -0.060534786 0.12938912 -0.07406131 0.11788241
0.0383714 0.014544462 -0.20619705 -0.026270496 -0.052157678 -0.081306905 -0.28883338 0.010557401
-0.018144466 0.14412059 0.14268869 0.104474545 -0.19767413 -0.058521114 -0.056417253 -0.031859796
-0.0041756355 0.12890002 -0.037022166 -0.01996478 0.08577683 -0.057029773 0.08724416 0.14685042
-0.0071936357 -0.020327361 0.12881683 0.11550378 0.31279704 0.04081773 0.10006746 -0.141694
0.074585624 0.13773432 0.050723504 -0.03358955 -0.039358392 0.1951122 0.1912628 0.027176885
-0.09712893 -0.02210722 -0.067153364 -0.18925081 -0.21915582 0.00075417175 -0.037010405 -0.17204942
0.121141866 0.2278736 -0.014748705 0.07578872 0.099589385 -0.064267315 0.06374912 -0.022102136
-0.0061264276 -0.08767393 -0.12728703 0.10729042 -0.06061062 -0.035316363 -0.30508384 -0.3304062
0.0340041 -0.1209331 -0.025776934 0.084502846 0.25530058 0.1463574 -0.008086603 -0.17475195
00000000: 1287 d8bd d996 d5bd 2003 2bbd ffd2 89bd
00000010: dbc7 473e b6ec 4dbe 1872 8d3e a1e9 9fbd
00000020: 9439 1f3e 6786 003d b8fb 35bd 361e 093e
00000030: c077 8b3c d185 4cbd f864 023d cda6 e7bd
00000040: 661b 6cbe ef7d 4dbd 8308 d73d ac25 41bd
00000050: 1d1a 9fbd 6339 0cbe 2353 8f3d 06aa 00be
00000060: f9c3 80be e0a2 2a3d 5171 40be e63d a5bd
00000070: 7aab 6b3d e07a 0d3d 8a85 61bd 4760 023c
00000080: e39c 1dbe 62d8 06be 6bc7 45be 3ae6 2d3e
00000090: 4072 11be 406b 4c3d fb09 9bbd da1b 6e3e
000000a0: 3bab db3d 57c1 f83c 9155 c0bc 2da2 9fbd
000000b0: a137 b9bd f57a 8abe 0223 49be 5489 10bd
000000c0: 107e 0a3e d8c4 e7bd e935 253e d681 8abe
000000d0: ca2f 83bd a489 19bd 86b7 cb3d a4ea ecbc
000000e0: ddd4 6a3d c947 43be 3d33 a2bb f412 1dbe
000000f0: 6b88 0abe 2810 1dbe 044a d33d 34c1 3a3c
00000100: b442 a63d 7f24 6ebd 0cef bcbd 0d3c 0ebe
00000110: 5573 fbbd e50b 043d 1dd8 97bc fee3 a8bc
00000120: 433d 6d3d 8b82 df3d d992 65be 66aa 00be
00000130: 0998 cfbc ec3c fabd b97c e73d 190c 483e
00000140: f318 38bd 81f6 e23d f961 463e 816f d5bd
00000150: acbe 07bd 730d 6c3d 03e0 70bd c1bb 153d
00000160: 0f52 713c 885f f8ba b265 733e 51f1 493e
00000170: 4553 43bd 7982 ef3d 575d 69be f0e0 d3bc
00000180: 91d4 c83d f3dd cfba ea10 db3d 2759 2e3e
00000190: 4083 8f3d aedb 213d 45ac 523c 3fb1 273d
000001a0: ae56 283c 558d 9c3e 627f a8bd ce4b ca3e
000001b0: 89e6 e4ba c9ba f33c e910 9c3d f267 dbbd
000001c0: c75b 1bbe ac95 8a3d 1ead b2bb 391b debc
000001d0: 9bd0 ef3b 84f3 5d3e f8c8 a5bc 5bb4 ee3c
000001e0: 223d 3a3e 87a0 28bd 4ab2 f53d 6776 103e
000001f0: 55e9 1fbd 0fdc b1bd c830 333b c591 283d
00000200: 0381 e63c 7990 d0bd 24da 203e 3994 10be
00000210: 7bd7 22bc be83 043e fb05 43be 9ad6 9fbe
00000220: 177e c13e 0d0e 86bd 3bfc 03bc 021e 94bc
00000230: ed55 653e 4a7f d53c 972a 87bd 343e aa3b
00000240: 492d 3fbd 020c 7e3e 50af 63bd 4256 ce3d
00000250: c088 d33d 27e8 cfbd a905 f2bd 24f3 f0bd
00000260: 54bf b3bd 3302 bc3d fb44 853d c755 173d
00000270: d505 36be 2e32 1cbd c909 d73d c0e0 03be
00000280: d501 d5bc bd76 d93d be02 413e 2160 733d
00000290: b32c f93d 3b99 11bd 7e88 90bd 1a06 d93d
000002a0: a7df a7bc 2ba9 1bbe 5b6e ec3d 52c0 7dbd
000002b0: 3a3a 40bd 9c85 8c3d 9291 27be 414a cd3d
000002c0: 5667 aa3d ef7d fa3b a184 63bd a56e 0f3d
000002d0: 53f3 77bd 957e 043e 75ad 97bd 556c f13d
000002e0: 542b 1d3d e54b 6e3c 5225 53be 3935 d7bc
000002f0: 4aa3 55bd 3c84 a6bd f8e1 93be f3f8 2c3c
00000300: b4a3 94bc 5994 133e fc1c 123e c0f6 d53d
00000310: 166b 4abe d6b3 6fbd c715 67bd 6b7f 02bd
00000320: c5d3 88bb 5efe 033e 8ea4 17bd 2e8d a3bc
00000330: c3ab af3d 0d98 69bd 11ad b23d f55f 163e
00000340: 97b8 ebbb 9185 a6bc 8fe8 033e 3f8d ec3d
00000350: ef26 a03e 7e30 273d 2bf0 cc3d 3b18 11be
00000360: 59c0 983d 3a0a 0d3e 73c3 4f3d 3295 09bd
00000370: 4436 21bd 7ecb 473e 65da 433e 0fa2 de3c
00000380: 88eb c6bd 331a b5bc b487 89bd f7ca 41be
00000390: 626a 60be 9cb3 453a 3998 17bd b92d 30be
000003a0: 3a19 f83d b257 693e 8da4 71bc 1e37 9b3d
000003b0: 85f5 cb3d 959e 83bd e68e 823d 8a0f b5bc
000003c0: 33c0 c8bb 648e b3bd 8857 02be 14bb db3d
000003d0: d742 78bd e4a7 10bd f333 9cbe 002b a9be
000003e0: e247 0b3d c6ab f7bd 262a d3bc d40f ad3d
000003f0: c2b6 823e b7de 153e ac7d 04bc 2df2 32be

hidden.bias f4 [32]
0.0 0.0 0.0 0.0 0.0 0.0 0.0 0.0
0.0 0.0 0.0 0.0 0.0 0.0 0.0 0.0
0.0 0.0 0.0 0.0 0.0 0.0 0.0 0.0
0.0 0.0 0.0 0.0 0.0 0.0 0.0 0.0
00000000: 0000 0000 0000 0000 0000 0000 0000 0000
00000010: 0000 0000 0000 0000 0000 0000 0000 0000
00000020: 0000 0000 0000 0000 0000 0000 0000 0000
00000030: 0000 0000 0000 0000 0000 0000 0000 0000
00000040: 0000 0000 0000 0000 0000 0000 0000 0000
00000050: 0000 0000 0000 0000 0000 0000 0000 0000
00000060: 0000 0000 0000 0000 0000 0000 0000 0000
00000070: 0000 0000 0000 0000 0000 0000 0000 0000

mu_layer.weight f4 [2, 32]
-0.032039527 0.169413 0.38530064 -0.09730687 0.08226038 -0.38035777 0.28034383 -0.461012
-0.08668201 -0.17727475 0.24372964 -0.11109032 0.33551863 -0.055621732 -0.11656099 0.034968168
-0.26979804 -0.13241263 0.044146564 0.2225053 0.25360033 -0.1489105 0.42442623 -0.22353171
0.0007368196 0.28213328 0.04376609 -0.039737176 0.66274494 0.022973275 0.081383534 0.37519804
0.6779393 0.029243296 0.06496196 0.13047177 0.25099325 0.018470459 -0.2333495 0.25582558
-0.2617934 -0.25925764 -0.19661161 0.051628057 0.10919935 0.11675386 -0.24707957 -0.09652683
0.13132718 -0.010067238 0.40951914 -0.10006613 -0.2943895 -0.012847269 0.2521904 0.1644081
0.17502622 -0.05511411 -0.035964016 0.5428506 0.07377176 0.49998683 0.1174571 0.3011053
00000000: e13b 03bd 9a7a 2d3e 2046 c53e d348 c7bd
00000010: 2178 a83d 41be c2be 3a89 8f3e c409 ecbe
00000020: 5686 b1bd 8387 35be 4394 793e 5283 e3bd
00000030: 19c9 ab3e 9dd3 63bd 87b7 eebd c83a 0f3d
00000040: f822 8abe 2d97 07be 07d3 343d 6ed8 633e
00000050: e7d7 813e fe7b 18be 654e d93e 7fe5 64be
00000060: 2027 413a c673 903e 1244 333d 73c3 22bd
00000070: a7a9 293f 7332 bc3c 69ac a63d f519 c03e
00000080: 6e8d 2d3f a38f ef3c c70a 853d 649a 053e
00000090: 3082 803e 5c4f 973c 2cf3 6ebe 92fb 823e
000000a0: c909 86be 6bbd 84be 8e54 49be f177 533d
000000b0: e9a3 df3d a61c ef3d 6d02 7dbe dcaf c5bd
000000c0: a27a 063e 0ef1 24bc 7eac d13e 79ef ccbd
000000d0: 38ba 96be 5a7d 52bc 1a1f 813e 995a 283e
000000e0: 133a 333e 55bf 61bd 014f 13bd 42f8 0a3f
000000f0: a615 973d 46fe ff3e 598d f03d 792a 9a3e

mu_layer.bias f4 [2]
0.0 0.0
00000000: 0000 0000 0000 0000

log_std_layer.weight f4 [2, 32]
-0.15145233 -0.20498846 -0.013702857 0.20967922 0.3165981 0.23613556 0.062879905 0.2518168
-0.29867515 0.3557917 -0.5249395 -0.042223025 -0.16790847 -0.27686164 0.29340124 -0.03838599
-0.007176884 -0.42262912 0.07344463 0.32961616 -0.27550814 0.07939903 0.2036204 0.021256808
-0.5007486 0.05478358 0.19059679 0.38813227 0.25562868 0.17500658 -0.16808136 0.014415532
0.14055307 0.2106084 0.30860126 -0.5603882 -0.10493052 0.0026625113 0.019315371 0.28090182
-0.131258 -0.056290403 -0.058789533 0.15723668 0.41806617 -0.044142004 0.5877305 0.05387609
0.22873117 0.11117493 -0.2354546 -0.081292234 0.1284695 0.09596097 0.16321988 0.09638105
-0.01419331 0.13606454 -0.56990814 0.3528768 0.2005663 -0.31540483 -0.20872346 0.15170783
00000000: 5216 1bbe 7fe8 51be f381 60bc 26b6 563e
00000010: 2519 a23e 85cd 713e 2ec7 803d 22ee 803e
00000020: f3eb 98be 542a b63e 6f62 06bf 0df2 2cbd
00000030: 33f0 2bbe cfc0 8dbe b038 963e a13a 1dbd
00000040: 112c ebbb d862 d8be 236a 963d 73c3 a83e
00000050: 670f 8dbe f59b a23d de81 503e c222 ae3c
00000060: 0f31 00bf bf64 603d ce2b 433e 46b9 c63e
00000070: c3e1 823e ed34 333e 851d 2cbe 202f 6c3c
00000080: 25ed 0f3e baa9 573e fc00 9e3e 9a75 0fbf
00000090: d0e5 d6bd 877d 2e3b 453b 9e3c 5dd2 8f3e
000000a0: 7f68 06be c490 66bd 4bcd 70bd a702 213e
000000b0: c50c d63e 3fce 34bd 8275 163f 2dad 5c3d
000000c0: 8138 6a3e afaf e33d 031b 71be 8b7c a6bd
000000d0: 828d 033e 2f87 c43d 1d23 273e 6e63 c53d
000000e0: 0f8b 68bc 8154 0b3e 80e5 11bf 45ac b43e
000000f0: 4161 4d3e be7c a1be 9abb 55be 4c59 1b3e

log_std_layer.bias f4 [2]
0.0 0.0
00000000: 0000 0000 0000 0000
