train_history/olympics-running/11_23_1_25/critic.pth (torch, 47330 bytes, 11 tensors)

encoder.0.weight f4 [8, 4, 3, 3]
000000 08 d7 2b 3f e9 d5 b4 be 98 da f1 be 34 ff e4 3c
       0.67124987 -0.3531945 -0.47237086 0.027953722
000010 be f6 b9 3c bf 18 82 3e 15 f5 74 3e 1d d3 b7 bf
       0.022700664 0.25409505 0.23921616 -1.4361302
000020 2a 51 c8 bf 3c 2e f1 3e a7 dc 9f 3e 94 2e ba 3f
       -1.5649769 0.47105587 0.31223032 1.4545465
000030 c8 51 4e 3f ee 99 69 3d 31 61 86 be 82 e3 64 be
       0.8059354 0.057031564 -0.26246026 -0.22352412
000040 7d a2 6a bf 34 e3 d5 be 84 bb 07 3e d0 92 85 bd
       -0.9165419 -0.41774905 0.13255125 -0.06522143
000050 5c 82 69 3f 58 ad 3a be 52 2a 6d 3e 79 24 80 be
       0.9121454 -0.18230188 0.23160675 -0.25027826
000060 d5 52 ad bb 64 41 51 bf 0e d7 16 3e de 0b da 3e
       -0.0052894154 -0.81740403 0.14730474 0.4258718
000070 bb 23 f5 be 3d 5d cc be 19 bc e9 3d e8 f1 99 3f
       -0.47878823 -0.39914885 0.1141283 1.2026949
000080 6e 3e 3a 3f d5 91 93 3e 19 cd 72 bf 65 6f 18 3e
       0.7275151 0.288222 -0.94844204 0.14886244
000090 b8 5c 1d 3e a9 85 8c be d0 9b 6c bf dd f5 5b be
       0.153674 -0.27445725 -0.9242525 -0.21480508
0000a0 b2 95 1f 3e 57 98 72 bf e5 4e 89 3e 0c 37 04 3f
       0.15584448 -0.947637 0.26818004 0.51646495
0000b0 96 5f 13 3f ef 94 1a bf 60 7e 29 bf 35 01 e2 be
       0.5756773 -0.60383505 -0.6620846 -0.44141546
0000c0 19 43 be 3e 9d 3c ad 3e 67 04 aa bf f7 bb 31 3e
       0.37160566 0.33835307 -1.3282593 0.17356859
0000d0 1f cd 9b 3f c5 47 de 3e 6e 64 6a 3d b7 0e 06 3f
       1.2171973 0.4341413 0.057224683 0.52366203
0000e0 95 c7 e5 bc f6 7d 07 3d db e6 d4 be fb b9 9a be
       -0.02804927 0.03307911 -0.4158238 -0.30220017
0000f0 1f 30 d4 be f3 3f 10 3e c2 2d f0 be 2e 9e 82 3d
       -0.41442963 0.14086895 -0.4690991 0.06377827
000100 1f df 07 bf b0 82 84 bf 59 ec 2d 3f 76 d2 86 bd
       -0.5307483 -1.0352383 0.6793876 -0.06583111
000110 76 a9 88 bf 2e ae 93 3e 3c 3e c7 3f 3d b9 5c 3f
       -1.0676715 0.28843826 1.5565867 0.8622015
000120 1f 81 2e 3e f5 53 26 3e 1c f4 9f 3e cb 14 5d 3d
       0.17041443 0.16242965 0.31240928 0.053974908
000130 55 5d 88 3e 7f 5b 57 3e a0 1d 76 bf b6 14 b2 be
       0.26633707 0.21030997 -0.96138954 -0.34781426
000140 95 94 e9 be e9 b9 78 bf 78 f2 92 bd cf c2 ac bf
       -0.45621172 -0.97158676 -0.071751535 -1.3496951
000150 b8 39 24 3f aa f0 d1 bd 6b 97 3d 3e f3 61 56 bf
       0.6415057 -0.10250981 0.18514793 -0.8374321
000160 a9 c5 4d 3f 68 53 25 be 04 93 d4 3e 03 dd 1a bf
       0.8037973 -0.16145098 0.41518414 -0.6049349
000170 97 ca 76 3d fa 1a 0d 3f ed 77 99 3f 38 4c a6 bd
       0.0602518 0.5511929 1.1989723 -0.08120006
000180 dd b5 50 3c 1a c3 83 3e 70 c2 de 3e 06 15 0c bf
       0.012738672 0.25734788 0.4350772 -0.5471958
000190 dd 51 5c bf 95 b0 ae bd da dd 9a be 18 dd 98 be
       -0.86062413 -0.08529774 -0.30247384 -0.2985618
0001a0 56 2f 6a bf 73 3e 8a 3e c2 b4 8d be b4 7f 46 bf
       -0.9147848 0.2700077 -0.2767697 -0.7753861
0001b0 5c b9 df 3e a0 2d f9 bd a2 bc 0e 3e 0b 6b d5 be
       0.43696105 -0.121669054 0.13939145 -0.4168323
0001c0 1a 65 d5 3e cb d5 7a bf 5f f7 ee 3e b7 09 10 3f
       0.41678697 -0.9798247 0.46673104 0.56264824
0001d0 7d 45 5b 3f 10 fd 4f bf aa ec c7 be 9a 3a 16 bf
       0.85652906 -0.8124552 -0.39047748 -0.5868317
0001e0 c7 9a 4d bf 1d 71 13 bf 2c 53 4f bf 9a c8 63 be
       -0.80314296 -0.5759447 -0.80986285 -0.22244492
0001f0 46 9f dc bd 9f 51 92 be 46 d3 74 3e 34 b3 48 3e
       -0.107725665 -0.28577897 0.2390872 0.1959961
000200 3d ba 0b be 14 a8 61 3e 14 12 43 3e 32 37 dc 3e
       -0.13645263 0.22036773 0.19049865 0.4301086
000210 3e 7d fe be e6 81 22 3f 6f 84 e5 be 86 4a 7a 3d
       -0.49704927 0.6347946 -0.448276 0.061106227
000220 e5 63 20 bf c2 70 c3 bf e7 78 b2 bb af ba 39 3f
       -0.62652427 -1.5268786 -0.0054465416 0.7255048
000230 36 64 37 3f 11 46 3e be af 09 42 bf 09 43 2e be
       0.71637285 -0.18581416 -0.75796026 -0.1701776
000240 9a f7 51 bc 94 c7 b4 be e8 1f 63 3c 8e 19 a1 bf
       -0.0128153805 -0.35308516 0.0138625875 -1.2585924
000250 e3 a7 6c be 38 2c cb be 29 57 30 3e fb b6 d3 3e
       -0.23110919 -0.39682174 0.17220749 0.4135054
000260 e6 6e 42 3f 60 16 4a be eb 49 f3 bd bf 3e b0 3d
       0.7595047 -0.19735098 -0.11879333 0.08605718
000270 55 be bb 3d b8 71 af be 57 18 26 3f 07 9b 42 be
       0.09167162 -0.34266448 0.6488089 -0.1900445
000280 8d c2 88 3e b2 ce 56 bd 4a cd 28 3f f0 77 f3 3d
       0.2671093 -0.052443214 0.65938246 0.11888111
000290 e5 30 73 3e 41 49 a5 bf 9a 77 8c bf bd cd e4 be
       0.2374912 -1.291298 -1.0974 -0.44688216
0002a0 6d 36 4f 3e 2c 2a b9 3d c9 61 b4 3e 72 27 9e 3d
       0.20235606 0.09041247 0.35230854 0.07722367
0002b0 64 36 81 3f 0a 39 23 3f cd 17 23 bd a0 c9 aa bf
       1.0094724 0.6375891 -0.03981762 -1.3342781
0002c0 14 0f 31 bf 17 76 68 bf f7 cf 8c 3d cd 5f 31 be
       -0.6916363 -0.9080519 0.06875604 -0.17321701
0002d0 a0 ad 0b 3f 5c e1 a2 3e a4 c9 82 3e 71 4c 8f 3e
       0.54561806 0.3181256 0.25544465 0.27988008
0002e0 70 b9 e5 3e 7f 83 05 3f 72 b5 4b bc a5 aa 57 3d
       0.4486804 0.5215377 -0.012433397 0.052652974
0002f0 8c c7 41 be 2c 2c 39 3e 4d be b5 3e 5a 06 3d 3f
       -0.18923777 0.18083256 0.3549675 0.73837817
000300 d4 a2 ea 3d ef 99 27 3e fd 6c 5a 3f 15 ac 0b bd
       0.11456838 0.16367315 0.8532255 -0.034099657
000310 b9 b4 ec 3e 3e 65 4d 3f 67 54 79 3e df 1a 08 3f
       0.4623163 0.8023261 0.24348603 0.53166
000320 51 07 c0 3e 92 f7 f3 3e a9 9d 12 3f 13 c7 f6 3e
       0.37505582 0.4764982 0.5727182 0.48198757
000330 fe a2 fe bd 08 02 6e 3e fa d2 1f 3f 46 b0 e2 3e
       -0.12433432 0.23242962 0.624313 0.4427511
000340 48 b5 13 bc 92 20 22 3e d3 17 43 3f 67 14 b5 3e
       -0.009015389 0.15832737 0.7620823 0.35367128
000350 47 15 d2 3e ed 0e 35 3e 23 af 09 3f 0b 97 1e 3f
       0.41031858 0.17681475 0.5378286 0.61949223
000360 55 36 9c bd e6 86 cf bd f6 b4 92 3d 46 6a cf bd
       -0.076275505 -0.10133152 0.07163422 -0.10127692
000370 e3 cd 54 be 9f ec c7 bc 23 8e 01 bd fa 21 28 be
       -0.20781665 -0.024404822 -0.031629693 -0.16419211
000380 18 de 75 be 1d 15 d9 3e 84 8b bc 3e ee a8 e6 3e
       -0.24010503 0.4239892 0.36825192 0.45050758
000390 48 40 67 3f e6 12 43 3f f0 1a 4e 3f 5c b9 b9 3d
       0.9033246 0.7620071 0.80509853 0.090685576
0003a0 b2 f1 9f be 41 48 3e be 88 62 a0 3e f8 98 f4 3d
       -0.31239086 -0.1858225 0.31325173 0.11943239
0003b0 5d 26 81 3e ab 38 2c 3f 08 0b 46 3f f1 05 29 3f
       0.2522458 0.6727397 0.7736058 0.6602469
0003c0 c5 27 1d 3e 94 7f 5f 3f a5 53 82 3f 9c 2a ed bd
       0.15347202 0.87304044 1.0181776 -0.11580393
0003d0 11 49 17 be 9f d0 09 3f bd 95 9a 3d a5 b5 35 3f
       -0.14773966 0.53833956 0.075480916 0.7098029
0003e0 3e 8e 2a 3f 32 a4 ce 3e 20 c4 79 3f bd 62 af 3e
       0.66623294 0.40359646 0.9756489 0.3425502
0003f0 b5 f9 41 be 57 9b a7 bd 0a 56 10 bf 6f 8c ad bd
       -0.18942912 -0.081839256 -0.56381285 -0.08474051

encoder.0.bias f4 [8]
000000 96 1e 47 bd cb d3 8c bd 1f bc 87 3d a6 91 21 be
       -0.048613153 -0.06876334 0.06627678 -0.15778217
000010 1e e7 fa bd 8d 3e 1b 3e 09 64 c5 3d 43 e5 3c 3d
       -0.12251113 0.1516058 0.09638221 0.04611708

encoder.3.weight f4 [8, 8, 3, 3]
000000 69 53 04 bf 06 b2 3b 3e 5c 49 92 3e 75 a3 eb be
       -0.51689774 0.1832963 0.28571594 -0.46023145
000010 e5 61 44 3e 66 c1 f3 3e 14 27 57 be d9 68 1c bd
       0.19177969 0.4760849 -0.21011001 -0.038185928
000020 c8 0d 0c 3c 33 3f ef bd 02 55 07 be af df 8a be
       0.008548208 -0.11681976 -0.13216022 -0.27123782
000030 3a 2e 80 bf 86 bf 84 3c aa b5 fc 3e 60 fd 82 bf
       -1.0014107 0.016204607 0.4935735 -1.0233574
000040 0c 15 e6 bd 3b 30 3e 3f 4b 7c 37 bf 23 9b e0 bc
       -0.11234483 0.74292344 -0.7167403 -0.027417725
000050 8c 65 47 3f fd a2 7b bf 7f c7 8e 3b f7 3c 0b 3f
       0.77889323 -0.98295575 0.004357278 0.543899
000060 0b 20 f4 be b4 f6 ce be b0 4a e5 3d 13 9f bf be
       -0.47680697 -0.40422595 0.11195886 -0.37426051
000070 ce af 80 be a6 ad d6 3e 9c e3 d5 be 81 95 09 bf
       -0.25134128 0.41929358 -0.41775215 -0.5374375
000080 e6 03 d4 3e dc de 6e be 5f 2d 0f bf 26 66 33 be
       0.41409224 -0.23327202 -0.55928606 -0.17519435
000090 9a c3 8b be c6 b3 1c be cd ba 83 be d1 3a 11 bf
       -0.2729767 -0.15302953 -0.25728455 -0.5673037
0000a0 ac ba 7c 3c f0 01 0c 3d b7 1b 0d bf fd ba 14 be
       0.015425365 0.034181535 -0.55120414 -0.14524455
0000b0 b4 22 1f bf 60 c1 a7 3d 0f 49 c6 3e 5e 86 d3 3e
       -0.6216233 0.0819118 0.38727614 0.41313452
0000c0 58 47 a7 be 43 4d c1 3e 99 eb b5 3e 98 2a 95 3b
       -0.32671618 0.3775426 0.3553131 0.0045521967
0000d0 c1 97 ad 3e e7 e6 7e 3e 31 a9 ad be 22 e7 18 3e
       0.33904842 0.2489277 -0.33918145 0.1493192
0000e0 66 bb ee 3e c1 94 45 bf b2 c0 df 3e 47 37 b5 3e
       0.4662735 -0.77180105 0.43701702 0.35393736
0000f0 86 71 9b be 4e e5 78 3e 70 ad 12 3f 1e 92 73 be
       -0.3036005 0.24306223 0.57295895 -0.23786208
000100 a8 62 8f 3c 3a 61 e6 3d 07 fa 55 bf 7a 16 cb be
       0.017503098 0.11249013 -0.83584636 -0.39665586
000110 b8 64 e4 bd d1 10 29 bf 3a 9c d8 be 18 47 44 bf
       -0.11152023 -0.66041285 -0.4230669 -0.7667098
000120 6e cc 04 3f 6e bc a3 3e 81 8a f5 3e ea 2a 98 3d
       0.51874435 0.31979698 0.47957233 0.0743006
000130 70 4d a5 3e 69 d8 6c 3d c0 8f 7e 3e 73 c4 60 be
       0.32285643 0.057823572 0.24859524 -0.2194994
000140 89 be 2b be 6b 11 09 be 45 a8 a7 3e 23 a0 83 3e
       -0.16771902 -0.1338555 0.32745567 0.25708112
000150 30 1f e9 3e b1 df 19 be 44 8e 7e be 29 e9 8d 3e
       0.45531607 -0.15026738 -0.24858958 0.2771695
000160 88 27 e9 3d f8 ea 65 be ff b4 4a 3d 32 70 a8 bd
       0.11384493 -0.22452915 0.049489018 -0.082245246
000170 34 06 80 bd f4 41 97 3e 56 50 06 be 4a d0 16 3e
       -0.06251183 0.29542506 -0.13116583 0.14727893
000180 d0 c6 fc 3e 52 27 05 3f be 4a 19 3f 66 8e ab 3e
       0.49370432 0.52013123 0.5987967 0.3350708
000190 16 f8 ab 3e 36 18 d8 3e 3d 18 1e 3f 0a 4c 20 3f
       0.33587712 0.4220597 0.61755735 0.62616026
0001a0 63 79 af 3e 66 95 40 3f 59 3e 5d 3f c2 99 05 3f
       0.34272298 0.75227964 0.8642326 0.5218774
0001b0 95 00 de 3e db dd 79 3e be ca da ba d6 cd 27 3e
       0.4335982 0.24401037 -0.0016692502 0.16387114
0001c0 2c c4 0d be 52 84 58 be 11 86 be 3e db 07 a2 3d
       -0.13844365 -0.21144226 0.3721166 0.079116546
0001d0 e9 8b e9 bd 6b 48 a2 bd be d3 27 be 00 9a 03 3d
       -0.11403639 -0.07923969 -0.16389367 0.032129288
0001e0 08 c7 fe bd 15 fd a1 3c 10 79 b7 3d 24 8b 88 be
       -0.12440306 0.019774 0.08958638 -0.26668656
0001f0 91 8d 54 be 72 fd 0e 3e ba 82 8c bd f1 4d e6 3c
       -0.20757128 0.13963869 -0.068608716 0.028113337
000200 a6 a3 74 bd e9 68 0b be 8d 20 2f 3e 9f 10 0f 3d
       -0.05972638 -0.13614239 0.17102261 0.03492796
000210 0b 53 92 be 90 48 fb be fb ad fc be c3 7f 1e be
       -0.28578982 -0.49078798 -0.49351487 -0.15478425
000220 13 07 3a 3e 14 7a 44 3d 2f 50 c6 bd b3 13 8b bd
       0.18166761 0.047967985 -0.096832626 -0.06790867
000230 fe d8 62 be 63 c7 3a 3f e3 79 3c 3f 17 7b 0e 3f
       -0.22153088 0.7296049 0.73623484 0.5565657
000240 5b c4 1f be 2d 0c 66 bf e7 4c 47 bf 5b 1d 09 3e
       -0.15602247 -0.8986233 -0.7785172 0.13390104
000250 e9 6f ca be f2 0a 57 bf ae 66 1b 3f 57 43 8e be
       -0.39538506 -0.84001076 0.6070355 -0.2778575
000260 49 f9 4f bf 38 1c ff 3d b1 f9 42 be b6 ab f3 be
       -0.81239754 0.12456554 -0.19040562 -0.47591943
000270 3b 0b 79 3d b2 07 0a 3f b0 a8 62 3f 72 6c 7e 3f
       0.060801726 0.5391799 0.88538647 0.99384224
000280 ba 51 7e 3f 44 16 9b 3f 5f 53 15 3f 95 68 86 be
       0.99343455 1.211617 0.5833034 -0.26251665
000290 6d 04 a3 bf 3e be 62 3f 9c 52 19 3f ca 9a 09 bf
       -1.2735726 0.88571537 0.59891677 -0.53751814
0002a0 95 c2 86 3f fb b7 90 3f 3c b0 04 3f 3b 0f e4 3d
       1.0528132 1.1306146 0.5183141 0.111357175
0002b0 31 81 07 bc 73 b8 91 bf c6 8a 3e be 7d fb 67 3c
       -0.008270548 -1.1384414 -0.18607625 0.014159081
0002c0 a3 47 e2 be 62 d2 16 3f 29 1a 40 3f 81 7c 0e 3f
       -0.4419528 0.5891477 0.7503992 0.5565873
0002d0 c8 ff ae bc aa a5 b2 be 2d 03 7c bf a8 4e 43 be
       -0.0213622 -0.34892017 -0.98442346 -0.19072974
0002e0 3e 5b 99 be f4 f6 9e be 3e 97 d0 bb 4f f8 7e 3e
       -0.29952425 -0.31047785 -0.0063656857 0.2489941
0002f0 b7 17 a6 be d0 f1 46 bd ec 10 a3 be ca 83 e3 be
       -0.32439968 -0.048570454 -0.31848848 -0.44436485
000300 52 6e 02 3f 3b c6 ee 3d bd 1d 3c be 0e 43 0e 3f
       0.50949585 0.11658903 -0.18370719 0.5557107
000310 52 36 2c 3e e2 fb c9 3e 86 49 3a 3d cd b8 45 be
       0.16817597 0.39449984 0.045480274 -0.19308777
000320 b1 07 17 bf e9 5c 5f 3f ee fa dc 3d f1 d4 18 bd
       -0.5899611 0.87251145 0.107900485 -0.03731245
000330 8e db 4d 3f 16 b9 03 3f 57 ff 26 3f 9a f0 38 3d
       0.8041314 0.51454294 0.6523337 0.04515133
000340 38 9c 0b bf 63 07 87 bf 7f 94 34 3f 8a 4f 0b 3f
       -0.54535246 -1.0549129 0.7053909 0.5441824
000350 48 7f a0 be 76 9b 9a 3f a4 d7 c0 3f a4 06 57 3f
       -0.31347108 1.2078693 1.5065808 0.8399451
000360 49 48 b4 3f 72 f3 5d 3f 3b 40 d0 3e b4 a9 c8 bd
       1.408456 0.86699593 0.40674004 -0.09797993
000370 90 68 31 bf 60 d8 03 bf 92 3c 6d 3f ae f5 56 3f
       -0.69300175 -0.5150204 0.9267055 0.8396863
000380 f8 bf 66 3f 7a 04 87 3f f0 66 14 3f bd 91 93 3f
       0.9013667 1.0548241 0.5796957 1.1528851
000390 4c 90 84 3d 73 c8 3a 3e 9f 45 3e 3f 74 9f b2 bc
       0.06472835 0.18240528 0.74324983 -0.021804549
0003a0 a8 04 48 3e 80 de cc 3f 16 4c 0f bd 99 cd d2 3e
       0.19533026 1.6005402 -0.03498467 0.41172484
0003b0 f2 e8 1b 3f bb 3b 34 3d f1 3d 40 be 97 3f ae bd
       0.6090232 0.044002276 -0.18773629 -0.085082226
0003c0 75 ef 1b 3f 33 b6 ab 3e 5a 31 93 3f 84 a4 54 bd
       0.6091226 0.33537444 1.1499436 -0.051914707
0003d0 ec 3e d5 3d 47 54 af 3e 98 6e f9 bd 00 99 c2 be
       0.10412392 0.34243986 -0.12179297 -0.38007355
0003e0 6f 71 a3 be 0d 1c 9d 3e b2 5a 18 3f 20 30 4b 3f
       -0.3192248 0.30685464 0.5951339 0.7937031
0003f0 1b 6c 1d 40 11 b2 03 40 44 ab cb 3f a5 91 9a bd
       2.4597232 2.0577433 1.5911641 -0.07547311

encoder.3.bias f4 [8]
000000 ad 9c 29 3f 10 27 8f be 82 cc da be f1 f0 91 bf
       0.66254693 -0.2795949 -0.42734152 -1.1401654
000010 71 a6 43 bf 5d 81 85 be 54 d3 4d be b6 64 85 be
       -0.76425844 -0.2607526 -0.20100147 -0.260534

cnn_net.0.weight f4 [16, 8, 3, 3]
000000 af 80 5c 3e 29 5d d9 be b4 13 47 bf 73 2f a4 be
       0.21533464 -0.42453888 -0.7776444 -0.3206745
000010 04 74 15 bf 57 93 64 bf e5 78 14 bd 98 25 93 bf
       -0.5838015 -0.8928732 -0.036248107 -1.1495848
000020 35 a3 0e c0 35 33 b8 3e 97 b0 7d 3e e1 96 d2 bd
       -2.2287114 0.35976568 0.24774395 -0.10282684
000030 96 ab 9b 3d 99 b2 bc 3e 70 f5 08 3f 82 dc f6 3e
       0.07601087 0.3685501 0.5349951 0.4821511
000040 65 5d a3 3e 48 d8 2c 3f 5a fc 38 be ae f6 14 3e
       0.31907192 0.6751752 -0.18065014 0.14547226
000050 fb 84 d0 3e 8c 6e 58 bd 74 8f 5d 3e 30 05 97 3e
       0.40726456 -0.0528398 0.21636754 0.29496145
000060 e2 55 94 be 67 a2 2e bf e0 16 46 be bb 7a 31 be
       -0.28971773 -0.68216556 -0.19344664 -0.17331974
000070 95 61 c5 3e 3c 2f f1 3e 42 52 81 bd 83 ad 9d be
       0.38551012 0.4710635 -0.063145176 -0.3079644
000080 b9 b5 2e 3e 03 65 2b 3d 1c 71 a8 3e b6 c6 8e 3d
       0.17061509 0.04184438 0.32898796 0.06971495
000090 a7 a8 62 bd 6d 82 29 3d 78 f0 f1 3d 47 36 32 be
       -0.05533662 0.04138415 0.11813444 -0.17403518
0000a0 7b ca 11 3e cb 42 90 3d 0d e7 cb be 73 23 8c be
       0.14237396 0.0704399 -0.39824715 -0.27370796
0000b0 f0 f8 d8 bd fc 90 fd 3e c8 04 10 3f 30 22 c2 3e
       -0.10594356 0.49524677 0.56257296 0.37916708
0000c0 60 6e 14 3f 36 b0 23 3f 07 e7 aa 3d 76 62 1d 3f
       0.5798092 0.6394075 0.08344846 0.61478364
0000d0 c3 87 bf 3e 1b 2e 09 3f 8c 56 1b 3f 3d 2b e6 bd
       0.37408265 0.53585976 0.60678935 -0.11238716
0000e0 76 d7 0f 3e 05 01 cb 3e 52 95 06 3f 6d 79 2b 3f
       0.14047036 0.39649215 0.52571595 0.66982156
0000f0 16 c1 24 3f a7 ac 38 3e f6 ee f3 3e a8 71 06 3e
       0.64357126 0.18034612 0.4764325 0.13129294
000100 97 43 58 3e d7 44 2e 3e 7d b5 88 3e 29 10 90 bc
       0.21119533 0.17018448 0.26700965 -0.01758583
000110 46 d0 a5 3e eb b0 f4 bd c5 97 6c be 44 1c 0e be
       0.32385463 -0.11947807 -0.2310477 -0.1387797
000120 5b d5 98 3c cb 1a c1 3e 61 f3 ca 3e d5 c2 37 be
       0.018656423 0.37715754 0.39638808 -0.17945416
000130 c3 34 83 bc 77 3b a8 be 43 2d c0 be c3 30 13 bf
       -0.01601637 -0.32857868 -0.37534532 -0.5749628
000140 6e 84 b3 be 0b fa c2 be 47 18 ab 3e 30 cd de 3e
       -0.35061973 -0.38081393 0.3341696 0.4351592
000150 83 75 4e 3f a1 d2 4c 3f 3d 7e 9d 3f 56 45 d1 3d
       0.8064806 0.80008894 1.230415 0.10218303
000160 53 d3 83 be 29 f8 95 3e 85 3d d3 be 53 91 d2 bd
       -0.25747165 0.29290894 -0.41257873 -0.10281625
000170 93 92 7e 3d e5 5b 83 bd db 12 91 be a4 65 52 3d
       0.062151503 -0.06414012 -0.28334698 0.051366463
000180 7c bc 44 3e a0 1f 13 bf bf e7 2a be ff a3 ab be
       0.19212526 -0.5747013 -0.16689967 -0.33523557
000190 a0 8c 05 be ea 8e 9d 3b 24 79 82 3e 60 cf a1 3e
       -0.13041925 0.0048082964 0.25483048 0.31603527
0001a0 18 52 b8 3e 14 5b 9b be 4e 4e e4 be c1 bc c5 3d
       0.36000133 -0.30342925 -0.44590992 0.096551426
0001b0 cc 90 5e be d8 6b be be 66 ad b6 be 4d 02 99 3e
       -0.21734923 -0.37191653 -0.35679168 0.29884568
0001c0 d6 a5 f4 3d 54 42 fb bd 48 67 85 be eb cd 03 bf
       0.11945693 -0.122685105 -0.2605536 -0.5148608
0001d0 f2 ea 39 be 84 e5 5a 3a 5a ba 96 bb 44 bb 2a 3f
       -0.18156031 0.00083502405 -0.0045998516 0.66691995
0001e0 b4 e5 35 3f 0c f0 18 3f 2a a7 51 3f 58 64 05 3e
       0.71053624 0.5974128 0.818957 0.1302656
0001f0 35 a4 ed 3e 55 9f f9 3d 6c d8 66 bd 0b f9 3a 3f
       0.46414343 0.12188593 -0.05635874 0.7303626
000200 a7 e0 06 3f 75 f5 27 3f 7d 3f 3f 3f dc c5 71 3f
       0.5268654 0.6560891 0.7470625 0.94442534
000210 36 a7 9b be 28 2c c2 3d 20 cc 35 3e 6e 0a a1 be
       -0.3040101 0.094810784 0.17753649 -0.3145327
000220 a9 15 b0 bc 7f 49 38 be a3 91 e3 3e f5 b7 cc 3e
       -0.021494703 -0.17996787 0.4444705 0.39984098
000230 2d e4 06 3f 1e 7c 08 be 60 52 83 be 5b f7 64 be
       0.5269192 -0.13328597 -0.25648785 -0.22359984
000240 47 d5 c0 3d 20 53 03 bf 81 6a 69 be 54 f9 2f bf
       0.094156794 -0.51298714 -0.22794534 -0.6873982
000250 b3 e9 7e bf 2f a9 89 be 79 6a cf bf 81 ac 59 bf
       -0.99575347 -0.2688689 -1.6204368 -0.85028845
000260 e6 0e c1 bf e7 87 db 3e 65 9e 67 bc e7 e0 8e 3e
       -1.5082672 0.42877123 -0.014136885 0.27905962
000270 3d 9d f9 3e b2 40 8f 3e 00 1f 12 3e eb 82 14 3e
       0.48752776 0.27979046 0.14269638 0.14503066
000280 2a 5d c3 bd fe c4 36 3e b8 99 24 bd 19 4c f6 be
       -0.09539254 0.17848584 -0.04018566 -0.48104933
000290 e3 0e 51 bc da f3 df 3c 63 bc c1 3e 58 6e 46 3e
       -0.012759897 0.027337957 0.3783904 0.1937803
0002a0 f9 95 b8 bd e8 87 7a 3d ab e4 11 bf 1f ea 23 3e
       -0.0901298 0.061164767 -0.56989545 0.16007279
0002b0 ef 55 11 bd 9d 95 a4 3e 70 22 b6 3e 56 e5 09 3d
       -0.035482343 0.32145396 0.3557315 0.033665977
0002c0 84 c4 7b 3e bf 20 42 bd b0 95 4e be d9 b4 f0 3e
       0.24586684 -0.04739451 -0.20174289 0.47012976
0002d0 fe 84 df bd 4e 49 c9 be df b7 1b 3e 31 7d 1e 3e
       -0.10914038 -0.3931374 0.1520686 0.15477444
0002e0 b7 bc fb 3d cf fd 92 3e 61 25 25 bf 32 7b 95 be
       0.12291854 0.28709266 -0.6451016 -0.29195553
0002f0 1c 58 0c be a0 e1 1d 3f 82 e4 7d 3e b3 cf 6d 3e
       -0.13705486 0.616724 0.247942 0.23223762
000300 b2 ec 5f 3f 01 00 71 3f eb c5 ed 3e d5 ff 3c 3f
       0.87470543 0.9414063 0.46440062 0.7382787
000310 9b d0 9c 3e e5 aa 4b 3e 01 e3 0d 3f cd 78 9d 3e
       0.30627903 0.1988941 0.55424505 0.30756226
000320 16 f1 cf 3e 6c 8a 50 3f 40 40 c1 3e 4f 04 21 3f
       0.4061362 0.81461215 0.3774433 0.628972
000330 a0 34 a2 3e 59 1c 59 3e c2 2b 09 3f ee f9 80 3e
       0.31680775 0.2120222 0.53582394 0.2519068
000340 36 7c a5 be 26 1c c9 3e 27 9c 99 3e c2 1e a6 3e
       -0.32321328 0.39279288 0.30001947 0.3244534
000350 bb c6 ed bd 1f a9 7c 3e a0 6f 1b be fb 3c c8 3d
       -0.116101705 0.2467389 -0.151793 0.09777256
000360 bf 65 27 bf bb 48 5f bf ac 2e f1 be 23 63 99 bf
       -0.6538963 -0.8722035 -0.4710592 -1.1983379
000370 38 3c 6e bf 5d d8 81 bf 8b cc 49 bf 05 26 d2 be
       -0.93060637 -1.0144154 -0.7882773 -0.41044632
000380 60 b2 bc bf ba b2 f4 3e a4 45 24 3e db 88 9c 3e
       -1.4741936 0.47792608 0.16042191 0.30573162
000390 76 de 65 3e 07 89 e0 3e 81 64 39 3f f2 f2 b2 3d
       0.22448143 0.43854544 0.7241898 0.087377444
0003a0 a6 9d 35 be 3d 25 c0 3e 3d 7a b6 3e f9 45 ea 3c
       -0.1773592 0.3752841 0.35640135 0.028597819
0003b0 01 09 8d be e4 18 77 bd a6 27 25 3e b9 66 84 3e
       -0.27545932 -0.060326472 0.16128406 0.2585962
0003c0 08 72 ee be a5 8d 2f bf 89 f3 4a be 90 c8 e5 3d
       -0.46571374 -0.6857551 -0.19819464 0.11219895
0003d0 0f e4 2d 3e 36 5f 06 3e 26 96 cb 3e b6 df 5e 3d
       0.16981529 0.13122258 0.39762992 0.054412566
0003e0 49 c6 81 3e bf a2 06 3e 44 84 05 3d e0 f3 90 3e
       0.25346592 0.1314802 0.03259684 0.28311062
0003f0 00 87 9e 3e 86 93 a1 3d f2 fc 26 3e 40 a7 d6 bd
       0.30962372 0.07889466 0.16307428 -0.10481119

cnn_net.0.bias f4 [16]
000000 c7 53 97 be 49 ca d5 bd 06 84 7f be 9a a7 e5 be
       -0.29556105 -0.104389735 -0.24952707 -0.44854432
000010 dd 96 d2 be ec 7b ea be 55 98 be be 3e bf 38 be
       -0.41130725 -0.4579767 -0.37225595 -0.18041703
000020 9c 15 62 be 31 63 c8 be fa 5d 08 bf 6e d2 14 bf
       -0.22078556 -0.39138177 -0.53268397 -0.5813359
000030 ed c8 ce bd 9d cd d5 be d2 92 c4 be 44 07 7e 3e
       -0.10096917 -0.41758433 -0.38393265 0.24807459

cnn_net.3.weight f4 [32, 16, 3, 3]
000000 bb 12 69 bd 34 cd 07 bf 2d 61 43 bf 52 33 42 3f
       -0.05690263 -0.5304749 -0.76320153 0.7585956
000010 c3 ef 0f 3f d7 f2 18 bf e2 49 b3 3f 43 22 07 be
       0.5622522 -0.59745544 1.4006922 -0.13196664
000020 81 cb 20 be 9d d3 ae be 92 61 b0 bf 17 b6 3a bf
       -0.1570263 -0.34145823 -1.3779776 -0.729341
000030 0c ce 19 3f 4d e2 bc 3d 65 42 4d 3d d7 2f 3b bd
       0.6008003 0.09222851 0.050112147 -0.04569992
000040 8d d2 25 bf 3d 76 13 3d 4e ba 72 3e 3c 91 6c bf
       -0.647744 0.036001433 0.23703882 -0.9240911
000050 93 aa 5a bc 87 d2 10 3f 33 75 ea 3d cf 14 5d 3e
       -0.013346332 0.5657124 0.11448135 0.21589969
000060 cb 86 0b 3f 75 53 83 bf 82 7e b5 bd ba b7 de 3d
       0.5450255 -1.0259844 -0.0886202 0.10874887
000070 24 17 c5 be a8 21 0e bf 9b 49 8d 3f 16 a6 4c 3f
       -0.38494217 -0.55520105 1.1038088 0.7994093
000080 aa d0 57 3d 83 5f 82 3f 2e 04 df be 0e 36 d5 be
       0.052689232 1.0185398 -0.43557876 -0.41642803
000090 73 2e 9d be 9c ab 73 bf d1 5f 7b be 8a 33 4a 3f
       -0.306995 -0.9518373 -0.2454827 0.7898489
0000a0 c8 dd b4 be af ce 79 be ad 0f 5d 3f d1 13 7d bf
       -0.35325456 -0.2439525 0.86352044 -0.9885836
0000b0 85 14 be be c8 af 8a 3e 52 c0 72 3e 24 32 6f bb
       -0.3712503 0.27087235 0.23706177 -0.0036498392
0000c0 65 3e 31 3f cf 0f 2b 3e a5 f0 2d 3e dd 73 2a 3d
       0.6923583 0.16705249 0.1698633 0.041614402
0000d0 11 15 ae 3e 56 93 5f 3e 23 23 ef 3e ac 16 19 3d
       0.34000447 0.21833548 0.46706495 0.037375137
0000e0 f2 ce b9 3d 34 8c 79 3f 9d ef 2c 3e 79 32 3d 3e
       0.09072675 0.9747956 0.1688828 0.18476285
0000f0 47 62 11 3f 7c 2e 74 3d 07 de 6a 3d 85 8b cd 3d
       0.56790584 0.059614643 0.057340648 0.10036377
000100 ca 1f 16 3f 87 c3 c0 bd b3 ae 1a 3f 03 7e 2f 3f
       0.58642256 -0.09412294 0.6042282 0.68551654
000110 6a 93 40 be c8 0c 1a 3f 3c 4e 9d 3e 2e b1 b7 be
       -0.18806234 0.6017575 0.3072375 -0.35877365
000120 6e ff a6 be d2 36 85 3e db fb 67 be bd c2 89 3e
       -0.32616752 0.26018387 -0.22654669 0.26906386
000130 04 ac 31 3f 5e 01 18 be f4 24 26 3e 71 e9 73 3e
       0.694031 -0.14844272 0.16225034 0.2381952
000140 19 55 9b be f9 92 86 3f 51 fa 79 3b 73 f7 d1 bb
       -0.30338362 1.0513602 0.0038143585 -0.006407672
000150 cb d7 1c 3f b8 da 42 3f ec 73 8b be 0a 8e 36 3f
       0.61266774 0.7611499 -0.2723688 0.71310484
000160 f7 25 77 3d 90 df 99 be 78 f4 0e 3f 36 8a 75 be
       0.06033894 -0.30053377 0.5584178 -0.23978505
000170 35 bb 1f 3c fb 59 4f 3f d9 43 82 be 2c 42 28 3d
       0.0097492235 0.80996674 -0.2544239 0.04107873
000180 25 df 53 3f fe 19 2c bf c7 99 af bd 76 0c be 3e
       0.82762367 -0.6722716 -0.085742526 0.37118882
000190 59 78 65 bf 03 82 2a bf 58 c0 8c 3f a4 ab 55 3e
       -0.8963676 -0.6660463 1.0996199 0.20866257
0001a0 cc 39 71 3d 9b ad 87 3f 13 6d f8 be 27 29 9d be
       0.05889301 1.0599855 -0.48520717 -0.3069546
0001b0 e5 da da 3e 6b ed 06 3f 52 20 69 3e 23 02 14 3f
       0.42745128 0.5270602 0.22766235 0.5781576
0001c0 2e 9c 7c 3e f8 8f d9 bc fc 88 8c 3e ae 8d a9 3e
       0.24668953 -0.026557907 0.2744826 0.33115906
0001d0 c8 59 78 3e 89 04 84 3f af ff 34 bf ef 27 c6 be
       0.24252999 1.0313884 -0.7070264 -0.38702342
0001e0 e0 1f c7 3f 30 0d 51 3f b4 ea d7 bd 67 86 8d 3f
       1.5556602 0.8166075 -0.10542813 1.1056641
0001f0 55 82 02 bd 92 3b 3c 3e cb c2 b9 be a7 39 4f be
       -0.031862576 0.183821 -0.36281428 -0.20236836
000200 88 43 59 be 12 55 86 be f1 d7 b0 3e 40 87 b0 3e
       -0.21217167 -0.26236778 0.3453975 0.34478188
000210 69 60 34 3e 02 e3 31 3e 6b 83 a9 3d e7 f5 fb be
       0.17614903 0.17371753 0.08277019 -0.49211046
000220 ba 5c 77 bd 41 c2 a7 3e a5 dd c2 be a5 5f 31 3e
       -0.060391165 0.3276539 -0.38059726 0.17321642
000230 a7 41 8c bc cd 43 62 bf 3d e3 eb bd 08 02 09 3f
       -0.01712115 -0.88384706 -0.11517952 0.53518724
000240 0b 9d 5e be 8c 75 da be 0d 37 2e bf 8e 86 20 3e
       -0.21739595 -0.42667806 -0.6805275 0.15676329
000250 65 54 f3 3e e3 6c 1a 3d 5a e8 74 3e b7 28 bc 3e
       0.47525325 0.0377015 0.2391676 0.36749813
000260 39 ac 7c 3d 77 9d 2d be cc 8c 08 3f a3 c9 89 bc
       0.06168768 -0.169546 0.5333984 -0.01681978
000270 c7 b8 cf 3e 0a 76 c1 3e 35 fa 8a be b4 8b a0 3e
       0.4057066 0.3778537 -0.27144018 0.31356585
000280 5d 9b 24 3e 4a 14 60 3d 79 b8 ef bd e3 29 72 be
       0.16074891 0.05470685 -0.11705107 -0.23648791
000290 8b d3 50 bc a7 f6 48 3f 9c e6 e9 3e 9e 8a d5 bd
       -0.012745748 0.7850136 0.45683753 -0.1042683
0002a0 7e a6 ca 3e 41 9e 1e 3e a8 51 32 be 37 b0 12 bf
       0.39580148 0.15490057 -0.17413962 -0.5730013
0002b0 b1 a8 79 be 55 35 cf 3a f9 68 ec 3d b3 8d c7 bc
       -0.24380757 0.0015808741 0.115434594 -0.02435956
0002c0 47 80 ab be 60 b5 52 3d 8c 5b 92 3e 38 7f 31 3e
       -0.33496305 0.051442504 0.2858547 0.17333686
0002d0 a2 63 68 be e3 6c 91 bd 2b 8d be be 84 90 e0 3e
       -0.22694257 -0.071008466 -0.37217078 0.43860257
0002e0 5d 94 d3 3b 3a 55 e9 be 91 e3 14 3f ae 92 2e 3e
       0.0064568953 -0.45572835 0.5815974 0.17048141
0002f0 59 c7 11 bd 3e 34 a9 3d 00 2a 11 3e f8 72 15 3e
       -0.035590503 0.082619175 0.14176178 0.14594638
000300 36 36 4b 3e 47 cc 12 3e 1f 40 37 3e b7 ca 80 be
       0.19844899 0.14335738 0.17895554 -0.2515466
000310 06 9f 38 be 28 91 2c 3d d5 2e d9 bd a3 47 43 3e
       -0.18029413 0.04213062 -0.106046356 0.19070296
000320 ba f5 be 3e 00 1a 07 3e 39 2b 09 3e e4 85 c3 3e
       0.3729685 0.13193512 0.13395394 0.38188088
000330 bd 79 6e be 2f 76 69 be 89 d9 e4 3d e7 8c 72 be
       -0.23288627 -0.2279899 0.11174304 -0.23686562
000340 ad d2 a2 3a 41 03 d4 3d ff b6 19 3e 8a e9 4a 3e
       0.0012422405 0.10352183 0.15011214 0.1981565
000350 50 cd 00 be ae 21 ab be 78 fe 54 bd 61 ef 0d 3f
       -0.1257832 -0.33424133 -0.052000493 0.5544339
000360 7a 7e 74 bd 40 7b ef bc f3 92 fe 3d 42 e5 66 3e
       -0.05969093 -0.029233575 0.12430372 0.22548392
000370 d8 5d 40 3e 85 4c 51 3d 02 8b 8d 3c fd 82 53 3e
       0.18785799 0.051098365 0.017278198 0.20655437
000380 3b a8 ef 3d 07 37 51 be c4 d9 83 3d ae be 61 3d
       0.11702009 -0.20431148 0.0643802 0.055113487
000390 b1 29 b9 3e 3b 08 cb 3e 06 8e d7 bb 9a f3 8d be
       0.3616462 0.39654717 -0.00657821 -0.27724916
0003a0 12 67 0c 3e f3 35 95 3e 2c b8 b6 be 2c c1 c3 bd
       0.13711193 0.29142722 -0.35687387 -0.09558329
0003b0 70 67 03 be c0 82 d7 3e ed b2 2c 3e 1c 17 0f 3d
       -0.12832427 0.42091942 0.1686513 0.03493415
0003c0 a0 f5 c0 bd 02 3c 06 3e e8 c6 c1 3c 1a 38 ac 3e
       -0.09421849 0.13108829 0.023654416 0.33636552
0003d0 ec 57 85 3e a7 55 a2 be 60 fd eb 3e ef ae b8 3e
       0.26043642 -0.31705973 0.46091747 0.36070964
0003e0 80 cc a8 be f0 f4 0d be 1b b6 e3 3e bc 46 91 3e
       -0.3296852 -0.13862967 0.44474873 0.2837428
0003f0 a8 52 c9 bb 99 eb ff 3d a0 28 7a 3e 7d 5d e2 3d
       -0.0061438866 0.124961086 0.2442956 0.11052988

cnn_net.3.bias f4 [32]
000000 90 cf 2a bd 00 9b 78 3d 96 70 7f be fe 5a 12 be
       -0.041701853 0.060694695 -0.24945292 -0.14292523
000010 43 3c cb be b1 57 71 3c 9c ec 97 bd 92 59 d1 be
       -0.39694414 0.01473038 -0.074181765 -0.4088865
000020 60 b8 be bd 8c 9e 0b bf 6f 77 d3 3c d7 c2 eb be
       -0.093125105 -0.545388 0.025813786 -0.46047089
000030 98 b2 ae be 8f 9a f3 3c aa b7 10 be d4 f5 21 3e
       -0.3412063 0.029736785 -0.14132562 0.15816432
000040 43 f1 1e bf ee e6 b4 bd aa 47 2e be 57 c5 8c 3c
       -0.62086886 -0.08833109 -0.17019525 0.017183943
000050 82 83 1f 3c 63 4d 17 3c c2 c5 4c 3d 5e 2b c8 bc
       0.009735944 0.009234759 0.049993284 -0.024434742
000060 56 99 f7 bd bf bf 46 3d 8a ba 7a 3d 3e 3a 93 3a
       -0.120897934 0.048522707 0.061213054 0.0011232567
000070 14 fd 3a 3d c5 76 17 3f f8 b1 26 be ae c9 a0 bc
       0.04565151 0.591656 -0.16278827 -0.019627418

hidden.weight f4 [32, 128]
000000 fb db a8 be a6 83 4b be 00 02 a3 be e2 7e e1 bd
       -0.32980332 -0.19874439 -0.31837463 -0.11010529
000010 43 45 af bd 17 a3 42 bd d0 aa d6 3c e8 49 10 3e
       -0.085581325 -0.047518816 0.026204497 0.14090693
000020 4c 62 e6 3d f8 fb 49 3e b6 cb 82 3e 85 93 a8 3e
       0.112492174 0.19725025 0.25546044 0.32925048
000030 67 5e e9 3d 75 f7 56 3d f9 30 cb bd 31 1e af 3d
       0.11394959 0.052482087 -0.0992145 0.085506804
000040 44 64 04 be d3 96 6c be 3a bd 28 bd d7 31 f2 3d
       -0.12928873 -0.2310441 -0.041196086 0.118259124
000050 fc 0c 0a 3e e4 3a d8 3d 3f e3 25 bd da d7 0f bc
       0.13481516 0.105581075 -0.040499922 -0.00877949
000060 e0 6c c4 bd 5c 6b 02 be f7 95 28 be 49 fc 91 3d
       -0.09591079 -0.12736267 -0.16463457 0.07128198
000070 23 a9 5f be 99 36 7b be 0f ec b7 be b3 fe 95 be
       -0.21841864 -0.24532546 -0.35922286 -0.29295883
000080 18 9e ce 3d de 50 fa 3d 0e 32 40 3e 0f 7b 69 be
       0.10088748 0.122224554 0.18769094 -0.2280085
000090 47 65 ea 3c 37 ce 83 be e6 c6 6b be 65 3a 6f be
       0.028612746 -0.25743267 -0.23025092 -0.2336212
0000a0 d8 71 14 3d 93 ed 37 3d 90 de a0 3e 52 48 b6 3c
       0.036241382 0.044904303 0.31419802 0.022251282
0000b0 a7 f6 29 be cb 91 56 3f 75 59 6f 3e d7 8d 49 be
       -0.16597997 0.8381621 0.23373969 -0.19683014
0000c0 86 8f c3 bd c8 fc 9f be 2e fb e1 be dd c3 9c be
       -0.09548859 -0.31247544 -0.44136947 -0.30618182
0000d0 34 a0 02 be 9c bd 03 3e f9 7f 50 be b4 df 58 bc
       -0.12756425 0.12865299 -0.20361318 -0.013236929
0000e0 00 53 25 3e 0e ad 43 3e 59 52 d3 3c d1 df 10 be
       0.16144943 0.19108984 0.025796102 -0.14147879
0000f0 3d 4d 02 be 9a 78 f7 3d 66 65 e5 3c cf 4a 21 3e
       -0.12724777 0.1208355 0.028002452 0.15751193
000100 ec 67 d0 3e 7b 4e b3 3e b7 88 8c 3e 89 7a d4 3e
       0.40704286 0.35020813 0.27448055 0.41499737
000110 2d 31 89 be 2b 05 5f 3e 9a 22 95 3d e3 1c 69 3d
       -0.2679533 0.21779315 0.0728199 0.056912314
000120 42 c3 b5 be 0d f3 34 3e 1d af 4b be 6f 0b 85 bd
       -0.35500532 0.17670842 -0.19891019 -0.064963214
000130 ea 42 5c 3c 20 6c 0c 3e 58 c3 3f be 17 2f 84 bd
       0.013443688 0.13713121 -0.18726861 -0.06454294
000140 2b c3 2a 3d e5 b6 23 3e 6c 31 f3 bb c0 69 68 be
       0.041690033 0.15987737 -0.007421663 -0.2269659
000150 61 52 35 bd 30 e2 58 3d 1a 80 d4 3d 5e 38 52 3e
       -0.044268016 0.052950084 0.10375996 0.20529315
000160 bb 58 1d be ad 96 46 3d 9c 96 a5 3e 4c f0 63 bd
       -0.15365879 0.04848354 0.32341468 -0.055649087
000170 28 92 a0 be 8d 0d 33 be a6 a4 0b be 6d 1a 38 be
       -0.31361508 -0.17485638 -0.13637027 -0.1797883
000180 f0 44 ed 3d bf c4 9b 3e 18 8c 08 3e ee 1d 13 3e
       0.115854144 0.30423543 0.13334692 0.14366886
000190 bf 48 7a bb 0c 58 69 3e 7f 1b 1f bc 86 af 35 3c
       -0.0038190333 0.22787493 -0.009711145 0.011089211
0001a0 5d 8b b2 3d 40 98 47 3e d9 05 8f 3e a3 42 ee 3d
       0.08717988 0.19491673 0.2793415 0.11633804
0001b0 3f 22 1a be 1b 23 13 3e e5 4b 86 3d 89 9a 5a bd
       -0.15052126 0.1436886 0.065574445 -0.053370032
0001c0 1e 02 ac 3c f3 b3 67 3e 5b 1e f9 3d 4c 19 21 3d
       0.020997103 0.22627239 0.12163993 0.039330766
0001d0 4f cd 38 bf 8f e7 a6 bd 1e 4e 71 3e e1 4d 7a bf
       -0.72188276 -0.08149635 0.23564956 -0.97775084
0001e0 e4 c5 bf 3e 09 3f 50 3e 2d a3 a6 3d ee 4d 07 3e
       0.37455666 0.20336546 0.08136592 0.13213322
0001f0 e4 47 ab bd 13 40 9e be 38 b0 a9 be 00 5f ac be
       -0.083633214 -0.3090826 -0.33142257 -0.3366623
000200 cc cf 7d bd 8e a0 b7 3d 8b c7 7e 3b d8 d5 b8 3b
       -0.06196575 0.0896617 0.003887626 0.0056407265
000210 92 1e 2f 3e 9b 34 2a be 63 60 98 3c 2e c5 a1 3d
       0.17101505 -0.1662163 0.018600648 0.07898937
000220 1d 0d 55 bd 53 47 73 be 30 5a 2a be 0c 6d b1 be
       -0.05201446 -0.23757677 -0.16635966 -0.3465351
000230 47 4b c6 bc c4 fc 7e be 61 37 b4 bd ba 81 34 3e
       -0.024205817 -0.2490111 -0.08799625 0.17627612
000240 ad e5 df bc 52 00 98 bd 2c 7f a4 3c db b7 89 be
       -0.027331198 -0.07421936 0.020080172 -0.26898083
000250 4c fc 5d 3d 67 a8 13 3c 11 de e4 3d 46 e4 f4 bd
       0.054195687 0.009012318 0.11175168 -0.11957602
000260 b4 09 cb bd de ad 4c 3c c6 61 d0 bd 1a 2a 12 3e
       -0.0991396 0.012492625 -0.10174899 0.14273873
000270 80 78 c1 bd dd b7 37 3e 40 39 2c 3e 80 0c a0 bd
       -0.09446812 0.17941232 0.16818714 -0.07814884
000280 81 58 54 bc 28 29 dc 3d a4 45 56 bd 2a 5f 35 bd
       -0.012960554 0.107500374 -0.05231251 -0.04428021
000290 0b 98 a8 3c c8 31 af 3d 4b 3a 79 3e 6d 8b 90 bc
       0.020580312 0.08554417 0.24338643 -0.017644608
0002a0 b3 9d e3 bd 11 0e e9 3c b9 53 26 3d bb 08 d6 bb
       -0.11114063 0.02844909 0.040607188 -0.0065318025
0002b0 76 b1 1d 3e ed 41 0c 3d e3 a4 8e 3d d9 fb 39 bd
       0.15399727 0.03424256 0.069650434 -0.045406196
0002c0 4d 2a 9d bd 00 cd 59 bd 62 cd a0 bd f7 bc 07 bd
       -0.07674084 -0.05317402 -0.07851674 -0.033139195
0002d0 59 0c d1 be a8 d3 12 3e 88 e9 33 be f7 fe 88 3b
       -0.40829733 0.14338553 -0.17569554 0.004180785
0002e0 b5 6c 8e be 76 66 e2 bc c8 c1 52 bc ed fd 7c bc
       -0.27817312 -0.027636748 -0.012863584 -0.0154414
0002f0 09 07 85 bd b9 66 1a be 41 d6 79 3d 84 3b 54 bd
       -0.064954825 -0.15078248 0.060995344 -0.05181457
000300 ee 05 4f 3d a8 2a 6a bd 98 5c 64 bd e9 57 59 be
       0.050542764 -0.057169586 -0.055752367 -0.21224941
000310 93 74 ad bd 4a b0 0c be 26 ae 6c bd a0 fc 36 3c
       -0.084695004 -0.13739124 -0.05778327 0.011168629
000320 f5 74 70 bc f1 99 54 3d f8 12 27 be 7b b7 43 3e
       -0.014676322 0.051904622 -0.1631583 0.19112961
000330 da 00 fd bc f0 ca bb 3d 37 43 1c 3e 54 96 49 3c
       -0.030884195 0.09169567 0.15260015 0.012303907
000340 62 2f d5 3d eb 9a b7 bb 62 59 97 3c 7a 4b e6 bd
       0.10409428 -0.0056031845 0.018475238 -0.11244865
000350 08 25 42 bd e6 9b 36 be cd 67 25 bd ee cd 23 be
       -0.047398597 -0.17832908 -0.040382195 -0.15996525
000360 25 95 38 bd 41 f5 6d bd b2 66 31 3e 36 c5 ac 3c
       -0.04506411 -0.05809522 0.17324331 0.021090131
000370 0a 52 c7 bd e2 72 60 bc e5 77 82 be e0 df d1 bd
       -0.097324446 -0.013699265 -0.25482097 -0.10247779
000380 74 f3 bd bd 20 1d 55 3d 53 b1 91 3b e6 a2 ac bd
       -0.092749506 0.05202973 0.0044461875 -0.08429508
000390 f9 37 26 bd c6 ef 57 be 0a 81 72 bd 96 ce cc bd
       -0.040580723 -0.2108756 -0.059205092 -0.10000341
0003a0 1f d7 8b 3e ad da 3c bc 4f 0b c2 bb fe db 63 bd
       0.27312562 -0.011526746 -0.0059217582 -0.055629723
0003b0 07 76 b5 be ff 8a d0 bc b2 8c 99 3d e8 21 3b b9
       -0.3544161 -0.025456904 0.074975386 -0.00017846341
0003c0 ed 96 ff bb 75 81 67 3e 9b a2 c1 3d df 5b 94 bd
       -0.007799974 0.22607978 0.09454843 -0.072440855
0003d0 ff 75 c4 3d e8 16 bd bd ca a1 2f bd 1a 25 4e 3e
       0.095928185 -0.09232885 -0.042878903 0.2013134
0003e0 27 00 45 3e ce eb ac 3d c6 bb 02 be 86 76 5d be
       0.1923834 0.08443414 -0.12766942 -0.21627244
0003f0 31 59 a3 bd cf 6f 57 3e c0 db 7f 3c 02 cd 09 be
       -0.07975996 0.21038745 0.015616357 -0.1345711

hidden.bias f4 [32]
000000 c5 1a f8 bd e9 f1 54 bc b8 97 33 be e7 90 2a be
       -0.12114481 -0.012997129 -0.17538345 -0.16656838
000010 af 78 6a 3e 4a 40 70 3e 03 55 2a be da fd 9d bb
       0.228976 0.23462024 -0.16633992 -0.004821521
000020 b4 4f b9 bd 10 36 30 be ab 24 38 be a7 74 5b 3e
       -0.09048405 -0.17208123 -0.17982738 0.21431218
000030 88 d6 25 be fa f9 28 3e ef 4e 43 be 56 0c 6d 3e
       -0.16195118 0.16501608 -0.1907308 0.23149237
000040 65 09 62 3e 1c 16 0c be 27 b8 99 bd dd cb a9 be
       0.22073896 -0.13680309 -0.075058274 -0.33163348
000050 3f ca 50 3e 4f 72 47 bd 37 7b 5d 3e c0 15 49 bd
       0.20389651 -0.048692998 0.21629034 -0.049093008
000060 71 c0 77 bd f2 5f f4 bc 5e f0 32 be 5c 96 0b 3e
       -0.06048626 -0.029830907 -0.17474505 0.13631576
000070 35 d4 62 3e 00 00 00 00 00 69 aa be 99 b8 6c 3e
       0.22151263 0.0 -0.33283234 0.23117293

out.weight f4 [1, 32]
000000 a7 b6 00 bf 51 ad 2a be e0 1e 96 be 24 b9 05 be
       -0.50278705 -0.16667677 -0.2932043 -0.13058907
000010 ac 85 9e 3e f0 67 05 3f 0b 1a d8 be 13 04 60 bd
       0.3096136 0.5211172 -0.4220737 -0.054691385
000020 30 f6 29 40 50 1b 88 be da 00 09 be 14 9a 10 3e
       2.655651 -0.26583338 -0.13379231 0.14121276
000030 7e 08 8a be 6b cf 18 3e fa 60 0d bf 98 6a c7 3e
       -0.26959604 0.14922874 -0.552261 0.38948512
000040 11 51 8a 3e a6 3d 22 40 f5 de 34 40 0b 21 d8 bf
       0.27014974 2.5350127 2.8261082 -1.6885084
000050 27 27 9f 3d fd 62 3c 40 9b 10 0c 3e 58 26 44 40
       0.077711396 2.9435418 0.1367821 3.0648403
000060 4b 7c 3e 40 24 e4 ea 3d b5 f0 00 bf cc 6d 63 bc
       2.9763362 0.114692956 -0.5036729 -0.013881158
000070 d6 32 47 3e 9f 78 a6 3e 71 31 d8 bf 13 c3 b6 3e
       0.19452986 0.32513902 -1.6890088 0.35695705
