train_history/olympics-wrestling/11_29_11_29/actor.pth (torch, 48200 bytes, 14 tensors)

encoder.0.weight f4 [8, 4, 3, 3]
000000 89 40 e2 be 6a 82 f1 3d 6d cc 37 3e 5d 2e 00 bd
       -0.4418986 0.11792453 0.17949076 -0.031294215
000010 7a 37 0c be 29 be a8 be 0a c1 b2 be 4e 02 0a bb
       -0.13693038 -0.3295758 -0.34912902 -0.0021058503
000020 9f ac 18 3e a5 80 0a be e1 4e d7 bc 05 a2 c8 3d
       0.149096 -0.13525636 -0.02628273 0.09796528
000030 01 8b aa be 6c e1 05 be 79 a9 cd bd a1 41 60 bd
       -0.33309177 -0.13074273 -0.1004209 -0.05475009
000040 30 3e 1d bf b0 7b dd bb 68 96 f3 3d 51 ae 1b 3d
       -0.61423016 -0.0067591295 0.11893922 0.038008038
000050 9b 5a ff bc 5a ed 32 be a6 66 8a 3e 56 01 cd 3e
       -0.031171134 -0.17473355 0.2703144 0.40040082
000060 45 72 a9 3e ae 58 d6 3e 3b 00 1f be 60 18 f7 3d
       0.33094993 0.41864532 -0.15527432 0.12065196
000070 ac a2 32 3e 96 fe 56 be 7b cc c1 3a 29 2f 3e 3e
       0.17444867 -0.20995554 0.0014785671 0.18572678
000080 d6 f7 20 3e be c5 4f bd ee 36 cb be 9a ed 43 be
       0.15719542 -0.05072569 -0.39690346 -0.19133607
000090 cd 1c bb 3d 4f 98 9b bc aa c0 d6 be 0e 15 9b 3d
       0.09136353 -0.018993525 -0.41943866 0.07572375
0000a0 85 fc cf 3e 0d e5 71 be 96 d0 a8 3d 29 e4 d7 bd
       0.40622345 -0.23622532 0.082429096 -0.10541565
0000b0 6a 7f ac 3e 4a 10 0f 3f 99 6a 96 3d 8c 3c 61 3e
       0.3369096 0.5588423 0.07344551 0.21995753
0000c0 9e e4 1e bd 54 42 98 3d b1 b0 60 3e 07 81 d7 bc
       -0.038792245 0.07434526 0.21942402 -0.026306642
0000d0 5f 13 38 bd d0 ca 0d 3f 49 de 06 3e 2a 84 eb be
       -0.04494035 0.5538759 0.13170733 -0.4599927
0000e0 2d 10 c3 3d f3 32 c8 3d 4a 73 94 3e 1d d2 10 3d
       0.0952457 0.09775343 0.2899421 0.03535663
0000f0 35 09 11 3e 4c 38 87 3e 99 7d f3 3c 2f c2 46 be
       0.14163668 0.2641014 0.029722976 -0.19410013
000100 14 02 1b 3e d6 c4 59 bb e1 60 8a 3e 62 18 33 be
       0.15137511 -0.0033228896 0.27027038 -0.1748977
000110 89 73 1e bc 9d 17 1b bc cf 17 c4 3d 63 7c 2f 3e
       -0.0096711 -0.009466079 0.09574854 0.17137294
000120 98 45 1e be 26 69 bd 3e af 30 4e 3e 16 3a c0 3e
       -0.15456235 0.36994284 0.20135759 0.37544316
000130 92 6b 8c 3e db a5 02 3d 0a 33 cb bd d1 e5 8c 3e
       0.2742582 0.031896453 -0.09921844 0.27519086
000140 00 7b d1 3c d5 9c 1a 3d 92 05 30 3d 15 37 29 bf
       0.025571346 0.037747223 0.042974062 -0.66099674
000150 54 a1 8c bd 33 e3 b6 be 5c 77 94 3d fb 51 68 bb
       -0.068667084 -0.35720214 0.072493285 -0.0035449255
000160 d6 04 f8 3d ee dc e7 3b a9 73 bf 3d 07 d2 ff 3e
       0.121102974 0.0070758974 0.09348232 0.49964926
000170 41 b3 68 be 72 bb 1f 3e cc 7a a1 3e 0f 03 9d bd
       -0.2272463 0.15598848 0.31539 -0.07666599
000180 45 86 0f 3e 06 d3 43 3e 11 f0 5a 3e b4 4f 03 be
       0.14016064 0.19123468 0.2138064 -0.12823373
000190 c2 44 9d 3d a7 7e 6e 3e c9 80 31 bd 58 15 70 be
       0.0767913 0.23290502 -0.04333571 -0.23445642
0001a0 ed 5f 99 3d 93 e8 9f 3d b7 33 09 3e 9d 9b c8 3e
       0.074889995 0.07808032 0.13398634 0.39181224
0001b0 13 6e 25 3e 44 8b 76 3e 67 73 a7 bd 06 7e 40 3d
       0.16155271 0.24076563 -0.08176308 0.046995185
0001c0 e0 dd d4 3e cb 6a e0 3d 32 3e 83 3e 66 6f 0a 3e
       0.41575527 0.10957869 0.2563339 0.13519058
0001d0 94 b6 f0 3c 55 d3 c2 be 94 e2 4e 3e 65 a9 e5 3d
       0.029383935 -0.3805186 0.2020362 0.1121395
0001e0 84 95 8e be 45 c8 cb bd 40 08 b9 be 58 86 13 3d
       -0.27848446 -0.09950308 -0.36139107 0.036016792
0001f0 b3 98 fd 3d 36 12 3d 3e e7 48 2c 3e 16 0e 89 3d
       0.12382641 0.18463978 0.16824685 0.0669214
000200 73 9a 3a 3e 95 3b 38 bf 13 73 a5 be 35 24 96 bd
       0.1822298 -0.71965915 -0.32314357 -0.07331125
000210 a2 06 cb bd ad 42 d3 3e 21 e7 bc bd d8 27 b0 3d
       -0.099133745 0.41261807 -0.09223772 0.086013496
000220 dd bb 48 be 21 79 dd 3c 12 5b 49 bc 6f 70 9c be
       -0.19602914 0.027035298 -0.012289779 -0.3055453
000230 77 63 a3 be 67 04 c3 bd 19 d4 07 be 71 d4 00 3c
       -0.31911823 -0.09522324 -0.13264503 0.00786315
000240 50 71 97 3d 96 81 cd bd 26 96 10 3e b8 7f f1 3e
       0.073946595 -0.10034482 0.14119777 0.47167754
000250 39 1d ef be 36 16 14 3e 86 17 4e 3e 73 b1 84 3d
       -0.46701983 0.14461598 0.20126161 0.06479158
000260 84 69 ff 3d ef d8 90 bd 5b 85 62 3e db cd 53 3e
       0.124712974 -0.07072627 0.22121184 0.20683996
000270 1a cb e9 bb 82 45 59 bd fd 63 b9 3c c3 64 da 3d
       -0.0071348073 -0.053044803 0.022630686 0.1066375
000280 30 73 d3 3d 58 6e 49 3d d8 19 04 bf 14 99 01 3e
       0.10324705 0.049177498 -0.51601934 0.12656051
000290 40 55 23 3f fe 89 c0 bd 08 98 ea 3e 13 93 a9 be
       0.63801956 -0.0940132 0.45819116 -0.3312002
0002a0 40 3e f5 3d 96 88 23 3e 20 66 66 be 4f 5a 20 bd
       0.11974764 0.15970072 -0.22499895 -0.039148625
0002b0 85 f1 2f 3d 47 48 0d be e6 5a 0c be c7 f1 6e bb
       0.04295494 -0.13797103 -0.1370655 -0.0036460028
0002c0 ac f4 89 3e 92 d4 87 be f6 a5 0a bd 9b e4 a4 3d
       0.26944482 -0.26529366 -0.03384968 0.080514155
0002d0 aa 59 b4 be 95 80 56 3e 8f a0 cc be 0d 00 c7 3d
       -0.35224658 0.20947488 -0.39966246 0.097168066
0002e0 83 64 a5 bd cf 7d 67 3e 8d 16 29 be 5c a8 d9 3d
       -0.08075812 0.22606586 -0.16512509 0.10627815
0002f0 f4 f5 a1 bd fe b8 0f be 71 0f ac bd ec 70 55 3c
       -0.0790824 -0.14035413 -0.08401383 0.013027411
000300 47 ac 21 be 64 c6 87 bd 55 de d9 bd 25 c3 fd bd
       -0.15788375 -0.06629637 -0.106381096 -0.123907365
000310 e0 56 eb 3d ea bb 9d 3e 61 05 bf 3e 41 e4 77 3d
       0.114911795 0.3080743 0.3730879 0.060520414
000320 f5 5d 0e 3e 47 aa e4 3c fc 51 a7 3e a5 ac db be
       0.1390303 0.027913226 0.32679737 -0.42905155
000330 4b f4 cc be 0c fc a3 be 84 36 e2 3e 13 f5 9e bd
       -0.4003013 -0.32028234 0.44182217 -0.07761588
000340 c2 d4 20 be 23 bb 8f bc 27 4e 99 3e 85 31 6f 3e
       -0.1570616 -0.017545288 0.29942438 0.23358734
000350 34 e5 6b 3e 6f a9 40 be 14 c5 98 be 1e fd c3 be
       0.23036653 -0.18814634 -0.2983786 -0.3827905
000360 ae ec 35 3d 58 4f fa 3e 98 37 14 be 66 92 b1 3e
       0.04441517 0.4888866 -0.14474332 0.34682006
000370 6c e4 79 be bb f7 b2 be 52 66 91 3e 39 99 2c bd
       -0.24403542 -0.34954628 0.28398377 -0.042138312
000380 64 88 b4 be 16 1f 07 be e5 74 88 3e 66 6c 5d 3e
       -0.35260308 -0.13195452 0.26651683 0.21623382
000390 16 07 18 3f 77 de 86 be fb 6b d1 3d e7 58 6a ba
       0.5938581 -0.26341602 0.10225674 -0.0008939639
0003a0 10 45 21 3e 73 12 71 bd 45 fa c8 3d 6c 43 61 be
       0.15749002 -0.058855485 0.0981336 -0.21998376
0003b0 32 5c 20 be 97 ff 12 3e 34 5c 69 3d 4b a1 a6 3d
       -0.1566017 0.14355312 0.056972697 0.08136233
0003c0 f5 d6 84 3e d9 82 e2 3d 2e 8b be 3e 0d c0 ea 3e
       0.2594525 0.110601135 0.3721556 0.45849648
0003d0 55 ca 78 3d 55 f2 b2 bc 31 42 1f bd 6c 42 8c 3c
       0.060739834 -0.021844069 -0.038881484 0.017121516
0003e0 c2 2e 59 be 3b 83 5e 3d 51 59 2a be 22 d2 67 be
       -0.21209243 0.05432437 -0.16635634 -0.22638753
0003f0 db 13 75 3d 24 03 c0 be 05 e7 69 3e 9d 2a 60 3e
       0.05983339 -0.37502396 0.22842033 0.21891256

encoder.0.bias f4 [8]
000000 3a f8 1e 3c 44 6b 19 bc 50 22 d9 b7 33 46 8b bc
       0.0097027365 -0.009363953 -2.5884394e-05 -0.017001247
000010 a9 08 4a 36 c0 cd 36 3c 03 6c 08 bb d6 60 c8 39
       3.0105386e-06 0.011157453 -0.0020816333 0.0003821912

encoder.3.weight f4 [8, 8, 3, 3]
000000 32 22 a6 3d e6 b7 d1 be 1a e4 8b 3c ab c6 5e 3e
       0.08111991 -0.40960616 0.01707654 0.21755473
000010 67 0f 40 bc af 0d 52 3e 83 4f f3 bd fc 3d 29 3e
       -0.011722422 0.20513032 -0.118804 0.16527551
000020 f3 2d 20 3d 96 6a 12 3d 03 42 0e bd 01 c0 32 be
       0.03910632 0.03574618 -0.034730922 -0.17456056
000030 86 32 d8 bd 97 0f 6d 3d 9c a3 92 be 02 f5 59 bd
       -0.105565116 0.057876196 -0.2864045 -0.053212173
000040 18 2f 59 3e a4 c9 bf bd 9f e1 16 3d f7 76 84 bc
       0.21209371 -0.09364632 0.036836263 -0.016170008
000050 6d e3 99 bd f3 71 51 3e a4 71 29 be 04 29 c4 bd
       -0.07514081 0.20453624 -0.16547257 -0.095781356
000060 15 1d 3d 3e bb e8 c3 bd 9c 4a 9a be ff c2 07 be
       0.18468125 -0.09565874 -0.30135047 -0.13257979
000070 4c 3e a2 bc 1b e6 3e be d5 3d b9 3d 38 7f 84 3d
       -0.019805096 -0.18642466 0.09044997 0.064695776
000080 82 0b e7 3e 23 de a7 bd 7a 24 da 3d 19 0a 07 be
       0.45125967 -0.08196666 0.106514886 -0.13187446
000090 5b 03 ed 3d 3f 6c 02 be 1d 40 a9 bd c0 21 a4 3c
       0.11572906 -0.12736605 -0.08264182 0.020035625
0000a0 74 e5 8e bd 94 36 ba be e3 82 08 be 7e 3e c8 3e
       -0.069773585 -0.36369765 -0.1333118 0.39110178
0000b0 d6 da 36 be 3a 60 31 3e 7c 0c 9e bc 78 bc 8c 3d
       -0.17856917 0.17321864 -0.019293062 0.06871885
0000c0 66 5b e7 bd b2 d9 c2 3e 72 38 41 bd b2 ff 33 3d
       -0.1129673 0.38056713 -0.04717297 0.043945022
0000d0 64 36 9b 3e 41 c4 04 3b ad 8b a0 bd 94 52 cd 3c
       0.30314934 0.0020258578 -0.07839141 0.02506379
0000e0 ba bf 29 3e 06 99 56 3d 63 1c 3b 3e 53 c6 79 3e
       0.16577044 0.05239203 0.18272547 0.24392061
0000f0 68 a2 05 3e 6d 18 33 be e1 a7 4e 3e 12 f4 05 3e
       0.13050234 -0.17489786 0.20181228 0.13081387
000100 5a f8 2d 3d 0f d1 77 3e b4 2d 11 bd ce 8d 4f 3d
       0.042473175 0.24200843 -0.035443977 0.050672345
000110 a8 3d 87 bd c0 f8 dd 3d 0f 6a bf 3d 4f 2c b1 3d
       -0.06603557 0.10838461 0.09346401 0.08651029
000120 dc c0 91 be 9d e3 80 bd e6 45 93 3e d3 3a 77 bb
       -0.28467453 -0.06293414 0.28764266 -0.003772427
000130 57 dd e3 3b a4 b9 3b 3c 28 30 92 3c 82 aa 8f bc
       0.006953876 0.011457834 0.017845228 -0.01753736
000140 80 30 28 bd e9 9f 60 bd fa d3 70 bd 4b b4 90 3d
       -0.04106188 -0.054840002 -0.058795907 0.07065638
000150 17 04 59 ba 6d fe 75 be 9f 2e 4e 3e dc 04 57 3d
       -0.00082785025 -0.24022837 0.20134972 0.05249487
000160 a2 1a bb 3e e9 48 be ba cb d9 87 bd 58 a7 81 3c
       0.36543757 -0.0014517579 -0.066333376 0.015826866
000170 b2 45 8d 3e 96 68 31 be 12 e9 8a bd 09 6b 4b 3d
       0.27592236 -0.17325053 -0.06782736 0.049662624
000180 74 56 a1 3d 4c 72 08 3d a1 07 63 bd ac 26 25 3d
       0.07877818 0.033312127 -0.055427197 0.040320083
000190 2b 70 a1 bb ae f8 2c be 34 d0 09 3e 77 f5 38 3d
       -0.0049267015 -0.16891739 0.1345833 0.04515597
0001a0 9c b0 54 3d 26 85 b3 bc da bf c2 be 18 78 48 bd
       0.05192624 -0.021914076 -0.38036996 -0.048942655
0001b0 36 fc 4c 3a 1f e1 55 be 3b 64 e3 bc ea c0 3d bd
       0.0007819565 -0.20886658 -0.027757755 -0.046326555
0001c0 00 11 0e 3b bb b7 a3 3e 48 3d 02 3e 54 c0 e6 3e
       0.0021677613 0.31976113 0.1271869 0.4506861
0001d0 75 18 4f 3e 27 17 bb 3e 04 4a 09 3e 58 64 d8 3e
       0.20224173 0.365411 0.13407141 0.42264056
0001e0 7d 0f b0 bd 7a b5 1a be 5e fc 3f bc a1 11 18 be
       -0.08596704 -0.1510829 -0.011717884 -0.14850475
0001f0 6c 65 34 be fa 06 61 be 42 00 20 3e 84 47 22 3d
       -0.17616814 -0.21975318 0.15625098 0.039618984
000200 d6 ee 08 3e a1 b0 ca bd 79 0b 0a 3e a6 71 12 3e
       0.13372359 -0.098969705 0.13480939 0.14301166
000210 bd 45 19 3e 6a da 38 3e 9f 95 49 be ad e9 05 3e
       0.1496801 0.18052068 -0.19685982 0.13077421
000220 fd d4 ec bd e7 04 ca bd 77 28 4d 3d d9 9d 8a 3e
       -0.11564062 -0.09864216 0.05008742 0.27073553
000230 21 45 dc bc 3c b5 21 3d 5a f6 0f be a3 e7 79 be
       -0.026888432 0.03947948 -0.1405882 -0.24404769
000240 bb 9d ef bd 2c 54 86 3d f7 5e 07 bd 37 58 ea 3d
       -0.117000066 0.06559023 -0.03304955 0.11442607
000250 3a cb aa be 48 49 3e be 34 58 eb 3c 60 22 24 bc
       -0.33358175 -0.18582642 0.028728582 -0.010017961
000260 46 10 d9 3c 1c 27 cf bc 4d f7 50 3e 16 ba a3 3d
       0.026497018 -0.025287203 0.20406838 0.079944775
000270 98 1d 1e be ab 9a 0e be 24 21 6a bc 1f 60 9e 3e
       -0.15440977 -0.13926189 -0.014290128 0.3093271
000280 c1 e8 4b bd e0 3c f1 bd 69 68 1e 3e 7f ee 86 bd
       -0.04978252 -0.11779189 0.15469517 -0.06588458
000290 0c 77 e7 3e c0 68 82 be 2e 52 93 be 5d 98 7a be
       0.45208013 -0.25470543 -0.28773636 -0.24472184
0002a0 91 66 15 3e 96 f8 73 be 1b 67 ed 3d 65 18 30 be
       0.14589907 -0.23825297 0.115919314 -0.17196806
0002b0 1a 18 8d bd d6 59 0d 3e 57 00 90 3e 97 46 3d bc
       -0.06889363 0.13803801 0.2812526 -0.011552474
0002c0 6e 4d dd 3d 79 9c 1d 3e 26 55 96 3e b9 fc 29 be
       0.10805784 0.15391721 0.29361838 -0.16600312
0002d0 2b 53 51 be d6 97 e9 3d 29 68 3e bd 7c 42 92 bd
       -0.20441882 0.114059135 -0.046486054 -0.07141587
0002e0 32 4f 03 bd 22 cd 74 be d1 5e 1d 3e 4b e0 cb bd
       -0.03205795 -0.23906377 0.15368201 -0.0995489
0002f0 31 cd 9a bd 3a 92 94 bd bf 17 8b 3e 77 2a 0b be
       -0.075586684 -0.07254453 0.27166554 -0.13590418
000300 26 99 9c 3d 7a 5d c3 bd bb 6f 36 be e8 ec 8f bc
       0.07646398 -0.095393136 -0.1781606 -0.01756902
000310 cc 90 0d 3e dd f5 92 bd 9a 2e c2 3c 34 88 50 bd
       0.13824767 -0.07175801 0.023703862 -0.050911143
000320 1e eb 86 3d 8f 5f 83 3e 2e 63 84 3c b5 39 18 3e
       0.06587814 0.25658843 0.016160574 0.14865763
000330 76 69 19 3e 52 92 41 3d 38 2c 59 be fc 39 4e be
       0.14981636 0.047258683 -0.21208274 -0.20139307
000340 6b b2 e4 3e 8e f0 2a be 21 22 9b 3d 43 60 7e bc
       0.44667372 -0.16693327 0.07574869 -0.01552588
000350 08 be e1 3c c9 d6 29 3d 6a 3c c3 3c a0 6a 1c be
       0.027556434 0.0414646 0.023832519 -0.15275049
000360 ac 07 6b 3e dd 31 8b 3c 7d 51 d3 bd 17 42 2f 3e
       0.22952145 0.01699155 -0.10318277 0.17115055
000370 dd 78 f4 bc 9e e7 97 3d 94 7d 12 3e da fd c9 3d
       -0.029842788 0.07417224 0.14305717 0.098628715
000380 4f 7b c4 bc 38 c9 91 3d 13 e1 f2 be af f2 3f be
       -0.02398458 0.071184576 -0.47437343 -0.1874492
000390 7d 4a 1e be 5a a3 4a be 8a 7a 15 3c 4a 4d 8d bd
       -0.15458103 -0.19788876 0.009123454 -0.06899507
0003a0 c0 aa 1a 3e a6 2b ea 3c e1 4d 21 be b0 1e 7c 3c
       0.15104198 0.028585266 -0.15752365 0.015388176
0003b0 c3 c4 fd bd 9b cf 33 be 4f 0b 12 bd 34 f6 d5 ba
       -0.12391045 -0.17559664 -0.035655316 -0.0016323985
0003c0 02 27 2a 3e ba 9f 31 bd 38 57 00 3e 9a 38 bd bd
       0.16616443 -0.043365218 0.12533271 -0.092393115
0003d0 73 37 c9 bb 26 c1 a6 3e 1b 2e 36 3e b8 ef 29 be
       -0.0061406433 0.32569236 0.17791025 -0.16595352
0003e0 58 ac 0c be d4 4b b0 bd 25 99 eb bd 6e 14 be 3d
       -0.13737619 -0.08608213 -0.115038194 0.092812404
0003f0 b2 b0 8f 3e f9 bc f6 bd 90 4d 7b 3e 82 e7 6f be
       0.28064495 -0.120477624 0.24541306 -0.23428157

encoder.3.bias f4 [8]
000000 d2 f0 3f bc cc d4 ea ba 11 60 8f bb 04 10 21 3c
       -0.011715131 -0.0017916202 -0.0043754657 0.009830479
000010 c0 94 5d 3b 02 81 75 bc af e0 de bb fc a3 31 3b
       0.0033810586 -0.014984371 -0.0068016867 0.00271058

cnn_net.0.weight f4 [16, 8, 3, 3]
000000 cb 5c 0e 3d d5 61 0d 3e b6 29 87 bd b4 a2 6c 3e
       0.034756463 0.13806851 -0.065997526 0.23108941
000010 66 a0 9d be 44 fe 06 bf 35 be 1e 3e 88 1a 5a 3c
       -0.30786437 -0.5273173 0.15502246 0.01331199
000020 e5 d1 5b 3d 04 51 5a be 31 b3 de 3d 72 ec b8 bd
       0.053666968 -0.21319968 0.10874022 -0.09029473
000030 17 ed 91 be ce 5c 3a 3e 56 34 29 3d 77 e5 d1 3d
       -0.28501198 0.18199465 0.041309677 0.10248845
000040 10 b4 a4 bc 82 a3 5d be 39 ad 14 3d 41 eb cf 3c
       -0.020105392 -0.21644405 0.03629801 0.025380732
000050 c3 56 86 3e 70 6b ad bd 1c a0 09 be a6 3a 5e 3c
       0.2623807 -0.08467758 -0.13439983 0.013563788
000060 5d fd 5f 3e 59 92 a5 3d 5e 38 86 3e d9 25 58 be
       0.21873994 0.08084554 0.2621488 -0.21108188
000070 b7 dc cf 3d 3c 14 3e bd 9a 3a c4 bd ce 9f ea bc
       0.1014952 -0.046406016 -0.0958149 -0.028640654
000080 84 52 21 3d 0a 23 72 3d bf cd f3 3d 93 ff 88 3e
       0.039385334 0.059115447 0.11904477 0.26757488
000090 31 9a c3 3d a6 73 82 be 79 8f 81 3e 08 70 08 be
       0.09550894 -0.25478858 0.25304773 -0.13323987
0000a0 14 4e ac be be a1 4a 3e 9c 05 0e bd ea 32 42 bd
       -0.3365332 0.19788262 -0.03467332 -0.047411837
0000b0 76 d2 2c bd 7d c9 9a 3d 97 35 a6 3d 69 cb 67 3e
       -0.0421929 0.07557962 0.0811569 0.22636189
0000c0 59 e8 df 39 ad 4d d7 bc 26 ef 26 3e 10 ec 6a 3e
       0.00042706987 -0.026282156 0.16302165 0.22941613
0000d0 87 b4 86 3e cd fe 1d 3d 83 5e 7f 3e cf 91 35 bd
       0.26309606 0.038573075 0.24938397 -0.044328507
0000e0 43 4d 4c 3d da 4e 66 3e c0 bd ad bd ec ce 6d 3d
       0.04987837 0.22491017 -0.084834576 0.058058664
0000f0 16 65 e1 bd 2b 43 77 bd 14 79 33 3c aa 08 8f 3d
       -0.11005609 -0.06036679 0.01095416 0.069840744
000100 20 a9 3c 3d af 99 df 3d 5a b9 48 3e 58 2f 4b 3e
       0.046059728 0.10917985 0.19601956 0.19842279
000110 2d 2c 7d 3e 08 10 5d be 28 ca ce bc 44 41 0e 3e
       0.24723883 -0.21588147 -0.02524288 0.13892084
000120 24 8f d8 bd cf 2e 2c 3d 50 a7 66 3d db be f2 bd
       -0.10574177 0.042036828 0.056311905 -0.11852809
000130 49 db 3d 3d f2 88 9d bd 82 b4 c9 3e 60 01 47 3c
       0.046351705 -0.07692136 0.3939553 0.012146324
000140 2d d2 a3 3d 81 cb 80 3e 1d 83 63 3b 33 b5 3c be
       0.07999072 0.2515526 0.00347156 -0.18428497
000150 28 45 19 3d d5 e2 55 bc 23 5a 52 3e 57 81 91 3c
       0.03741947 -0.013054569 0.20542197 0.01776187
000160 16 65 38 3d b7 58 7e 3e 61 ca 20 be 63 b3 6a bd
       0.045018278 0.2483853 -0.15702201 -0.057299983
000170 31 2d c4 3e cc e5 28 3d b0 9a 66 bc 89 0b 41 be
       0.38315728 0.041234776 -0.014074966 -0.18852057
000180 e6 6e 6d bb 12 84 16 bb 36 f8 ed 3c bb b9 f3 3b
       -0.003622943 -0.0022966904 0.02904902 0.0074379123
000190 27 fd 3e be b0 28 2f be 1b e5 b9 3d 2d 1b 80 be
       -0.18651257 -0.17105365 0.090769015 -0.25020733
0001a0 65 b4 ed 3d e7 4a 03 3d 55 ff 2e 3d d0 fd 8b be
       0.11606673 0.032053854 0.042723972 -0.2734208
0001b0 77 30 e5 bd 10 55 ea 3d 8a 96 d2 3d 8a e5 13 3e
       -0.111908846 0.11442006 0.10282619 0.14443031
0001c0 d3 34 10 be 3a f1 a2 3e da 74 e6 bd d6 ae 97 3d
       -0.14082651 0.31824666 -0.112527564 0.07406394
0001d0 47 96 79 bd 2e cc f4 3c c4 ad af be a5 bd 9a 3c
       -0.06093433 0.029882517 -0.3431226 0.018889258
0001e0 c9 38 54 3d 8f d7 e9 bd de 3e aa 3d c4 57 7a 3e
       0.051811967 -0.11418068 0.08312772 0.24447542
0001f0 73 d8 90 3e 50 b6 cd be 62 c9 55 be 3b 9a 01 be
       0.28290138 -0.40178156 -0.20877603 -0.1265649
000200 74 a6 2f 3c 89 8a 2d bd 5b e7 3b be 56 4f 8c be
       0.010720838 -0.042368446 -0.18349974 -0.2740428
000210 6c fa e9 3d 1e 24 1f 3d 2f 1f 72 bd 3b 6b e0 bd
       0.11424717 0.038852803 -0.05911177 -0.109579526
000220 1c 0c 10 be 32 a5 5d 3e 70 60 75 be fd 19 61 3e
       -0.1406712 0.21645048 -0.23962569 0.2198257
000230 41 bb 25 be e8 73 da 3d ba ac 82 3e 8f 65 67 be
       -0.16184713 0.106666386 0.25522405 -0.22597335
000240 ec 70 eb 3e 2c f3 59 3e 46 a8 9f 3d 19 a1 9e be
       0.4598459 0.21284169 0.077957675 -0.30982283
000250 c4 2c d6 3e 1e 8d 5f 3e f2 98 27 3e 8d f1 5c be
       0.41831028 0.21831176 0.16366938 -0.2157652
000260 0f 6b 1d be ef af 12 be 0c b5 2b bd 82 b9 b8 bc
       -0.15372871 -0.14324926 -0.041920707 -0.022549395
000270 b6 a8 d2 bd 0d be c1 bd fc fe ee bd 02 b6 29 3d
       -0.10286085 -0.094600774 -0.11669728 0.04143334
000280 d6 37 b3 3d 88 56 34 3e f9 29 ad 3d 57 20 91 3e
       0.08750884 0.17611134 0.08455271 0.28344986
000290 e2 5c 07 3e 5f 30 1e 3d c7 c9 0b be fb af fc 3d
       0.13219026 0.03862035 -0.1365119 0.12338253
0002a0 df 29 e4 bc 19 b2 05 bd 27 56 67 3d 81 c3 d3 bd
       -0.027851997 -0.03264055 0.056478646 -0.10340024
0002b0 34 b4 8d 3d 46 4e 02 3d f7 7a 84 3e ba 68 11 3c
       0.06919137 0.03181293 0.25875065 0.008875066
0002c0 d7 3d 11 be f6 98 0e 3d 4d 0e dd 3c 8a 89 0f 3e
       -0.14183746 0.034813844 0.026984358 0.1401731
0002d0 ae 09 78 3d 50 a7 72 be 4b bd 49 3e 2c 2f 2b 3e
       0.060556106 -0.23696637 0.19701116 0.16717213
0002e0 4f cf b9 3c ea 37 89 3e 22 e2 fb 3d 46 45 eb bd
       0.02268186 0.26800472 0.12298991 -0.11487822
0002f0 e7 c6 80 3e ae 3e 3f 3d 6c 50 f9 3d be 07 50 3e
       0.2515175 0.046690635 0.121735424 0.20315453
000300 1d 59 9b 3b 37 05 eb 3d 46 a7 28 3e 4b e4 cd 3d
       0.0047408477 0.11475604 0.1647006 0.10053309
000310 7a fa 06 3d f2 b5 85 3e 30 10 ce bd b9 d8 a6 3d
       0.032953717 0.26115376 -0.10061681 0.08146805
000320 97 8e 39 bd ac 88 0e be 3e 36 95 be 19 79 3d be
       -0.045302 -0.13919324 -0.29142946 -0.18503226
000330 fd 5f 89 3d 16 bd 2d 3e 59 b9 ee bb 0c ce 28 be
       0.067077614 0.16966662 -0.0072852788 -0.1648485
000340 8e 40 44 3e cc a4 2a be 18 bf 5e be d1 62 b0 bd
       0.1916525 -0.16664428 -0.21752584 -0.08612598
000350 b1 eb e0 bc 66 4f 7a be 91 92 85 be 6b fa a9 bd
       -0.027456136 -0.2444435 -0.26088384 -0.082997166
000360 f8 69 a2 3e 5d 8a 4a bd ba 8e 5c 3d 08 24 4b 3e
       0.31721473 -0.04944836 0.053847052 0.19837964
000370 1e 0f c7 3c f3 06 a0 be e5 ad 97 3c 2a db 6f be
       0.0242992 -0.31255302 0.018515537 -0.23423448
000380 9a bd 1e be c2 3c 9c bd fa 36 9b 3d d2 54 90 3e
       -0.15502015 -0.07628776 0.07578845 0.28189713
000390 92 19 68 3e 8f 72 0b 3d a7 22 f6 3d 2c ab d1 3d
       0.22666004 0.0340448 0.12018328 0.102377266
0003a0 5d b8 3a 3e c2 c2 09 be c0 b2 b6 3e 1b cf 79 3d
       0.18234392 -0.134532 0.3568325 0.060988527
0003b0 ef ba 56 3e db da 33 3d 21 81 ec bd 13 67 13 3e
       0.20969747 0.04390989 -0.11548067 0.14394788
0003c0 3c ed b3 3e fa 5e 16 3e be c0 73 3e f2 4f 05 be
       0.35141933 0.14684668 0.23803994 -0.13018778
0003d0 5e a9 e6 bd 76 fa 2b be c0 e7 95 3e c4 04 03 3e
       -0.11262773 -0.16794762 0.29278374 0.12794787
0003e0 32 c2 b2 3d 11 41 ac 3d d4 aa 3e be 97 47 a5 bd
       0.08728446 0.08410848 -0.18619853 -0.08070295
0003f0 37 2c b8 bd 48 c4 e0 3d cc 48 e4 bc 02 41 da 3d
       -0.08992808 0.10974938 -0.027866744 0.106569305

cnn_net.0.bias f4 [16]
000000 05 84 c7 ba b7 5c 26 3c 3f 23 f8 bb a3 62 9c ba
       -0.001522184 0.010153941 -0.007572561 -0.0011931252
000010 39 9d 50 3b 64 31 40 3b 84 c7 a7 3b 7c 59 f4 3b
       0.0031831993 0.0029326314 0.0051202197 0.0074569564
000020 38 d3 87 bb 5a 63 d2 b7 a8 29 3e 3c 92 0f 25 3c
       -0.0041450523 -2.5080215e-05 0.011606611 0.010074513
000030 b0 7b d9 3a 3c ab 34 3b fe be 16 bc 36 e0 55 bb
       0.0016592648 0.0027567884 -0.0092008095 -0.003263486

cnn_net.3.weight f4 [32, 16, 3, 3]
000000 93 80 90 be 80 21 2d 3e b2 d6 07 be e3 f6 06 3e
       -0.28223094 0.1690731 -0.13265494 0.13180117
000010 0c d0 7c bd 37 09 aa bc 6e 7e 42 3e 45 7d 08 3e
       -0.061721846 -0.020756347 0.18993542 0.13329037
000020 6f 3d c7 3d b1 70 39 bb ea 4e 5e bd 54 28 c4 3d
       0.097285144 -0.002829593 -0.054274477 0.095780045
000030 9d cb 71 3d 0a ec 0a 3d 30 62 77 3d 30 78 13 bd
       0.05903207 0.03391651 0.060396373 -0.03600329
000040 7d 4b 27 be 5c ca dd 3d 94 48 da bd 22 39 dd bc
       -0.1633739 0.108296126 -0.106583744 -0.027004782
000050 16 25 83 bc aa 75 0c 3d 78 ee 5a 3d be fd 10 be
       -0.016008895 0.0342919 0.053450078 -0.14159295
000060 a8 d3 c3 bc 2c f9 85 3c 6f 84 12 be e9 f5 52 bd
       -0.023904637 0.016354166 -0.14308332 -0.05150405
000070 28 e0 1d 3d f6 fa 46 3d 42 49 4b 3e e3 a3 8b bd
       0.03854385 0.04857918 0.19852164 -0.06818368
000080 74 20 14 be da ad a5 3d 9e 14 ae bd 3d ae 1f bd
       -0.14465505 0.080898 -0.08500026 -0.038984526
000090 e3 8e 06 be 3f 30 50 3e 4b 96 d8 3d ea f3 4a be
       -0.13140444 0.20330904 0.10575541 -0.19819608
0000a0 76 20 d6 3d 9e 47 3b be f1 3e e3 3d 76 23 20 be
       0.1045541 -0.18289039 0.110959895 -0.15638527
0000b0 06 81 1d 3e c3 a0 0a bc 29 52 06 bd 30 b0 02 be
       0.1538125 -0.00846118 -0.032793198 -0.12762523
0000c0 4b e0 ad 3d 6f 2c 00 3e 91 31 ee 3d 8d 59 30 3d
       0.08490046 0.1251695 0.11630548 0.043054152
0000d0 f2 31 8f bd 28 72 18 be e5 d4 18 be 46 c7 f2 3d
       -0.06991948 -0.14887297 -0.14924963 0.11854415
0000e0 20 61 0b bc 83 5c a8 3c 4f 79 c7 3d 76 b0 c5 3d
       -0.008507043 0.020551926 0.09739935 0.09652798
0000f0 1e c1 25 bd 3a 14 c9 3d 4a 7e 03 3d 8f 55 ea bd
       -0.040467374 0.09818311 0.03210286 -0.114421
000100 7a 77 28 bd a4 55 d5 3d b2 88 b7 bd 7f 99 f9 bd
       -0.041129567 0.10416725 -0.089616194 -0.1218748
000110 7b 90 7c 3c 82 7e 1e be 36 54 01 bc 54 0f cb 3c
       0.015415306 -0.15477946 -0.007893613 0.024787582
000120 a0 f2 ae 3d 17 54 86 be b2 ae 7f bd 54 35 3c bc
       0.08542371 -0.2623603 -0.06242246 -0.011487324
000130 1a 9d 46 be 6d f3 ab bc 84 17 90 3e 4f 0f 47 3c
       -0.19395867 -0.020990098 0.2814294 0.012149646
000140 f5 b1 97 bd e6 00 3b bd d6 36 dd 3c 21 e7 c3 bd
       -0.074069895 -0.045655154 0.027003687 -0.09565569
000150 d5 74 71 bd 56 dc 19 be fa 8e 47 be 5a b9 b4 bd
       -0.05894931 -0.15025458 -0.19488135 -0.088244155
000160 f9 45 5c 3c 78 4e ab 3d 1d 30 80 bd c9 e5 89 bc
       0.013444417 0.08364576 -0.06259177 -0.016833203
000170 cf 01 0a 3e 95 50 a0 bd 86 e8 05 3d 89 3d 37 3d
       0.13477252 -0.0782787 0.032692455 0.04473642
000180 fc 51 5e 3e 2b 95 ee bd 55 d0 f8 3c d9 57 fb bc
       0.21710962 -0.11649545 0.030372778 -0.030681537
000190 b9 c6 02 be 3b 48 37 bd 03 28 53 be 11 d4 fe bd
       -0.12771119 -0.04474662 -0.20620732 -0.12442792
0001a0 6c 34 30 3e 41 c6 ba bd 63 20 32 bd 7a 24 3e be
       0.17207497 -0.09119845 -0.043487918 -0.18568602
0001b0 df e8 e3 3d b1 88 c0 bc 51 2b 49 bd 17 0b 63 3c
       0.11128401 -0.02350268 -0.049113575 0.0138576245
0001c0 1d 17 9b bd 76 cc 8c 3e 0c 29 79 bd 75 51 8b bc
       -0.07572768 0.2749974 -0.06083016 -0.017006615
0001d0 62 2e 12 3d fa 52 5a 3e 2e 7f a0 3d b0 71 2b 3e
       0.035688765 0.21320716 0.078367576 0.16742587
0001e0 92 a6 52 be 9c a7 a0 bd 76 dd 23 be a0 f3 b5 3d
       -0.20571354 -0.07844469 -0.1600245 0.088843584
0001f0 79 2d da 3d b3 a7 ee 3c 9b 4d 81 be 1c 4d b6 bd
       0.106532045 0.0291327 -0.2525452 -0.08901426
000200 b4 43 3c 3e 5b 2b 62 3e e8 4e 15 be e3 69 10 3e
       0.18385202 0.22086851 -0.14580882 0.14102893
000210 83 67 09 3e 97 0f dd bd 92 e9 8f bc 0e 42 57 be
       0.13418393 -0.10793989 -0.01756743 -0.21021292
000220 9c c5 b2 bc e2 dd 74 bc a9 fe a7 bc 6b cb 25 be
       -0.021822743 -0.014945479 -0.020507174 -0.16190879
000230 73 a6 48 3c 41 90 c2 3d f2 16 15 be a3 c7 6c bd
       0.012246716 0.095001705 -0.14559534 -0.057807576
000240 d0 8f 04 3d fb 8c 34 be e8 59 fd bd 7d 14 87 3d
       0.032363713 -0.17631905 -0.12370664 0.06595705
000250 d5 f7 cb 3b f5 1d 30 3d 9d 57 ef bd 41 09 63 be
       0.0062246122 0.04299732 -0.11686633 -0.22171499
000260 7a 89 ac 3c 08 8f 1a be d8 e3 4e 3d f7 4f a5 3d
       0.021061648 -0.15093625 0.050510257 0.08071893
000270 95 82 28 bd eb de 71 bd 01 db 22 bd 7d 11 e1 3d
       -0.041140158 -0.05905048 -0.03975964 0.10989664
000280 d9 1c e3 3c 06 03 a7 bc 40 8b 03 bc 55 23 f1 3d
       0.027723717 -0.020387184 -0.008028805 0.11774317
000290 82 92 6b be df 69 89 3d 61 2f b4 bc 8c 1e fc 3d
       -0.23005107 0.067096464 -0.021995248 0.12310514
0002a0 f0 45 05 bd 90 6b 0c 3d 9a 90 39 bc 82 f1 11 be
       -0.0325374 0.034282267 -0.01132598 -0.14252284
0002b0 55 19 2a be db b1 72 3e 0b a3 92 bd 35 64 1c 3b
       -0.16611226 0.23700659 -0.07160004 0.002386344
0002c0 51 62 be bc 7e 7e 40 bd 45 57 87 3c 44 4b 44 3d
       -0.02324024 -0.046995632 0.016521106 0.04792334
0002d0 33 5b 43 3e b4 82 7b 3e be 8e 98 3d 5d 2b 25 be
       0.19077758 0.24561578 0.07449101 -0.16129823
0002e0 8f ae f6 3d bb 01 89 3c 74 b9 bd bc 41 0a bc bd
       0.12045013 0.016724458 -0.02315972 -0.09181643
0002f0 62 46 b8 3d a1 d5 25 3e 86 f3 00 3d de 53 fa bc
       0.089977995 0.16194774 0.031482242 -0.03055757
000300 29 90 f9 3c df 0a 11 bd fa 50 7a 3d 17 c9 e8 3d
       0.030464249 -0.035410758 0.06111238 0.1136648
000310 a1 84 27 3d 7f 8b 60 3e d6 ff 19 3e 77 c1 f7 3c
       0.04089797 0.21928214 0.15039 0.030243618
000320 57 a4 8c bd 5c bb 77 bd a9 f4 cd 3d 86 15 57 3e
       -0.06867283 -0.060481414 0.10056431 0.21004304
000330 30 87 95 bd 32 d5 45 3d 73 eb 42 be 0c fc 84 be
       -0.073011756 0.048299022 -0.19035129 -0.25973547
000340 e5 85 c2 3d c0 f4 a5 be 25 e4 98 3d eb 06 0f bd
       0.094981946 -0.32413292 0.0746539 -0.034918707
000350 42 ea ce bd f3 5a 57 3e 53 18 49 bd 88 a4 f0 bc
       -0.10103275 0.21030788 -0.049095463 -0.02937533
000360 bc f1 8a bd 52 22 21 3d f3 7a 60 be 08 6a 1c 3e
       -0.067843884 0.03933937 -0.21921901 0.15274823
000370 f7 ee e8 3b 1c 6f 9f bd 1b 02 0d 3e 61 ab 08 3d
       0.007108565 -0.07784864 0.13770334 0.033366565
000380 85 11 16 3c c9 7d 03 bb 54 bf 3d 3c ef cd ae 3d
       0.00915945 -0.0020063987 0.011581261 0.085353725
000390 ca 88 83 3d 2a 49 83 ba 58 3d ea bd e3 0c 2d 3c
       0.06422575 -0.0010016311 -0.11437482 0.010562154
0003a0 80 a4 4f bd 21 37 74 3d 54 8f 0d 3d 1e 91 1c be
       -0.05069399 0.059622888 0.034560516 -0.15289733
0003b0 6a 59 7a bd e0 c8 f8 3d 15 3a 18 3e 47 16 66 3e
       -0.06112043 0.12147689 0.14865907 0.22469436
0003c0 9a c8 ae bd d5 3d 60 bd 5a 9a a6 bd ff 86 3e 3d
       -0.085343555 -0.054746468 -0.08134909 0.04651546
0003d0 3b 88 4f 3e d5 cd d1 bd 2f a9 72 bd 23 49 58 be
       0.20266812 -0.102443375 -0.059243377 -0.2112165
0003e0 66 5f f2 bb d5 d3 9b bd 6f 9e a3 bd e9 27 b6 bd
       -0.0073966263 -0.07608763 -0.07989203 -0.08894331
0003f0 53 14 99 3d a5 cf 04 bc 87 92 2e be a6 35 05 3e
       0.0747458 -0.008106147 -0.17048083 0.13008747

cnn_net.3.bias f4 [32]
000000 ba 41 92 3a 92 cd 9c 3a c9 44 57 bb 2e 89 a8 ba
       0.0011158504 0.001196312 -0.0032847396 -0.0012858266
000010 cd db 8b 37 f8 1d 8f bb 2b 93 51 ba e4 b2 86 3a
       1.6672444e-05 -0.004367586 -0.0007994647 0.0010276702
000020 df 71 c1 ba a3 48 0c bc 81 02 20 bb 0c 78 e7 ba
       -0.0014758668 -0.00856224 -0.0024415555 -0.0017659678
000030 61 eb 2e 3a 69 22 a9 b9 c5 4b 02 3a f8 9b 3b 3c
       0.00066726474 -0.0003225983 0.0004970397 0.01145076
000040 0e 40 28 bb 65 5c cf b9 65 4b 31 3b fc b8 01 bb
       -0.0025672945 -0.00039550956 0.0027052995 -0.0019794097
000050 a6 59 49 ba fa 32 8f bb fb fa 8a ba 57 29 6b bb
       -0.00076809 -0.0043700906 -0.0010603362 -0.0035882795
000060 6a 6e 6d bb 56 02 eb 3a b3 b2 81 bb ad a6 09 3a
       -0.0036229142 0.0017929773 -0.00395807 0.0005250972
000070 1f 37 ac 3a 7f c7 6a 3b a0 a3 c1 bb 16 73 0a bb
       0.0013138986 0.0035824475 -0.005909398 -0.0021125725

hidden.weight f4 [32, 128]
000000 2d 41 d0 bd 9b f6 c8 bd b9 62 2a bd 4b 03 7c bd
       -0.10168681 -0.09812661 -0.041598056 -0.061526578
000010 ff 41 4d 3e 09 42 48 be 2b b5 8f 3e df 46 92 bd
       0.20044707 -0.1955644 0.28067908 -0.07142424
000020 e2 0e 24 3e 88 37 19 3d 21 de 2c bd 2d 5d 11 3e
       0.16021302 0.037406474 -0.042204026 0.141957
000030 61 71 bc 3c 3a 58 35 bd 84 8a 2d 3d f1 e5 db bd
       0.023003282 -0.044273593 0.042368427 -0.10737217
000040 6a f5 67 be 66 a5 92 bd 57 a1 d9 3d 39 d0 27 bd
       -0.22652212 -0.071604535 0.10626476 -0.04097006
000050 7b fa b5 bd ef ad 14 be 7e 8f 9c 3d 09 7a db bd
       -0.08885666 -0.14519475 0.076445565 -0.10716636
000060 5b 27 7b be ee 0c 40 3d ab aa 3a be 20 d8 9a bd
       -0.24526732 0.04688733 -0.18229167 -0.07560754
000070 9e 93 88 3d a8 16 24 3d 30 0f 3c bd 8e 6b 32 3c
       0.06668781 0.04006067 -0.04591292 0.010889901
000080 9f fc 1e be 2e 2c 03 be bd 31 3d be 52 f7 33 3e
       -0.15526055 -0.12809822 -0.18476005 0.17574814
000090 bb 8e 0a be bc c7 66 3d 21 79 8c bd 2f 99 76 3e
       -0.1353101 0.056342825 -0.06859041 0.24081872
0000a0 47 85 e7 3d 81 45 1b 3d b6 37 95 bc ca 65 94 bd
       0.113047175 0.03790808 -0.018215042 -0.07245977
0000b0 48 e0 9d bd 70 a1 8b be e7 6d 45 be 97 e6 e0 bc
       -0.07708794 -0.27271605 -0.19280206 -0.027453704
0000c0 30 5d 07 3e f6 45 d9 bd d9 16 2e 3e d0 02 84 be
       0.13219142 -0.10609047 0.17000903 -0.25783396
0000d0 15 41 74 bd 50 6b ff bc 28 61 de 3d 11 a6 c5 bc
       -0.05963238 -0.0311791 0.10858375 -0.024127038
0000e0 b3 28 84 3d 41 d0 41 be 84 57 a9 bb c3 25 1d be
       0.06453075 -0.18927099 -0.0051679034 -0.15346436
0000f0 dc fc 03 be c4 07 17 be c0 f6 e0 3d 4a 1d 84 3c
       -0.12889427 -0.14749056 0.10984564 0.016127247
000100 4a 3c b5 3d 1e c2 50 bd 78 19 af bd 13 19 07 be
       0.0884939 -0.050966375 -0.0854978 -0.13193159
000110 85 0d ef bd 51 3e 1b 3d 5d 0e 30 bc c9 c6 63 bc
       -0.116725005 0.037901226 -0.010745612 -0.013902375
000120 6e fd 83 3d bf 99 e8 3d 19 77 62 be da 0f f9 bd
       0.06444822 0.1135745 -0.22115745 -0.121612266
000130 8d 6f 97 bc 46 20 ef bd bf 94 ef 3d 34 c7 4b 3e
       -0.018485809 -0.116760775 0.11698293 0.19900209
000140 e0 85 27 bd 45 0d e1 3d bd 91 55 3e 62 cd c7 bd
       -0.040899158 0.10988859 0.20856376 -0.097559705
000150 cf 72 ce bc 58 ff 52 3d ee 6a 56 bd dd 11 24 3d
       -0.02520123 0.051513046 -0.05234807 0.0400561
000160 25 73 ca 3c 56 0b 07 3c 38 b0 71 3e f2 d2 4a 3e
       0.024713108 0.008242449 0.23602378 0.19807032
000170 32 57 7a bd 9c 4c f1 3d 31 4c 66 be b9 b6 dd bc
       -0.061118312 0.1178219 -0.22490002 -0.027064668
000180 5a e3 d9 3d 20 03 35 3b ef 7b e3 3d 5d 3f 32 3e
       0.10639067 0.002762027 0.11107623 0.17406984
000190 ec 23 a4 3d 29 53 13 3d e7 05 b0 3c cb 53 26 3d
       0.08014664 0.03596798 0.02148719 0.040607255
0001a0 6b 51 86 3c 22 b6 9e 3e d3 b4 a0 bd 75 1c cc 3e
       0.016396245 0.3099833 -0.078469895 0.3986546
0001b0 8c 12 48 3b 54 a1 0f 3d b9 00 a2 3d a1 e2 cd bd
       0.0030528633 0.035065964 0.07910294 -0.10052992
0001c0 af 87 19 be 7b 90 85 3d 43 de 83 39 19 0c be bc
       -0.14993165 0.06521698 0.00025151865 -0.023199128
0001d0 d7 33 70 3c 7a 1b 64 3e e2 54 7a bc d1 7e 0e 3d
       0.014660797 0.22276106 -0.015279027 0.03478891
0001e0 70 0a 38 3e 5d c8 26 bd d9 a6 04 3e 00 41 18 3e
       0.17972732 -0.040718425 0.12954272 0.14868546
0001f0 9a a7 09 bd 9f 64 a7 bd 9d 04 bd bb 1c b2 33 3d
       -0.033607103 -0.08173489 -0.005768372 0.04387103
000200 81 2b c3 3c 58 7b de bd e8 1a 21 3e ac 61 11 be
       0.023824455 -0.1086337 0.1573292 -0.14197415
000210 ad e4 68 bc 56 66 fb 3d 87 38 48 be dc c9 a2 be
       -0.014214677 0.122753784 -0.19552813 -0.3179463
000220 32 ef bc 3e b1 66 9a bd 0b 57 87 bc 95 3c a9 bc
       0.36901242 -0.07539118 -0.016520998 -0.02065877
000230 42 be 66 3e 7e 31 9a 3c f0 53 89 bd b3 f6 d9 b9
       0.22533515 0.018822428 -0.06705463 -0.0004157327
000240 d7 6c 5a bd 28 55 81 3e bb bd 7f bd 66 52 d8 3d
       -0.053326454 0.25260282 -0.0624368 0.10562591
000250 fc d6 d5 3d a7 5e e5 bd df f9 ed bd b4 73 ea bd
       0.10441396 -0.11199694 -0.11619925 -0.1144785
000260 7a 97 c1 bd 8e 26 b0 3d 71 21 7b 3d a0 74 ee 3c
       -0.0945272 0.08601104 0.06131119 0.029108346
000270 01 bb 3b be 75 83 37 bd a7 f3 c6 3d a0 c3 09 be
       -0.18333055 -0.0448031 0.09714442 -0.13453531
000280 b5 b3 d8 bc 1c d3 d2 3d 33 4c 42 3e 21 67 53 3d
       -0.026452878 0.10294172 0.1897438 0.051612023
000290 0b 90 e4 3d 05 7b 25 bd af f1 a4 bd a9 e0 cd 3d
       0.111602865 -0.040400524 -0.0805391 0.10052616
0002a0 78 20 d9 bc bf b5 20 be f8 c0 df 3d e9 ca 8b bd
       -0.02650474 -0.1569433 0.10925478 -0.068258114
0002b0 70 d2 3d bd 9c 85 8c 3d d6 a6 35 be 41 4a cd 3d
       -0.046343267 0.068614215 -0.17739424 0.100239284
0002c0 4b 8d 97 3d 04 c2 a3 3c b7 0c 8f bd e4 8e 94 3c
       0.07399996 0.019989975 -0.06984847 0.018134542
0002d0 e2 60 76 bd d6 4b 00 3e e8 61 aa bd 90 60 ef 3d
       -0.06015099 0.12528929 -0.083194554 0.1168834
0002e0 37 04 07 3d 4e e4 38 3c d6 eb 55 be 91 22 d9 bc
       0.032963004 0.011284901 -0.20890746 -0.02650574
0002f0 f1 a0 79 bd 02 61 b5 bd e7 a8 96 be b6 97 8c 3b
       -0.0609445 -0.088563934 -0.29425737 0.0042905463
000300 8b 7b c6 bc d2 97 0c 3e 83 47 0d 3e e6 cd c8 3d
       -0.024228832 0.1372979 0.13796811 0.09804897
000310 28 87 4f be ca 72 8a bd 56 f6 70 bd b9 75 12 bd
       -0.20266402 -0.067601755 -0.058828674 -0.0357568
000320 c7 cd 50 bc c9 b8 f8 3d 41 ee 3c bd 0b 0e d3 bc
       -0.012744374 0.1214462 -0.046125654 -0.025763532
000330 4f 53 a4 3d 6b f4 7a bd 1c 79 a6 3d 17 90 11 3e
       0.08023702 -0.06126825 0.081285685 0.14215122
000340 c0 bb f9 bb a2 24 d0 bc b3 40 ef 3d 36 71 d5 3d
       -0.0076212585 -0.025408093 0.11682262 0.10421984
000350 8d d2 9b 3e cb f2 2b 3d 07 43 c4 3d c6 93 11 be
       0.30434075 0.041979592 0.09583097 -0.14216527
000360 e4 31 9b 3d c6 ca 06 3e f6 f1 49 3d 3f 2e f5 bc
       0.07577875 0.1316329 0.049303018 -0.029929278
000370 15 92 1b bd 56 be 41 3e 7d e3 3b 3e 00 e6 b1 3c
       -0.03798111 0.18920264 0.18348499 0.021716118
000380 41 cf c6 bd 43 ea 03 bd be bf 8b bd ba db 47 be
       -0.09707499 -0.03220583 -0.06823681 -0.19517413
000390 ed ce 5e be 73 06 52 bc 59 18 be bc 7c 74 35 be
       -0.21758623 -0.01281892 -0.02320497 -0.17720217
0003a0 8a 18 eb 3d 72 dd 63 3e 13 89 b7 bc 98 fd 8e 3d
       0.1147929 0.22252443 -0.02240423 0.06981963
0003b0 1f 3a c9 3d 92 1f 94 bd e4 ff 74 3d 6d 62 f8 bc
       0.09825539 -0.07232584 0.05981435 -0.03032037
0003c0 2a 78 48 bc 84 c3 c1 bd b6 22 05 be d1 41 d7 3d
       -0.012235681 -0.0946112 -0.13001522 0.105106
0003d0 e7 83 89 bd 7a f7 30 bd bd 90 9e be cc 62 ab be
       -0.067146115 -0.043204762 -0.30969802 -0.33473814
0003e0 f4 06 02 3d 43 14 f8 bd 9f 81 05 bd b1 5f 98 3d
       0.031744912 -0.121132396 -0.03259432 0.07440127
0003f0 33 61 80 3e c2 c5 11 3e 0e 50 87 bb f8 76 35 be
       0.25074157 0.14235595 -0.0041294163 -0.17721164

hidden.bias f4 [32]
000000 79 64 90 3b 71 e7 39 bc 00 00 00 00 9e 0b 1e bb
       0.0044065085 -0.011346684 0.0 -0.002411581
000010 32 ee f8 3b 4d 02 b1 3a 00 00 00 00 c8 f5 27 bb
       0.0075967545 0.0013504714 0.0 -0.0025628675
000020 00 00 00 00 4c fb 11 3a 73 87 36 bb 94 71 a9 bb
       0.0 0.0005568757 -0.002785173 -0.0051710103
000030 44 b6 8f 39 f3 60 40 bb 32 24 6e bb 8c 80 27 ba
       0.00027410884 -0.0029354661 -0.0036337492 -0.00063896994
000040 87 72 3c 3b 84 d0 34 3b 50 87 9a bb 64 11 1f bb
       0.0028754787 0.0027590105 -0.0047158375 -0.002427184
000050 39 4e 5c bb 6f 91 25 3b 50 d6 2e ba 2b 56 1b 3b
       -0.003361596 0.0025263687 -0.00066695083 0.0023702483
000060 00 00 00 00 ef 51 28 ba cd a8 14 3c c2 4a 58 bb
       0.0 -0.00064209005 0.009073448 -0.0033003544
000070 0e 1b 24 bb 00 00 00 00 00 00 00 00 49 b5 cf b8
       -0.002504054 0.0 0.0 -9.904296e-05

mu_layer.weight f4 [2, 32]
000000 cd a8 e8 bc 25 60 26 3e 20 46 c5 3e 8d 0e c8 bd
       -0.028400803 0.16247614 0.38530064 -0.097684
000010 89 75 c3 3d a2 3a c3 be 3a 89 8f 3e cf a6 f1 be
       0.095439024 -0.3813067 0.28034383 -0.47197577
000020 56 86 b1 bd 3b 5b 34 be 4a e9 70 3e 99 78 e9 bd
       -0.08668201 -0.17612927 0.23526493 -0.11399955
000030 b1 b9 ac 3e 89 74 70 bd a5 b1 00 be 2d 49 19 3d
       0.3373542 -0.058704887 -0.12567766 0.0374233
000040 1f 95 89 be ca f7 08 be ae 31 3d 3d ef 7c 63 3e
       -0.26871583 -0.13375774 0.046189956 0.22215627
000050 25 bc 81 3e a5 dc 15 be 7a 4e d9 3e e6 b3 62 be
       0.25338855 -0.1463495 0.42442685 -0.22138938
000060 20 27 41 3a d9 0d 8e 3e ca bd 9e 3d f6 34 1b bd
       0.0007368196 0.2774494 0.07751043 -0.037892304
000070 fe 8e 26 3f 73 32 bc 3c 69 ac a6 3d b2 9f c1 3e
       0.6506194 0.022973275 0.081383534 0.3781715
000080 c0 dc 28 3f ce 96 00 3d c7 0a 85 3d 90 76 d8 3d
       0.6596184 0.03139382 0.06496196 0.10569489
000090 4a fb 68 3e 88 ef 3e bb 2c f3 6e be e9 2f 7e 3e
       0.22752109 -0.002913447 -0.2333495 0.24822964
0000a0 c9 09 86 be b8 b5 8e be d4 a7 57 be 77 8f 0b 3d
       -0.2617934 -0.27873015 -0.21060115 0.034072366
0000b0 41 83 b9 3d a6 1c ef 3d 40 96 7f be 24 0a f1 bd
       0.09058238 0.11675386 -0.2495966 -0.11769512
0000c0 72 e5 e8 3d 04 4c f4 bc 2c 80 c8 3e 35 e5 f5 bd
       0.11371888 -0.029821403 0.39160287 -0.120066084
0000d0 01 47 a2 be c7 84 e7 bc f4 cc 6c 3e 48 09 14 3e
       -0.31694797 -0.028261555 0.23125058 0.14456666
0000e0 13 3a 33 3e 0e 31 9c bd f4 b8 c8 bc 42 f8 0a 3f
       0.17502622 -0.07626544 -0.024502255 0.5428506
0000f0 8a a1 3d 3d 46 fe ff 3e 59 8d f0 3d ee db 92 3e
       0.046296634 0.49998683 0.1174571 0.28683418

mu_layer.bias f4 [2]
000000 c3 9c b3 ba c6 f3 9a bc
       -0.0013703335 -0.018915068

log_std_layer.weight f4 [2, 32]
000000 da 41 21 be 51 9c 52 be f3 81 60 bc 6f 75 6b 3e
       -0.15747777 -0.20567442 -0.013702857 0.22994016
000010 e4 7d 92 3e d7 52 73 3e 2e c7 80 3d 22 ee 80 3e
       0.28611672 0.2376207 0.062879905 0.2518168
000020 f3 eb 98 be fe 58 b5 3e ef d9 07 bf 0d f2 2c bd
       -0.29867515 0.35419458 -0.53066915 -0.042223025
000030 ef a8 31 be cf c0 8d be 0e ca 97 3e 66 44 21 bd
       -0.173496 -0.27686164 0.29646343 -0.03937187
000040 0c 86 1d bc 80 d6 d4 be f8 62 9b 3d fb e5 a8 3e
       -0.009614479 -0.415699 0.07587236 0.3298796
000050 69 56 89 be fd fd 9d 3d 91 06 4a 3e 42 b1 97 3c
       -0.26823738 0.0771446 0.19729067 0.01851714
000060 0f 31 00 bf dd 24 47 3d e3 d9 14 3e 46 b9 c6 3e
       -0.5007486 0.04861914 0.14536242 0.38813227
000070 14 c7 7a 3e ed 34 33 3e 85 1d 2c be f8 5b 05 3c
       0.24490005 0.17500658 -0.16808136 0.008139603
000080 9b 82 17 3e 19 d8 5e 3e fc 00 9e 3e e4 39 0e bf
       0.14795916 0.21762122 0.30860126 -0.55557084
000090 4a 71 0b be 89 b8 e6 3b 45 3b 9e 3c b0 8a 8e 3e
       -0.13617435 0.0070410413 0.019315371 0.27840185
0000a0 7f 68 06 be a8 5b 56 bd b6 62 70 bd a7 02 21 3e
       -0.131258 -0.052333504 -0.058687888 0.15723668
0000b0 dc 36 d8 3e 71 c4 28 bd 10 90 16 3f 75 94 75 3d
       0.42229354 -0.041202966 0.5881357 0.059956033
0000c0 6d 32 6f 3e ad 1d ee 3d 5c ce 6c be 25 ba 9d bd
       0.2335908 0.11626754 -0.23125595 -0.0770152
0000d0 6a fc 04 3e 04 04 cc 3d 29 12 2c 3e 72 fc cf 3d
       0.12986913 0.099617034 0.16803803 0.10155572
0000e0 0f 8b 68 bc 4d b4 0f 3e dd 13 14 bf 3c 0a b5 3e
       -0.01419331 0.14033623 -0.5784281 0.3535937
0000f0 ea e0 53 3e be 7c a1 be 9a bb 55 be 1b 9e 1d 3e
       0.20691267 -0.31540483 -0.20872346 0.15392344

log_std_layer.bias f4 [2]
000000 6d 77 05 3c cc b3 97 3b
       0.008146149 0.0046295878
