train_history/olympics-running/11_23_13_57/critic.pth (torch, 47330 bytes, 11 tensors)

encoder.0.weight f4 [8, 4, 3, 3]
0	0x3ec7c39d	0.3901643
1	0xbebdd473	-0.37076148
2	0xbf168357	-0.5879416
3	0x3e84aa4d	0.2591118
4	0x3e149c4b	0.14512746
5	0x3eac7276	0.33681077
6	0x3e9c7ae9	0.30562523
7	0xbf6720b2	-0.90284264
8	0xbf8e5791	-1.1120473
9	0x3efe228d	0.49635735
10	0x3eab2a25	0.3343059
11	0x3fb55b90	1.4168568
12	0x3f17b323	0.59257716
13	0xbe26be21	-0.16283466
14	0xbe44d070	-0.19220138
15	0xbe2fb769	-0.17159809
16	0xbf933747	-1.1501244
17	0xbf2c5a43	-0.6732523
18	0xbbdb036e	-0.0066837585
19	0x3c384a8e	0.011248244
20	0x3f2e5189	0.6809316
21	0xbe8aa8ce	-0.27081913
22	0x3e69ae2a	0.22820345
23	0xbe99c3bc	-0.30032146
24	0xbc2ad131	-0.010425852
25	0xbf2bcfe4	-0.6711409
26	0x3dd82c68	0.10555345
27	0x3f07b549	0.53010994
28	0xbf6e1ea9	-0.93015534
29	0xbf1e301f	-0.61792177
30	0x3e0d8482	0.13820079
31	0x3fbc6d8c	1.4720931
32	0x3f2e9a47	0.6820416
33	0x3d452a31	0.04813594
34	0xbf8a7924	-1.0818219
35	0x3ec3b6e1	0.38225463
36	0x3e8ee462	0.27908617
37	0xbdf780fc	-0.12085149
38	0xbec8346d	-0.39102498
39	0xbe4a9efa	-0.19787207
40	0x3e37f890	0.17965913
41	0xbf5180c6	-0.8183712
42	0x3e686945	0.22696407
43	0x3ebed7dd	0.37274066
44	0x3ecce01c	0.40014732
45	0xbf3bac08	-0.73309374
46	0xbefa4192	-0.4887815
47	0xbd90c1f4	-0.070682436
48	0x3f3aac08	0.7291875
49	0x3e0e87fa	0.13919058
50	0xbf9fdb02	-1.2488711
51	0x3d73f03f	0.05955529
52	0x3fb27397	1.3941525
53	0x3ed0baf5	0.40767637
54	0x3d35299c	0.044229135
55	0x3ef6103a	0.48059255
56	0xbe073e04	-0.13207251
57	0x3d91a6b3	0.071118735
58	0xbe83052d	-0.25589886
59	0xbea9b6fd	-0.3314742
60	0xbe803d87	-0.25046942
61	0x3dd1ab9d	0.10237811
62	0xbf0360f0	-0.5131979
63	0x3e52e0f6	0.20593628
64	0x35f2e040	1.809567e-06
65	0xbf39dbac	-0.7260082
66	0x3f7ef9df	0.99600023
67	0x3d806e0a	0.06270988
68	0xbf8b4d0f	-1.0882891
69	0x3e86e943	0.2634984
70	0x3fe61ad2	1.7976935
71	0x3f305e19	0.6889358
72	0x3de08246	0.10962348
73	0x3e36b7b3	0.17843513
74	0x3d54195c	0.051781997
75	0xbbe94dde	-0.007119878
76	0x3ed965bb	0.42460427
77	0x3ed65bb2	0.41866833
78	0xbf66b50c	-0.90120006
79	0xbf0baa32	-0.5455657
80	0xbe69bce9	-0.2282597
81	0xbf9fb9ee	-1.2478616
82	0xbc1853d8	-0.009297334
83	0xbfa3e6e6	-1.280484
84	0x3f1d92f5	0.61552364
85	0xbe627c05	-0.22117622
86	0x3e7a56ec	0.2444722
87	0xbf6e627a	-0.93119013
88	0x3f1db14b	0.6159865
89	0xbf020c98	-0.50800467
90	0x3de1a77c	0.11018273
91	0xbf2a3635	-0.66488963
92	0x3e04995d	0.12949128
93	0x3f21daeb	0.6322467
94	0x3fa4029a	1.2813294
95	0x3da3050c	0.07959947
96	0x3e027585	0.12740143
97	0x3e2fb5fe	0.17159268
98	0x3ef10ce4	0.47080147
99	0xbf204110	-0.6259928
100	0xbec6c40d	-0.3882145
101	0xbd2cad95	-0.04215773
102	0xbecfb4ad	-0.40567532
103	0xbe3d36e8	-0.18477976
104	0xbf533f4e	-0.8251847
105	0x3e09b215	0.13446839
106	0xbe29abb1	-0.16569401
107	0xbec57f43	-0.38573655
108	0x3ebf74b0	0.37393713
109	0xbdebbf42	-0.11511089
110	0x3eeb50e8	0.45960164
111	0xbea5eb6e	-0.3240618
112	0x3ebf18e7	0.37323686
113	0xbf49f54d	-0.78889924
114	0x3ef163ed	0.4714655
115	0x3f0f2422	0.5591451
116	0x3f5ea81d	0.8697527
117	0xbf4baa46	-0.7955669
118	0xbefe4d51	-0.49668363
119	0xbeef09fc	-0.46687305
120	0xbf2c910e	-0.67408836
121	0xbf38db5c	-0.72209716
122	0xbf003d2d	-0.50093347
123	0xbec30c1d	-0.3809518
124	0xbdcbd7dd	-0.09953282
125	0xbe44870b	-0.1919214
126	0x3de80ee5	0.11330966
127	0x3e94fb38	0.29097915
128	0xbd9bd515	-0.076090015
129	0x3ec3edeb	0.38267455
130	0x3b30278b	0.0026879038
131	0x3eb339b5	0.35004964
132	0xbefda900	-0.49543
133	0x3f050cce	0.51972663
134	0xbed92968	-0.42414403
135	0x3d199106	0.03749182
136	0xbf5ad031	-0.85473925
137	0xbfe68082	-1.8007967
138	0xbcc35285	-0.02384306
139	0x3f522aff	0.82096857
140	0x3f3cadc9	0.73702675
141	0xbd39c73d	-0.045356024
142	0xbf4f1e78	-0.80905867
143	0xbda6458a	-0.08118732
144	0x3cf74b83	0.030187374
145	0xbe391a53	-0.18076448
146	0x3aa18b47	0.0012324833
147	0xbf60f763	-0.8787748
148	0xbe1645a0	-0.14674997
149	0xbea8ed8e	-0.3299374
150	0x3ce026f2	0.02736232
151	0x3e9d256a	0.30692607
152	0x3f32314b	0.69606465
153	0xbc7e2278	-0.015511148
154	0xbdb4fd9b	-0.08837434
155	0x3c9dcca3	0.019262617
156	0x3dae85d2	0.08521618
157	0xbea7bd65	-0.32761684
158	0x3f1b3cee	0.60639846
159	0x3c108804	0.008821491
160	0x3e049368	0.12946856
161	0xbe265d5f	-0.16246556
162	0x3f31733d	0.69316465
163	0x3cf13755	0.02944533
164	0x3e0a896f	0.1352899
165	0xbfa8f441	-1.319954
166	0xbf8d1b37	-1.102393
167	0xbe674b03	-0.22587208
168	0x3d6f03aa	0.058353104
169	0x3e10adca	0.14128795
170	0x3e9ac433	0.30227813
171	0x3e13ed1b	0.14445917
172	0x3fa53788	1.2907572
173	0x3f0719cd	0.52773744
174	0x3e57c979	0.2107295
175	0xbfe128d1	-1.7590581
176	0xbf058819	-0.52160794
177	0xbfafe999	-1.3743163
178	0xbe94f9bf	-0.2909679
179	0xbea834f0	-0.32852888
180	0x3f1f0d8d	0.6213005
181	0x3e7327b6	0.23745617
182	0x3eb2f26f	0.34950587
183	0x3e80239b	0.25027165
184	0x3eb7c97e	0.35895914
185	0x3f0dac9c	0.55341506
186	0xbce3dc90	-0.027815133
187	0xbd7d1752	-0.061789818
188	0xbe34df8f	-0.17663406
189	0x3dc61968	0.096728146
190	0x3e6a8857	0.22903572
191	0x3f43140c	0.76202464
192	0x3d836622	0.06415965
193	0x3e3df560	0.18550634
194	0x3f425153	0.7590534
195	0xbcb4cccf	-0.022070317
196	0x3eb1c9c9	0.34724262
197	0x3f532f7a	0.8249432
198	0x3e76dfbb	0.24108784
199	0x3f05268a	0.5201193
200	0x3eb8593e	0.36005586
201	0x3edbeda5	0.42954746
202	0x3f205d78	0.6264262
203	0x3f031687	0.5120625
204	0xbd6ac01b	-0.057312112
205	0x3e72ffd9	0.2373041
206	0x3f2b2c8b	0.6686484
207	0x3f0f6292	0.5600978
208	0xbd24cd05	-0.040234584
209	0x3e3e7b57	0.18601738
210	0x3f60f029	0.87866455
211	0x3e8c5a9d	0.27412882
212	0x3f083c89	0.5321737
213	0x3e5ea9cd	0.21744461
214	0x3f1167d9	0.56799084
215	0x3f278e65	0.6545165
216	0xbda897a7	-0.082320504
217	0xbd7a044c	-0.061039254
218	0x3d4d5c19	0.05013666
219	0xbe266209	-0.16248335
220	0xbe842ebf	-0.25816914
221	0xbda851f2	-0.08218755
222	0xbdf7cfc9	-0.12100179
223	0xbe578cbd	-0.21049781
224	0xbe83eeb1	-0.25768045
225	0x3f05bf97	0.5224547
226	0x3ef4a8cd	0.47785035
227	0x3f0067c3	0.5015833
228	0x3f5f40bd	0.8720816
229	0x3f3e6f90	0.7438898
230	0x3f3bb4f3	0.7332298
231	0x3cd0550d	0.02543118
232	0xbe9a338f	-0.3011746
233	0xbe4e0506	-0.20119104
234	0x3edd5ac6	0.43233317
235	0x3e09a7ff	0.13442992
236	0x3e80cc1c	0.25155723
237	0x3f3db650	0.7410631
238	0x3f51ab8e	0.81902397
239	0x3f2e009f	0.679697
240	0x3e075199	0.13214721
241	0x3f71f71b	0.9451768
242	0x3f9d965c	1.2311511
243	0xbdb6ae66	-0.089199826
244	0xbc46c66b	-0.0121322675
245	0x3f0f418d	0.559594
246	0x3e2bb87a	0.16769591
247	0x3f441647	0.7659649
248	0x3f25291e	0.64515865
249	0x3ed45826	0.41473502
250	0x3f872f93	1.0561393
251	0x3eb258b7	0.3483331
252	0xbe67cf6a	-0.22637716
253	0xbee3758d	-0.44425622
254	0xbf1b3170	-0.6062231
255	0x3e91d5dc	0.28483474

encoder.0.bias f4 [8]
0	0x3b176097	0.0023098344
1	0xbd6ea1a4	-0.05825962
2	0x3b8d74d9	0.004316908
3	0xbe1657e0	-0.14681959
4	0xbdefb482	-0.11704351
5	0x3e630d1d	0.22172971
6	0x3dce003e	0.1005864
7	0x3a3ecc08	0.0007278328

encoder.3.weight f4 [8, 8, 3, 3]
0	0xbf1172c7	-0.5681576
1	0x3e8621e2	0.26197726
2	0x3eb46947	0.3523657
3	0xbf19a16d	-0.6001194
4	0x3e3f271e	0.18667266
5	0x3ec2819a	0.37989503
6	0xbe91aaf7	-0.28450748
7	0x3d4eb107	0.050461795
8	0x3d0f2bd5	0.03495391
9	0xbdc85aa2	-0.09782912
10	0xbdd2cbd9	-0.10292787
11	0xbe8883e2	-0.2666312
12	0xbf6b17ad	-0.91833
13	0x3dc1dfd8	0.09466523
14	0x3f06a3cf	0.525937
15	0xbf860dea	-1.0472996
16	0xbc3db008	-0.011577614
17	0x3f3e3588	0.7430043
18	0xbf24f534	-0.6443665
19	0x3ba5d02c	0.0050602164
20	0x3f424938	0.7589297
21	0xbf68593c	-0.9076116
22	0xbdb80adc	-0.08986446
23	0x3f1026e0	0.5630932
24	0xbec8d93d	-0.3922824
25	0xbeb40f5f	-0.35167977
26	0x3eb96335	0.362085
27	0xbed9298c	-0.4241451
28	0xbe6e41e5	-0.23267324
29	0x3f00a33a	0.50249064
30	0xbeb07945	-0.3446752
31	0xbee8f5ce	-0.45500034
32	0x3efe6bb4	0.49691546
33	0xbe0f25af	-0.13979219
34	0xbef7d73b	-0.48406395
35	0x3d9b5493	0.075844906
36	0xbe9588d3	-0.2920595
37	0xbe08e53c	-0.13368696
38	0xbe36d7a1	-0.17855693
39	0xbf01f4d1	-0.50764185
40	0x3cb0b2b5	0.02156959
41	0x3dc59d6a	0.09649165
42	0xbf0bc915	-0.546037
43	0xbe4b4e0c	-0.19853991
44	0xbf1dc848	-0.6163373
45	0x3cfd5564	0.030924506
46	0x3eb34811	0.3501592
47	0x3ec919dd	0.39277545
48	0xbeb7a6df	-0.358695
49	0x3eb5ce33	0.3550888
50	0x3ebcf71e	0.36907285
51	0xbc23a803	-0.009988788
52	0x3e9ab10a	0.30213195
53	0x3e8003d0	0.2500291
54	0xbec77aa6	-0.3896076
55	0x3e0d7923	0.13815741
56	0x3ef02301	0.46901706
57	0xbf53ef51	-0.8278704
58	0x3eea5038	0.45764327
59	0x3ec856a1	0.39128593
60	0xbea43b2e	-0.320764
61	0x3e7f6111	0.24939372
62	0x3f19b104	0.6003573
63	0xbeb57364	-0.354396
64	0x3c7c64fc	0.015404936
65	0x3d20c35f	0.03924882
66	0xbf7da8bd	-0.990856
67	0xbecf901c	-0.40539634
68	0xbe86dcf4	-0.2634045
69	0xbf377a00	-0.7167053
70	0xbebf08c2	-0.3731137
71	0xbf2dc465	-0.678778
72	0x3f0107eb	0.50402707
73	0x3ebc1518	0.36734843
74	0x3f0fba28	0.56143427
75	0x3acc39a6	0.0015581145
76	0x3e850e74	0.2598759
77	0x3d65eb67	0.0561327
78	0x3deb18c4	0.11479333
79	0xbe911f30	-0.28344107
80	0xbe59da35	-0.21274646
81	0xbda8c4a3	-0.082406305
82	0x3edbd29b	0.42934117
83	0x3ec76468	0.3894379
84	0x3ec0b8eb	0.3764108
85	0xbded2eb3	-0.11581173
86	0xbdfd6d18	-0.123743236
87	0x3e92dcfe	0.2868423
88	0x3c786e54	0.015163023
89	0xbec9ac68	-0.39389348
90	0xbd3d60c2	-0.046234854
91	0xbd283fd7	-0.041076507
92	0x3d69bde4	0.05706586
93	0x3e918d13	0.28427944
94	0xbdfbe579	-0.12299628
95	0x3e13c541	0.14430715
96	0x3f0afe79	0.54294544
97	0x3f05d7d5	0.5228246
98	0x3f23fc97	0.64057297
99	0x3eb1b2e3	0.34706792
100	0x3eb2dfc7	0.34936354
101	0x3f01065a	0.50400317
102	0x3f256aab	0.6461589
103	0x3f20b5d6	0.6277746
104	0x3ee578a6	0.4481861
105	0x3f443f66	0.7665924
106	0x3f5be940	0.85902786
107	0x3f2770c0	0.6540642
108	0x3efa00ee	0.48828834
109	0x3e778eb4	0.2417553
110	0xbd551bed	-0.052028585
111	0x3e192f00	0.14959335
112	0xbe05143d	-0.12996002
113	0xbe1a5860	-0.15072775
114	0x3ea461a8	0.32105756
115	0x3cfd9ea9	0.030959444
116	0x3b6e2b83	0.0036341853
117	0xbe3a3d3b	-0.1818742
118	0xbe75a8c3	-0.23990159
119	0x3ce9d3dc	0.028543405
120	0xbe29810a	-0.16553131
121	0xbdd97d8a	-0.10619648
122	0x3db23890	0.08702195
123	0xbe88dd9b	-0.26731572
124	0xbe727a02	-0.23679355
125	0x3e365775	0.178068
126	0xbd978d5e	-0.074000105
127	0x3d8b39ed	0.06798158
128	0xbd2eb9fc	-0.042657837
129	0xbdae3875	-0.08506862
130	0x3dfdb5fc	0.123882264
131	0x3d8709b9	0.06593651
132	0xbe90255a	-0.28153497
133	0xbf0311a0	-0.5119877
134	0xbf056ff0	-0.5212393
135	0xbe4c3e57	-0.19945656
136	0x3c7d1b0c	0.015448343
137	0xbd4195b7	-0.04726192
138	0xbcd6261c	-0.026141219
139	0xbd9d3ac5	-0.07677225
140	0xbeab4d8b	-0.33457598
141	0x3f435c83	0.76313037
142	0x3f38aae2	0.72135746
143	0x3efa68af	0.48907992
144	0x3e18af7e	0.14910695
145	0xbf44754a	-0.7674147
146	0xbf4e335c	-0.8054712
147	0x3e94fdea	0.2909997
148	0xbec2fd1c	-0.38083732
149	0xbf774e85	-0.96604186
150	0x3f343cbc	0.70405173
151	0xbeacf8a4	-0.33783448
152	0xbf84f513	-1.0387291
153	0x3e4705b9	0.19435777
154	0xbe07f13f	-0.13275622
155	0xbeee83de	-0.46584982
156	0x3dbf1587	0.09330278
157	0x3f18eb75	0.5973428
158	0x3f35f1a9	0.7107187
159	0x3f6e8371	0.93169314
160	0x3f89bf9f	1.0761603
161	0x3f8fe24e	1.1240938
162	0x3f5fe7be	0.87462986
163	0xbeb5c71c	-0.3550347
164	0xbfb8ca38	-1.4436712
165	0x3f92222c	1.1416678
166	0x3f1c2e0b	0.61007756
167	0xbf2a3002	-0.66479504
168	0x3f9e1138	1.2349005
169	0x3f9db87a	1.2321923
170	0x3f1c8001	0.6113282
171	0x3eaebebf	0.34129903
172	0x3eaf101b	0.34191975
173	0xbf5a7ab0	-0.85343456
174	0xbc3705ce	-0.011170818
175	0x3dbcee30	0.09225118
176	0xbf113637	-0.5672335
177	0x3f34e5b7	0.7066302
178	0x3f6102e2	0.87895024
179	0x3f0ba81f	0.5455341
180	0xbdbdb106	-0.0926228
181	0xbdd0b507	-0.10190778
182	0xbf64d73c	-0.8939092
183	0xbe3b5636	-0.18294606
184	0xbdcfa380	-0.10138607
185	0xbeae4b74	-0.3404194
186	0xbe06be90	-0.13158631
187	0x3dbe460b	0.092907034
188	0xbef3b946	-0.4760229
189	0xbd52e74e	-0.05149012
190	0xbeb3dec1	-0.35130885
191	0xbebc78ee	-0.36811012
192	0x3f1645fb	0.5870053
193	0x3dfa9ebb	0.12237307
194	0xbe3d1a76	-0.18467125
195	0x3f23f289	0.64041954
196	0x3e82f97e	0.25580972
197	0x3ec1df9e	0.3786592
198	0x3e373189	0.1788999
199	0xbe69d8c0	-0.2283659
200	0xbf26686a	-0.65003073
201	0x3f82a494	1.0206475
202	0x3e39ca20	0.18143511
203	0xbdca60d0	-0.09881747
204	0x3f62182c	0.88318133
205	0x3f253cf0	0.6454611
206	0x3f25fbf4	0.64837575
207	0x3e277cb6	0.16356167
208	0xbf05dc92	-0.5228969
209	0xbf92eef9	-1.1479179
210	0x3f45d75d	0.77281743
211	0x3ebf0e59	0.37315634
212	0xbef53926	-0.47895163
213	0x3f9d2d3e	1.2279432
214	0x3fb754a0	1.43227
215	0x3f4437f5	0.76647884
216	0x3facdb97	1.3504514
217	0x3f68b8ab	0.9090678
218	0x3f3fceeb	0.74925107
219	0x3a9ed6a6	0.0012118414
220	0xbf10a5c4	-0.5650294
221	0xbe108f50	-0.1411717
222	0x3f836a6b	1.0266851
223	0x3f7a4220	0.9775715
224	0x3f6d2a49	0.9264265
225	0x3f78b3e3	0.97149485
226	0x3f1ad5e4	0.6048262
227	0x3f8efbb0	1.1170559
228	0x3de3084a	0.110855654
229	0xbe277864	-0.16354519
230	0x3effb8ac	0.4994558
231	0x3e7d6749	0.24746431
232	0x3d2472bc	0.04014848
233	0x3fb6def6	1.4286792
234	0x3dce5add	0.100759245
235	0x3edfa9c0	0.43684196
236	0x3f4befd0	0.796628
237	0xbd271166	-0.040788077
238	0xbec26646	-0.37968653
239	0x3dd5ba09	0.10435874
240	0x3f473c53	0.7782642
241	0x3e8c6230	0.2741866
242	0x3f95e74c	1.1711211
243	0x3e47153c	0.19441694
244	0x3f09d79a	0.53844607
245	0x3f2a9d7e	0.66646564
246	0xbe946943	-0.28986558
247	0xbe6945fc	-0.22780603
248	0x3d6cf01e	0.05784618
249	0x3ec4a982	0.38410574
250	0x3f06e11b	0.52687234
251	0x3f670cc3	0.9025385
252	0x401cc57e	2.449554
253	0x400f943d	2.2434227
254	0x3ff08259	1.8789779
255	0xbea239d2	-0.31684738

encoder.3.bias f4 [8]
0	0x3f81935e	1.0123098
1	0xbe8eac67	-0.27865908
2	0xbf06da46	-0.5267681
3	0xbfa6dc7e	-1.3036039
4	0xbf4a1b76	-0.7894815
5	0xbe58cc87	-0.21171771
6	0xbe74eb34	-0.23917848
7	0xbe915ed3	-0.28392658

cnn_net.0.weight f4 [16, 8, 3, 3]
0	0x3e87d3ee	0.26528877
1	0xbebc82d9	-0.3681858
2	0xbf4cb5ba	-0.7996479
3	0xbe80b0af	-0.251348
4	0xbf056524	-0.52107453
5	0xbf7f7fec	-0.9980457
6	0x3e7f9f16	0.2496303
7	0xbf5233e7	-0.82110447
8	0xc018ea89	-2.389315
9	0x3ebc8992	0.36823708
10	0x3e9638f0	0.29340315
11	0x3ac2737f	0.0014835446
12	0xbe9c55d0	-0.3053422
13	0x3ea8a003	0.3293458
14	0x3f1a1d8b	0.6020133
15	0x3ed53046	0.41638392
16	0x3eb0eb1c	0.34554374
17	0x3f28eedf	0.6598949
18	0xbe4d25b9	-0.20033921
19	0x3e0af164	0.13568646
20	0x3ed25bc9	0.41085652
21	0xbd06ed15	-0.032940943
22	0x3e699aba	0.2281293
23	0x3e91ec15	0.2850043
24	0xbe5d1806	-0.21591195
25	0xbf1bc817	-0.6085219
26	0xbe513304	-0.20429617
27	0xbe1abe97	-0.15111767
28	0x3ed08849	0.40728977
29	0x3ef8c824	0.48590195
30	0xbd663fc4	-0.056213155
31	0xbea2a5f1	-0.31767228
32	0x3e2071a8	0.15668356
33	0x3caaa748	0.020831719
34	0x3e99f4ff	0.3006973
35	0x3d852bce	0.06502496
36	0xbd3060c3	-0.04306103
37	0x3d3b54d0	0.04573518
38	0x3db0d192	0.08633722
39	0xbe19c235	-0.1501549
40	0x3e199b01	0.15000536
41	0xbace3b8e	-0.0015734301
42	0xbeb62782	-0.35577017
43	0xbdf551b0	-0.11978471
44	0xbde23bc5	-0.110465564
45	0x3f113d6e	0.5673436
46	0x3f113d46	0.5673412
47	0x3edfc4f1	0.43704942
48	0x3f10fa6e	0.56632125
49	0x3f4c6670	0.7984381
50	0x3e895ecc	0.26830137
51	0x3f36d204	0.7141421
52	0x3ef6c5b6	0.48197716
53	0x3f19914a	0.5998732
54	0x3f2a660c	0.6656196
55	0xbd755106	-0.059891723
56	0x3e8ba9e2	0.27278048
57	0x3eba78a9	0.3642018
58	0x3f1429f3	0.5787651
59	0x3f5c5667	0.8606934
60	0x3f3d69a0	0.73989296
61	0x3e0380fa	0.1284217
62	0x3edd666d	0.43242207
63	0x3e14e69f	0.145411
64	0x3e648334	0.22315675
65	0x3e685386	0.22688112
66	0x3e9aed9d	0.3025941
67	0x3d3862bc	0.045016035
68	0x3ed001de	0.40626425
69	0xbdeadb3d	-0.11467598
70	0xbe3946f7	-0.18093477
71	0xbe0d4d25	-0.1379896
72	0x3e48222f	0.1954429
73	0x3ec48fd6	0.38390988
74	0x3ec187fe	0.37799066
75	0x3d4731ab	0.04863135
76	0x3d8bfced	0.06835351
77	0xbe5596e9	-0.20858349
78	0xbe310ee6	-0.1729084
79	0xbf39780f	-0.7244882
80	0xbecec49f	-0.40384385
81	0xbecef59a	-0.40421754
82	0x3e84d184	0.25941098
83	0x3ede4aaa	0.4341634
84	0x3f86b440	1.0523758
85	0x3f70240b	0.93805
86	0x3fb0b671	1.3805677
87	0x3e11c7d7	0.14236389
88	0xbe7089ab	-0.23490016
89	0x3ecf9a2d	0.40547314
90	0xbea20e1d	-0.31651393
91	0xbd98b33c	-0.07456061
92	0x3c257ced	0.010100585
93	0x3da94bc7	0.082664065
94	0xbf0d9e5c	-0.5531976
95	0xbac3e596	-0.0014945741
96	0x3ed1f961	0.41010574
97	0xbf2bf1f0	-0.6716604
98	0xbeb3cbd7	-0.35116455
99	0xbea36d31	-0.31919244
100	0xbe3a3d46	-0.18187436
101	0xbdda7161	-0.106661566
102	0x3e8f4f44	0.27990162
103	0x3e9473a9	0.28994492
104	0x3ec78640	0.38969612
105	0xbeaa073c	-0.33208644
106	0xbf0f6973	-0.5602028
107	0x3d565c97	0.052334394
108	0xbe2355ee	-0.15950748
109	0xbe868650	-0.26274347
110	0xbec96dc3	-0.39341554
111	0x3e9f6882	0.3113442
112	0x3d6dc013	0.058044504
113	0xbddf42a7	-0.10901385
114	0x3bc530cc	0.00601778
115	0xbf0d6ae9	-0.55241257
116	0xbe6d4ac6	-0.23173055
117	0x3c45ee1f	0.012080698
118	0xbdf34b00	-0.118795395
119	0x3f174926	0.5909599
120	0x3f37954c	0.71712184
121	0x3f2768d0	0.65394306
122	0x3f67b0b3	0.90503997
123	0x3de4467d	0.11146257
124	0x3ee34ec6	0.44396037
125	0x3e16cd8a	0.14726844
126	0x3d0a669f	0.033789273
127	0x3f3bbe0f	0.7333688
128	0x3ec872cb	0.3915008
129	0x3f338d36	0.70137346
130	0x3f3ad6de	0.7298411
131	0x3f7a43e9	0.9775987
132	0xbec8bcde	-0.39206594
133	0xbd70b4c5	-0.058766145
134	0x3e15bec1	0.14623548
135	0xbed58617	-0.41703865
136	0xbe3593c2	-0.17732146
137	0xbe9333ac	-0.2875036
138	0x3ed1468c	0.40874135
139	0x3e97875b	0.29595456
140	0x3f10c545	0.5655101
141	0xbe3b1937	-0.18271337
142	0xbeaa7a1c	-0.33296287
143	0xbe2b9063	-0.16754298
144	0x3dc22e61	0.09481502
145	0xbee357d5	-0.44402948
146	0xbe06d969	-0.13168873
147	0xbf1fa42b	-0.62359875
148	0xbf731b14	-0.9496319
149	0xbde10152	-0.1098658
150	0xbfb58e5e	-1.4184072
151	0xbf183955	-0.5946248
152	0xbfbaee73	-1.4604019
153	0x3e9af98e	0.3026852
154	0xbddf6069	-0.10907061
155	0x3e96fd4d	0.29490128
156	0x3eb83b64	0.3598281
157	0x3de45854	0.1114966
158	0x3d949a12	0.07255949
159	0x3e09ec96	0.13469157
160	0xbd95cf02	-0.07314874
161	0x3e3b3c21	0.18284656
162	0x3da8f333	0.082495116
163	0xbefd8e65	-0.495227
164	0xbc79c557	-0.015244803
165	0x3e89d944	0.26923573
166	0x3f019a97	0.5062651
167	0x3e5f1eab	0.21789043
168	0xbe829fe0	-0.255126
169	0x3d90410e	0.07043658
170	0xbf08be6e	-0.5341557
171	0x3e2f76d6	0.17135176
172	0xbd69920c	-0.057024047
173	0x3e9049e5	0.28181377
174	0x3ef5d787	0.48015997
175	0x3c279ccc	0.010230254
176	0x3e5e5efa	0.21715918
177	0x3db28f92	0.0871879
178	0xbe3f4a8a	-0.18680778
179	0x3ee6d1de	0.4508199
180	0xbd5ba5f5	-0.053625066
181	0xbeb0b26b	-0.34511122
182	0x3e28ce19	0.1648487
183	0x3e9f72aa	0.3114217
184	0x3e4a6e65	0.19768675
185	0x3e94daaf	0.29073092
186	0xbef172e9	-0.47157982
187	0xbe155dc0	-0.14586544
188	0xbd942a6b	-0.07234653
189	0x3f1252af	0.57157415
190	0x3e2343f7	0.15943895
191	0x3d56d426	0.052448414
192	0x3f4fd09b	0.8117768
193	0x3f3fd4fe	0.74934375
194	0x3ea6b4d4	0.32559836
195	0x3f291d1b	0.66060036
196	0x3e7ffc30	0.24998546
197	0x3e7c5412	0.24641445
198	0x3f19f5fa	0.60140955
199	0x3e7876ea	0.24264112
200	0x3e94c831	0.29058984
201	0x3f66ab5c	0.90105224
202	0x3e91e00f	0.28491256
203	0x3efd1871	0.4943271
204	0x3f06c0d0	0.5263796
205	0x3e7ed643	0.24886422
206	0x3f14e137	0.5815615
207	0x3e737260	0.237741
208	0xbed0c526	-0.40775412
209	0x3eaa7d87	0.33298895
210	0x3ec91988	0.3927729
211	0x3e9c7aca	0.3056243
212	0xbdf80715	-0.12110726
213	0x3e750baa	0.2393023
214	0xbe3c1263	-0.18366389
215	0x3d60752b	0.05479924
216	0xbf3e6119	-0.7436691
217	0xbf772aa3	-0.96549433
218	0xbf05a171	-0.52199465
219	0xbfa06430	-1.2530575
220	0xbf80a7b1	-1.0051175
221	0xbf76e8da	-0.96449053
222	0xbf43dae2	-0.76505864
223	0xbe2f5275	-0.17121299
224	0xbfa7c35b	-1.3106493
225	0x3eefa312	0.468041
226	0x3ddce081	0.10785008
227	0x3e65e4d3	0.22450571
228	0x3e43b8c3	0.1911345
229	0x3ed0fd57	0.40818283
230	0x3f38df85	0.72216064
231	0xbe27df9c	-0.16393894
232	0xbebfa451	-0.3743005
233	0x3e812b82	0.25228506
234	0x3eca3456	0.39493054
235	0x3d092d0a	0.03349022
236	0xbe9b7c81	-0.30368426
237	0x3b2a69f4	0.0026003094
238	0x3e4996f5	0.19686492
239	0x3e14e372	0.14539889
240	0xbeef22bc	-0.46706188
241	0xbf277d78	-0.65425825
242	0xbeb25114	-0.34827483
243	0x3d823bd8	0.063590705
244	0x3dd858b5	0.105637945
245	0x3d26b2cf	0.04069787
246	0x3ed2f050	0.4119897
247	0x3d339755	0.043845493
248	0x3e6d3bcb	0.2316734
249	0x3e85a0ec	0.26099336
250	0x3db2445a	0.08704443
251	0x3ea2df03	0.3181077
252	0x3e897d0e	0.26853222
253	0x3c82066c	0.015872203
254	0x3dc2103b	0.09475752
255	0xbda24bd2	-0.07924618

cnn_net.0.bias f4 [16]
0	0xbeca843a	-0.39554006
1	0xbd8509cd	-0.0649601
2	0xbeafd469	-0.34341744
3	0xbee6c167	-0.4506943
4	0xbebc50d3	-0.36780414
5	0xbf10f700	-0.5662689
6	0xbef98a11	-0.4873815
7	0xbe5fd789	-0.21859564
8	0xbe7c8826	-0.24661312
9	0xbed115dc	-0.4083699
10	0xbee1a668	-0.4407227
11	0xbec24d1e	-0.3794946
12	0xbe07a325	-0.13245828
13	0xbedac23d	-0.42726317
14	0xbed87936	-0.42279977
15	0x3e6dedfc	0.23235315

cnn_net.3.weight f4 [32, 16, 3, 3]
0	0xbe1a0fa7	-0.15045033
1	0xbe736434	-0.23768693
2	0xbf274b2b	-0.6534907
3	0x3f3bfa75	0.7342904
4	0x3f1f80ad	0.6230572
5	0xbf2feef6	-0.68724
6	0x3f9ae49d	1.2101017
7	0xbe7ba830	-0.24575877
8	0xbd9ad27b	-0.07559677
9	0xbe843ba6	-0.25826758
10	0xbfc46a10	-1.5344868
11	0xbf2c40a2	-0.6728612
12	0x3f136d1d	0.5758837
13	0x3e23a409	0.15980543
14	0xbcb73781	-0.022365334
15	0xbc07c3ed	-0.008286458
16	0xbf315d78	-0.69283247
17	0xbe1d9d90	-0.15392137
18	0x3e97cea9	0.29649857
19	0xbf498109	-0.7871252
20	0x3ca7d0e0	0.020485342
21	0x3f24e685	0.64414245
22	0x3e1251d2	0.14289024
23	0x3e36c221	0.17847492
24	0x3ef3937b	0.47573456
25	0xbf8eaf88	-1.1147318
26	0xbe3f706a	-0.18695226
27	0x3e1405aa	0.14455286
28	0xbe9dcd11	-0.30820516
29	0xbee4ba23	-0.4467326
30	0x3f8ef5d9	1.1168777
31	0x3f3f313d	0.74684507
32	0xbc5369b2	-0.012903618
33	0x3f572003	0.8403322
34	0xbf24bd1a	-0.64351046
35	0xbeedf095	-0.46472612
36	0xbed8d90c	-0.42353094
37	0xbf6702de	-0.9023875
38	0xbda87cc6	-0.08226924
39	0x3f2477ec	0.64245486
40	0xbeaf7553	-0.342692
41	0xbe94417f	-0.2895622
42	0x3f3318a4	0.69959474
43	0xbf8809b9	-1.0627967
44	0xbeea6a11	-0.45784047
45	0x3e96cbfd	0.29452506
46	0x3eb00a46	0.34382838
47	0x3a7bb521	0.00096018804
48	0x3f1a55f9	0.60287434
49	0x3e29deb9	0.16588868
50	0x3e0b33fa	0.13594046
51	0xbc95eed2	-0.018302355
52	0x3ebae430	0.36502218
53	0x3e3f9637	0.18709646
54	0x3f08a120	0.5337086
55	0x3db67ac1	0.08910132
56	0x3ddd2ac4	0.107991725
57	0x3f7d4fed	0.9895008
58	0x3e17ee78	0.14837062
59	0x3e27284b	0.16323964
60	0x3f1f0e5f	0.62131304
61	0x3dd11778	0.102095544
62	0x3d69ba0f	0.057062205
63	0x3d30f0d1	0.04319841
64	0x3f43f833	0.76550597
65	0xbdd14afb	-0.102193795
66	0x3eec5d41	0.46164897
67	0x3f29fe0d	0.66403276
68	0xbe5f8953	-0.21829729
69	0x3ed13704	0.40862286
70	0x3e04aef9	0.12957372
71	0xbef5e453	-0.4802576
72	0xbeba4691	-0.36381963
73	0x3ee08844	0.43853962
74	0xbe68a3da	-0.22718754
75	0x3e0aa068	0.13537753
76	0x3f3987c2	0.72472775
77	0xbe45f299	-0.19330825
78	0xbc86948d	-0.016428256
79	0x3e20e7d2	0.15713432
80	0xbea5b21c	-0.3236245
81	0x3f8db5cb	1.1071104
82	0x3ded8a7b	0.11598679
83	0xbc602448	-0.013680525
84	0x3ef8555f	0.48502633
85	0x3f4b24ab	0.79352826
86	0xbe8c0dde	-0.2735433
87	0x3f236f26	0.63841474
88	0xbc84af09	-0.016196745
89	0xbeb50afa	-0.35359937
90	0x3f2810a6	0.65650403
91	0xbe0a8eaa	-0.13530985
92	0x3d1e0d24	0.03858675
93	0x3f27921b	0.65457314
94	0xbec5396c	-0.38520372
95	0x3d470705	0.04859068
96	0x3f89f608	1.0778208
97	0xbf82533c	-1.0181651
98	0xbd9f7c36	-0.07787363
99	0x3eb5b009	0.35485867
100	0xbf799a58	-0.97501135
101	0xbf08b6c7	-0.53403896
102	0x3f743d9d	0.95406514
103	0x3e4d9c6d	0.20079203
104	0x3caf907f	0.021431206
105	0x3f9b9f4f	1.2157992
106	0xbef0db90	-0.47042513
107	0xbe9c13d1	-0.3048387
108	0x3ef5bc96	0.47995442
109	0x3f1c50ee	0.6106099
110	0x3e71f5ef	0.23628972
111	0x3f138485	0.57624084
112	0x3e75fc30	0.24021983
113	0xbd63db30	-0.055628955
114	0x3e66fc28	0.22557127
115	0x3ec3eadd	0.38265124
116	0x3e81f491	0.25381902
117	0x3fa0c08a	1.2558758
118	0xbf49f288	-0.788857
119	0xbe0654ab	-0.13118236
120	0x3fe532ae	1.7906091
121	0x3f44ebe6	0.7692245
122	0xbe079a8b	-0.13242547
123	0x3f84af77	1.0366048
124	0xbdb6aecd	-0.08920059
125	0x3e33084c	0.17483634
126	0xbe96e95a	-0.29474908
127	0xbdb8bd22	-0.09020449
128	0xbe386320	-0.18006563
129	0xbe9ce0a1	-0.30640128
130	0x3eb059fd	0.34443656
131	0x3ea912d9	0.33022192
132	0x3e10f99f	0.14157723
133	0x3e464e3d	0.19365783
134	0x3d9a9376	0.07547657
135	0xbeee1af4	-0.4650494
136	0xbd382b13	-0.044962954
137	0x3e9c2dbc	0.30503643
138	0xbed6cac3	-0.4195157
139	0x3e020b42	0.12699607
140	0xbd156d41	-0.036481146
141	0xbf53067f	-0.8243179
142	0xbd931467	-0.07181626
143	0x3f16782f	0.58777136
144	0xbea887d4	-0.3291613
145	0xbeefb9aa	-0.46821338
146	0xbf361467	-0.7112488
147	0x3dff0cea	0.12453635
148	0x3ef0c17f	0.47022626
149	0x39812db7	0.00024638858
150	0x3df45791	0.119307645
151	0x3ebdbe10	0.3705907
152	0x3dc806da	0.09766932
153	0xbeb5979c	-0.3546723
154	0x3e568681	0.20949747
155	0xbcddcba2	-0.027074639
156	0x3ef38709	0.4756396
157	0x3eeacae5	0.4585792
158	0xbebf987d	-0.37421027
159	0x3e208b80	0.15678215
160	0x3e1a80a7	0.1508814
161	0xb8ed44bd	-0.00011313844
162	0xbe6c1583	-0.23055081
163	0xbe435b74	-0.19077855
164	0x3de5b2a4	0.112157136
165	0x3f449e97	0.7680449
166	0x3ee75cb3	0.4518791
167	0xbdf1ec38	-0.11812633
168	0x3eb63127	0.35584375
169	0x3e4b97c1	0.19882108
170	0xbda15281	-0.078770645
171	0xbf289632	-0.6585418
172	0xbe76a73e	-0.24087235
173	0x3dd09908	0.101854384
174	0x3dde4e83	0.10854819
175	0xbcc04020	-0.023468077
176	0xbeb37253	-0.3504816
177	0x3d081072	0.03321881
178	0x3e9b2db9	0.3030832
179	0x3e6bd503	0.23030476
180	0xbdf293a7	-0.11844569
181	0x3a2850d3	0.0006420735
182	0xbe8bd82c	-0.27313364
183	0x3ecce350	0.40017176
184	0xbd37f028	-0.044906765
185	0xbf0a74e8	-0.54084635
186	0x3efee0c6	0.49780864
187	0x3e28eb9d	0.1649613
188	0x3d7218b1	0.05910558
189	0x3dcd6dbe	0.10030697
190	0x3e220a09	0.1582414
191	0x3e2614f3	0.16218929
192	0x3e55fd0e	0.20897314
193	0x3e0974f0	0.13423514
194	0x3e3cc6d6	0.18435225
195	0xbe94dc65	-0.29074398
196	0xbe76d938	-0.241063
197	0x3d55e188	0.052217036
198	0xbdddcdb2	-0.10830249
199	0x3e4d964a	0.20076862
200	0x3ebe398b	0.37153277
201	0x3e0e1641	0.13875677
202	0x3dfef737	0.12449496
203	0x3ebecd53	0.37266025
204	0xbe7bb57e	-0.24580953
205	0xbea617e0	-0.3244009
206	0x3d2bfaed	0.04198735
207	0xbe81dbad	-0.25362912
208	0x3d07e093	0.033173155
209	0x3e195215	0.14972718
210	0x3e250875	0.16116507
211	0x3e732f1a	0.23748437
212	0xbe14dcef	-0.14537404
213	0xbebc8879	-0.3682287
214	0xbceb3595	-0.028712073
215	0x3f180a5c	0.5939081
216	0xbd8e56da	-0.06950159
217	0xbd037497	-0.03209361
218	0x3e20ff14	0.15722305
219	0x3e6d05a5	0.23146684
220	0x3e56fca4	0.20994812
221	0x3d650dbf	0.055921312
222	0xbbfed832	-0.0077772373
223	0x3e5f4630	0.21804118
224	0x3e15cc6a	0.14628759
225	0xbe510ee1	-0.20415832
226	0x3d9aeb6a	0.07564433
227	0x3e0e409d	0.13891836
228	0x3ebcf4cc	0.36905515
229	0x3ece8ffd	0.4034423
230	0x3cb6831b	0.022279313
231	0xbe9f7eca	-0.3115142
232	0x3e25442d	0.16139288
233	0x3ed24bb7	0.4107339
234	0xbec0899a	-0.37604982
235	0xbda5ea94	-0.08101383
236	0xbdba1604	-0.090862304
237	0x3ec83650	0.39103937
238	0x3e12b8cb	0.14328305
239	0x3c901385	0.017587433
240	0xbe3a1c33	-0.1817482
241	0x3e46160f	0.19344352
242	0x3d9813f0	0.07425678
243	0x3ec9d88f	0.39423034
244	0x3dfe1834	0.1240696
245	0xbe90aa11	-0.2825475
246	0x3ec39426	0.38198966
247	0x3ea5fc32	0.32418972
248	0xbebc6614	-0.3679663
249	0xbe951900	-0.29120636
250	0x3edd885d	0.432681
251	0x3e8ec32d	0.27883282
252	0xbafd2816	-0.0019314315
253	0x3e02a8e5	0.1275974
254	0x3e845e18	0.25853038
255	0x3de5dc95	0.11223713

cnn_net.3.bias f4 [32]
0	0xbd9ed23f	-0.07754945
1	0x3d90da13	0.07072844
2	0xbe95de31	-0.2927108
3	0xbe2f0f9b	-0.17095797
4	0xbec34562	-0.38138872
5	0x3d18c9ce	0.03730183
6	0xbdd8db31	-0.105886824
7	0xbedb3bd1	-0.42819074
8	0xbdee0c6a	-0.116234615
9	0xbf07805b	-0.5293023
10	0x3d2844f6	0.04108139
11	0xbed1ab1e	-0.40950865
12	0xbec8e156	-0.39234418
13	0x3d319c68	0.04336205
14	0xbe38c702	-0.18044665
15	0x3e3432a9	0.1759745
16	0xbf2eac61	-0.6823178
17	0xbd97bc39	-0.074089475
18	0xbe27fd98	-0.16405332
19	0xbc8f04f4	-0.017458417
20	0x3d068e25	0.032850403
21	0x3cd6812b	0.026184639
22	0x3d80a70d	0.062818624
23	0xbd62d3ee	-0.055377893
24	0xbe215e3a	-0.15758601
25	0x3d419e08	0.04726985
26	0x3d79ee80	0.061018467
27	0xb93fc7bc	-0.00018289586
28	0x3d4482e8	0.047976404
29	0x3f1c6b8d	0.6110161
30	0xbdc5ab94	-0.096518666
31	0xbd9fbcfd	-0.077997185

hidden.weight f4 [32, 128]
0	0xbf029f40	-0.51024246
1	0xbe377d3c	-0.17918867
2	0xbed2efdd	-0.41198626
3	0xbe0f295d	-0.13980623
4	0xbe3b9d84	-0.18321806
5	0xbd3c0fb0	-0.0459134
6	0xbd301454	-0.042988136
7	0x3df079cd	0.11741982
8	0xbd94fd6f	-0.07274901
9	0x3eb4b671	0.35295442
10	0xbbf3d086	-0.0074406294
11	0x3ec6230a	0.38698608
12	0x3dd5cca5	0.104394235
13	0x3d32b265	0.04362716
14	0xbdf9cf00	-0.12197685
15	0x3d90eb44	0.07076123
16	0xbe3de20d	-0.18543263
17	0xbe3f59e6	-0.18686637
18	0xbe0895e8	-0.13338435
19	0x3e11eed3	0.1425126
20	0x3dc7865d	0.09742425
21	0x3dd559fc	0.10417554
22	0xbd9ba6ed	-0.07600198
23	0xbc5afbe0	-0.013365716
24	0xbe06de53	-0.13170747
25	0xbd988c0a	-0.07448585
26	0xbe843813	-0.2582403
27	0x3d092318	0.033480734
28	0xbd4be9b8	-0.04978344
29	0x3d4efdbe	0.050534956
30	0xbeb7ec0f	-0.35922286
31	0xbec1ffb2	-0.37890393
32	0x3e149e94	0.14513618
33	0x3f050298	0.5195708
34	0x3e31bac2	0.17356399
35	0xbea03e35	-0.3129746
36	0x3cea6547	0.028612746
37	0x3dd0abe0	0.101890326
38	0xbe6bc6e6	-0.23025092
39	0xbe971f78	-0.29516196
40	0xbda14ce5	-0.078759946
41	0x3dd5c7b9	0.10438485
42	0x3e336849	0.1752025
43	0x3d46371e	0.048392408
44	0xbedcbad5	-0.43111292
45	0x3f6fbe3c	0.9364965
46	0x3ed7d47c	0.421543
47	0xbe25b098	-0.16180646
48	0xbe72e47f	-0.23719977
49	0xbe991c4f	-0.2990441
50	0xbd7d170c	-0.061789557
51	0xbe8d9c0f	-0.27658126
52	0xbe5a86a6	-0.21340427
53	0x3e0e3706	0.13888177
54	0xbe87b2f0	-0.26503706
55	0xbd3712d9	-0.04469571
56	0x3e4e9a03	0.20175938
57	0x3e2d6f6a	0.16937032
58	0xbc552473	-0.013009178
59	0xbe369b1b	-0.17832606
60	0xbe6f6e9c	-0.23382038
61	0x3debd023	0.11514308
62	0xbd34b985	-0.044122238
63	0x3e04dc91	0.12974764
64	0x3ef06010	0.4694829
65	0x3ef49eaf	0.47777316
66	0x3e8be026	0.2731945
67	0x3ee35122	0.44397837
68	0xbeaa5b50	-0.3327279
69	0x3e68d5b5	0.22737773
70	0x3cafbcd8	0.021452352
71	0x3cd89b57	0.02644126
72	0xbf18a1dc	-0.5962198
73	0x3e36470e	0.17800543
74	0xbe86532b	-0.26235327
75	0xbdbbbbad	-0.09166656
76	0xbd8b0567	-0.0678814
77	0x3d4b96f0	0.049704492
78	0xbea1e0c5	-0.31616798
79	0xbd9e768e	-0.07737456
80	0x3c978f01	0.018500807
81	0x3e183895	0.14865334
82	0xbd9619c6	-0.07329135
83	0xbe819682	-0.2531014
84	0xbe93f7c2	-0.28899962
85	0x3da17fe6	0.07885723
86	0xbc13fbe7	-0.009032226
87	0x3e2cb40e	0.1686556
88	0xbe4ec53c	-0.20192426
89	0x3d110667	0.035406496
90	0x3e84883e	0.25885195
91	0xbd945f3e	-0.072447285
92	0xbec40eb3	-0.38292465
93	0xbe7f4db5	-0.24931987
94	0xbe6e27cf	-0.23257373
95	0xbe4645ed	-0.19362612
96	0x3d85236f	0.06500899
97	0x3e877897	0.2645919
98	0x3db91738	0.09037632
99	0x3dc12aa9	0.09431965
100	0xbd6cc0f5	-0.057801206
101	0x3e6e5ac8	0.23276818
102	0xbd9f9d12	-0.07793631
103	0xbca989ec	-0.02069565
104	0xbd185cb0	-0.03719777
105	0x3e4bb202	0.19892123
106	0x3e39531f	0.18098114
107	0x3d66c4a6	0.056339882
108	0xbec77e2d	-0.38963452
109	0x3e1cb399	0.15302886
110	0x3bda5752	0.0066632414
111	0xbda37583	-0.07981398
112	0xbd66f83d	-0.056389082
113	0x3e6d0b08	0.2314874
114	0x3cdcc240	0.026948094
115	0x3b9c4296	0.00476868
116	0xbf6556d4	-0.89585614
117	0x3c9c4032	0.01907358
118	0x3e09cd91	0.13457324
119	0xbf96669c	-1.1750064
120	0x3da9070d	0.08253298
121	0x3e73fa47	0.23825942
122	0xbd2ac233	-0.04168911
123	0x3e17afe7	0.14813195
124	0xbdf5c3fc	-0.12000272
125	0xbe6fd001	-0.23419191
126	0xbe9a4ff6	-0.3013913
127	0xbf1ead03	-0.61982745
128	0xbd7dcfcc	-0.06196575
129	0x3db7a08e	0.0896617
130	0x3b7ec78b	0.003887626
131	0x3bb8d5d8	0.0056407265
132	0x3e2f1e92	0.17101505
133	0xbe2a349b	-0.1662163
134	0x3c986063	0.018600648
135	0x3da1c52e	0.07898937
136	0xbd550d1d	-0.05201446
137	0xbe734753	-0.23757677
138	0xbe2a5a30	-0.16635966
139	0xbeb16d0c	-0.3465351
140	0xbcc64b47	-0.024205817
141	0xbe7efcc4	-0.2490111
142	0xbdb43761	-0.08799625
143	0x3e3481ba	0.17627612
144	0xbcdfe5ad	-0.027331198
145	0xbd980052	-0.07421936
146	0x3ca47f2c	0.020080172
147	0xbe89b7db	-0.26898083
148	0x3d5dfc4c	0.054195687
149	0x3c13a867	0.009012318
150	0x3de4de11	0.11175168
151	0xbdf4e446	-0.11957602
152	0xbdcb09b4	-0.0991396
153	0x3c4cadde	0.012492625
154	0xbdd061c6	-0.10174899
155	0x3e122a1a	0.14273873
156	0xbdc17880	-0.09446812
157	0x3e37b7dd	0.17941232
158	0x3e2c3940	0.16818714
159	0xbda00c80	-0.07814884
160	0xbc545881	-0.012960554
161	0x3ddc2928	0.107500374
162	0xbd5645a4	-0.05231251
163	0xbd355f2a	-0.04428021
164	0x3ca8980b	0.020580312
165	0x3daf31c8	0.08554417
166	0x3e793a4b	0.24338643
167	0xbc908b6d	-0.017644608
168	0xbde39db3	-0.11114063
169	0x3ce90e11	0.02844909
170	0x3d2653b9	0.040607188
171	0xbbd608bb	-0.0065318025
172	0x3e1db176	0.15399727
173	0x3d0c41ed	0.03424256
174	0x3d8ea4e3	0.069650434
175	0xbd39fbd9	-0.045406196
176	0xbd9d2a4d	-0.07674084
177	0xbd59cd00	-0.05317402
178	0xbda0cd62	-0.07851674
179	0xbd07bcf7	-0.033139195
180	0xbed10c59	-0.40829733
181	0x3e12d3a8	0.14338553
182	0xbe33e988	-0.17569554
183	0x3b88fef7	0.004180785
184	0xbe8e6cb5	-0.27817312
185	0xbce26676	-0.027636748
186	0xbc52c1c8	-0.012863584
187	0xbc7cfded	-0.0154414
188	0xbd850709	-0.064954825
189	0xbe1a66b9	-0.15078248
190	0x3d79d641	0.060995344
191	0xbd543b84	-0.05181457
192	0x3d4f05ee	0.050542764
193	0xbd6a2aa8	-0.057169586
194	0xbd645c98	-0.055752367
195	0xbe5957e9	-0.21224941
196	0xbdad7493	-0.084695004
197	0xbe0cb04a	-0.13739124
198	0xbd6cae26	-0.05778327
199	0x3c36fca0	0.011168629
200	0xbc7074f5	-0.014676322
201	0x3d5499f1	0.051904622
202	0xbe2712f8	-0.1631583
203	0x3e43b77b	0.19112961
204	0xbcfd00da	-0.030884195
205	0x3dbbcaf0	0.09169567
206	0x3e1c4337	0.15260015
207	0x3c499654	0.012303907
208	0x3dd52f62	0.10409428
209	0xbbb79aeb	-0.0056031845
210	0x3c975962	0.018475238
211	0xbde64b7a	-0.11244865
212	0xbd422508	-0.047398597
213	0xbe369be6	-0.17832908
214	0xbd2567cd	-0.040382195
215	0xbe23cdee	-0.15996525
216	0xbd389525	-0.04506411
217	0xbd6df541	-0.05809522
218	0x3e3166b2	0.17324331
219	0x3cacc536	0.021090131
220	0xbdc7520a	-0.097324446
221	0xbc6072e2	-0.013699265
222	0xbe8277e5	-0.25482097
223	0xbdd1dfe0	-0.10247779
224	0xbdbdf374	-0.092749506
225	0x3d551d20	0.05202973
226	0x3b91b153	0.0044461875
227	0xbdaca2e6	-0.08429508
228	0xbd2637f9	-0.040580723
229	0xbe57efc6	-0.2108756
230	0xbd72810a	-0.059205092
231	0xbdccce96	-0.10000341
232	0x3e8bd71f	0.27312562
233	0xbc3cdaad	-0.011526746
234	0xbbc20b4f	-0.0059217582
235	0xbd63dbfe	-0.055629723
236	0xbeb57607	-0.3544161
237	0xbcd08aff	-0.025456904
238	0x3d998cb2	0.074975386
239	0xb93b21e8	-0.00017846341
240	0xbbff96ed	-0.007799974
241	0x3e678175	0.22607978
242	0x3dc1a29b	0.09454843
243	0xbd945bdf	-0.072440855
244	0x3dc475ff	0.095928185
245	0xbdbd16e8	-0.09232885
246	0xbd2fa1ca	-0.042878903
247	0x3e4e251a	0.2013134
248	0x3e450027	0.1923834
249	0x3dacebce	0.08443414
250	0xbe02bbc6	-0.12766942
251	0xbe5d7686	-0.21627244
252	0xbda35931	-0.07975996
253	0x3e576fcf	0.21038745
254	0x3c7fdbc0	0.015616357
255	0xbe09cd02	-0.1345711

hidden.bias f4 [32]
0	0xbe1d5492	-0.15364292
1	0xbc54f1e9	-0.012997129
2	0xbe4a6df1	-0.19768502
3	0xbe48f1ae	-0.19623443
4	0x3e7891fa	0.24274436
5	0x3e8010a0	0.25012684
6	0xbe3fc38e	-0.18726942
7	0xbb9dfdda	-0.004821521
8	0xbd5c3ed5	-0.05377086
9	0xbe479c45	-0.19493206
10	0xbe57c61a	-0.21071663
11	0x3e63bb1c	0.22239345
12	0xbe3d2bec	-0.18473786
13	0x3dd92f7a	0.106047586
14	0xbe580bde	-0.21098277
15	0x3e7c27ba	0.2462453
16	0x3e6f9e94	0.23400337
17	0xbdf41232	-0.11917533
18	0xbd837e8f	-0.064206235
19	0xbe9c0571	-0.304729
20	0x3e3a390f	0.18185829
21	0xbb9922fc	-0.00467336
22	0x3e646901	0.22305681
23	0xbc962116	-0.018326323
24	0xbcca2912	-0.024677787
25	0xbcf45ff2	-0.029830907
26	0xbe482179	-0.19544019
27	0x3df950d3	0.12173619
28	0x3e6e1900	0.23251724
29	0x00000000	0.0
30	0xbeb4ff0e	-0.3535084
31	0x3e7b8069	0.24560703

out.weight f4 [1, 32]
0	0xbf66f330	-0.90214825
1	0xbe2aad51	-0.16667677
2	0xbe75bff5	-0.23999007
3	0xbda82e22	-0.08211924
4	0x3e89cd73	0.26914558
5	0x3ef1bcb7	0.4721429
6	0xbebb1cdb	-0.36545452
7	0xbd600413	-0.054691385
8	0x4035a79d	2.8383553
9	0xbe4896dc	-0.19588798
10	0xbcdf0cdf	-0.027227817
11	0x3dbc1752	0.091841355
12	0xbe633720	-0.22188997
13	0x3ed62149	0.4182227
14	0xbf0197ba	-0.5062214
15	0x3eb90b52	0.3614145
16	0x3e7014da	0.23445454
17	0x402b6aba	2.678389
18	0x403fb81c	2.9956121
19	0xc001e040	-2.0293121
20	0x3d0d83d8	0.034549564
21	0x4047926f	3.1183126
22	0x3d93e49d	0.07221339
23	0x4050b09b	3.2607791
24	0x40473948	3.1128712
25	0x3deae424	0.114692956
26	0xbee9ea62	-0.45686632
27	0xbd9f1833	-0.077682875
28	0x3e1d192e	0.15341637
29	0x3ea6789f	0.32513902
30	0xc021a5ef	-2.5257528
31	0x3e9e8d6b	0.30967268
