train_history/olympics-running/11_23_16_49/critic.pth (torch, 47330 bytes, 11 tensors)

encoder.0.weight f4 [8, 4, 3, 3]
0	0x3ec8f7d1	0.3925157
1	0xbef34776	-0.47515458
2	0xbeb3afcc	-0.3509506
3	0x3eecf546	0.4628088
4	0xbe81f9b9	-0.25385836
5	0x3f018119	0.5058761
6	0x3e56b16f	0.20966123
7	0xbf7027db	-0.93810815
8	0xbf86f94f	-1.0544833
9	0x3ed78b03	0.42098245
10	0x3eb5dc14	0.3551947
11	0x3fb2b103	1.396027
12	0x3ebf890f	0.37409255
13	0xbe4763a3	-0.19471602
14	0x3dd241be	0.102664456
15	0xbe608201	-0.21924593
16	0xbf9b3a84	-1.2127233
17	0xbf0ca925	-0.54945594
18	0x3de9a7de	0.11408971
19	0xbdde49da	-0.1085393
20	0x3e82e601	0.25566104
21	0xbeaf89f3	-0.34284934
22	0x3dbb4350	0.09143698
23	0xbeaa335a	-0.33242303
24	0xbdab988e	-0.08378707
25	0xbf2b0cdd	-0.668165
26	0x3db489f0	0.08815372
27	0x3eee3c6f	0.46530482
28	0xbf69ee55	-0.9137929
29	0xbf357fa8	-0.7089791
30	0x3e2ecd30	0.1707046
31	0x3fdb24da	1.7120621
32	0x3f07f98d	0.5311516
33	0xbdef8bdd	-0.11696599
34	0xbfbe8fcd	-1.4887635
35	0x3f14c550	0.58113575
36	0x3e0596e9	0.13045849
37	0xbe3ea1cd	-0.1861641
38	0xbe67b86c	-0.22628945
39	0xbe60b45a	-0.21943799
40	0x3dca3ede	0.09875272
41	0xbf161097	-0.58619064
42	0x3d3a1a0a	0.04543499
43	0x3e805262	0.25062853
44	0x3e4000ff	0.1875038
45	0xbf508185	-0.8144763
46	0xbf43e6fa	-0.7652432
47	0xbeb43c4d	-0.35202256
48	0x3f371146	0.7151073
49	0xbdc949df	-0.09828543
50	0xbfa9a8dc	-1.3254657
51	0x3e1a9e00	0.15099335
52	0x3fa4151f	1.2818946
53	0x3efd6c2c	0.4949659
54	0x3cce9a7d	0.02522015
55	0x3e408e93	0.18804388
56	0xbd01efff	-0.03172302
57	0xbdbfc49c	-0.09363672
58	0xbed9f5c3	-0.42570314
59	0xbe6dc209	-0.2321855
60	0xbe7b36d8	-0.2453264
61	0xb99d53bb	-0.00030007758
62	0xbeba28c8	-0.3635924
63	0xbd99e838	-0.07514995
64	0x3e067188	0.13129246
65	0xbf6e35fa	-0.9305111
66	0x3fa72e27	1.306096
67	0x3e0bcc25	0.13652094
68	0xbfb5c0bc	-1.4199443
69	0x3ed046c6	0.40678996
70	0x4003c942	2.0591588
71	0x3edceb3b	0.43148217
72	0x3cb7515c	0.022377662
73	0x3ea8de4c	0.329821
74	0x3d82cc90	0.063866735
75	0x3e108deb	0.14116637
76	0x3f223a16	0.6336988
77	0x3ed1a3f6	0.40945405
78	0xbf6259cd	-0.88418275
79	0xbf013531	-0.5047179
80	0xbde90755	-0.113783516
81	0xbfc05d7b	-1.5028528
82	0xbe238d23	-0.15971808
83	0xbf36df45	-0.7143443
84	0x3f137710	0.5760355
85	0xbe534f4c	-0.20635718
86	0x3e97be01	0.2963715
87	0xbf854cdc	-1.0414081
88	0x3eebd020	0.46057224
89	0xbf5bc689	-0.85849816
90	0x3c8aec1e	0.016958293
91	0xbe745df4	-0.23863965
92	0x3e6761fd	0.22595973
93	0x3f11821e	0.5683917
94	0x3fa93861	1.322033
95	0x3e1265e9	0.14296688
96	0x3e98697e	0.29767984
97	0x3ec75d93	0.3893858
98	0x3eae113a	0.33997518
99	0xbf458b4b	-0.7716567
100	0xbdd77618	-0.105205715
101	0xbe1d401c	-0.15356487
102	0xbea83475	-0.32852522
103	0xbea67b99	-0.32516173
104	0xbf86a263	-1.0518306
105	0x3c9943fc	0.018709175
106	0xbed447dc	-0.41461074
107	0xbf275d0d	-0.6537636
108	0x3e8f4e53	0.27989444
109	0xbe82f841	-0.25580028
110	0x3ed6e688	0.41972756
111	0xbea6aa4b	-0.32551798
112	0x3e8b4e0a	0.27207977
113	0xbf066d16	-0.525102
114	0x3ef7c972	0.48395878
115	0x3f20130a	0.6252905
116	0x3f722d95	0.946008
117	0xbf7f8e61	-0.9982663
118	0xbf03d55d	-0.5149744
119	0xbea5c9d1	-0.32380536
120	0xbf20a0f6	-0.62745607
121	0xbf5d45d7	-0.8643469
122	0xbe9dc3c7	-0.3081343
123	0xbeff872d	-0.49907818
124	0xbe2ae54e	-0.16689035
125	0xbe7d9535	-0.24763949
126	0x3daeeca3	0.085412286
127	0x3eee2c10	0.46517992
128	0xbdd88e9c	-0.105740756
129	0x3e81c38e	0.2534451
130	0xbcc6eeda	-0.024283815
131	0x3ee42c53	0.44565067
132	0xbebaa8b0	-0.36456823
133	0x3f17ab7c	0.5924604
134	0xbef8c05f	-0.48584267
135	0xbe14c8ef	-0.14529775
136	0xbf45515a	-0.7707726
137	0xbfcb3ebd	-1.5878521
138	0x3d860ea7	0.065457635
139	0x3f47cc48	0.78046083
140	0x3f232bc2	0.63738644
141	0xbe5c107d	-0.21490665
142	0xbf816a09	-1.0110484
143	0x3b05e9d4	0.0020433562
144	0xbe886075	-0.2663609
145	0xbe12e9c9	-0.14346994
146	0x3d9e3a99	0.0772602
147	0xbeff080a	-0.4981082
148	0xbdc10686	-0.09425072
149	0xbed14c16	-0.4087836
150	0x3e4be9ad	0.19913359
151	0x3eb0e131	0.34546807
152	0x3f103913	0.5633709
153	0x3d98bde0	0.07458091
154	0xbde04b66	-0.10951881
155	0x3caf0962	0.021366779
156	0x3e60c4fd	0.21950145
157	0xbe2881da	-0.16455784
158	0x3f1f407d	0.62207776
159	0xbd678cb8	-0.056530684
160	0x3e186e2e	0.1488578
161	0xbd853c2e	-0.06505619
162	0x3f3ce205	0.7378238
163	0x3dc34818	0.09535235
164	0x3d3f1fd0	0.0466612
165	0xbf88a484	-1.0675206
166	0xbf7b8042	-0.9824258
167	0xbee9d5b0	-0.45670843
168	0xbc906d6e	-0.017630305
169	0x3e503625	0.20333154
170	0x3ee0fb3b	0.43941674
171	0x3e8db109	0.2767413
172	0x3fbf6787	1.4953469
173	0x3ec16cd0	0.3777833
174	0x3e88cbd5	0.26718011
175	0xbff9e0c0	-1.9521713
176	0xbf4a42a2	-0.79007924
177	0xbfb204fd	-1.3907772
178	0xbeb70aac	-0.3575033
179	0xbeb9d282	-0.36293417
180	0x3f158b01	0.5841523
181	0x3e34f424	0.17671257
182	0x3eb1b7a1	0.3471041
183	0x3e72b45c	0.23701614
184	0x3ec79d5d	0.38987246
185	0x3f164fc9	0.5871549
186	0x3d42a8ae	0.047524147
187	0xbdba37db	-0.09092685
188	0xbc603129	-0.013683596
189	0xbb645b86	-0.0034844591
190	0x3e0e041b	0.13868754
191	0x3f266dcc	0.65011287
192	0xbbc186fd	-0.0059059844
193	0x3dc4bd00	0.096063614
194	0x3f326311	0.69682413
195	0xbd35b727	-0.04436412
196	0x3e3ac537	0.18239294
197	0x3f5a4ea0	0.8527622
198	0x3e06e152	0.1317189
199	0x3eee3268	0.46522832
200	0x3ed701b3	0.41993484
201	0x3ef1b2f9	0.47206858
202	0x3f3887de	0.72082317
203	0x3f0e9119	0.5569015
204	0x3d209ff4	0.039215043
205	0x3ead6a32	0.33870083
206	0x3f2f3297	0.6843657
207	0x3f28d6f6	0.65953004
208	0x3d6be980	0.05759573
209	0x3eb8c7e1	0.36089996
210	0x3f720c7b	0.94550294
211	0x3e95b52e	0.29239792
212	0x3f149f4a	0.58055556
213	0x3eabe2be	0.33571428
214	0x3f12514d	0.57155305
215	0x3f258c46	0.64667165
216	0xbe2858b3	-0.16440086
217	0xbdc7ae9e	-0.097501025
218	0xbd12b1f5	-0.035814244
219	0xbe679f9e	-0.22619483
220	0xbe99b3d1	-0.30020002
221	0xbd82bf75	-0.06384174
222	0xbce6d829	-0.028179245
223	0xbe70e6a1	-0.23525478
224	0xbe6da987	-0.23209201
225	0x3f0bdf03	0.54637164
226	0x3e8c1278	0.2735784
227	0x3edeabe3	0.43490514
228	0x3f167753	0.58775824
229	0x3f0f3d35	0.5595277
230	0x3f1042d7	0.5635199
231	0x3d2b8db2	0.041883178
232	0xbe8ddbb2	-0.27706677
233	0xbe5f1f2d	-0.21789236
234	0x3efe69f4	0.4969021
235	0x3da0370f	0.078230016
236	0x3e345fdc	0.17614692
237	0x3f57a5c2	0.842373
238	0x3f765c48	0.9623456
239	0x3f0e1362	0.55498326
240	0x3e47d252	0.19513825
241	0x3f7168e0	0.9430065
242	0x3fb183f8	1.3868399
243	0xbe394e0e	-0.18096182
244	0x3db945f5	0.09046546
245	0x3f31f918	0.6952071
246	0x3e3507e4	0.17678791
247	0x3f4c99c9	0.7992216
248	0x3f1dcc74	0.61640096
249	0x3eee8d5b	0.4659222
250	0x3f978ee8	1.1840487
251	0x3eed37db	0.46331677
252	0xbe7df429	-0.24800171
253	0xbefcefd6	-0.4940173
254	0xbf3f9d1d	-0.7484911
255	0x3ef17721	0.471612

encoder.0.bias f4 [8]
0	0x3d1a4ff9	0.037673924
1	0xbc68b893	-0.014204162
2	0x3c8ec48f	0.01742771
3	0xbd484e2d	-0.04890268
4	0xbcb48589	-0.02203633
5	0x3e7f22fa	0.24915686
6	0x3d27675f	0.040870067
7	0x3c183209	0.009289273

encoder.3.weight f4 [8, 8, 3, 3]
0	0xbf10e40e	-0.56597984
1	0x3eb541c7	0.35401747
2	0x3ef85f98	0.48510432
3	0xbf1f2fe6	-0.6218246
4	0x3e118b8f	0.14213394
5	0x3ea1f78d	0.3163418
6	0xbeb2290e	-0.34796947
7	0xb8726b21	-5.7797068e-05
8	0x3d9e8ce1	0.07741714
9	0xbd334dc7	-0.043775346
10	0xbd93d198	-0.07217711
11	0xbe8a5b9b	-0.27023014
12	0xbf5c4cc3	-0.8605463
13	0x3e293962	0.16525796
14	0x3f0af7f8	0.5428462
15	0xbf95e928	-1.1711779
16	0xbc971fdd	-0.01844781
17	0x3f400ac9	0.75016457
18	0xbf54c908	-0.8311925
19	0xbdd5360f	-0.104107015
20	0x3f206d11	0.6266642
21	0xbf4b3e31	-0.7939177
22	0xbd9f5346	-0.07779555
23	0x3eddb9b7	0.43305752
24	0xbf02f415	-0.5115369
25	0xbe5c53c6	-0.21516332
26	0x3ef61e2a	0.48069888
27	0xbeb94763	-0.36187276
28	0xbe85db1b	-0.26143727
29	0x3f028eeb	0.50999326
30	0xbebd333d	-0.36953154
31	0xbf0c69a6	-0.54848707
32	0x3ee0bdfb	0.43894944
33	0xbe957b02	-0.2919541
34	0xbf0acdf1	-0.5422049
35	0x3e4ba1a9	0.19885887
36	0xbecda0cf	-0.4016175
37	0xbe53a7fd	-0.20669551
38	0xbe9ba757	-0.30401108
39	0xbef691a6	-0.48157996
40	0xbd53b94e	-0.051690392
41	0x3e139399	0.14411773
42	0xbf204f47	-0.6262097
43	0xbeb7a9f4	-0.3587185
44	0xbf097573	-0.5369484
45	0x3d388a38	0.04505369
46	0x3eb2f607	0.3495333
47	0x3eccf4ce	0.4003052
48	0xbeb70702	-0.35747534
49	0x3ea6c353	0.32570896
50	0x3eb7b8eb	0.3588327
51	0xbb710e87	-0.003678234
52	0x3e92279d	0.28545848
53	0x3e890f2c	0.26769388
54	0xbed59d47	-0.41721556
55	0x3de9def3	0.11419477
56	0x3efa8c08	0.4893496
57	0xbf52e3b7	-0.82378715
58	0x3ee7943a	0.45230275
59	0x3ece2f77	0.40270588
60	0xbea82bcd	-0.32845917
61	0x3e7f39fd	0.24924465
62	0x3f23c3dd	0.6397074
63	0xbf0fc176	-0.5615457
64	0xbd49884e	-0.049202256
65	0x3de0f49d	0.10984156
66	0xbf89e888	-1.0774088
67	0xbec76666	-0.3894531
68	0xbeb72187	-0.35767767
69	0xbf5f5c2a	-0.87250006
70	0xbee61865	-0.44940487
71	0xbf0a1e6a	-0.5395266
72	0x3f0c22bf	0.5474052
73	0x3f08e8a6	0.53479993
74	0x3f48bf3e	0.7841681
75	0xbcf2cac6	-0.029637706
76	0x3e591623	0.2119985
77	0x3e5f162a	0.21785799
78	0x3d82dae3	0.063894056
79	0xbed62f41	-0.41832927
80	0xbe3edc9d	-0.18638845
81	0xbd461bc7	-0.048366334
82	0x3f04b5fa	0.51840174
83	0x3f146c42	0.5797769
84	0x3e72be9e	0.23705527
85	0xbdc3358c	-0.09531698
86	0xbc14a0bc	-0.009071525
87	0x3e948abf	0.29012105
88	0xbe128733	-0.14309387
89	0xbf187b95	-0.5956357
90	0xbe22fb22	-0.15916112
91	0xbd10bb1a	-0.035334684
92	0x3dfdb2a6	0.1238759
93	0x3eb93458	0.36172748
94	0xbd871fb3	-0.06597843
95	0x3e0dabfd	0.1383514
96	0x3f3827b7	0.719356
97	0x3f1b3953	0.60634345
98	0x3f2e8b27	0.6818108
99	0x3eaaefde	0.3338613
100	0x3e8a5c4a	0.27023536
101	0x3ec2a05b	0.38012967
102	0x3f4930d2	0.7859012
103	0x3f172510	0.5904093
104	0x3ec9eb3b	0.3943728
105	0x3f5938c7	0.8485226
106	0x3f4b564b	0.7942855
107	0x3f1a4927	0.6026787
108	0x3eef3438	0.46719527
109	0x3e25949d	0.16169973
110	0xbe777524	-0.2416578
111	0x3e50f96d	0.20407648
112	0xbe2cec72	-0.16887072
113	0xbe0d8f6e	-0.13824245
114	0x3e9db651	0.3080316
115	0x3ce2dc7f	0.027693031
116	0x3e3bb5b3	0.18331032
117	0xbe28f381	-0.1649914
118	0xbe767fd6	-0.24072203
119	0x3be55dd0	0.0069997087
120	0xbe1ab6d8	-0.15108812
121	0xbe4136f4	-0.18868619
122	0x3da535a2	0.0806687
123	0xbe430267	-0.19043885
124	0xbe8f4fe1	-0.2799063
125	0x3dec311e	0.11532806
126	0xbcd45763	-0.025920575
127	0x3e13213f	0.14368151
128	0xbc91080d	-0.017704034
129	0xbc7deacf	-0.015497877
130	0x3dfd9a50	0.123829484
131	0x3dee4fad	0.11636291
132	0xbe765c9e	-0.24058768
133	0xbf0073a2	-0.5017644
134	0xbf1cdcd6	-0.6127447
135	0xbea61a61	-0.32442
136	0xbe235bdd	-0.15953012
137	0xbdb87019	-0.09005756
138	0x3d7bd778	0.061484784
139	0x3c2d3f4f	0.010574176
140	0xbe843b5d	-0.2582654
141	0x3f570765	0.8399566
142	0x3f3a57d6	0.72790277
143	0x3f00b595	0.5027707
144	0xbe92ea93	-0.2869459
145	0xbf31f23a	-0.69510233
146	0xbf4d4a76	-0.80191743
147	0x3eb03233	0.344133
148	0xbe2d0884	-0.1689778
149	0xbf519644	-0.8186991
150	0x3f4d018c	0.80080485
151	0xbde41abd	-0.111379124
152	0xbf86f5ff	-1.0543822
153	0x3e26d89c	0.16293567
154	0xbda0719c	-0.07834169
155	0xbecbc06c	-0.39795244
156	0x3dd299cb	0.1028324
157	0x3f065f21	0.52488905
158	0x3f2dd427	0.67901844
159	0x3f717608	0.94320726
160	0x3f7632a6	0.96171033
161	0x3f88865d	1.0666004
162	0x3f3470c5	0.7048457
163	0xbed59300	-0.41713715
164	0xbfd85479	-1.6900779
165	0x3faf8200	1.3711548
166	0x3f396b41	0.7242928
167	0xbf3d003a	-0.7382847
168	0x3fbac69d	1.4591862
169	0x3fb58732	1.4181883
170	0x3f3cd309	0.73759514
171	0x3e9cb26b	0.30604872
172	0x3ee12770	0.439754
173	0xbf39cd1b	-0.7257859
174	0xbd5153d0	-0.05110532
175	0x3dba1c81	0.09087468
176	0xbf447aa7	-0.7674965
177	0x3f36902d	0.71313745
178	0x3f64979f	0.89293855
179	0x3eac4aae	0.33650726
180	0xbea2b9a2	-0.31782252
181	0xbe0c0e6b	-0.13677375
182	0xbf82a9b9	-1.0208045
183	0xbd0799eb	-0.033105772
184	0x3e245ab9	0.16050233
185	0xbe9936f4	-0.29924738
186	0xbe04ddb3	-0.12975197
187	0x3e8ef505	0.2792131
188	0xbf1bfd6a	-0.60933554
189	0xbe20de57	-0.15709816
190	0xbebf2985	-0.37336364
191	0xbebc9223	-0.36830243
192	0x3eeab844	0.4584371
193	0x3bc45e2e	0.0059926724
194	0xbe5d4dde	-0.21611735
195	0x3f163b8c	0.5868461
196	0x3e6e72c6	0.2328597
197	0x3ec2f3e9	0.38076714
198	0x3e0eb311	0.13935496
199	0xbe552556	-0.20815024
200	0xbf2cbc12	-0.6747447
201	0x3f783305	0.9695285
202	0x3e3a5ce0	0.18199492
203	0xbddd81d0	-0.108157754
204	0x3f596183	0.84914416
205	0x3f271002	0.652588
206	0x3f312c6a	0.69208395
207	0x3eb240fb	0.348152
208	0xbf164fd9	-0.5871559
209	0xbfb90acd	-1.4456421
210	0x3f69aab5	0.91276103
211	0x3eb007b1	0.34380868
212	0xbf42f8a6	-0.7616066
213	0x3faebc43	1.3651203
214	0x3fcf2149	1.6182033
215	0x3f1e66e7	0.61875767
216	0x3f89113d	1.0708386
217	0x3f7bc794	0.9835141
218	0x3fa19f23	1.262669
219	0x3dce4015	0.100708164
220	0xbf0aba2d	-0.5419033
221	0x3e1acec8	0.15117943
222	0x3f79315c	0.9734094
223	0x3f4c3c52	0.7977954
224	0x3f6a63d8	0.915586
225	0x3f5907a8	0.8477731
226	0x3efb5489	0.49087933
227	0x3f7f027c	0.99613166
228	0x3e23aad9	0.15983142
229	0xbee1db23	-0.441125
230	0x3ed60f49	0.41808537
231	0x3f093c04	0.536072
232	0x3cc4b222	0.024010722
233	0x3fbfd388	1.4986429
234	0x3f22117c	0.6330793
235	0x3ef1a27e	0.47194284
236	0x3f73ae3a	0.95187724
237	0x3e052a5f	0.13004445
238	0xbe5d1a18	-0.21591985
239	0x3e2a96d1	0.16659094
240	0x3f865531	1.0494748
241	0x3e3622a8	0.17786658
242	0x3f8e2ada	1.1106827
243	0x3ebc82e7	0.3681862
244	0x3f478813	0.7794201
245	0x3f588d80	0.8459091
246	0xbe3ec114	-0.18628341
247	0xbd50197f	-0.050805565
248	0xbd84fc1f	-0.06493401
249	0x3ed00b0c	0.40633428
250	0x3ee87e1e	0.4540872
251	0x3f2a14c0	0.6643791
252	0x4013cda4	2.3094263
253	0x402d22d7	2.7052515
254	0x40247d8e	2.5701632
255	0xbedaba5d	-0.4272031

encoder.3.bias f4 [8]
0	0x3fa9cb32	1.3265135
1	0xbe5973ab	-0.2123553
2	0xbf0a1ed2	-0.5395328
3	0xbfbf550e	-1.4947832
4	0xbf588681	-0.84580237
5	0xbe2fbbfe	-0.17161557
6	0xbeba26c3	-0.36357698
7	0xbea186ae	-0.31548065

cnn_net.0.weight f4 [16, 8, 3, 3]
0	0x3eaf0781	0.34185413
1	0xbe99a525	-0.30008808
2	0xbf3c9859	-0.73669964
3	0xbe0d9dd4	-0.13829738
4	0xbeed2bed	-0.46322575
5	0xbf6d3c1a	-0.9266983
6	0x3ed7bc4e	0.42135853
7	0xbf1c3d6c	-0.6103122
8	0xc019883f	-2.3989408
9	0x3eb47bcd	0.35250703
10	0x3e92bda0	0.28660297
11	0x3e9a4702	0.301323
12	0xbf11c09e	-0.56934536
13	0x3e6b671f	0.22988556
14	0x3f24f76b	0.6444003
15	0x3e8654ee	0.2623667
16	0x3e780a77	0.24222742
17	0x3f241a6d	0.6410282
18	0xbe3fe691	-0.18740298
19	0x3db722f0	0.08942211
20	0x3ecedf75	0.4040486
21	0xbd8bb279	-0.0682115
22	0x3df6f43e	0.12058304
23	0x3e3e15fd	0.18563075
24	0xbeb2f039	-0.349489
25	0xbf200432	-0.625064
26	0xbe57b161	-0.21063758
27	0xbe04bb64	-0.12962109
28	0x3ed3cdfc	0.4136809
29	0x3f0d2942	0.5514108
30	0xbd587bdb	-0.052852493
31	0xbea9dcec	-0.33176363
32	0x3e245112	0.16046551
33	0xbca7d611	-0.020487817
34	0x3e8f113b	0.27942833
35	0x3d714c79	0.05891082
36	0xbdbf5af8	-0.09343523
37	0x3c583336	0.013195803
38	0x3e220cd3	0.15825205
39	0xbe56886a	-0.20950475
40	0x3db6ed79	0.08932013
41	0x3c3f3acd	0.011671734
42	0xbedae719	-0.4275444
43	0xbdb87b1e	-0.09007858
44	0xbe308377	-0.1723765
45	0x3f40abcf	0.7526216
46	0x3f1fc15a	0.62404406
47	0x3f46f3fc	0.7771604
48	0x3f3170d1	0.6931277
49	0x3f792b1d	0.9733141
50	0x3f66e815	0.9019788
51	0x3f2d96ea	0.678084
52	0x3efe2446	0.4963705
53	0x3f2b054b	0.6680495
54	0x3f2393b5	0.6389726
55	0xbdcb414d	-0.099245645
56	0x3e0c5337	0.13703619
57	0x3e8295a8	0.25504804
58	0x3f13f440	0.5779457
59	0x3f4f612e	0.8100766
60	0x3f34ee1f	0.70675844
61	0x3d5ea404	0.054355636
62	0x3ea42526	0.32059592
63	0x3d84426b	0.06457981
64	0x3df22a23	0.11824443
65	0x3e216270	0.15760207
66	0x3e5258ce	0.20541689
67	0xbce46337	-0.02787934
68	0x3eb6a8c5	0.35675636
69	0xbe389386	-0.18025026
70	0xbe59dba9	-0.212752
71	0xbe2f86de	-0.17141291
72	0x3e2793c2	0.16364959
73	0xb9c16bd9	-0.0003689218
74	0x3da743c4	0.08167222
75	0x3da0a44d	0.07843838
76	0xbe7514fc	-0.23933786
77	0xbe5c2314	-0.21497756
78	0x3da89463	0.082314275
79	0xbf2a4465	-0.6651061
80	0xbe6c3908	-0.2306863
81	0xbea1440d	-0.3149723
82	0x3e99c163	0.30030355
83	0x3f1ac997	0.6046385
84	0x3f8921c8	1.0713434
85	0x3f74a3ca	0.9556242
86	0x3fcea376	1.6143634
87	0x3e0c0f1f	0.13677643
88	0xbe7f9086	-0.24957475
89	0x3f05d7d5	0.5228246
90	0xbe918635	-0.28422704
91	0xbb93dc96	-0.00451238
92	0x3c203a5e	0.009779541
93	0x3e493f6a	0.19653097
94	0xbf2262d2	-0.6343204
95	0xbd84e0b1	-0.06488169
96	0x3f07e2af	0.53080267
97	0xbf464aba	-0.77457774
98	0xbf169a6b	-0.58829373
99	0xbeb95098	-0.361943
100	0xbe5a1932	-0.21298674
101	0xbe59f911	-0.21286418
102	0x3e823350	0.25429773
103	0x3e732f12	0.23748425
104	0x3ee89429	0.45425537
105	0xbeb7a195	-0.35865465
106	0xbf1ce4f4	-0.61286855
107	0x3c9f732f	0.019464104
108	0xbe1571ce	-0.14594194
109	0xbe8368fd	-0.25666037
110	0xbee60460	-0.44925213
111	0x3ed5c80e	0.41754192
112	0xbd82e0ab	-0.06390508
113	0xbdc4dd29	-0.096124955
114	0x3e9744de	0.2954473
115	0xbf1f8d7c	-0.62325263
116	0xbe944afb	-0.28963456
117	0x3d5a58c2	0.053307302
118	0xbdfcc5a6	-0.12342386
119	0x3f289bd6	0.65862787
120	0x3f61bbd5	0.88177234
121	0x3f3f083b	0.74621934
122	0x3f852f50	1.0405064
123	0x3e1a3a69	0.15061344
124	0x3ef79837	0.48358318
125	0x3e400916	0.18753466
126	0x3ef51085	0.47864166
127	0x3f26b865	0.65125114
128	0x3e77e085	0.24206741
129	0x3f52f4ee	0.82404983
130	0x3f2280b5	0.6347764
131	0x3f7a110a	0.9768225
132	0xbebd4616	-0.36967534
133	0xbdfcee54	-0.12350145
134	0x3e0aedb8	0.13567245
135	0xbecb5fff	-0.39721677
136	0xbe0e0397	-0.13868557
137	0xbea07048	-0.31335664
138	0x3eb773eb	0.35830626
139	0x3e6218aa	0.22079721
140	0x3f324f96	0.6965269
141	0xbe300ca5	-0.17192324
142	0xbebc26ca	-0.36748344
143	0xbde6dbef	-0.11272418
144	0x3e3871fb	0.1801223
145	0xbedea34b	-0.43483958
146	0xbd8b0205	-0.067874946
147	0xbf23ada7	-0.6393685
148	0xbf807472	-1.0035536
149	0x3b820546	0.003967914
150	0xbfa53f6b	-1.2909979
151	0xbf1355bd	-0.575527
152	0xbfa8c2e0	-1.3184471
153	0x3e3f213a	0.18665019
154	0xbd038de1	-0.03211773
155	0x3ebfee94	0.37486708
156	0x3e97ce0d	0.29649392
157	0x3d083fa5	0.03326382
158	0x3d33ead7	0.043925133
159	0x3db07ae4	0.086171895
160	0xbe0c6e9c	-0.13714069
161	0x3e308b5e	0.17240664
162	0x3d4b4528	0.0496265
163	0xbf1ad587	-0.60482067
164	0xbdc3a2e1	-0.09552551
165	0x3e81c1d0	0.2534318
166	0x3ee1e6ff	0.4412155
167	0x3e08aae7	0.13346444
168	0xbec27c1e	-0.3798532
169	0x3e1ddfd5	0.15417416
170	0xbf1cdcc0	-0.6127434
171	0x3de658d3	0.112474106
172	0xbd23b0b8	-0.039963454
173	0x3e991df5	0.29905668
174	0x3f21b53c	0.63167167
175	0x3d844770	0.06458938
176	0x3e5353a0	0.20637369
177	0x3e039bc7	0.12852393
178	0xbe437cf2	-0.19090632
179	0x3ed95b5f	0.42452523
180	0xbe11aab9	-0.14225282
181	0xbeb8edcd	-0.36118928
182	0x3e3e0507	0.18556605
183	0x3eb34527	0.35013697
184	0x3e210d81	0.15727808
185	0x3e43e35e	0.19129702
186	0xbed96e1e	-0.42466825
187	0xbe226347	-0.15858184
188	0xbd8a11f6	-0.06741707
189	0x3f2ca339	0.6743656
190	0x3e8fb32a	0.2806638
191	0x3cd8f27f	0.026482819
192	0x3f361f6a	0.71141684
193	0x3f2d7f17	0.6777205
194	0x3ebc0cd0	0.36728525
195	0x3f188422	0.5957662
196	0x3d8d61b0	0.06903398
197	0x3e5e4b72	0.21708468
198	0x3f273d94	0.65328336
199	0x3ec83f7d	0.39110938
200	0x3f02c6b8	0.5108447
201	0x3f8236f3	1.0173019
202	0x3e415952	0.18881729
203	0x3f0ed0d1	0.5578738
204	0x3f2f8253	0.68558234
205	0x3e044ea2	0.12920621
206	0x3f1a5056	0.6027883
207	0x3e23f599	0.16011657
208	0xbef12471	-0.47098115
209	0x3e35c419	0.17750587
210	0x3ee1fdd6	0.44138974
211	0x3e5d541c	0.21614116
212	0xbe83fd25	-0.2577907
213	0x3dd33ea6	0.103146836
214	0xbe9ac785	-0.30230346
215	0xbd8281d0	-0.06372416
216	0xbf563485	-0.8367389
217	0xbf818bed	-1.0120827
218	0xbf102c6f	-0.563178
219	0xbfa9181d	-1.3210484
220	0xbf811358	-1.0084028
221	0xbf4608e1	-0.773573
222	0xbf33e767	-0.70274967
223	0xbe5577c9	-0.20846476
224	0xbf68e066	-0.90967405
225	0x3f270385	0.65239745
226	0x3e298a55	0.16556676
227	0xbdff6e52	-0.12472214
228	0x3ef24dfa	0.47325116
229	0x3f11a5b5	0.56893474
230	0x3f1a8d73	0.60372084
231	0xbe98a308	-0.29811883
232	0xbf0c1a32	-0.5472747
233	0x3bbc4abd	0.005746214
234	0x3efd1c0a	0.49435455
235	0x3de2caab	0.11073812
236	0xbe875bc9	-0.26437214
237	0x3d3c06f9	0.045905087
238	0x3e727914	0.23679
239	0x3dc584d6	0.09644477
240	0xbeedd4bd	-0.4645137
241	0xbf204d9c	-0.6261842
242	0xbf114aa5	-0.56754524
243	0x3dc93710	0.098249555
244	0x3e46b332	0.19404295
245	0x3da2aea7	0.079434685
246	0x3eecb44c	0.46231306
247	0x3db3824f	0.08765089
248	0x3e72b29c	0.23700947
249	0x3e5845dc	0.21120399
250	0x3d9a3a75	0.07530681
251	0x3ec9e41b	0.39431843
252	0x3e9d5119	0.30725935
253	0x3d98384f	0.07432615
254	0x3e110beb	0.14164703
255	0xbd9e8f2e	-0.07742153

cnn_net.0.bias f4 [16]
0	0xbf35e12d	-0.71046716
1	0xbbdb876f	-0.0066994946
2	0xbedc6e67	-0.4305298
3	0xbf01d972	-0.5072242
4	0xbef40804	-0.47662365
5	0xbf195223	-0.59890956
6	0xbf0a2bdb	-0.5397317
7	0xbec802fa	-0.3906477
8	0xbe8acb50	-0.2710824
9	0xbf0c52ef	-0.54814047
10	0xbef4a87f	-0.47784802
11	0xbe27a526	-0.16371593
12	0xbe0c7a18	-0.1371845
13	0xbedf08b9	-0.43561342
14	0xbee8fb41	-0.45504192
15	0x3e6078cb	0.21921079

cnn_net.3.weight f4 [32, 16, 3, 3]
0	0xbd425804	-0.04744722
1	0xbcaf2360	-0.021379173
2	0xbf18c2ae	-0.5967206
3	0x3f24f112	0.64430344
4	0x3f426233	0.7593109
5	0xbf48a5f5	-0.7837823
6	0x3f94701d	1.1596714
7	0xbbe7f4ef	-0.007078759
8	0xbd36ceb7	-0.044630732
9	0xbf23e951	-0.6402789
10	0xbfa9c233	-1.326239
11	0xbf288f9a	-0.6584412
12	0x3f170a4b	0.5900008
13	0x3e1e85c9	0.15480722
14	0xbec5c696	-0.38628072
15	0x3e4d48cd	0.20047303
16	0xbeb50ddf	-0.35362145
17	0xbdc4a118	-0.09601039
18	0x3ec5208a	0.38501388
19	0xbf38ff18	-0.7226424
20	0xbc56d9d3	-0.013113457
21	0x3f27884f	0.65442365
22	0x3e0571a7	0.13031636
23	0x3e082917	0.13296925
24	0x3f27b57a	0.65511286
25	0xbf8c68e9	-1.0969516
26	0xbe670703	-0.22561269
27	0x3edb576a	0.4284013
28	0xbe057b5a	-0.13035336
29	0xbee5d84d	-0.44891587
30	0x3f9dc3cf	1.2325381
31	0x3f46ad14	0.77607846
32	0xbdad625e	-0.08466028
33	0x3f5b9780	0.85778046
34	0xbf2a914b	-0.6662795
35	0xbf132d99	-0.5749145
36	0xbedf06c5	-0.43559852
37	0xbf61f14d	-0.8825882
38	0xbba57089	-0.0050488156
39	0x3f10d9a4	0.56582093
40	0xbeaae9f9	-0.33381632
41	0xbed66be8	-0.418792
42	0x3f381f6e	0.7192296
43	0xbf83ba8a	-1.0291302
44	0xbf02246d	-0.5083683
45	0x3e5138ed	0.20431872
46	0x3ee27e7a	0.4423712
47	0x3d5c779a	0.053825
48	0x3f06d9ca	0.5267607
49	0x3e2b82d9	0.16749133
50	0x3daa29e1	0.08308769
51	0xbe022047	-0.12707625
52	0x3ec2834e	0.37990803
53	0x3e531f29	0.20617355
54	0x3eec1502	0.46109778
55	0x3e1c1fbe	0.15246484
56	0x3e656e16	0.22405276
57	0x3f76c84d	0.96399385
58	0x3e09425e	0.13404223
59	0x3e1287b7	0.14309584
60	0x3f24da91	0.64396006
61	0x3d0ce1c1	0.034394983
62	0x3d88581b	0.0665743
63	0x3dd3dfb8	0.10345405
64	0x3f612ad9	0.87956005
65	0xbe352d5e	-0.17693087
66	0x3edf9679	0.4366949
67	0x3f521f0f	0.8207864
68	0xbe7c12c4	-0.24616534
69	0x3ee6e686	0.4509775
70	0x3e33f8d3	0.17575388
71	0xbf0af6b3	-0.54282683
72	0xbed649fa	-0.41853315
73	0x3ef57332	0.4793945
74	0xbe8a1e8a	-0.26976424
75	0x3e22cf8c	0.15899485
76	0x3f598660	0.84970665
77	0xbe49f983	-0.19724087
78	0xbdac5b48	-0.08415848
79	0x3e5e840c	0.2173006
80	0xbea5c195	-0.32374254
81	0x3f86c43d	1.0528637
82	0x3e81cf42	0.25353438
83	0xbd81dcd1	-0.063409455
84	0x3eef7fc4	0.46777165
85	0x3f5e8e51	0.8693591
86	0xbe9e5279	-0.30922297
87	0x3f1f36b2	0.62192833
88	0x3d657301	0.05601788
89	0xbeb9c61a	-0.36283952
90	0x3f10643a	0.56402934
91	0xbbe63287	-0.0070250663
92	0x3d81e49b	0.06342431
93	0x3f5a0297	0.851602
94	0xbed513b1	-0.41616586
95	0x3db2925d	0.08719323
96	0x3fa2860c	1.2697158
97	0xbf8064d4	-1.003077
98	0x3dac4674	0.08411875
99	0x3e6f68e6	0.2337986
100	0xbf54061b	-0.82821816
101	0xbef19217	-0.4718177
102	0x3f4f644e	0.8101243
103	0x3e939042	0.28820997
104	0xbe2ffba1	-0.17185833
105	0x3f9c6c30	1.2220516
106	0xbee0d261	-0.43910506
107	0xbdec3791	-0.11534036
108	0x3ee89ebd	0.45433608
109	0x3f2f7224	0.6853354
110	0x3e8d1892	0.27557808
111	0x3f04602f	0.51709265
112	0x3e7f8fff	0.24957274
113	0xbd626cf9	-0.055279706
114	0x3e28fd67	0.16502915
115	0x3ec1be38	0.37840438
116	0x3e8cb26c	0.27479875
117	0x3fb5268f	1.4152392
118	0xbedc1e20	-0.42991734
119	0xbcd54993	-0.02603606
120	0x3ff7ecc5	1.9369131
121	0x3f5f8b9e	0.87322414
122	0xbdbbe4cd	-0.091745
123	0x3f9c11bf	1.2192916
124	0xbd593593	-0.053029608
125	0x3e5d3652	0.21602753
126	0xbe82744b	-0.2547935
127	0xbcd98c21	-0.026556076
128	0xbdfba451	-0.122872
129	0xbebc07c1	-0.36724666
130	0x3eb54f01	0.35411838
131	0x3eaabe0f	0.33348128
132	0x3e2963da	0.16541997
133	0x3e1e9d5d	0.15489717
134	0x3d8dfab6	0.06932585
135	0xbf05e09f	-0.5229587
136	0x3c5e435d	0.013565865
137	0x3eab5944	0.33466542
138	0xbeec1a1b	-0.46113667
139	0x3e04d475	0.12971671
140	0xbd51b364	-0.05119647
141	0xbf77340a	-0.9656378
142	0xbd63000e	-0.055419974
143	0x3f174c33	0.59100646
144	0xbf2dc280	-0.6787491
145	0xbf0cc60e	-0.5498971
146	0xbf31a5f7	-0.6939387
147	0x3de997d8	0.11405915
148	0x3ef026d5	0.46904626
149	0xbd41b815	-0.047294695
150	0x3da9151b	0.08255979
151	0x3ecbc94c	0.39802015
152	0x3e495e58	0.19664896
153	0xbf42b3a1	-0.7605534
154	0x3e712176	0.2354792
155	0x3d2472fc	0.04014872
156	0x3ef3926b	0.47572646
157	0x3ef3eb45	0.47640434
158	0xbeea6bcb	-0.45785365
159	0x3e4981d2	0.19678429
160	0x3ed0f0c2	0.40808684
161	0xbe06645d	-0.13124223
162	0xbedaf8e4	-0.42768013
163	0xbe51bca2	-0.20482114
164	0x3e26a473	0.1627367
165	0x3f4d6a2c	0.8024013
166	0x3ef232be	0.47304338
167	0xbe0775aa	-0.13228479
168	0x3e95320b	0.29139742
169	0x3e428f43	0.18999963
170	0xbd4786cf	-0.048712548
171	0xbf63b7bb	-0.88952225
172	0xbe8989d1	-0.26862958
173	0x3e418f75	0.18902381
174	0x3d961673	0.073285006
175	0x3bd83f1c	0.00659932
176	0xbeb4808c	-0.35254323
177	0xbcc8c595	-0.024508277
178	0x3ea62f95	0.32458177
179	0x3e86f1f5	0.26356474
180	0xbe88df1d	-0.26732722
181	0xbcdc2af7	-0.026875956
182	0xbe72a91b	-0.23697321
183	0x3ee58fd2	0.4483629
184	0xbc50a32e	-0.012734218
185	0xbf11ef3d	-0.57005674
186	0x3f02db83	0.511162
187	0x3e448893	0.19192724
188	0x3e2453c8	0.16047585
189	0x3de939fd	0.113880135
190	0x3e335659	0.17513408
191	0x3e2e18d5	0.1700166
192	0x3e577050	0.21038938
193	0x3df33019	0.11874408
194	0x3e4083cc	0.18800277
195	0xbe957b29	-0.29195526
196	0xbe75ecf4	-0.24016172
197	0x3dc3f467	0.095681004
198	0xbdd1be23	-0.10241344
199	0x3e54776d	0.20748682
200	0x3ebe514a	0.37171394
201	0x3dfc7d22	0.12328555
202	0x3dd43ef5	0.103635706
203	0x3eb55bbc	0.3542155
204	0xbea6f9f5	-0.32612577
205	0xbec521c9	-0.3850234
206	0x3dae949b	0.08524438
207	0xbeba61d7	-0.3640277
208	0x3c1f5f54	0.009727318
209	0x3e2a9620	0.1665883
210	0x3e1801cb	0.14844434
211	0x3e968bf2	0.29403645
212	0xbe455196	-0.19269404
213	0xbec3884f	-0.38189933
214	0xbbc6b07a	-0.006063518
215	0x3f204662	0.62607396
216	0xbd933896	-0.07188527
217	0xbc99732e	-0.01873168
218	0x3e2b16c8	0.16707909
219	0x3e658941	0.2241564
220	0x3e5658cd	0.20932312
221	0x3d769af0	0.060206354
222	0xbcd7da9a	-0.026349355
223	0x3e7d44d0	0.24733281
224	0x3e38565c	0.18001693
225	0xbe566de6	-0.2094036
226	0x3dc15e2c	0.0944179
227	0x3e1da449	0.15394701
228	0x3ebf7e75	0.37401167
229	0x3ecd08e9	0.4004586
230	0x3d838015	0.06420914
231	0xbea2bb58	-0.31783557
232	0x3e564ac1	0.20926954
233	0x3f014242	0.50491726
234	0xbed0153c	-0.406412
235	0xbde94b03	-0.113912605
236	0xbdc11e7f	-0.09429645
237	0x3ebd3387	0.36953375
238	0x3e0f23ea	0.13978544
239	0x3d8660e6	0.06561451
240	0xbe4d9a15	-0.20078309
241	0x3e92c4af	0.28665683
242	0x3df2b9d1	0.11851848
243	0x3e1bfe03	0.15233617
244	0xbd278d74	-0.040906385
245	0xbe7d6d59	-0.24748744
246	0x3ed75717	0.42058632
247	0x3eddb645	0.43303123
248	0xbeac4d2e	-0.33652633
249	0xbeeac988	-0.4585688
250	0x3f0a1c56	0.5394949
251	0x3e919332	0.28432614
252	0xbbb2f518	-0.0054613464
253	0x3dfea6ba	0.12434144
254	0x3e857602	0.26066595
255	0x3ddc0207	0.10742574

cnn_net.3.bias f4 [32]
0	0xbdc18823	-0.09449794
1	0x3d8bff40	0.068357944
2	0xbeaad418	-0.3336494
3	0xbe475c38	-0.19468772
4	0xbec10445	-0.3769857
5	0x3d2014fb	0.03908251
6	0xbdefd982	-0.11711408
7	0xbee8086e	-0.4531893
8	0xbdfec7a9	-0.12440426
9	0xbf0f13d9	-0.5588966
10	0x3d242497	0.040073957
11	0xbee14cf3	-0.4400402
12	0xbec3879b	-0.38189396
13	0x3d0bcc5d	0.034130443
14	0xbe466469	-0.19374241
15	0x3e3ca342	0.18421653
16	0xbf37c2c9	-0.71781594
17	0xbd9c3772	-0.07627763
18	0xbe5400f7	-0.20703493
19	0xbd3356dd	-0.04378401
20	0x3d058793	0.032599997
21	0x3cf2ae6d	0.029624188
22	0x3d3c076a	0.045905508
23	0xbd93092a	-0.07179482
24	0xbe371875	-0.17880423
25	0x3d3e9200	0.046525955
26	0x3d71a8c3	0.058998834
27	0x3b6565df	0.0035003347
28	0x3d60ca68	0.05488053
29	0x3f505fa1	0.8139592
30	0xbe21dbef	-0.15806554
31	0xbdc747fd	-0.097305275

hidden.weight f4 [32, 128]
0	0xbf3f58b2	-0.74744713
1	0xbe26bb47	-0.16282378
2	0xbef8540a	-0.48501617
3	0xbe269cb3	-0.16270714
4	0xbe6d48d1	-0.23172309
5	0xbc1a1dd8	-0.009406529
6	0xbddd6a25	-0.10811261
7	0x3db59aaa	0.088673905
8	0xbe83ec1b	-0.25766072
9	0x3f0750ff	0.52857965
10	0xbbf3d086	-0.0074406294
11	0x3ec6230a	0.38698608
12	0x3d7d621e	0.06186115
13	0x3d6d974e	0.058005624
14	0x3d67bf27	0.05657878
15	0xbd141dcd	-0.036161233
16	0xbeef50aa	-0.4674123
17	0x3c61bf96	0.013778588
18	0xbe2ea47f	-0.17054938
19	0x3e607fb3	0.21923713
20	0x3d44151b	0.04787169
21	0x3d9c8e0f	0.07644283
22	0xbddc3652	-0.10752548
23	0xbd5726a2	-0.052527077
24	0xbe65aa68	-0.22428286
25	0x3c7faabb	0.01560467
26	0xbebae910	-0.36505938
27	0xbc02a49b	-0.007973815
28	0x3e1e9033	0.15484695
29	0x3f07ff3b	0.53123826
30	0xbeb7ec0f	-0.35922286
31	0xbec1ffb2	-0.37890393
32	0x3dca394a	0.09874208
33	0x3f665b34	0.89982915
34	0x3d97bbd4	0.07408872
35	0xbed431e1	-0.41444305
36	0xbdf5b0e0	-0.11996627
37	0x3f6426b2	0.89121544
38	0xbe6bc6e6	-0.23025092
39	0xbe582587	-0.21108066
40	0xbdf450b0	-0.119294524
41	0x3e6c1024	0.23053032
42	0x3e22d1c8	0.15900338
43	0x3e34fc19	0.17674293
44	0xbf48e3b3	-0.7847244
45	0x3f820269	1.0156986
46	0x3f613565	0.879721
47	0xbdcb6841	-0.09931994
48	0xbe70c847	-0.235139
49	0xbe1bb5f6	-0.15206131
50	0x3d105e7c	0.035246357
51	0xbe29d4c8	-0.16585076
52	0xbe91c93d	-0.28473845
53	0x3e6c41d5	0.23071988
54	0xbe99bd96	-0.30027455
55	0xbda37987	-0.07982164
56	0x3e321e80	0.17394447
57	0x3de03821	0.10948206
58	0xbd214584	-0.039372936
59	0xbe997c09	-0.29977444
60	0xbebecad9	-0.37264135
61	0x3e4411b5	0.1914738
62	0xbddd4a6d	-0.10805211
63	0x3de72148	0.11285645
64	0x3e70b7f8	0.23507679
65	0x3f12e710	0.57383823
66	0x3ef52f11	0.4788747
67	0x3f154ebe	0.58323276
68	0xbecfa2d6	-0.4055392
69	0x3e756248	0.23963273
70	0x3c1eef7d	0.009700653
71	0x3c15255f	0.009103148
72	0xbf8a6587	-1.0812234
73	0x3e3375c0	0.17525387
74	0xbeaa9667	-0.33317873
75	0xbdc5d1be	-0.09659146
76	0xbde010d1	-0.109407075
77	0xbc35ba8b	-0.011091839
78	0xbef3c990	-0.47614717
79	0xbdb14b60	-0.08656955
80	0x3d292bfe	0.04130172
81	0x3e14c6e6	0.14528999
82	0xbdb753ee	-0.08951555
83	0xbe8ba915	-0.27277437
84	0xbeff67df	-0.49883935
85	0x3e3d3ac4	0.18479449
86	0xbe043659	-0.12911357
87	0x3e22299b	0.15836184
88	0xbe602801	-0.2189026
89	0x3dbf90ec	0.093538135
90	0x3e4e3772	0.20138338
91	0xbd95917d	-0.0730314
92	0xbebefe49	-0.3730338
93	0xbe9ef23a	-0.3104418
94	0xbea637ce	-0.3246445
95	0xbe5e9f54	-0.21740466
96	0x3c3560da	0.0110704545
97	0x3e851b7d	0.25997534
98	0x3c9804d7	0.018556995
99	0x3d180653	0.037115406
100	0xbdcae2f5	-0.0990657
101	0x3e809640	0.25114632
102	0xbe113541	-0.14180471
103	0xbd53a80c	-0.051673934
104	0xbe1022c0	-0.14075756
105	0x3eb25ed8	0.34837985
106	0x3ddb7717	0.10716074
107	0x3d381742	0.044944055
108	0xbefc51df	-0.49281213
109	0x3e827a36	0.25483865
110	0xbd837465	-0.06418685
111	0xbdbc0fcc	-0.091827005
112	0xbda769de	-0.081744894
113	0x3e9884e6	0.29788893
114	0xbd308e1b	-0.043104272
115	0x3aca4aef	0.0015433709
116	0xbee18da1	-0.44053367
117	0x3e8213c5	0.25405708
118	0x3de6c9ec	0.11268982
119	0xbf88414d	-1.0644928
120	0xbd926f7b	-0.071501695
121	0x3eaa8d68	0.3331101
122	0x3e8e7fd8	0.27831912
123	0x3e189f06	0.14904413
124	0x3d70e7bb	0.058814745
125	0xbe33f493	-0.17573766
126	0xbeae5692	-0.34050423
127	0xbec7c90d	-0.39020577
128	0xbd7dcfcc	-0.06196575
129	0x3db7a08e	0.0896617
130	0x3b7ec78b	0.003887626
131	0x3bb8d5d8	0.0056407265
132	0x3e2f1e92	0.17101505
133	0xbe2a349b	-0.1662163
134	0x3c986063	0.018600648
135	0x3da1c52e	0.07898937
136	0xbd550d1d	-0.05201446
137	0xbe734753	-0.23757677
138	0xbe2a5a30	-0.16635966
139	0xbeb16d0c	-0.3465351
140	0xbcc64b47	-0.024205817
141	0xbe7efcc4	-0.2490111
142	0xbdb43761	-0.08799625
143	0x3e3481ba	0.17627612
144	0xbcdfe5ad	-0.027331198
145	0xbd980052	-0.07421936
146	0x3ca47f2c	0.020080172
147	0xbe89b7db	-0.26898083
148	0x3d5dfc4c	0.054195687
149	0x3c13a867	0.009012318
150	0x3de4de11	0.11175168
151	0xbdf4e446	-0.11957602
152	0xbdcb09b4	-0.0991396
153	0x3c4cadde	0.012492625
154	0xbdd061c6	-0.10174899
155	0x3e122a1a	0.14273873
156	0xbdc17880	-0.09446812
157	0x3e37b7dd	0.17941232
158	0x3e2c3940	0.16818714
159	0xbda00c80	-0.07814884
160	0xbc545881	-0.012960554
161	0x3ddc2928	0.107500374
162	0xbd5645a4	-0.05231251
163	0xbd355f2a	-0.04428021
164	0x3ca8980b	0.020580312
165	0x3daf31c8	0.08554417
166	0x3e793a4b	0.24338643
167	0xbc908b6d	-0.017644608
168	0xbde39db3	-0.11114063
169	0x3ce90e11	0.02844909
170	0x3d2653b9	0.040607188
171	0xbbd608bb	-0.0065318025
172	0x3e1db176	0.15399727
173	0x3d0c41ed	0.03424256
174	0x3d8ea4e3	0.069650434
175	0xbd39fbd9	-0.045406196
176	0xbd9d2a4d	-0.07674084
177	0xbd59cd00	-0.05317402
178	0xbda0cd62	-0.07851674
179	0xbd07bcf7	-0.033139195
180	0xbed10c59	-0.40829733
181	0x3e12d3a8	0.14338553
182	0xbe33e988	-0.17569554
183	0x3b88fef7	0.004180785
184	0xbe8e6cb5	-0.27817312
185	0xbce26676	-0.027636748
186	0xbc52c1c8	-0.012863584
187	0xbc7cfded	-0.0154414
188	0xbd850709	-0.064954825
189	0xbe1a66b9	-0.15078248
190	0x3d79d641	0.060995344
191	0xbd543b84	-0.05181457
192	0x3d4f05ee	0.050542764
193	0xbd6a2aa8	-0.057169586
194	0xbd645c98	-0.055752367
195	0xbe5957e9	-0.21224941
196	0xbdad7493	-0.084695004
197	0xbe0cb04a	-0.13739124
198	0xbd6cae26	-0.05778327
199	0x3c36fca0	0.011168629
200	0xbc7074f5	-0.014676322
201	0x3d5499f1	0.051904622
202	0xbe2712f8	-0.1631583
203	0x3e43b77b	0.19112961
204	0xbcfd00da	-0.030884195
205	0x3dbbcaf0	0.09169567
206	0x3e1c4337	0.15260015
207	0x3c499654	0.012303907
208	0x3dd52f62	0.10409428
209	0xbbb79aeb	-0.0056031845
210	0x3c975962	0.018475238
211	0xbde64b7a	-0.11244865
212	0xbd422508	-0.047398597
213	0xbe369be6	-0.17832908
214	0xbd2567cd	-0.040382195
215	0xbe23cdee	-0.15996525
216	0xbd389525	-0.04506411
217	0xbd6df541	-0.05809522
218	0x3e3166b2	0.17324331
219	0x3cacc536	0.021090131
220	0xbdc7520a	-0.097324446
221	0xbc6072e2	-0.013699265
222	0xbe8277e5	-0.25482097
223	0xbdd1dfe0	-0.10247779
224	0xbdbdf374	-0.092749506
225	0x3d551d20	0.05202973
226	0x3b91b153	0.0044461875
227	0xbdaca2e6	-0.08429508
228	0xbd2637f9	-0.040580723
229	0xbe57efc6	-0.2108756
230	0xbd72810a	-0.059205092
231	0xbdccce96	-0.10000341
232	0x3e8bd71f	0.27312562
233	0xbc3cdaad	-0.011526746
234	0xbbc20b4f	-0.0059217582
235	0xbd63dbfe	-0.055629723
236	0xbeb57607	-0.3544161
237	0xbcd08aff	-0.025456904
238	0x3d998cb2	0.074975386
239	0xb93b21e8	-0.00017846341
240	0xbbff96ed	-0.007799974
241	0x3e678175	0.22607978
242	0x3dc1a29b	0.09454843
243	0xbd945bdf	-0.072440855
244	0x3dc475ff	0.095928185
245	0xbdbd16e8	-0.09232885
246	0xbd2fa1ca	-0.042878903
247	0x3e4e251a	0.2013134
248	0x3e450027	0.1923834
249	0x3dacebce	0.08443414
250	0xbe02bbc6	-0.12766942
251	0xbe5d7686	-0.21627244
252	0xbda35931	-0.07975996
253	0x3e576fcf	0.21038745
254	0x3c7fdbc0	0.015616357
255	0xbe09cd02	-0.1345711

hidden.bias f4 [32]
0	0xbe462f79	-0.19354047
1	0xbc54f1e9	-0.012997129
2	0xbe4e452a	-0.20143571
3	0xbe55181c	-0.20809978
4	0x3e6f6464	0.2337814
5	0x3e79d543	0.24397759
6	0xbe414334	-0.18873292
7	0xbb9dfdda	-0.004821521
8	0xbd4ea9c6	-0.050454877
9	0xbe4ce146	-0.2000781
10	0xbe1cacc9	-0.15300287
11	0x3e49f8ba	0.19723788
12	0xbe41a22d	-0.18909521
13	0x3dd92f7a	0.106047586
14	0xbe5833ca	-0.21113506
15	0x3e74cbf6	0.2390593
16	0x3e65c7ef	0.2243955
17	0xbdef3d0c	-0.11681566
18	0xbd97339d	-0.07382891
19	0xbeae9e28	-0.3410504
20	0x3e716fcb	0.23577802
21	0x3c979b0a	0.018506546
22	0x3e533663	0.20626216
23	0x3cc666b2	0.02421889
24	0xb8c693e0	-9.4689196e-05
25	0xbcf45ff2	-0.029830907
26	0xbe42bcf2	-0.1901739
27	0x3df93d97	0.121699505
28	0x3e609c76	0.21934685
29	0x00000000	0.0
30	0xbebaf287	-0.3651316
31	0x3e734f90	0.2376082

out.weight f4 [1, 32]
0	0xbfceb258	-1.6148176
1	0xbe2aad51	-0.16667677
2	0xbe3e5a87	-0.18589221
3	0x3d1d25ca	0.038366117
4	0x3e65044f	0.22364925
5	0x3edb0367	0.42776033
6	0xbe9623da	-0.29324228
7	0xbd600413	-0.054691385
8	0x403e89f8	2.977171
9	0xbe0a5579	-0.13509168
10	0xbe88f575	-0.2674977
11	0x3d3df8df	0.04637992
12	0xbe370683	-0.17873578
13	0x3ed62149	0.4182227
14	0xbee87568	-0.45402074
15	0x3ea9bcf1	0.33151963
16	0x3e49c401	0.19703676
17	0x402fb7b8	2.7455883
18	0x40464b26	3.0983367
19	0xc032278c	-2.7836637
20	0x3fdb7d13	1.7147545
21	0x404b9cf9	3.1814559
22	0x3d9ab65c	0.075543135
23	0x405acc86	3.4187331
24	0x404c67f9	3.193846
25	0x3deae424	0.114692956
26	0xbedfc000	-0.43701172
27	0xbe679b10	-0.22617745
28	0x3ddf9c7c	0.10918519
29	0x3ea6789f	0.32513902
30	0xc07acd54	-3.9187822
31	0x3e8cd8ba	0.275091
