termproject_olympic/train_history/olympics-running/11_15_18_56/encoder.pth (torch, 5151 bytes, 4 tensors)

encoder.0.weight f4 [8, 4, 3, 3]
000000 62 73 99 be 32 cb a3 be 25 1f 8f be 6c f0 88 3c
       -0.29970843 -0.31990963 -0.2795345 0.016716205
000010 f5 3d b3 be 08 9e 59 bd 1f 48 d6 bd 8a a2 38 3e
       -0.35008207 -0.053129226 -0.10462975 0.18030754
000020 e0 ca b1 be 96 03 1e 3c cb 49 34 3e a3 1d ae be
       -0.34725094 0.00964441 0.17606275 -0.34006986
000030 87 c1 99 3d fa 82 3e 3e 44 57 89 bc 70 34 d0 bd
       0.075076155 0.18604651 -0.016765244 -0.10166252
000040 e8 1f 6e 3e 0d ff 20 bd e2 67 90 be 0b 97 27 3e
       0.23254359 -0.039305735 -0.28204256 0.16366212
000050 b3 cf f1 bd b7 5e 97 bc 66 cf 21 be 9d a7 a4 be
       -0.118071936 -0.01847778 -0.15801772 -0.3215913
000060 06 d3 c4 be bb 7c 34 3d e8 4d 83 3d 09 4d 11 3f
       -0.38442248 0.044064265 0.06411344 0.5675817
000070 1f 63 89 3e e1 41 9d 3e ef b3 ea be 88 fe 05 bd
       0.26833436 0.30714324 -0.45840403 -0.032713443
000080 b8 62 52 3e 8e 3e 87 3d 59 da 2d be d1 83 c0 bd
       0.2054547 0.06603728 -0.16977824 -0.09400142
000090 a1 00 9a 3e 71 4a ff bd 54 b8 5e 3e 9f 8e bc be
       0.30078605 -0.124653704 0.21750003 -0.3682756
0000a0 6c 84 5b 3d e3 cc 47 3e 76 22 27 be fb e8 29 3c
       0.053593084 0.19511752 -0.1632174 0.010370488
0000b0 4f 49 12 3e 18 26 36 3d af 0d f1 bd cc 8e 36 3e
       0.14285778 0.044469923 -0.11770188 0.1782791
0000c0 6a 8b 42 3e 49 2c e8 3d ba eb 9f be c1 c6 d8 3d
       0.18998495 0.11336572 -0.31234533 0.10584784
0000d0 c8 82 09 3d b7 41 44 be e3 0c 99 3d b0 6b ec 3e
       0.03357199 -0.19165693 0.07473161 0.4617591
0000e0 e3 b2 8e be 1b 98 20 bf 0a 56 70 bd dc 01 82 be
       -0.27870855 -0.62732095 -0.058675803 -0.25392044
0000f0 93 27 fd 3e 89 b1 2c 3e a4 d7 38 3e a4 b8 22 be
       0.49444255 0.168646 0.1805101 -0.15890747
000100 8f 20 96 3e e1 f8 21 3e 2f e4 86 be bf 2f b5 3d
       0.29321715 0.15817596 -0.26345965 0.088469975
000110 0f 27 ce 3c 8b d8 d3 3d 4e e1 80 be 47 d5 2b 3e
       0.025165109 0.10344037 -0.25171894 0.16780578
000120 8b f5 29 3d 87 a7 5b be 0a ea c9 bb 38 8f 7e 3e
       0.041493934 -0.21450625 -0.006161933 0.24859321
000130 c3 4f e8 be ce 6f 8f bd f4 67 4f 3e 51 78 48 3d
       -0.45373353 -0.07003747 0.20254499 0.048942868
000140 b5 5d 97 ba bf 19 a3 be 95 61 65 be 2b 87 b3 3d
       -0.0011548313 -0.3185558 -0.22400506 0.087660156
000150 25 79 58 3e 41 0b 34 3d 40 ff cc 3e 79 54 7d 3e
       0.21139963 0.043956045 0.4003849 0.24739255
000160 2d 51 4f 3d e4 33 09 be 97 9f eb 3e 81 8f 9c 3e
       0.050614525 -0.13398701 0.46020195 0.30578235
000170 56 84 a9 be f5 a0 c0 bc f2 97 0a 3e b7 cd 4f bd
       -0.33108777 -0.02351425 0.13534525 -0.050733294
000180 7f 81 02 be 4c 0b bd be db 79 08 bd 09 35 c3 be
       -0.12744711 -0.3692268 -0.033319335 -0.381264
000190 bd 7c 22 be 7e 88 40 3d f9 6a 68 bd 5b c3 d2 be
       -0.15867896 0.04700517 -0.056742642 -0.4116467
0001a0 8c 31 ef 3e e7 ca 21 3d cf 65 38 3e 17 c7 be bc
       0.4671749 0.039500143 0.18007587 -0.023288293
0001b0 51 5b 9e 3c 85 a5 98 3d 6d 12 54 3e 53 ed 63 ba
       0.019330652 0.07453445 0.20710154 -0.0008694727
0001c0 6f 6d 7b be b3 4d 01 bd 16 fb 3c 3e 7b 63 d9 3d
       -0.24553464 -0.03156824 0.18455157 0.106146775
0001d0 86 ad 07 be f8 e5 13 bd 10 df aa 3d a0 9f e5 bb
       -0.13249788 -0.036107987 0.08343327 -0.007007554
0001e0 81 55 25 bf 8e 3c 57 be fa 72 1e 3e 63 19 92 be
       -0.64583594 -0.21019194 0.15473548 -0.28534994
0001f0 89 c6 8e 3e fa 61 d9 3d 38 9a c1 be e7 74 ef 3d
       0.27885845 0.10614391 -0.37812972 0.11692219
000200 0e ba 8d be d9 2e 05 3e c4 8e b8 3e f7 fe 10 3e
       -0.2768101 0.13006152 0.36046422 0.14159761
000210 d2 59 cc 3e 25 c5 ae bc 3a 36 b8 3e ec 1e 89 be
       0.39912277 -0.02133424 0.35978872 -0.26781404
000220 61 50 48 be d7 67 49 3e 7f 7d ae be 56 da 16 3e
       -0.19561912 0.19668518 -0.3408012 0.14731726
000230 db ed fb 38 48 b6 b1 be e9 67 2e bd 8c 5c 82 be
       0.00012012917 -0.34709382 -0.042579565 -0.25461233
000240 dd 58 f8 3d a5 fe 5a 3e a9 23 91 bd 48 7b a5 3e
       0.12126324 0.21386202 -0.0708688 0.3232062
000250 ab 04 3c be 48 5b de bd f7 d4 a1 3c ea 23 01 3f
       -0.18361156 -0.10857254 0.01975487 0.50445426
000260 3d 01 74 ba 2b c7 18 be 3d f5 ad 3e 7f e6 3c 3e
       -0.0009308046 -0.14919727 0.33976164 0.18447302
000270 34 73 be 3d 3b 59 7c 3e 24 cb bd be fb a3 11 be
       0.09299317 0.24643414 -0.37069046 -0.1422271
000280 4e 6b 84 bd 5f 0b 52 be e8 e6 7c 3e cc bd b9 be
       -0.06465779 -0.2051215 0.24697459 -0.36277616
000290 7f 41 1d be 18 80 12 bd f8 1b 9a 3d 53 8d 1d 3e
       -0.15357016 -0.03576669 0.07524866 0.15385942
0002a0 4c 02 02 3f e4 64 a1 be b6 0a ab be 61 0a b6 3e
       0.50784755 -0.31522286 -0.3340661 0.35554793
0002b0 93 72 63 3e d5 b7 3b 3e 2f 54 63 3b 14 d9 85 3c
       0.22211675 0.18331845 0.0034687629 0.016338862
0002c0 ed 84 00 3d 1c ae af be fc cc 37 3e b3 59 bc 3d
       0.031376768 -0.34312522 0.17949289 0.09196796
0002d0 fc e7 73 3e 7c 37 e8 be 2f 5c 70 be 12 5c 11 bd
       0.23818964 -0.4535483 -0.23472665 -0.035488196
0002e0 a1 5e d6 bd 52 dc ca bd 36 33 d3 3d 6d aa af be
       -0.10467268 -0.09905304 0.10312502 -0.34309712
0002f0 a8 07 34 3e 93 28 ef 3e a2 09 60 bd a2 97 c0 bd
       0.17581046 0.46710643 -0.054696687 -0.09403922
000300 1c 22 7a 3e 0a a3 8f bd b0 39 58 3d 2a 43 cb bc
       0.24427074 -0.07013519 0.05278939 -0.0248123
000310 07 ae 18 3e 8d a1 6b 3e ba dc 60 bd a8 8c 1d bd
       0.14910136 0.23010845 -0.054898 -0.03846422
000320 16 ee bd 3e 92 37 1b 3e 08 45 d9 3e 55 18 2c 3e
       0.37095708 0.15157917 0.4243548 0.16806157
000330 ef 6b 09 3f e1 cb 6e be ce fc 40 3e c3 d2 b2 3e
       0.5368032 -0.23319961 0.18846437 0.34926423
000340 cd 24 21 3e 14 48 af bd 43 18 10 3e fe d9 90 be
       0.15736695 -0.0855867 0.14071755 -0.28291315
000350 8c 05 94 3e d2 b9 12 3d 68 ad 42 be 0e c5 23 bd
       0.28910482 0.035821743 -0.19011462 -0.039982848
000360 a0 d6 2f be 0e 59 1c 3e cb e9 98 bd e5 11 0f 3e
       -0.17171717 0.15268347 -0.074664675 0.1397167
000370 00 36 d0 bd 81 fd 71 bd 64 64 5d 3e 37 b6 6b be
       -0.1016655 -0.05907965 0.21620327 -0.23018728
000380 12 9c b0 bd e9 71 e1 3e 94 20 ac 3e e3 4d 78 3e
       -0.08623518 0.4403222 0.33618605 0.24248461
000390 c1 6a fb 3d 49 bb 5f be 31 3c db 3d 01 75 71 3e
       0.12276221 -0.21848787 0.1070484 0.2357979
0003a0 99 5e 8e bd 2f a8 f7 bd 83 26 fc 3e 15 c1 9b 3e
       -0.06951637 -0.12092625 0.49248132 0.30420747
0003b0 7e ea 3f 3d bc 81 55 3e b5 16 9c bd f5 89 cd 3d
       0.04685449 0.20850271 -0.076215185 0.10036079
0003c0 27 9b 11 be 67 75 93 3c 99 d6 7d 3e 95 a9 0d be
       -0.14219342 0.018000318 0.24788894 -0.13834222
0003d0 93 1b 13 3f 29 94 aa 3e 9f 25 09 3d 1f 1a 6d 3e
       0.5746395 0.33316162 0.033483144 0.23154496
0003e0 c5 20 ba be c0 67 6c be 05 80 5d bd b0 1e a5 be
       -0.36353126 -0.23086452 -0.054077167 -0.32249975
0003f0 c5 be e2 bd ec 35 5d 3e 8c 5f c3 3e 4d 82 01 3f
       -0.11071543 0.21602601 0.38158834 0.5058945

encoder.0.bias f4 [8]
000000 00 00 00 00 00 00 00 00 00 00 00 00 00 00 00 00
       0.0 0.0 0.0 0.0
000010 00 00 00 00 00 00 00 00 00 00 00 00 00 00 00 00
       0.0 0.0 0.0 0.0

encoder.3.weight f4 [8, 8, 3, 3]
000000 2c a8 ed 3d 73 9e 1b 3e 57 95 99 be be c1 53 3e
       0.11604342 0.15197162 -0.2999675 0.20679376
000010 b9 a0 29 3e 66 99 f4 bc 76 95 c4 bd 62 b7 1c be
       0.16565217 -0.029858302 -0.0959882 -0.1530433
000020 b9 05 09 be ef 08 99 3d 11 9c e0 bd 1f 0e 32 bd
       -0.1338109 0.07472407 -0.10967267 -0.0434705
000030 66 0d d2 3d 6b 9a 0a 3e 9f 7f 18 be ec b7 d0 bc
       0.10256462 0.13535468 -0.14892434 -0.025478326
000040 a2 81 3c 3d b7 b1 6c 3e 5b ae 20 be c2 da 86 bd
       0.046022065 0.23114668 -0.15691511 -0.065846935
000050 13 18 c9 bb a2 b3 59 3e 84 32 06 3e 40 ee 2b be
       -0.006136903 0.2125993 0.13105208 -0.16790104
000060 3f 33 86 bd df 21 97 3c 54 24 0f bd c1 21 7b be
       -0.06552743 0.018448768 -0.034946755 -0.24524595
000070 cc 46 65 be e6 46 8d bd 7e b0 32 3e e6 d5 8f be
       -0.22390288 -0.068982884 0.17450139 -0.2809288
000080 fe 94 b2 bd 89 a9 3e 3e 4b 8f ba bd b7 27 49 be
       -0.08719824 0.1861936 -0.09109362 -0.19644056
000090 e2 eb 86 3d 7e 16 c6 be ad bf 08 bd f7 89 55 3e
       0.0658796 -0.38689035 -0.03338592 0.2085341
0000a0 95 14 0e bd ee 39 46 be d7 90 2a bd 67 27 a9 bc
       -0.034687597 -0.19358036 -0.041642036 -0.020648671
0000b0 f4 01 b3 be 64 3f b6 3d 51 a4 33 3e 97 2b 20 be
       -0.34962428 0.088988096 0.1754315 -0.15641628
0000c0 af 6e c3 3e 0b 16 a3 3e 3a c3 aa 3d bf 10 4c 3e
       0.38170382 0.31852755 0.08338018 0.19928263
0000d0 8c 88 70 bc dd c5 31 be 7b f7 0d be 86 9f 46 be
       -0.014680993 -0.17360635 -0.13863938 -0.19396791
0000e0 15 66 b6 ba 30 51 7f 3c 9f 79 fd bd b5 51 05 be
       -0.0013915921 0.015583321 -0.12376713 -0.1301945
0000f0 42 64 dd be ea c8 9e 3d 44 00 a4 3b 63 b7 98 3d
       -0.43240553 0.07753165 0.0050049145 0.07456853
000100 9e 78 6f be 8b 83 86 3d 44 26 a6 bc 12 fc 45 3d
       -0.23385856 0.065680586 -0.020281918 0.048336096
000110 e4 52 b3 bc 0f 1c 5e be 86 1f 4c be f4 3e 42 3c
       -0.021890111 -0.21690391 -0.199339 0.0118558295
000120 3f e0 39 3e b2 c4 00 bf 59 65 a4 3e 85 89 a5 3c
       0.1815195 -0.50300133 0.32108572 0.020207176
000130 6b 90 78 bd 28 2f 07 3e a3 62 4c 3e e5 a9 4c bb
       -0.060684603 0.13201582 0.19959502 -0.0031229195
000140 7e 31 16 3c 89 4f a3 be 47 b0 1a bc e9 f6 e5 bd
       0.009167073 -0.31896618 -0.009441442 -0.11228735
000150 5e ce fd 3c e2 4d 7c 3d be 7e e1 3b e3 9d 87 be
       0.030982193 0.061597712 0.006881564 -0.26487646
000160 56 9e 70 3e 11 73 7f 3d 8a f4 3d 3e 4b a3 39 be
       0.234979 0.062365595 0.18550315 -0.18128698
000170 b6 b5 2a 3e ad a5 bc 3d dd cc 7b 3d 71 16 37 bd
       0.1667088 0.09211288 0.06147467 -0.044699136
000180 62 83 d5 3d 1e 93 13 be 97 51 d0 3d 72 dc 4e 3e
       0.1042545 -0.1441159 0.10171812 0.2020128
000190 0c e7 79 3e a9 6f 19 be dd 9d a5 bd af ed 23 3e
       0.24404544 -0.14984001 -0.08086751 0.16008638
0001a0 83 d5 24 bc 52 15 0d bd e5 3f 83 3e 6f a2 73 bd
       -0.010060671 -0.03444416 0.25634685 -0.05948108
0001b0 4e a8 4f be 8b 7b 2b 3d 5e 2c 67 be 67 e8 64 3e
       -0.20279047 0.041865867 -0.22575518 0.2235428
0001c0 a6 73 a7 be 62 cd 9f be aa 06 54 bd 0a e0 b8 bd
       -0.3270542 -0.31211382 -0.051764168 -0.09027107
0001d0 69 0f 9e bd a9 55 bc 3e ca 3d 12 3c 68 e2 f3 3c
       -0.07717783 0.36784104 0.0089258645 0.029771045
0001e0 c2 98 19 3d 7a 24 27 3e 97 67 c2 3e de f8 4c bd
       0.037499197 0.16322508 0.37969658 -0.050042026
0001f0 b3 09 a5 bc 31 42 19 be 88 03 6a bd 3c 1a d7 3c
       -0.020146227 -0.14966656 -0.057132274 0.026257627
000200 96 c0 38 be 1a 2a a2 bd d6 b9 23 3e b1 d8 ae 3c
       -0.18042216 -0.079181865 0.1598886 0.02134356
000210 13 ca 00 be 29 a9 1c 3e cf 13 59 bd ec 67 ee 3d
       -0.12577085 0.15298904 -0.052997407 0.11640915
000220 7c 24 ae 3b 27 11 87 3d a5 2d 02 3d 1f c8 42 be
       0.005314408 0.065950684 0.03178181 -0.19021653
000230 24 04 43 be 13 e7 a7 3d 71 ba c5 bd 61 ad ac bd
       -0.19044548 0.08198371 -0.096547015 -0.08431507
000240 20 98 20 be 2a b3 1b be 52 d8 14 3e 9b 47 34 3e
       -0.15683031 -0.15205064 0.14535645 0.1760544
000250 af 41 e1 bd e2 86 bc be 51 e7 2e be 38 3f 17 3d
       -0.10998856 -0.36821657 -0.17080428 0.036925524
000260 6e 97 6f 3e e4 1a c4 bc 28 2b 8b be 09 3f c7 bd
       0.2339761 -0.023938604 -0.27181363 -0.0972882
000270 f3 2a 8c bd 05 2a 78 bd 21 d6 1b be 2e 55 24 be
       -0.068441294 -0.060586948 -0.15218402 -0.16048118
000280 be da 58 3e 33 d0 32 be 68 9c db bd 4e c0 11 3e
       0.21177194 -0.17462234 -0.107231915 0.14233515
000290 c3 c0 fc 3d 81 62 ad 3d ad e8 ee 3d 9c 97 7f be
       0.12341454 0.08466054 0.11665473 -0.24960178
0002a0 7e c4 ef bd fb fc 9b 3e a6 c2 3a bd 18 b9 a7 3d
       -0.117074 0.30466446 -0.045595787 0.08189601
0002b0 6f 87 a2 be e8 09 04 3e 47 82 db 3e 02 13 72 3e
       -0.31743953 0.12894404 0.4287283 0.23640063
0002c0 cd 3a 8b 3d f7 4b 54 3d f0 07 ae 3d af 7f b7 bd
       0.06798325 0.05183026 0.08497608 -0.089599006
0002d0 06 fe af 3d a5 03 48 be a6 17 9e be cd c7 c4 3d
       0.08593373 -0.1953264 -0.30877417 0.096084215
0002e0 4d 2d 07 3e 28 4f 85 bd 6f ee 52 be 58 27 99 bd
       0.13200875 -0.065092385 -0.20598768 -0.07478207
0002f0 1c d8 4f 3e a0 f7 6b 3d 1b ee 42 be 4e 96 bc bd
       0.20297283 0.0576092 -0.19036143 -0.09208356
000300 48 e7 2f 3b af 75 a3 3d 29 27 32 be 0a 1a 1e bd
       0.0026840735 0.07981431 -0.17397751 -0.03859905
000310 ce 7e c0 bd 79 ef e1 3d 12 a8 0a 3e 4a 1a 24 3d
       -0.09399186 0.11032004 0.13540676 0.040064134
000320 b1 94 64 3e 1b a1 75 3e de ce a7 3e dd a6 b0 3e
       0.22322346 0.23987238 0.32775015 0.34502307
000330 96 1c 22 bc ae 5a 5e 3c d4 1c 45 be c7 5e 19 3e
       -0.009894511 0.013571424 -0.19249278 0.14977561
000340 6d d8 86 3d f5 ef b0 3d f2 45 13 bd f3 bf fc 3d
       0.06584249 0.08639518 -0.035955377 0.12341299
000350 14 f2 11 3c 33 b7 35 3d cf 7d ee 3d e9 cf 0f 3b
       0.008907814 0.044364166 0.1164509 0.0021943992
000360 50 f4 e6 bc 28 70 9b 3d c3 6d 1f be ca a3 a6 3d
       -0.02819267 0.075897515 -0.15569215 0.08136709
000370 18 17 ba 3d c6 6e 0b 3e 0d ee a3 3e a3 9d 3b bd
       0.09086436 0.13616475 0.32017556 -0.04580463
000380 bd 86 52 be b3 30 88 3e dc aa 89 bd 5b f0 ed bd
       -0.20559211 0.26599655 -0.06722042 -0.1161811
000390 3a 17 78 bd 2d c9 5a 3d b4 e6 a5 3d 9a 00 cf 3d
       -0.060569026 0.053414512 0.08100644 0.101075366
0003a0 d2 41 c2 3d 7d a1 30 3d df 0a 26 be 01 57 f5 bd
       0.094852105 0.043122757 -0.16215084 -0.11979485
0003b0 62 7b 28 be a2 8d 0e 3e 88 79 f8 3d 86 82 e5 3d
       -0.16453317 0.13921216 0.12132555 0.11206536
0003c0 96 df 20 3e f1 17 75 bc 99 3f 90 be 3f da db 3d
       0.15710291 -0.014959321 -0.2817352 0.107349865
0003d0 89 40 1d be b6 53 1d 3e ce a1 74 3e 4a 6b e8 3d
       -0.1535665 0.15363964 0.23889849 0.11348589
0003e0 16 9d 9e be 52 be 91 3e 47 78 e7 bd e5 c1 b7 bc
       -0.30979222 0.28465515 -0.11302238 -0.022431323
0003f0 0a 2b 9f 3e 15 82 6b 3e 87 c2 3f be 7c 70 4e be
       0.31087524 0.22998841 -0.1872655 -0.20160097

encoder.3.bias f4 [8]
000000 00 00 00 00 00 00 00 00 00 00 00 00 00 00 00 00
       0.0 0.0 0.0 0.0
000010 00 00 00 00 00 00 00 00 00 00 00 00 00 00 00 00
       0.0 0.0 0.0 0.0
