train_history/olympics-running/11_23_21_54/actor.pth (torch, 48200 bytes, 14 tensors)

encoder.0.weight f4 [8, 4, 3, 3]
-0.46411678 0.08031467 0.23797697 -0.12265571 -0.21895193 -0.3212397 -0.36801314 0.020443227
0.19425422 -0.10914177 0.0120890895 0.11101455 -0.3502305 -0.18498129 -0.14154826 -0.15053134
-0.51096225 -0.020120978 0.11471234 0.12408057 -0.060206074 -0.17474924 0.39166453 0.4123976
0.29390314 0.5397692 -0.26806056 0.13360065 0.1171156 -0.17432825 0.070927486 0.29512298
0.19426885 0.041970566 -0.39853206 -0.33256322 0.16219822 -0.04572463 -0.5022249 0.112641044
0.42263567 -0.26596355 0.10262892 -0.093539916 0.34764463 0.63396245 0.10403418 0.18370694
0.0488423 0.11411967 0.16236462 -0.034464553 -0.0430633 0.55269426 0.30901328 -0.478252
0.1118962 0.16042039 0.22543868 0.00884315 0.26843575 0.28983074 0.027886067 -0.14174482
0.086402744 -0.07162467 0.26121163 -0.16792344 0.011859728 -0.0132125 0.020290816 0.12849574
-0.24706027 0.3047133 0.1285773 0.27380264 0.19599937 0.018662242 -0.079995595 0.2464888
0.11358316 -0.000106689346 -0.083505094 -0.6118493 -0.07721143 -0.36966306 0.09911982 0.018680053
0.06930983 -0.07546521 0.11522607 0.47919264 -0.20492838 0.166212 0.31564692 -0.04789339
0.21038021 0.18254885 0.18539311 -0.17131384 0.010574467 0.23821558 -0.03819174 -0.32913247
0.099330105 0.0021775586 0.1273363 0.39720115 0.31102377 0.27029303 -0.09304197 0.05661012
0.407041 0.12042528 0.18832906 0.091564536 0.030481197 -0.36631635 0.1759292 0.17745657
-0.3486985 -0.128609 -0.30614007 0.045764416 0.12531532 0.17843461 0.08063177 0.0063582133
0.23505375 -0.7035288 -0.29955748 -0.07032047 -0.06821381 0.4354629 -0.002455561 0.14136758
-0.19246054 0.060090657 -0.0011541031 -0.3759303 -0.29394892 -0.14932281 -0.16038314 -0.051334314
0.116262525 -0.14948885 0.12222824 0.47686923 -0.49011248 0.13900281 0.23385781 -0.0020010364
0.08535184 -0.041944716 0.19166507 0.11530331 -0.03417493 -0.02392976 -0.045147534 0.11079447
0.09917258 0.027960496 -0.5198805 0.09717426 0.6761076 -0.16454536 0.514502 -0.35933664
0.2045437 0.09049666 -0.27034265 -0.07448414 0.078175634 -0.17616849 -0.22084771 -0.056212965
0.24891436 -0.26605776 -0.10943982 0.073361285 -0.38685843 0.27384317 -0.3647785 0.09551916
-0.07631296 0.31677338 -0.20642684 0.121404134 0.059139207 -0.13390335 -0.07745891 0.008333865
-0.0794681 0.0211136 -0.18118882 -0.06293125 0.10775902 0.32217142 0.39897287 0.04263187
0.11517333 0.07837397 0.32149002 -0.4453094 -0.35328442 -0.17916699 0.35688192 -0.08673188
-0.203695 -0.1027467 0.31705055 0.28116876 0.26501954 -0.28215438 -0.23277901 -0.3761559
0.18181394 0.5112505 -0.15018082 0.3310808 -0.27232397 -0.2706308 0.32349432 -0.04061832
-0.34808552 -0.12412562 0.33070582 0.2140874 0.6131186 -0.2794636 0.03395292 -0.07812421
0.1505748 -0.04528809 0.16253494 -0.29050878 -0.1440552 0.05424831 -0.02497464 0.07673006
0.19661629 0.2309775 0.33567488 0.4504504 -0.014745593 -0.03433399 -0.026437478 -0.032454323
-0.2258903 0.05709741 -0.1459375 -0.3276516 -0.04616589 -0.4617734 0.22899412 0.2540739
00000000: b7a0 edbe 057c a43d 3cb0 733e eb32 fbbd
00000010: ef34 60be 8879 a4be 386c bcbe 8e78 a73c
00000020: 94ea 463e b885 dfbd 5111 463c 995b e33d
00000030: 6951 b3be bc6b 3dbe 07f2 10be e324 1abe
00000040: 6cce 02bf c0d4 a4bc 4eee ea3d f41d fe3d
00000050: a59a 76bd 77f1 32be 4188 c83e c725 d33e
00000060: 797a 963e 502e 0a3f 3c3f 89be 9cce 083e
00000070: 4eda ef3d 1b83 32be 6e42 913d 5c1a 973e
00000080: 6aee 463e 54e9 2b3d 650c ccbe ba45 aabe
00000090: 4a17 263e c049 3bbd d091 00bf 59b0 e63d
000000a0: b463 d83e 602c 88be 1c2f d23d db91 bfbd
000000b0: 7afe b13e 5d4b 223f df0f d53d ac1d 3c3e
000000c0: dd0e 483d 93b7 e93d e942 263e b42a 0dbd
000000d0: 2563 30bd 5f7d 0d3f fd36 9e3e 72dd f4be
000000e0: d629 e53d 3e45 243e 66d9 663e dce2 103c
000000f0: 6970 893e b264 943e 5271 e43c 8e25 11be
00000100: ecf3 b03d f4af 92bd 88bd 853e 1ff4 2bbe
00000110: 4e4f 423c 3e79 58bc ed38 a63c 6394 033e
00000120: 5efd 7cbe 6203 9c3e c5a9 033e dc2f 8c3e
00000130: 0fb4 483e 8fe1 983c bbd4 a3bd 8f67 7c3e
00000140: 4a9e e83d 68be dfb8 b804 abbd 28a2 1cbf
00000150: 0721 9ebd 7a44 bdbe 55ff ca3d e906 993c
00000160: 50f2 8d3d 818d 9abd a5fb eb3d bd58 f53e
00000170: bfd8 51be 7b33 2a3e 799c a13e dc2b 44bd
00000180: e96d 573e 16ee 3a3e b1d7 3d3e e56c 2fbe
00000190: 8740 2d3c c9ee 733e f16e 1cbd 0d84 a8be
000001a0: 956d cb3d 5fb5 0e3b 7264 023e f35d cb3e
000001b0: 823e 9f3e d963 8a3e ca8c bebd 03e0 673d
000001c0: ae67 d03e 87a1 f63d 55d9 403e 3086 bb3d
000001d0: b4b3 f93c d18d bbbe c926 343e 2db7 353e
000001e0: 9c88 b2be 14b2 03be 64be 9cbe 7873 3b3d
000001f0: a952 003e 90b7 363e 4522 a53d 8f58 d03b
00000200: eeb1 703e 771a 34bf 995f 99be 2e04 90bd
00000210: afb3 8bbd fef4 de3e 7aed 20bb aac2 103e
00000220: 6014 45be 9f21 763d 4645 97ba f079 c0be
00000230: 7980 96be 14e8 18be 7a3b 24be ee43 52bd
00000240: 0c1b ee3d 9b13 19be cd52 fa3d 3428 f43e
00000250: 06f0 fabe c156 0e3e 6c78 6f3e d223 03bb
00000260: f2cc ae3d 39ce 2bbd d943 443e 2424 ec3d
00000270: 03fb 0bbd 5808 c4bc 9fec 38bd 36e8 e23d
00000280: fe1a cb3d 690d e53c e316 05bf 4c03 c73d
00000290: 6315 2d3f 947e 28be 67b6 033f f9fa b7be
000002a0: e773 513e 5056 b93d 5a6a 8abe 248b 98bd
000002b0: 8c1a a03d 8365 34be e725 62be 913f 66bd
000002c0: 68e3 7e3e b938 88be fc21 e0bd 713e 963d
000002d0: 4f12 c6be 2c35 8c3e 3fc4 babe 8d9f c33d
000002e0: f849 9cbd 1f30 a23e 8f61 53be bba2 f83d
000002f0: f43b 723d f61d 09be c7a2 9ebd c38a 083c
00000300: 2cc0 a2bd 6ef6 ac3c 9089 39be 19e2 80bd
00000310: c3b0 dc3d a7f3 a43e 2c46 cc3e c19e 2e3d
00000320: ffdf eb3d 8882 a03d 579a a43e 98ff e3be
00000330: b2e1 b4be 8d77 37be 3ab9 b63e 7ca0 b1bd
00000340: 6c95 50be dd6c d2bd 7354 a23e 5af5 8f3e
00000350: a4b0 873e 8a76 90be 9f5d 6ebe 8297 c0be
00000360: 6f2d 3a3e 50e1 023f 00c9 19be 6c83 a93e
00000370: 0c6e 8bbe 1f90 8abe 0ca1 a53e 655f 26bd
00000380: 4438 b2be 9335 febd 4652 a93e ba39 5b3e
00000390: 57f5 1c3f da15 8fbe 3812 0b3d 96ff 9fbd
000003a0: 4830 1a3e 0180 39bd 8f6f 263e 91bd 94be
000003b0: 3583 13be 7a33 5e3d 9e97 ccbc a624 9d3d
000003c0: c855 493e 5e85 6c3e 94dd ab3e 6fa1 e63e
000003d0: 8097 71bc cca1 0cbd 6993 d8bc d3ee 04bd
000003e0: c94f 67be f9de 693d a470 15be f3c1 a7be
000003f0: 7218 3dbd 906d ecbe 6f7d 6a3e f915 823e

encoder.0.bias f4 [8]
0.007910521 -0.022462424 -0.008070732 0.0049102176 -0.031602584 0.05112641 0.00041572357 -0.0106947655
00000000: 219b 013c 1e03 b8bc 1a3b 04bc e4e5 a03b
00000010: b671 01bd ed69 513d 79f5 d939 1939 2fbc

encoder.3.weight f4 [8, 8, 3, 3]
0.12559108 -0.52534306 0.011586403 0.24299446 -0.10146744 0.2319507 -0.10834831 0.08342956
0.06007238 0.062146857 -0.04140501 -0.17983197 -0.06809331 0.08713481 -0.30174676 -0.06880344
0.21279563 -0.11203055 0.033279397 0.0036917941 -0.056706272 0.17956302 -0.18287699 -0.078367494
0.15611316 -0.10270203 -0.31792647 -0.15721075 0.035434604 -0.12836576 0.08056509 0.13302311
0.5060155 -0.099896364 0.1423145 -0.07875597 0.028787319 -0.15669972 -0.021687364 -0.0451088
-0.087339014 -0.28185964 -0.19972199 0.39707315 -0.108989455 0.16463904 -0.0024385476 0.11534932
-0.09184696 0.40386868 -0.013491447 0.062959105 0.33419338 -0.01193759 -0.11733912 -0.00758651
0.17045698 0.00574529 0.17434552 0.23030314 0.11362886 -0.16395724 0.22786388 0.027335048
-0.018351423 0.23907012 -0.12492125 0.020644762 -0.057512905 0.07841494 0.06657425 0.09716122
-0.43442586 -0.11719566 0.29036656 -0.10682459 -0.044843145 0.0058578975 -0.10014092 -0.049068227
-0.06237118 -0.16656722 -0.04490538 0.06267638 -0.020197753 -0.235636 0.18578903 0.07957722
0.41424447 -0.023627158 -0.19597758 0.035739332 0.277378 -0.23849367 -0.055288583 0.049040988
0.06196763 0.085580446 -0.048452787 -0.07731092 0.016338442 -0.19998823 0.07093418 0.052907538
0.016881544 -0.027352441 -0.33653829 -0.059638597 -0.15457709 -0.24442293 -0.035368953 -0.13623479
-0.0037501396 0.3009259 0.08802958 0.47796023 0.21996514 0.31682596 0.12681313 0.38836655
-0.14975004 -0.1438089 -0.04951312 -0.22264665 -0.20313051 -0.30846182 -0.019255133 -0.074723735
0.12617256 -0.16700569 0.1335083 0.1306904 0.11366847 0.2186029 -0.16406596 -0.0503868
-0.18820883 -0.10911648 -0.0040777316 0.23842868 -0.017426135 -0.045828212 -0.17749144 -0.2218665
-0.11140045 0.09166645 -0.004544402 0.08405815 -0.34898 -0.25515446 -0.043449722 -0.08171713
-0.053096987 -0.04137996 0.23886953 0.1405943 -0.1708953 -0.16516888 -0.02329426 0.28784072
-0.06645762 -0.20361407 0.11956387 -0.021545505 0.509739 -0.24233674 -0.24862608 -0.2393538
0.14753258 -0.25589803 0.039495584 -0.14589615 0.008785458 0.22437352 0.28873074 0.0009217357
0.114951216 0.11763315 0.26807016 -0.22717288 -0.21606557 0.16098543 0.024358135 -0.103543535
0.007025007 -0.2382826 0.112317726 -0.11103326 -0.12429243 -0.13124213 0.2890816 -0.09489182
-0.004315 -0.1498712 -0.24876595 -0.06306529 0.038361922 -0.1868748 0.0458402 -0.035801735
0.104938515 0.25687164 0.009980656 0.14663966 0.14834987 0.031249551 -0.25383806 -0.21825063
0.45188475 -0.116455324 0.043825585 -0.018027948 0.0070962026 -0.010712508 0.03689826 -0.23508793
0.26362795 0.028112456 -0.080427766 0.21153578 0.013739982 0.17174491 0.13939425 0.121654354
0.0667659 0.10848357 -0.45345032 -0.16884619 -0.13221171 -0.19688182 0.021329869 -0.061909944
0.13946345 0.00822687 -0.10048085 -0.0005654643 -0.112473965 -0.17262337 -0.03867839 0.018873405
0.15475471 -0.035064384 0.105417036 -0.10936777 -0.034853667 0.34534398 0.1327557 -0.20976985
-0.15795876 -0.12789011 -0.14895017 0.0023633102 0.324665 -0.087030046 0.31231186 -0.24472196
00000000: f39a 003e e27c 06bf e5d4 3d3c 8ad3 783e
00000010: 29ce cfbd 7c84 6d3e b8e5 ddbd 1edd aa3d
00000020: 750e 763d b48d 7e3d 4d98 29bd df25 38be
00000030: 8174 8bbd bc73 b23d 8d7e 9abe d1e8 8cbd
00000040: 19e7 593e 4670 e5bd fa4f 083d 07f2 713b
00000050: d644 68bd 5edf 373e 1b44 3bbe 237f a0bd
00000060: 21dc 1f3e 7155 d2bd 42c7 a2be dbfb 20be
00000070: e023 113d 5072 03be 4fff a43d 3637 083e
00000080: 3b8a 013f 7796 ccbd e4ba 113e cf4a a1bd
00000090: 62d3 eb3c e475 20be b3a9 b1bc 01c4 38bd
000000a0: ccde b2bd e84f 90be ec83 4cbe 2c4d cb3e
000000b0: dd35 dfbd 2397 283e 0ad0 1fbb 443c ec3d
000000c0: 421a bcbd e0c7 ce3e 3b0b 5dbc b4f0 803d
000000d0: 651b ab3e e295 43bc 7e4f f0bd 4298 f8bb
000000e0: 468c 2e3e fc42 bc3b a287 323e 96d4 6b3e
000000f0: 3fb6 e83d 68e4 27be 2655 693e c0ed df3c
00000100: b955 96bc ccce 743e b6d6 ffbd 341f a93c
00000110: a792 6bbd 0398 a03d 1558 883d 76fc c63d
00000120: 116d debe 4704 f0bd edaa 943e dac6 dabd
00000130: 72ad 37bd 9bf3 bf3b af16 cdbd c4fb 48bd
00000140: ec78 7fbd 9990 2abe b4ee 37bd 795c 803d
00000150: c275 a5bc 904a 71be 7b3f 3e3e 62f9 a23d
00000160: da17 d43e be8d c1bc 59ae 48be 6863 123d
00000170: 7d04 8e3e af37 74be 4876 62bd 34df 483d
00000180: c5d1 7d3d cd44 af3d 6e76 46bd 3055 9ebd
00000190: 32d8 853c b7c9 4cbe f045 913d 93b5 583d
000001a0: 2a4b 8a3c 3a12 e0bc bf4e acbe 9a47 74bd
000001b0: 7549 1ebe 014a 7abe 09df 10bd 2281 0bbe
000001c0: e7c4 75bb f612 9a3e da48 b43d 34b7 f43e
000001d0: 8b3e 613e 0337 a23e 4ddb 013e fbd7 c63e
000001e0: 1358 19be a442 13be 45ce 4abd 7cfd 63be
000001f0: 7201 50be b5ee 9dbe f1bc 9dbc c208 99bd
00000200: 6133 013e 8a03 2bbe 66b6 083e b4d3 053e
00000210: 04cb e83d 70d9 5f3e e800 28be 6462 4ebd
00000220: d1b9 40be 7678 dfbd 7e9e 85bb a626 743e
00000230: 41c1 8ebc 5db6 3bbd 51c0 35be f930 63be
00000240: eb25 e4bd 9fbb bb3d 35e9 94bb ae26 ac3d
00000250: 82ad b2be 9ba3 82be 56f8 31bd 505b a7bd
00000260: 3a7c 59bd 087e 29bd 379a 743e f4f7 0f3e
00000270: 2dff 2ebe 0822 29be 9bd3 bebc dc5f 933e
00000280: ef1a 88bd 3580 50be e7dd f43d 3380 b0bc
00000290: 417e 023f 1f27 78be d697 7ebe 2a19 75be
000002a0: c812 173e 1105 83be 1fc6 213d cd65 15be
000002b0: e2f0 0f3c 2cc2 653e 84d4 933e a3a0 713a
000002c0: 8b6b eb3d a6e9 f03d 7e40 893e 02a0 68be
000002d0: 4b40 5dbe 5dd9 243e b68a c73c a20e d4bd
000002e0: 0832 e63b 5b00 74be d606 e63d 6865 e3bd
000002f0: 088d febd 5664 06be 8102 943e a456 c2bd
00000300: d864 8dbb d677 19be 80bc 7ebe 6028 81bd
00000310: 6421 1d3d 1c5c 3fbe efc2 3b3d d7a4 12bd
00000320: 01ea d63d ae84 833e e885 233c b528 163e
00000330: 07e9 173e 0fff ff3c 10f7 81be 187d 5fbe
00000340: 705d e73e 2180 eebd 7582 333d 59af 93bc
00000350: 4387 e83b 8483 2fbc a122 173d e4ba 70be
00000360: 3efa 863e 184c e63c 50b7 a4bd d69c 583e
00000370: a91d 613c e6dd 2f3e 5ebd 0e3e eb25 f93d
00000380: 8fbc 883d a22c de3d a42a e8be 04e6 2cbe
00000390: 8262 07be 639b 49be fabb ae3c 4895 7dbd
000003a0: 82cf 0e3e fec9 063c e7c8 cdbd ab3b 14ba
000003b0: c058 e6bd 2ec4 30be 3b6d 1ebd 669c 9a3c
000003c0: 0578 1e3e ac9f 0fbd e3e4 d73d 36fc dfbd
000003d0: b8c2 0ebd edd0 b03e 1cf1 073e e8cd 56be
000003e0: f1bf 21be a0f5 02be 6586 18be c4e1 1a3b
000003f0: 7e3a a63e cf3c b2bd 57e7 9f3e 6598 7abe

encoder.3.bias f4 [8]
-0.010752078 -0.05159369 0.035160586 -0.053506345 0.09431594 -0.0713258 -0.066258565 -0.008705998
00000000: 7c29 30bc e853 53bd 8c04 103d 7829 5bbd
00000010: b728 c13d 4313 92bd 92b2 87bd 9aa3 0ebc

cnn_net.0.weight f4 [16, 8, 3, 3]
0.06461409 0.15024912 -0.098375246 0.24672891 -0.3192761 -0.5582509 0.17471318 0.011174028
0.043310404 -0.24291474 0.04152564 -0.15425077 -0.3616856 0.12545022 0.010195794 0.06769487
-0.02777459 -0.21091723 -0.020441955 0.06977599 0.2521058 -0.13882032 -0.16355316 -0.039349027
0.20659561 0.05404816 0.28760612 -0.214971 0.07524669 -0.089541264 -0.10509582 -0.076792106
0.005119578 0.077965334 0.09864958 0.2508202 0.0039498704 -0.23593625 0.31352383 -0.16043939
-0.30707842 0.14509268 -0.016400207 0.0486831 -0.08330916 0.069477014 0.17318387 0.25007537
-0.024812916 -0.027871583 0.15244804 0.21839961 0.23736729 0.020549549 0.2529114 -0.052680835
0.020397626 0.19067168 -0.0986587 0.029809339 -0.121348694 -0.06413831 0.019799383 0.09079031
0.09033232 0.0769102 0.19988795 0.21308379 0.22776008 -0.15004079 0.03467636 0.15731975
-0.114917465 0.025712745 0.079564154 -0.11102341 0.057792537 -0.07927386 0.3667553 0.009146021
0.084394865 0.24309872 -0.021165632 -0.15458918 0.057817154 -0.011844566 0.19313374 -0.00011567444
0.07448117 0.2590002 -0.24624366 -0.15188862 0.3501732 0.04989702 0.010253203 -0.19614081
0.032285824 0.052778095 0.078359775 0.040161323 -0.16807021 -0.15337844 0.104840666 -0.22249216
0.14243709 0.050336294 0.07487334 -0.24023849 -0.18809512 0.08385363 0.14047067 0.08165978
-0.18260099 0.31908506 -0.087332 0.14420396 -0.014074884 -0.06417987 -0.3303695 0.04148334
-0.0059146755 -0.1305687 0.10888137 0.28526497 0.34162286 -0.35959804 -0.21833052 -0.1221368
0.048938874 -0.067096554 -0.19121821 -0.25151083 0.084539846 0.032440837 -0.0516632 -0.1644651
-0.17511162 0.24308911 -0.25518814 0.27170748 -0.09842134 0.07477174 0.27124724 -0.20404169
0.47939846 0.23160967 0.07062006 -0.3344258 0.41847557 0.19558403 0.16434488 -0.19741075
-0.19581464 -0.15404442 -0.046383634 -0.07873747 -0.14870979 -0.16807726 -0.22331168 0.03196047
0.07303584 0.16235979 0.15704903 0.30180177 0.1430747 0.11202497 -0.09526719 0.101966284
-0.11100458 -0.048929967 -0.0021877792 -0.08271055 0.0747134 -0.003916602 0.2365403 -0.04113858
-0.26668164 0.06947556 0.048406336 0.06298054 0.17574672 -0.20344405 0.21768324 0.18979138
-0.015816139 0.3388103 0.029513119 -0.21393616 0.29515597 0.06887143 0.18590538 0.26959166
0.006114088 0.0843388 0.15605243 0.057379086 0.018569209 0.24707636 -0.02686103 0.13051505
-0.041646548 -0.09957942 -0.30918032 -0.21150173 0.04963687 0.11865265 -0.085522905 -0.114228405
0.2382074 -0.10255104 -0.17913336 -0.04574918 -0.00837093 -0.2938718 -0.34238064 -0.16919634
0.28745613 -0.044703096 0.014613489 0.19207741 0.051918294 -0.32456544 -0.032381713 -0.22882253
-0.1365715 -0.06662014 0.08158793 0.25542456 0.23371947 -0.0017938975 0.0617674 0.11867911
0.1800833 -0.16236226 0.31220546 0.114445835 0.2454226 0.019802453 -0.121166565 0.09783148
0.33575296 0.13638435 0.25119612 -0.12128588 -0.11339462 -0.19564477 0.322933 0.118597105
0.03472501 0.13838309 -0.15089417 -0.12138606 -0.09510747 0.052681215 -0.098013 0.0732118
00000000: 6454 843d e8da 193e f678 c9bd 81a6 7c3e
00000010: 2878 a3be 88e9 0ebf 03e8 323e 4513 373c
00000020: 4066 313d a4be 78be ca16 2a3d eaf3 1dbe
00000030: db2e b9be 0676 003e 420c 273c 9ca3 8a3d
00000040: 8987 e3bc b0fa 57be e375 a7bc b7e6 8e3d
00000050: 0314 813e ea26 0ebe 7b7a 27be 722c 21bd
00000060: cd8d 533e 9a61 5d3d 1c41 933e 5c21 5cbe
00000070: f01a 9a3d 6961 b7bd 7a3c d7bd 2e45 9dbd
00000080: 22c2 a73b 4aac 9f3d ca08 ca3d 816b 803e
00000090: ea6d 813b 4699 71be 3286 a03e 394a 24be
000000a0: 6239 9dbe 2d93 143e ba59 86bc ee67 473d
000000b0: fe9d aabd f749 8e3d 1d57 313e e109 803e
000000c0: 7544 cbbc f252 e4bc 571b 1c3e 26a4 5f3e
000000d0: 6910 733e 8757 a83c 9a7d 813e dcc7 57bd
000000e0: ec18 a73c 703f 433e 930d cabd b732 f43c
000000f0: aa85 f8bd f25a 83bd 5132 a23c 45f0 b93d
00000100: 2700 b93d 1883 9d3d 6daf 4c3e a332 5a3e
00000110: f039 693e 4ba4 19be cd08 0e3d 6e18 213e
00000120: d959 ebbd 89a3 d23c 88f2 a23d 3e60 e3bd
00000130: deb7 6c3d 555a a2bd 5ac7 bb3e 31d9 153c
00000140: 37d7 ac3d dfee 783e 8c63 adbc a04c 1ebe
00000150: aed1 6c3d b60f 42bc dac4 453e 3e96 f2b8
00000160: 9589 983d ad9b 843e 4c27 7cbe b188 1bbe
00000170: e749 b33e d160 4c3d 0dfd 273c 23d9 48be
00000180: 243e 043d d82d 583d 177b a03d 3380 243d
00000190: 991a 2cbe 3d0f 1dbe b4b6 d63d fcd4 63be
000001a0: 07db 113e 6e2d 4e3d 3257 993d 1401 76be
000001b0: 029c 40be 74bb ab3d 8bd7 0f3e 3e3d a73d
000001c0: c1fb 3abe 1e5f a33e 1fdb b2bd 34aa 133e
000001d0: 589a 66bc bc70 83bd 3126 a9be 6fea 293d
000001e0: e5cf c1bb cdb3 05be 32fd de3d 400e 923e
000001f0: 31e9 ae3e 3c1d b8be 0992 5fbe dc22 fabd
00000200: 2174 483d eb69 89bd b5ce 43be 07c6 80be
00000210: 3a23 ad3d afe0 043d cb9c 53bd 8a69 28be
00000220: 7650 33be 5aec 783e 05a8 82be 3e1d 8b3e
00000230: 2191 c9bd ed21 993d ebe0 8a3e 4ef0 50be
00000240: b773 f53e 162b 6d3e 40a1 903d dc39 abbe
00000250: 6e42 d63e 2e47 483e 064a 283e 0b26 4abe
00000260: a283 48be d2bd 1dbe c4fc 3dbd 1c41 a1bd
00000270: 6147 18be 721c 2cbe d1ab 64be fbe8 023d
00000280: d193 953d a541 263e 76d1 203e c385 9a3e
00000290: 2d82 123e 596d e53d 721b c3bd b3d3 d03d
000002a0: 5f56 e3bd ca6a 48bd d860 0fbb 2664 a9bd
000002b0: 5703 993d d756 80bb 9f37 723e ed80 28bd
000002c0: 7f8a 88be 3449 8e3d b945 463d f1fb 803d
000002d0: f3f6 333e a353 50be 5be8 5e3e ac58 423e
000002e0: d990 81bc 8b78 ad3e 7fc5 f13c 1512 5bbe
000002f0: af1e 973e 770c 8d3d fb5d 3e3e eb07 8a3e
00000300: b058 c83b d2b9 ac3d 35cc 1f3e 5506 6b3d
00000310: 741e 983c 9601 7d3e aa0b dcbc bda5 053e
00000320: 9295 2abd 4cf0 cbbd e24c 9ebe e993 58be
00000330: 0850 4b3d 2900 f33d a226 afbd 95f0 e9bd
00000340: a4ec 733e 4806 d2bd bc6e 37be 7e63 3bbd
00000350: 3a26 09bc 5d76 96be 844c afbe ce41 2dbe
00000360: 732d 933e 981a 37bd 6a6d 6f3c f1af 443e
00000370: 47a8 543d 712d a6be b0a2 04bd 7450 6abe
00000380: 66d9 0bbe 2470 88bd 9317 a73d 02c7 823e
00000390: 2854 6f3e 3621 ebba d0ff 7c3d 090e f33d
000003a0: c267 383e 4b42 26be 65d9 9f3e 9462 ea3d
000003b0: 1050 7b3e c138 a23c 2d26 f8bd df5b c83d
000003c0: d0e7 ab3e 57a8 0b3e c79c 803e bb64 f8bd
000003d0: 703b e8bd 1a57 48be 7957 a53e 0ae3 f23d
000003e0: d03b 0e3d 4cb4 0d3e 0084 1abe 4199 f8bd
000003f0: b5c7 c2bd 42c8 573d 0abb c8bd 11f0 953d

cnn_net.0.bias f4 [16]
-0.04835095 -0.009621393 -0.01863936 -0.010719423 0.023143018 -0.016341144 -0.019171879 0.013744723
-0.04742082 -0.046150256 -0.0052420977 0.048885874 -0.025061933 0.01263298 -0.07015104 0.04567854
00000000: a50b 46bd 0ca3 1dbc 92b1 98bc 85a0 2fbc
00000010: 6d96 bd3c dddd 85bc 580e 9dbc 8c31 613c
00000020: 553c 42bd 0d08 3dbd e7c5 abbb 8e3c 483d
00000030: af4e cdbc 8ffa 4e3c 59ab 8fbd 6c19 3b3d

cnn_net.3.weight f4 [32, 16, 3, 3]
-0.255908 0.18804583 -0.09136167 0.15409091 -0.027625628 0.017420424 0.23348431 0.16313355
0.098593 -0.03494253 -0.14437813 0.11725444 0.119050525 -0.034793433 -0.00015719907 -0.044252872
-0.19474833 0.014955037 -0.15917432 -0.08726695 -0.049958263 -0.026615283 0.09737199 -0.15411992
-0.0055151503 -0.011297508 -0.13081522 -0.07644833 -0.018280989 0.06636311 0.24889918 -0.018006964
-0.07110525 0.07939298 -0.05772759 -0.021262348 -0.100758485 0.14522544 0.006680874 -0.1920908
0.15900247 -0.23936167 0.06272383 -0.11359246 0.20104448 -0.007863078 -0.11693961 -0.29768065
0.012474823 0.18230991 0.12818387 0.040645793 -0.12411777 -0.2482476 -0.26972863 -0.0010381315
-0.1262604 -0.059995886 0.1812791 0.09852139 -0.16799314 0.040490042 -0.020428013 -0.080847725
-0.073916934 0.027849732 -0.24669394 -0.16594099 0.03043547 -0.007983803 0.10397997 0.13764714
0.07296123 -0.27717975 -0.10958986 -0.022804145 -0.19539478 -0.04231124 0.27339247 -0.01788802
-0.12039305 -0.050615694 0.066911 -0.020560652 -0.041215368 -0.107177086 -0.21950437 -0.09031433
0.014417652 -0.009289148 -0.08032193 0.0037270698 0.1418213 -0.069078036 0.020271115 -0.027017169
0.26395884 -0.064191945 0.046331733 -0.011226147 -0.23091127 -0.06794867 -0.20245722 -0.14035937
0.15943526 -0.14458178 -0.08798094 -0.12113235 0.0643874 -0.09623495 -0.021181807 0.031500466
-0.17634673 0.2225424 -0.0283628 -0.05731453 -0.008914457 0.24803345 0.09682337 0.046234127
-0.23192242 -0.09504458 -0.06486106 0.14937705 0.04923012 -0.094762534 -0.38599518 -0.09305163
0.15178621 0.20664392 -0.16148898 0.16161266 0.18945122 -0.11419845 -0.017547475 -0.37857467
-0.07631471 0.017133733 -0.018442443 -0.09220277 0.034415882 0.13546388 -0.18256713 -0.040050756
0.034675527 -0.21862216 -0.23820254 0.10682897 -0.0009052537 -0.023435317 -0.100004524 -0.24516752
-0.016281558 -0.20758788 -0.009702345 0.1299993 0.01151278 -0.031071523 0.09403507 0.05715759
0.0045055295 -0.11037553 -0.004270812 0.17223923 -0.24441586 0.033432554 -0.063095115 0.065691695
-0.09832115 -0.015967393 -0.068992265 -0.17037047 -0.15087622 0.22383288 0.01135509 0.0015074189
0.02880199 0.04272721 0.01258353 0.0034069149 0.20873955 0.24438196 0.052007023 -0.118141964
0.104914375 -0.04074967 -0.025010929 -0.087089516 0.16297029 0.093105465 -0.10078879 -0.06759268
-0.010879438 -0.03798118 0.0024304192 0.16927134 -0.022249991 0.19195291 0.091384016 -0.08146356
-0.091303386 -0.13079114 0.09283006 0.18614241 -0.08278626 0.081951216 -0.15990612 -0.33707887
0.082508124 -0.32776353 0.06675497 -0.08173139 -0.19754258 0.1556554 -0.12457477 0.05559781
-0.062471684 0.0109818885 -0.29080442 0.12518948 -0.0018543148 -0.08200597 0.16116448 0.037312716
0.04945527 -0.015816443 -0.09519361 0.06242367 0.07562105 -0.005515639 -0.074807145 0.06098548
-0.057092965 0.034448884 0.042829398 -0.28125685 -0.2031835 0.13819765 0.12020006 0.19775207
-0.08951666 -0.051945273 -0.15334608 -0.015595739 0.18694772 -0.083968915 -0.21532081 -0.20124418
-0.024027474 -0.07617544 -0.07115334 -0.08508706 0.050208967 -0.02822657 -0.15572532 0.13183385
00000000: 6006 83be 168f 403e d41b bbbd 02ca 1d3e
00000010: 244f e2bc 47b5 8e3c 8316 6f3e 7b0c 273e
00000020: 20eb c93d e61f 0fbd dcd7 13be 1923 f03d
00000030: c3d0 f33d 8f83 0ebd ced5 24b9 8042 35bd
00000040: 1b6c 47be f905 753c 98fe 22be 04b9 b2bd
00000050: 09a1 4cbd 4b08 dabc f76a c73d 9dd1 1dbe
00000060: 6fb8 b4bb 2f19 39bc 6df4 05be f190 9cbd
00000070: 03c2 95bc 62e9 873d 6ddf 7e3e 5783 93bc
00000080: a19f 91bd c998 a23d c473 6cbd 602e aebc
00000090: 775a cebd fab5 143e 3ceb da3b 73b3 44be
000000a0: 8bd1 223e 3a1b 75be 5a75 803d 2aa3 e8bd
000000b0: 9bde 4d3e 24d4 00bc 097e efbd 9969 98be
000000c0: 3363 4c3c 73af 3a3e a242 033e 347c 263d
000000d0: 7531 febd 9e34 7ebe df19 8abe ea11 88ba
000000e0: 684a 01be 3fbe 75bd 3aa1 393e 95c5 c93d
000000f0: 6506 2cbe e3d8 253d a658 a7bc 7e93 a5bd
00000100: c361 97bd 1f25 e43c 569d 7cbe 6fec 29be
00000110: cf53 f93c 7fce 02bc 73f3 d43d 5ff3 0c3e
00000120: b36c 953d 81ea 8dbe a670 e0bd c2cf babc
00000130: 9215 48be 8d4e 2dbd 19fa 8b3e e689 92bc
00000140: a290 f6bd 6752 4fbd a208 893d d06e a8bc
00000150: 72d1 28bd a97f dbbd c1c5 60be b8f6 b8bd
00000160: 0438 6c3c 8331 18bc d37f a4bd db41 743b
00000170: 9a39 113e c978 8dbd 9c0f a63c 1c53 ddbc
00000180: 9d25 873e 1177 83bd 58c6 3d3d e0ed 37bc
00000190: 0174 6cbe ac28 8bbd f250 4fbe 5eba 0fbe
000001a0: ff42 233e 3f0d 14be 5a2f b4bd 3d14 f8bd
000001b0: 8bdd 833d d416 c5bd 7885 adbc a206 013d
000001c0: 3d94 34be 28e2 633e 1a59 e8bc a4c2 6abd
000001d0: f10d 12bc 7bfc 7d3e 554b c63d ff5f 3d3d
000001e0: 127d 6dbe bca6 c2bd e0d5 84bd 4cf6 183e
000001f0: 86a5 493d dc12 c2bd 29a1 c5be da91 bebd
00000200: d86d 1b3e 779a 533e 5e5d 25be ca7d 253e
00000210: 80ff 413e e1e0 e9bd b9bf 8fbc 8ad4 c1be
00000220: e34a 9cbd 0b5c 8c3c 9b14 97bc ced4 bcbd
00000230: abf7 0c3d 0bb7 0a3e e1f2 3abe 430c 24bd
00000240: ed07 0e3d 7dde 5fbe 5eeb 73be 26c9 da3d
00000250: 8c4e 6dba 6cfb bfbc 2ccf ccbd 320d 7bbe
00000260: e760 85bc eb91 54be 96f6 1ebc 891e 053e
00000270: 19a0 3c3c b589 febc 7595 c03d 141e 6a3d
00000280: 1fa3 933b 910c e2bd 2bf2 8bbb 7b5f 303e
00000290: 2748 7abe 93f0 083d 0338 81bd 5e89 863d
000002a0: 995c c9bd 0dce 82bc d14b 8dbd 9975 2ebe
000002b0: 4c7f 1abe 7234 653e b30a 3a3c 9694 c53a
000002c0: 27f2 eb3c ba02 2f3d 262b 4e3c 8c46 5f3b
000002d0: d2bf 553e 443f 7a3e 5105 553d 6af4 f1bd
000002e0: 59dd d63d 20e9 26bd b8e3 ccbc fd5b b2bd
000002f0: afe1 263e 14ae be3d 5a6a cebd 086e 8abd
00000300: ac3f 32bc 2792 1bbd ab47 1f3b 7755 2d3e
00000310: 9d45 b6bc 4e8f 443e 8b27 bb3d 5ed6 a6bd
00000320: 45fd babd 1dee 05be b01d be3d 1e9c 3e3e
00000330: d88b a9bd 0ad6 a73d 6ebe 23be 9a95 acbe
00000340: 05fa a83d 9fd0 a7be d4b6 883d c962 a7bd
00000350: 9a48 4abe 2164 1f3e 0f21 ffbd 87ba 633d
00000360: 4fe2 7fbd 61ed 333c 51e4 94be ac31 003e
00000370: 7b0c f3ba bff2 a7bd 4d08 253e 38d5 183d
00000380: 9c91 4a3d 7c91 81bc def4 c2bd f6af 7f3d
00000390: 36df 9a3d 89bc b4bb 7d34 99bd e9cb 793d
000003a0: 50da 69bd 461a 0d3d e16d 2f3d e600 90be
000003b0: 560f 50be af83 0d3e 732b f63d 857f 4a3e
000003c0: 8354 b7bd 91c4 54bd c106 1dbe 4585 7fbc
000003d0: 396f 3f3e e5f7 abbd 0f7d 5cbe f412 4ebe
000003e0: 44d5 c4bc de01 9cbd d8b8 91bd 2042 aebd
000003f0: eba7 4d3d 683b e7bc 7576 1fbe 74ff 063e

cnn_net.3.bias f4 [32]
-0.025704034 -0.001199996 0.0009927473 -0.040977422 -0.091577075 0.003588112 -0.039078854 -0.039401732
-0.012567098 -0.004600384 -0.026921283 -0.0032982372 -0.008304315 -0.012906801 0.016090082 -0.010587518
-0.046659045 -0.025624098 -0.061385278 -0.04606094 0.0061288206 0.007308682 0.005776108 -0.030159775
-0.038755767 0.03418703 -0.0029187761 -0.03880436 -0.0027149545 0.0064596953 -0.007898145 0.022377996
00000000: 4491 d2bc 2f49 9dba 121f 823a f1d7 27bd
00000010: c38c bbbd 8826 6b3b 2611 20bd b663 21bd
00000020: 3be6 4dbc d1be 96bb 068a dcbc 3d27 58bb
00000030: d20e 08bc 0c77 53bc 59cf 833c 4577 2dbc
00000040: 8e1d 3fbd a1e9 d1bc 216f 7bbd 65aa 3cbd
00000050: 46d4 c83b ab7d ef3b 8145 bd3b a211 f7bc
00000060: 5ebe 1ebd b307 0c3d f048 3fbb 52f1 1ebd
00000070: 61ed 31bb daab d33b 3967 01bc 0f52 b73c

hidden.weight f4 [32, 128]
-0.19051996 -0.18146499 0.03054214 -0.0824504 0.2801054 -0.14996195 0.322883 -0.094285525
0.14136222 0.015178793 -0.015944129 0.14784123 0.006318717 -0.04898148 -0.009555988 -0.12179531
-0.2329918 -0.20198861 0.15851891 -0.0469853 0.039525405 -0.19104996 0.17977868 -0.163549
-0.32419646 0.0526313 -0.20430852 -0.105804026 0.108848676 0.1430693 -0.077539 -0.061636038
-0.18461025 -0.16502957 -0.19190763 0.17118104 -0.06483452 0.016895529 0.0068069333 0.21517868
0.074654385 0.049184013 -0.0186454 -0.08719261 -0.060203023 -0.24071833 -0.16457899 -0.092104755
0.23320071 -0.2201621 0.14575464 -0.310485 -0.107218266 -0.05313467 0.08747264 -0.1621013
0.084815815 -0.1647744 0.014561617 -0.14404728 -0.18981908 -0.125871 0.12407273 0.05533211
0.03210962 -0.045930568 -0.045370232 -0.105442144 -0.05481135 0.031260956 0.03187836 -0.06285902
-0.00549514 0.096906826 -0.24849044 -0.15947092 -0.041571032 -0.08370099 0.08746013 0.18171829
-0.11406902 0.1262805 0.06355417 -0.12284054 -0.10911502 0.0678741 -0.13731916 -0.06756473
0.04564245 -0.0033554633 0.19914791 0.12885022 -0.010027712 0.173956 -0.18845859 0.010270883
0.13932675 -0.117818214 0.21080516 0.1613616 0.020312201 0.072997704 0.18594283 -0.004508758
0.0021244683 0.33337912 -0.09872416 0.41720024 0.043462656 0.041209314 0.1760561 -0.18465173
-0.18654734 0.13815911 0.05186417 0.005017009 0.020112583 0.22158347 -0.04376689 0.056960475
0.12325657 -0.016097689 0.12979858 0.07704149 -0.18944845 -0.0901773 0.056889467 0.11915289
0.029789917 -0.1284075 0.13798818 -0.18885186 0.024064835 0.1272239 -0.21565361 -0.2678083
0.4320648 -0.15492345 0.023300208 -0.01902026 0.2380433 -0.011498556 -0.05865297 0.030490492
-0.08564454 0.24195439 -0.092891194 0.10607382 0.17893322 -0.07673009 -0.2058588 -0.13341296
-0.08437837 0.11277758 0.054858755 0.05630196 -0.12742603 -0.0007345072 0.117187254 -0.12716839
0.025853092 0.15830737 0.06260906 0.08473424 -0.045242418 -0.027478758 0.021952506 0.13539554
-0.08741266 -0.1985277 0.11090491 -0.045602534 -0.075362034 -0.0049859947 -0.19254212 0.10548655
0.003083066 -0.099671386 -0.073579684 0.014019502 -0.10131001 0.15854847 -0.038359657 0.06870861
0.043436408 0.05444056 -0.22617078 -0.060593978 -0.08548975 -0.06301909 -0.27834594 0.05517556
-0.068457544 0.13895677 0.14677708 0.07930188 -0.12309023 -0.100717 -0.03673478 -0.035804022
-0.004652377 0.13962142 -0.04207381 -0.031206584 0.047935415 -0.04207509 0.056802176 0.11549924
-0.13756022 -0.045861684 0.15534125 0.16550286 0.25109723 -0.06937683 0.056954823 -0.07783341
0.17683822 0.13306767 -0.053900477 0.014632456 -0.09559101 0.17730698 0.20029019 0.009008371
-0.08158238 0.03158119 -0.11758356 -0.1901562 -0.31863138 0.011617953 -0.038717326 -0.2028047
0.111110605 0.24408765 -0.017202185 0.07297085 0.06715904 -0.03320635 0.08797301 -0.050139707
-0.040368672 -0.13668501 -0.12448379 0.07603447 -0.062516555 -0.033321913 -0.26066864 -0.32255855
0.098852366 -0.079057515 -0.07342028 0.041631453 0.28556812 0.13551898 0.03563254 -0.1394496
00000000: aa17 43be f5d1 39be 8333 fa3c c1db a8bd
00000010: fa69 8f3e a08f 19be ec50 a53e c518 c1bd
00000020: 42c1 103e 79b0 783c 439d 82bc b163 173e
00000030: 3d0d cf3b cea0 48bd b890 1cbc d26f f9bd
00000040: 6795 6ebe 1ad6 4ebe c852 223e a873 40bd
00000050: 64e5 213d 9aa2 43be e717 383e 6479 27be
00000060: 14fd a5be eb93 573d 4136 51be c8af d8bd
00000070: 0eec de3d c280 123e c4cc 9ebd 1276 7cbd
00000080: 780a 3dbe 83fd 28be 6f83 44be 154a 2f3e
00000090: f6c7 84bd 7e68 8a3c b20c df3b cd57 5c3e
000000a0: 66e4 983d 2d75 493d 3dbe 98bc 0a92 b2bd
000000b0: 7297 76bd de7e 76be 6587 28be 6ba1 bcbd
000000c0: 2bcc 6e3e 2c72 61be b440 153e e4f7 9ebe
000000d0: 4095 dbbd bda3 59bd db24 b33d e2fd 25be
000000e0: eab3 ad3d 9fba 28be d993 6e3c 2181 13be
000000f0: ef5f 42be 54e4 00be d819 fe3d eca3 623d
00000100: 6085 033d b121 3cbd 23d6 39bd 0df2 d7bd
00000110: de81 60bd 7d0b 003d e292 023d 3bbc 80bd
00000120: 9310 b4bb 1677 c63d 4774 7ebe 584c 23be
00000130: 6346 2abd 6d6b abbd 4c1e b33d 5c14 3a3e
00000140: 059d e9bd ad4f 013e b028 823d d293 fbbd
00000150: b277 dfbd 9301 8b3d 659d 0cbe 615f 8abd
00000160: 94f3 3a3d 55e7 5bbb 6eed 4b3e 50f1 033e
00000170: 464b 24bc 8621 323e 4afb 40be 3547 283c
00000180: acab 0e3e ad4a f1bd 4fdd 573e fa3b 253e
00000190: c665 a63c d27f 953d cc67 3e3e 34be 93bb
000001a0: aa3a 0b3b abb0 aa3e e42f cabd 459b d53e
000001b0: e605 323d 19cb 283d 0d48 343e 5815 3dbe
000001c0: 4406 3fbe 9579 0d3e 866f 543d b965 a43b
000001d0: 25c3 a43c c7e6 623e e944 33bd 634f 693d
000001e0: f16d fc3d 4ddf 83bc ebe9 043e eec7 9d3d
000001f0: c6fe 41be e0ae b8bd ee04 693d 6e06 f43d
00000200: fc09 f43c 417d 03be c64c 0d3e 6262 41be
00000210: 9e23 c53c fb46 023e 4dd4 5cbe 2b1e 89be
00000220: 9937 dd3e 41a4 1ebe 14e0 be3c 60d0 9bbc
00000230: 9fc1 733e 7064 3cbc 193e 70bd 32c7 f93c
00000240: 6866 afbd e4c2 773e bd3d bebd 3b3d d93d
00000250: 453a 373e aa24 9dbd a6cc 52be 689d 08be
00000260: 91ce acbd eff7 e63d 93b3 603d e29c 663d
00000270: f87b 02be f28b 40ba dfff ef3d 6e38 02be
00000280: ddc9 d33c 541b 223e 2e39 803d 2589 ad3d
00000290: 1d50 39bd 221b e1bc bed5 b33c 21a5 0a3e
000002a0: 6905 b3bd d84a 4bbe 1d22 e33d b9c9 3abd
000002b0: 6957 9abd 8e61 a3bb c329 45be 5509 d83d
000002c0: 440d 4a3b 8320 ccbd f2b0 96bd 0eb2 653c
000002d0: 9f7b cfbd 885a 223e 041f 1dbd 1ab7 8c3d
000002e0: 60ea 313d 11fd 5e3d 5099 67be 6431 78bd
000002f0: 4015 afbd 2710 81bd 5c83 8ebe c5ff 613d
00000300: 7833 8cbd af4a 0e3e bb4c 163e 0669 a23d
00000310: bb16 fcbd b744 cebd 3577 16bd 3da7 12bd
00000320: f872 98bb ebf8 0e3e 9655 2cbd f3a4 ffbc
00000330: ed57 443d ee56 2cbd 66a9 683d de8a ec3d
00000340: 96dc 0cbe 76d9 3bbd c711 1f3e 9579 293e
00000350: d18f 803e 7015 8ebd 7649 693d 1f67 9fbd
00000360: 1415 353e e442 083e bfc6 5cbd f8bc 6f3c
00000370: 38c5 c3bd f68f 353e df18 4d3e d997 133c
00000380: aa14 a7bd 475b 013d a6cf f0bd 4fb8 42be
00000390: a723 a3be 3a59 3e3c 0f96 1ebd 09ac 4fbe
000003a0: f58d e33d 1df2 793e 99eb 8cbc be71 953d
000003b0: ae8a 893d 6203 08bd 322b b43d 4b5f 4dbd
000003c0: 9f59 25bd 28f7 0bbe 5bf1 febd f6b7 9b3d
000003d0: ae08 80bd 8f7c 08bd 5c76 85be 6526 a5be
000003e0: 1c73 ca3d e8e8 a1bd 5f5d 96bd be85 2a3d
000003f0: fc35 923e 7dc5 0a3e 6df3 113d e0cb 0ebe

hidden.bias f4 [32]
0.0017489758 0.008541404 0.0134391505 0.01015871 -0.015562586 -0.025444895 0.04054606 0.008619431
0.02008251 -0.018035423 -0.01472574 0.030250974 -0.016239818 0.04237302 0.024938853 0.017898912
-0.0019630627 0.02726535 0.0051640673 -0.0059701903 0.016163168 -0.02047772 -0.03897895 -0.014863304
0.010578528 -0.022394428 0.012918531 -0.005169328 -0.0029351956 0.007820172 -0.0009936343 -0.0046186987
00000000: e43d e53a 3ff1 0b3c e22f 5c3c b870 263c
00000010: 37fa 7ebc d071 d0bc a013 263d 8438 0d3c
00000020: 1384 a43c 06bf 93bc 3b44 71bc e4d0 f73c
00000030: 5e09 85bc 558f 2d3d 914c cc3c bda0 923c
00000040: baa6 00bb 955b df3c 5637 a93b 96a1 c3bb
00000050: 9f68 843c e4c0 a7bc 64a8 1fbd 3785 73bc
00000060: 9051 2d3c 8574 b7bc 3fa8 533c 7763 a9bb
00000070: 695c 40bb 2e20 003c d63c 82ba 7458 97bb

mu_layer.weight f4 [2, 32]
-0.06193502 0.16694352 0.3411596 -0.10444512 0.14523177 -0.33804357 0.38180926 -0.40846646
-0.061999608 -0.17319916 0.3419003 -0.21318512 0.31977308 -0.050358396 -0.19159 0.022025103
-0.21496555 -0.123249404 0.048513528 0.30758828 0.25957257 -0.17190805 0.39781308 -0.23383392
-0.009986319 0.27466884 0.11995018 -0.013268552 0.6925232 0.0519162 0.23861161 0.4045014
0.82044387 -0.0022445766 0.23067904 0.19941463 0.37154227 -0.01559447 -0.39760223 0.38369077
-0.27190247 -0.30448234 -0.32640722 0.2507669 0.10502953 0.1770355 -0.2914953 -0.21853681
0.11539388 -0.039319802 0.4238209 -0.19039927 -0.31551433 -0.0425978 0.21146755 0.22799303
0.18203805 -0.14687034 0.0024144636 0.53365403 -0.031329542 0.45823652 0.26090193 0.39038384
00000000: 93af 7dbd 3ef3 2a3e 79ac ae3e 53e7 d5bd
00000010: a3b7 143e 0c14 adbe 817c c33e 8422 d1be
00000020: 4df3 7dbd 1f5b 31be 8e0d af3e 334d 5abe
00000030: 4cb9 a33e 9b44 4ebd 2b30 44be fd6d b43c
00000040: ee1f 5cbe 2f6a fcbd 1fb6 463d 367c 9d3e
00000050: b2e6 843e aa08 30be 28ae cb3e 2972 6fbe
00000060: a89d 23bc 65a1 8c3e 71a8 f53d 5764 59bc
00000070: 3349 313f 15a6 543d 9a56 743e cf1a cf3e
00000080: 9c08 523f bf19 13bb 2037 6c3e 5933 4c3e
00000090: ca3a be3e f37f 7fbc 8592 cbbe 1e73 c43e
000000a0: cd36 8bbe 1ce5 9bbe d91e a7be 8564 803e
000000b0: b919 d73d cb48 353e df3e 95be 1dc8 5fbe
000000c0: a053 ec3d cd0d 21bd 0eff d83e 07f8 42be
000000d0: 188b a1be 087b 2ebd f38a 583e 0177 693e
000000e0: 2f68 3a3e 2e65 16be fa3b 1e3b 8d9d 083f
000000f0: 6853 00bd fa9d ea3e f094 853e 64e0 c73e

mu_layer.bias f4 [2]
-0.007764103 -0.02881096
00000000: 046a febb f604 ecbc

log_std_layer.weight f4 [2, 32]
-0.08567066 -0.250735 0.0010114961 0.20230316 0.5503617 0.26578763 0.0451368 0.17278394
-0.32637033 0.2968454 -0.5592386 -0.010391935 -0.19138388 -0.35566983 0.39668456 -0.08610404
-0.044999536 -0.46496597 0.08796893 0.33261883 -0.2933954 0.10457536 0.24030557 0.041131973
-0.5307276 0.08185948 0.27085283 0.52376544 0.25914216 0.26278198 -0.14148216 -0.040196877
0.13905327 0.27346888 0.3302744 -0.5533999 -0.025912518 0.02706014 0.073921494 0.28986973
-0.19004135 -0.074439175 0.12073374 0.1534715 0.3175896 -0.17185314 0.7242087 -0.0019186876
0.27063462 0.060202464 -0.19428007 -0.053451438 0.0047424673 0.13471536 0.3659675 0.16389829
0.0029159558 0.15444079 -0.6792321 0.46897924 0.29839247 -0.32390022 -0.32694444 0.13272357
00000000: 1974 afbd 5760 80be 2d94 843a 8f28 4f3e
00000010: 81e4 0c3f 5115 883e 5de1 383d 46ee 303e
00000020: 031a a7be 1ffc 973e 432a 0fbf ef42 2abc
00000030: 23fa 43be 5b1a b6be 3d1a cb3e 5157 b0bd
00000040: 6f51 38bd 0510 eebe 0e29 b43d 044d aa3e
00000050: ec37 96be 9b2b d63d aa12 763e 007a 283d
00000060: c4dd 07bf f1a5 a73d 39ad 8a3e 7e15 063f
00000070: 48ae 843e 5c8b 863e b3e0 10be 7ba5 24bd
00000080: fb63 0e3e 1d04 8c3e ba19 a93e 9eab 0dbf
00000090: 7d46 d4bc 3aad dd3c 2764 973d ce69 943e
000000a0: 339a 42be 9173 98bd 4043 f73d a227 1d3e
000000b0: 1b9b a23e 45fa 2fbe be65 393f 797c fbba
000000c0: 9f90 8a3e dc96 763d 5bf1 46be e5ef 5abd
000000d0: b366 9b3b d3f2 093e 1860 bb3e f4d4 273e
000000e0: 9f19 3f3b ba25 1e3e 28e2 2dbf 0c1e f03e
000000f0: e6c6 983e 40d6 a5be 4365 a7be b0e8 073e

log_std_layer.bias f4 [2]
-0.046875775 -0.031166475
00000000: d000 40bd d650 ffbc
