termproject_olympic/train_history/olympics-running/11_15_18_42/critic.pth (torch, 46963 bytes, 11 tensors)

encoder.encoder.0.weight f4 [8, 4, 3, 3]
00000000: b8e7 c43e 552d 27be bc19 af3d 3eb1 e83d
00000010: 6ae3 98bd dccb 303e ae20 97bd 126e 213e
00000020: b733 173c 88c8 13bf c23c 84be fa86 873e
00000030: 77e3 aabe 5bdf 703e 3f8e 893c ccb9 0ebf
00000040: 86b6 813e bca6 953d d3b6 1bbe f4f9 7ebe
00000050: 2a72 083e 1586 f83d 6d36 80be 1370 06bd
00000060: c97f aebe 12ad 2dbe 1e46 db3d c755 633b
00000070: 65c4 77be bb4a 68be 979f 743e 5336 1ebe
00000080: 167a f2bd d65b b33e ce06 76bd ceb8 6b3e
00000090: 4b5f 6dbd 156e a9be 06f2 4dbc 64a1 5e3c
000000a0: 2cc2 cdbe 362a 61be 11b6 1fbe b438 92be
000000b0: 4c8f 913e e538 4ebe d41b 05bd 64e7 d3bd
000000c0: 39a0 593d 0837 81be 5707 593e 9869 683d
000000d0: e8bd d63d 6800 d4be 3e89 cf3e 2b43 333e
000000e0: a0e9 30be 77fe 513e d30a 1e3e b1e7 8b3e
000000f0: 750d 74be 3521 00bf 5c75 b0bd 956c 883d
00000100: d4af 8d3e 6350 7e3e b44c 3fbc 6b02 c0be
00000110: b3f8 26be a312 823e 4564 943e 6958 3dbd
00000120: e3d4 51bd 741e b4be 8f27 4abe 852a b73d
00000130: 6d71 bcbe 2980 563e 1659 543d 228c 20be
00000140: b5c8 c43e 5fcb dcbb 467a b9bd 6548 a7bd
00000150: b348 11be 4ba4 49be 4a99 90bd 0ac9 9cbe
00000160: 5369 453e 5cb5 253d 22bc ddbd 10fd 843e
00000170: 2b44 febe 5593 a8be f6f8 96bd 0ced f1bd
00000180: 65a6 483b 8f43 443e 8e95 ce3d 725a 6c3e
00000190: 3e15 7fbe c34f 613e f318 a0bd 642b bc3e
000001a0: ae4c 1b3f 4e95 27be c2c8 893d 27ab 723e
000001b0: 16d9 da3e 3e28 9a3d ea07 063c b392 1b3e
000001c0: 3826 853c f4b9 80bd 3aba c93e e79c d23e
000001d0: 28a9 0c3e f247 abbb 7356 38bc b11e a73e
000001e0: 4f4a d23c ec87 fabe 7d79 9c3e 333c 8d3e
000001f0: 8d1e ae3e 5f91 85be 0229 9bbe cb43 8ebe
00000200: bf09 9ebe 7d02 bebe 95a9 da3d 6a47 333e
00000210: 2713 e2bd 6edb 2b3e 4ae8 83be d18b 98bc
00000220: 73fa 0d3e 264e 3cbd 81e9 613e da5b 0fbe
00000230: 1377 c8bd 1c1d 75be 856f 0cbd 508e 37be
00000240: 7315 a4bd 2fe4 313e 2ad0 f3bd 0f10 b73e
00000250: 5734 7bbe 05bb a93d b2ec 86be b39e 8f3e
00000260: 8ad4 f13d 28f9 db3c b5fd 913e d109 05be
00000270: e77b 5e3c 64ee 833e 5a95 8b3e 593c e6bc
00000280: 02e9 13bd bbe1 66be ff0e b53e 8dc5 9fbe
00000290: dbc1 273e 0105 463e 5949 8abe 6850 c73e
000002a0: 43cc d83d 025c 193e 32b8 0ebf 89a1 52be
000002b0: c948 823b a11b 853d a7f5 483e 9411 523e
000002c0: 3cb3 f73e e30c 603d 787e 85be 8b0f de3d
000002d0: c07e a73e acd1 6c3d c8c0 f3be 8da3 6f3e
000002e0: 73a5 d5bc 2700 50be a7cd 313e 64b5 b1bd
000002f0: b0a4 573e 5df2 da3e ada8 1abe bd8f b1bd
00000300: 9b9f 853e d136 c33e 94e2 153e 81d0 b7be
00000310: 5395 b23c 26e6 4e3d 6d9b ad3d a315 03be
00000320: 0404 48bd b690 c33c ee2c 4d3e 87b8 a9be
00000330: fd12 02be e34d f7be 3d4a 7cbe f883 6bbe
00000340: 929e 4fbe 284a 02bd accc 3fbe c800 9e3d
00000350: 7c47 8dbe 676a e3be 4660 e6bb 0e29 b73d
00000360: 0771 5fbe eee8 38bd 8505 11be 6853 803d
00000370: 0955 613e 6450 f53d 9984 683e d89c 6abe
00000380: cd52 ad3e f042 1e3e 11d4 993e 7f7a 69bd
00000390: 9468 a8be 10ca 7d3e b3b2 e23d 0311 bbbd
000003a0: 5bba f03d 5025 8dbe 32d7 e7bd 06a5 983c
000003b0: dd2c 8d3e 6075 2e3e 83da 86bd 8931 a5bd
000003c0: 2d34 dfbe f0da 843e 6f89 9fbd b1e3 093f
000003d0: c0b3 3cbd ba3f b33d 7dda 413e c02c 8b3e
000003e0: 0660 8abe bef8 b83c 0df6 6c3d ec65 1bbf
000003f0: 9166 bcbe 8e4a d93e 3b7e 783e 37c2 c4bc
0.38458037 -0.16325887 0.0854983 0.11361931 -0.07465251 0.17265266 -0.0737928 0.15764645
0.009228638 -0.5772786 -0.25827605 0.26470166 -0.33376667 0.23522703 0.016791461 -0.55752254
0.25334567 0.07307193 -0.1520646 -0.24900037 0.133248 0.12134949 -0.25041524 -0.032821726
-0.34081867 -0.16960552 0.10706733 0.0034688578 -0.24196012 -0.22684757 0.23889004 -0.1545041
-0.11839692 0.35031003 -0.060065083 0.23019716 -0.057952207 -0.33091798 -0.01256991 0.013588283
-0.40187204 -0.21988758 -0.15596797 -0.28558886 0.2842964 -0.20138891 -0.032497242 -0.10346869
0.053131316 -0.25237298 0.21194206 0.056741327 0.104854405 -0.4140656 0.40534395 0.17506091
-0.17276621 0.20507227 0.15433817 0.27325204 -0.23833258 -0.5005067 -0.086161345 0.066613354
0.2767321 0.24835353 -0.011676002 -0.37501845 -0.16305809 0.25404844 0.2898275 -0.046226893
-0.051228415 -0.35179484 -0.19741653 0.08943657 -0.36805287 0.20947327 0.05184277 -0.15678456
0.38434377 -0.006738111 -0.09056525 -0.08168105 -0.14187889 -0.19691579 -0.070604876 -0.3062213
0.19278459 0.04045616 -0.10826899 0.2597432 -0.49661383 -0.32924905 -0.07371704 -0.11812791
0.0030616757 0.19166397 0.10087119 0.23081377 -0.24910447 0.22003083 -0.07817259 0.36751854
0.6066388 -0.16365549 0.06727745 0.23698102 0.42743748 0.07527207 0.008180598 0.1519268
0.016253576 -0.06285468 0.39399892 0.41135332 0.13736403 -0.0052270824 -0.01125108 0.32640603
0.025670199 -0.48931825 0.30561438 0.2758499 0.34007683 -0.26087472 -0.30304724 -0.27786097
-0.3086681 -0.37111273 0.106768765 0.17507711 -0.11038809 0.16782925 -0.2576316 -0.018621357
0.1386507 -0.045972966 0.22061731 -0.13999882 -0.097883366 -0.23936886 -0.03428604 -0.17925382
-0.080119036 0.17372201 -0.119049385 0.3575444 -0.24531685 0.08287624 -0.2635246 0.28050765
0.11808117 0.026852205 0.28513876 -0.12992026 0.013579345 0.25767815 0.27262384 -0.028104948
-0.036110885 -0.22547047 0.35363004 -0.31205407 0.16382544 0.19337846 -0.27009085 0.38928533
0.10585835 0.14976504 -0.5574981 -0.20569433 0.003975962 0.064994104 0.19624959 0.20514518
0.48378932 0.05469979 -0.2607305 0.10842808 0.3271389 0.057817146 -0.47608018 0.23402233
-0.026079869 -0.20312558 0.17363606 -0.08677176 0.21058917 0.42763034 -0.15103407 -0.08669994
0.26098332 0.3812776 0.14637214 -0.35901263 0.021799719 0.050512455 0.08476911 -0.12801223
-0.048831955 0.023872714 0.2003667 -0.33148596 -0.12702556 -0.4830161 -0.24637695 -0.22999561
-0.20275334 -0.031809002 -0.1873042 0.07714993 -0.275936 -0.44417116 -0.0070305197 0.089433774
-0.2182046 -0.045144014 -0.14162262 0.062659085 0.22005095 0.11978224 0.22706832 -0.22911394
0.33852234 0.15455222 0.30044606 -0.057001587 -0.32892287 0.24784112 0.110692404 -0.09134104
0.117542945 -0.2756753 -0.11320342 0.018633377 0.2757329 0.17036963 -0.065846466 -0.08066089
-0.43594494 0.25948286 -0.07789885 0.53863055 -0.04606986 0.08752389 0.18931003 0.2718258
-0.27026385 0.022579547 0.05785184 -0.60702395 -0.36797002 0.42439693 0.24266903 -0.02401839

encoder.encoder.0.bias f4 [8]
00000000: 0000 0000 0000 0000 0000 0000 0000 0000
00000010: 0000 0000 0000 0000 0000 0000 0000 0000
0.0 0.0 0.0 0.0 0.0 0.0 0.0 0.0

encoder.encoder.3.weight f4 [8, 8, 3, 3]
00000000: 81c5 d23e 1c94 36be 112f 4a3e 08db 073c
00000010: e68a 11be cfa3 7a3e d3b8 fd3d 5cf3 48bd
00000020: f5fd 8bbd be04 9b3e 5e5d 403e b3ad bc3e
00000030: 3b13 13bd 4953 ba3d f218 7cbd e986 2a3e
00000040: a973 fd3d 6bca 96bc bb3d 00be c8e7 1a3d
00000050: a327 48bd c873 eabd 06c3 483d 766f 683e
00000060: 5dd4 87bd e03a f03b 2c50 6abe c2fa b53e
00000070: 1a7b d63d 9422 753d 9f33 6f3c d384 563e
00000080: 1261 353e a5d2 603e 6400 7e3d 88b2 043d
00000090: 2a73 49bc ecf1 e8bd 3acf 79bd c52f 223e
000000a0: 8a17 203e eadd 473e b2ba 5a3e d68c e33d
000000b0: 6596 bdbe b7dd 5fbd 7400 b23c e177 113e
000000c0: 4381 adbe 7c88 10bd 61c7 9f3d b2ae d0bd
000000d0: 5d1f 57be 9c4d 26be c537 203e c1a7 1c3a
000000e0: 73e5 6b3e 7648 e33c 7a91 52be ace8 a93e
000000f0: e0f5 483d edb4 5ebe b571 32bd efcd 94bd
00000100: 57e4 343e 3078 4e3c 0040 34be aebb 07bb
00000110: 69e1 1c3e 197d 31bd 82b8 c63d 246f f13d
00000120: d29c 303e a7a0 e1bd 7cff 28be b137 b63d
00000130: 4f6a 103e d94e cebd f129 653e 8db9 38be
00000140: c89a 69bd 3983 99bd b605 0d3d 7b57 27bc
00000150: a0ba 073e 32fe 413e 8086 d23d aa69 7ebe
00000160: 4eac 3abe 0d3e 26bd a170 8ebd 4495 1dbe
00000170: ec38 30be 37b9 30be f548 8bbe ed70 6c3b
00000180: 5547 99be f88a 003d e189 2f3e 81f2 ffbd
00000190: 44a1 a0bd c97b 0fbe ace7 9ebb ec27 dcbc
000001a0: 0e31 a93a 62d6 2ebe cba3 6fbe d997 e53d
000001b0: 9345 633e bfd8 cabe 9249 30bd 1b10 903d
000001c0: 466b 2cbc 4aa6 163d 8185 1b3e 94af ab3d
000001d0: 5470 323e 04a1 86bc a2e5 603d 68a2 5c3e
000001e0: 48ff 173c a9da 473e f791 be3e 1803 723d
000001f0: 6ae8 a2bd 82ae cbbc d5af 4f3e 1ee9 2b3e
00000200: f0e0 88be 0482 4ebe 4654 72bd cf4e 5ebd
00000210: 54dd 2fbe 46c6 1bbd 959f fbbd 4dc4 e1bc
00000220: a558 15be e5e0 36be d976 19bf 456f 92bd
00000230: 2d5b 5cbd 1c69 5f3e d27f 24bc 357a 843d
00000240: 3e72 98bd 2f64 5d3e 432a fc3d 5c5e f43d
00000250: cada 0bbb c01c 8bbe 664f bfbe 5f77 4fbc
00000260: 9684 0c3e dd04 57be 7a2f e73c c4bc 0dbe
00000270: 75f3 063d 64ee 753d 02b3 083e 81ae 82bd
00000280: e891 9c3d 482a 5a3e ec3b bcbd 1573 31be
00000290: edb6 be3d b733 e4bc c929 1f3d 0100 733e
000002a0: 2666 4b3d 768b 97be c703 5e3e 885c b23e
000002b0: 38bd ab3d 5393 2cbd 0cec d03d 655b 2d3e
000002c0: 1832 b73d 3a7c 903c 3e81 383c be34 3d3e
000002d0: 1075 0abe 0f9a 0dbd e014 993d f0b7 3d3e
000002e0: b8cd 00bd 7ee3 d43e 4db2 1fbe ff5d 70bc
000002f0: de4e ee3d a055 063e b38e 81be c40b 0a3d
00000300: ec66 07be c80a efbd 72a4 a03d 2243 33be
00000310: ca4e 45bc 2639 1f3d 94b6 013e 02a5 6ebd
00000320: 2c25 33be 69b5 06be d882 ab3e af0e 373e
00000330: 17d7 a6bd 114e 483d cc41 5c3e 4101 643d
00000340: af28 993e d448 b7be 4ad2 513d e870 c23d
00000350: d4c8 25be c378 2f3e 0ae9 6c3e 0934 763e
00000360: b679 933e 510c a7b8 2f10 443c 8e0a 963d
00000370: 9f5c ce3c 54b6 083d 3eba 42be ef87 ec3c
00000380: 8c29 1b3e fe9c 30bd 9905 3a3c e783 08bd
00000390: f61d 24be 7d11 7c3d 8ca6 1b3e ccc3 ef3e
000003a0: 7699 c03d 3767 0fbd d909 c73d 311e 7fbe
000003b0: 1663 81bc b6af f2bd e97c 7ebe bf65 62be
000003c0: 59ed 79bd b657 633e 645d 013d 78e1 14bd
000003d0: d01b 163d 6ea8 62be 9c8e 913e 117b 073e
000003e0: 2431 323e 6cc5 60be ccf4 283d c9ba 87bd
000003f0: 96c4 083e 9db9 c73d a169 0dbe 6ae7 54bd
0.4116631 -0.17829937 0.19744517 0.008291967 -0.14213142 0.2447655 0.12388768 -0.04906021
-0.06835548 0.30277056 0.18785617 0.36851272 -0.03590701 0.09097917 -0.061547227 0.16653027
0.12375576 -0.018407067 -0.12523548 0.0378187 -0.048865926 -0.11447865 0.049014114 0.22698769
-0.06632302 0.007331237 -0.22882146 0.35542876 0.104726985 0.05984743 0.01459971 0.20949106
0.1771281 0.21955355 0.06201209 0.032396823 -0.012295524 -0.11374268 -0.060988642 0.15838535
0.1563398 0.19518247 0.21360281 0.11110847 -0.37028804 -0.054654803 0.021728732 0.14205886
-0.3388768 -0.03528641 0.078017004 -0.101895705 -0.21008058 -0.16240543 0.15646274 0.0005975925
0.23036747 0.027744513 -0.20563307 0.33185327 0.04906261 -0.21748705 -0.04356547 -0.07265841
0.1766523 0.012601897 -0.17602539 -0.002071123 0.15320362 -0.043332193 0.09703161 0.117887765
0.17247322 -0.1101697 -0.1650371 0.08897341 0.14103054 -0.10073633 0.2237928 -0.18039532
-0.057032377 -0.07495732 0.034429274 -0.010213728 0.13254786 0.18944624 0.1027956 -0.24844995
-0.18229792 -0.04058652 -0.06955076 -0.15388972 -0.17209214 -0.17258154 -0.272041 0.0036078051
-0.29937235 0.03138253 0.1714244 -0.12497426 -0.07843259 -0.14012064 -0.004849395 -0.026874505
0.0012908296 -0.17073968 -0.23402326 0.11210603 0.22194509 -0.3961849 -0.043038912 0.07034322
-0.010523623 0.03677968 0.15187646 0.08383098 0.17425662 -0.0164342 0.054906495 0.21546328
0.009277172 0.19517006 0.37220737 0.05908498 -0.07954486 -0.024863485 0.20281918 0.16788146
-0.26734114 -0.20166785 -0.0591624 -0.054274376 -0.17174274 -0.038030885 -0.12286297 -0.027559424
-0.14584596 -0.17859228 -0.5994697 -0.07150129 -0.05379789 0.2181744 -0.01004024 0.06468622
-0.07443665 0.21620248 0.12312748 0.1193206 -0.0021340125 -0.27170372 -0.37365264 -0.012662738
0.13722453 -0.20997949 0.02822088 -0.1384154 0.032947022 0.0600418 0.13349536 -0.0638094
0.07645017 0.21305192 -0.09191117 -0.17329057 0.09312234 -0.02785669 0.03885821 0.2373047
0.049657963 -0.29598588 0.21681128 0.3483622 0.083857 -0.042132687 0.10201272 0.16929395
0.089451015 0.01763736 0.0112612825 0.18477151 -0.13521218 -0.03457075 0.07474685 0.18527198
-0.03144619 0.41579813 -0.1559536 -0.014670848 0.116361365 0.13118601 -0.25304183 0.033702627
-0.13222855 -0.11671978 0.078438655 -0.17506078 -0.012042711 0.03887286 0.12667304 -0.058262832
-0.17494649 -0.1315514 0.33498263 0.17876695 -0.08146494 0.048902575 0.21509475 0.05566526
0.29913852 -0.3579775 0.051225938 0.094941914 -0.16189891 0.1713591 0.23135772 0.24043287
0.28803796 -7.965475e-05 0.011966749 0.07326232 0.02519065 0.033377007 -0.19016358 0.028873412
0.15152568 -0.04311847 0.011353874 -0.033328917 -0.16027054 0.061540116 0.15200251 0.4682907
0.0940427 -0.035010543 0.09718675 -0.24913861 -0.015794318 -0.118499205 -0.24852337 -0.22109126
-0.061017368 0.22201428 0.031583205 -0.036347836 0.036647618 -0.22134563 0.28429115 0.1323054
0.17401558 -0.2195031 0.04124908 -0.06627423 0.13356242 0.097522 -0.13809825 -0.051978506

encoder.encoder.3.bias f4 [8]
00000000: 0000 0000 0000 0000 0000 0000 0000 0000
00000010: 0000 0000 0000 0000 0000 0000 0000 0000
0.0 0.0 0.0 0.0 0.0 0.0 0.0 0.0

cnn_net.0.weight f4 [16, 8, 3, 3]
00000000: fb26 d23d 7bd6 5fbd 04ca 1a3e 8011 b03d
00000010: 232d 65bd 00c0 e7bc dc28 1abe c41d e33d
00000020: fec5 13be 6d7f cf3c f593 c7bd ccec 8dbe
00000030: 723c eabe de09 753e 46ba a1bb 7598 993d
00000040: 5f0f 3ebd b359 003e 0bf9 da3e 75c0 86b9
00000050: 2320 1abd 582d 85bc eee6 2e3e 1421 41be
00000060: 8683 24be 1ed8 adbc 2fdc ebbc 493a 323e
00000070: bfe4 f9bc 5ca5 bcbc 45a5 88be 4913 8a3e
00000080: 2a1a 0dbd 8a6f 0b3e 1fde 9cbd d66e c23b
00000090: f97d d1bd d740 363e 8052 663d 5429 dfbc
000000a0: 2890 163e 28d9 96bd 97be 0abe 25b0 073d
000000b0: e86a 643e 6cf8 0cbe 546d 1dbe bc31 d73e
000000c0: 58e4 27be 1774 e3bd c288 77bd cdd8 9e3d
000000d0: 3eb6 783e 33cf 81bd 6969 973a 09c8 033d
000000e0: 5483 70be 593c bb3e 4c95 e93d 9652 44be
000000f0: 748e a23e 3540 03bd cb1d 493e 93ef 093e
00000100: 5955 edbd 99d0 b33d 3f04 813d 310a 5c3d
00000110: 1bd5 7fbe 2e3f 043d 17a2 1abe 61d0 71be
00000120: 42ab 723d 0808 d63d f4b1 d93c dcd8 b7bd
00000130: ec02 9bbe 8423 15bd 78e1 d3bd 9ebc e7bd
00000140: 5bf8 b1bd ecea 8ebb 3fbe ea3d b8bc cabe
00000150: 6a19 3c3e 8dc6 55be 273e 40bd 10a7 98bd
00000160: 5c80 e6bd 9e44 8b3e 9395 7fbd b959 d6bd
00000170: 1440 32be 27dd 1bbe 4d1b f2bc 840c 9e3e
00000180: 86b8 743d 6f9f 93be 395f 41be 3fda ea3d
00000190: ad62 983e 4af9 a3be e006 d23d 0dfb 17bd
000001a0: a00a 043e 67b3 d23d a160 bf3d c356 c13d
000001b0: bb04 be3e 91ce 283b 102b 84bc 4276 b2be
000001c0: cdbf 53be 1e5f 3dbe eadd 7dbd c760 5bbe
000001d0: f882 dcbc be20 973e 1b83 ec3c fa9d 963e
000001e0: 50d9 233e c698 23be 2518 f3bd 59af 2e3d
000001f0: ee5a 04be ea9c 473e ff6d 8b3c ee40 283e
00000200: 87d6 1f3e 306e 613d 8569 913d e04f 4abe
00000210: bfc8 123d 5bfc 3ebe 01a0 22be 8bce 0f3d
00000220: 6b1f 843c 6455 31be 6b99 203d 2c7c cfbc
00000230: bc17 1dbd 7922 f9bd 74f8 6ebe fd97 ffbd
00000240: dcb6 e03c cd9c 0fbe e046 c33c ccbd 8a3e
00000250: 1b1b 673c 9db3 a03e 2224 adbd f290 44bd
00000260: 01e6 febc da7e 1b3d 205d 593e edec dc3d
00000270: 77a2 1b3e d9b1 cfbd 6404 a63e 6c5e 683e
00000280: 141d 363e ef4e 3cbe 9c3f 2c3d a0dd 54be
00000290: 67da b63e 329c 10be 1e57 363c e188 1dbb
000002a0: 75a1 dcbd 4d1a 27be 80dd 403e 8f77 a6bc
000002b0: bd3c de3c 17b9 30be e22b 89bd 30cc 6fbe
000002c0: 6401 023d 4961 6a3e 8912 993d 9308 7d3e
000002d0: 271b 39bd 1b2c b83d c4d5 28be 9f93 babe
000002e0: 8d9b 98bd d090 97be 0694 aa3d 3706 6f3e
000002f0: 99c2 933d 0a62 29be d56a 2bbb 009d 51bd
00000300: b8a5 a6bd bbbb f23d b3e5 2a3e 2431 1a3e
00000310: d8b1 cc3e 1982 963d ea78 c43d c690 04be
00000320: 944c b53d 973e 0cbe 4b2d 103e 0d66 013e
00000330: e9be 773e 7033 4fbe 4b93 6d3e af7f 65be
00000340: e0b4 6e3e da4e 68be ebba d63d a66c 573b
00000350: 4a30 ff3a 2353 0cbd 6e92 343b f63b 89bb
00000360: 1db4 1f3e cb65 c7bd 3061 873d d9e9 92be
00000370: 0cf3 8d3e 0420 3ebd 5908 4dbe daaa 1d3c
00000380: 2bbf 803d ddbc 5a3e 3652 293d d1dd 34bc
00000390: 8faf fb3d 8a13 5ebd 2a29 ea3c 91f6 f9be
000003a0: 914d c53d e00d 453e d39f cc3d f0a1 753e
000003b0: 6002 4cbd 2613 81be 2acf c83d 6a3d fd3d
000003c0: 988f ae3d b28e 24be 9b02 70bd 3ae3 d13b
000003d0: 362f 16be 4d53 013e 70a4 8cbd 19f6 a8be
000003e0: 0528 78be 540a bcbd c2f4 23bd 22c4 a53d
000003f0: 61ca abbe 5589 043d bc17 153c 65f3 0bbe
0.10261341 -0.054647904 0.15116125 0.08597088 -0.05595125 -0.028289795 -0.15054649 0.11089662
-0.14430997 0.025329316 -0.097450174 -0.27719724 -0.4574924 0.23929545 -0.0049355356 0.07499782
-0.046401378 0.12534218 0.4276813 -0.00025701863 -0.037628304 -0.016256973 0.1708028 -0.18860275
-0.16065797 -0.021221217 -0.028791515 0.17405047 -0.030504582 -0.023028068 -0.2668859 0.26967838
-0.03444878 0.13616768 -0.07659554 0.005933623 -0.102291055 0.17798172 0.056231022 -0.027241386
0.14703429 -0.07365638 -0.13549267 0.03312697 0.22306406 -0.1376664 -0.15373737 0.42030132
-0.163957 -0.11106127 -0.060433157 0.07756195 0.2428827 -0.06338348 0.00115518 0.03217319
-0.23487598 0.3656948 0.11405429 -0.19172129 0.31749308 -0.032043654 0.19640271 0.13470297
-0.115885444 0.08780021 0.06299638 0.053720657 -0.24983637 0.032286815 -0.15100895 -0.23614646
0.059245355 0.104507506 0.026574112 -0.089769095 -0.30275667 -0.036410823 -0.10345739 -0.11315273
-0.08689948 -0.004361501 0.11462068 -0.39597106 0.1836907 -0.20876522 -0.046934273 -0.0745374
-0.11254951 0.27200788 -0.062398504 -0.10466332 -0.17407256 -0.15221082 -0.029554034 0.30868924
0.059746288 -0.28832576 -0.18883981 0.114674084 0.29762784 -0.3202613 0.102552176 -0.037104655
0.12894678 0.102881245 0.093446024 0.094403766 0.37112984 0.0025757889 -0.016133815 -0.3485585
-0.20678635 -0.18493316 -0.061979212 -0.21423636 -0.02691792 0.29517168 0.02887111 0.29417402
0.16000867 -0.15976247 -0.118698396 0.042647693 -0.12925312 0.19493452 0.017020224 0.16431019
0.1560918 0.055036724 0.071002044 -0.19757032 0.035835978 -0.18650953 -0.15881349 0.035109084
0.016128263 -0.1731773 0.03920881 -0.025327764 -0.038352713 -0.12164778 -0.23336965 -0.12480161
0.027430944 -0.14024659 0.023837507 0.2709793 0.014105584 0.31387034 -0.084541574 -0.047989793
-0.031115534 0.037962772 0.2122693 0.107873775 0.15198694 -0.101413436 0.32425225 0.22692269
0.1778453 -0.18389486 0.04205285 -0.20787668 0.35713503 -0.14122084 0.011129169 -0.0024037885
-0.10772983 -0.16318627 0.18834496 -0.020320682 0.027128572 -0.17258106 -0.06697823 -0.23417735
0.031739607 0.22888674 0.074742384 0.24710302 -0.04519191 0.089927875 -0.16487795 -0.3644075
-0.07451544 -0.2960267 0.083290145 0.23342215 0.07214851 -0.16541305 -0.0026156206 -0.051175117
-0.08137077 0.11852213 0.16689186 0.15057808 0.39979434 0.07349033 0.09593375 -0.12945852
0.08852497 -0.13695751 0.14079778 0.12636586 0.2419392 -0.20234466 0.23200719 -0.22411989
0.23311186 -0.2268633 0.104848705 0.0032871156 0.0019469347 -0.034258973 0.00275531 -0.004188056
0.15596052 -0.09736212 0.06610334 -0.28694037 0.27724493 -0.04641725 -0.20022716 0.009623254
0.062864624 0.21361108 0.041338168 -0.011039213 0.122893445 -0.054217853 0.028584082 -0.48820928
0.09633935 0.19243574 0.099914216 0.23987556 -0.049806952 -0.25209922 0.098051384 0.123652294
0.08523482 -0.16070059 -0.058596235 0.0064052613 -0.14666447 0.12629433 -0.068673015 -0.33000258
-0.24234016 -0.091816574 -0.04002834 0.0809405 -0.3355284 0.032357533 0.009099897 -0.13667066

cnn_net.0.bias f4 [16]
00000000: 0000 0000 0000 0000 0000 0000 0000 0000
00000010: 0000 0000 0000 0000 0000 0000 0000 0000
00000020: 0000 0000 0000 0000 0000 0000 0000 0000
00000030: 0000 0000 0000 0000 0000 0000 0000 0000
0.0 0.0 0.0 0.0 0.0 0.0 0.0 0.0
0.0 0.0 0.0 0.0 0.0 0.0 0.0 0.0

cnn_net.3.weight f4 [32, 16, 3, 3]
00000000: 96be a4bd 9bad 5bbd ff62 cf3d 0258 04be
00000010: 0221 7b3e 128d 873d 7121 293d 1aae 2d3d
00000020: 70ee 5c3d b3ed fbbc 2397 f0bd 81fe fa3d
00000030: bd73 d83d e933 a13e 71de 3e3d 1566 eabc
00000040: bf39 54bd 8cd3 04be 685f 29be bbc8 123e
00000050: 427d a7be 03b6 843c 18a4 053e d744 3d3e
00000060: 0860 2bbd 835e 3b3d 58c9 b4bc 9970 c43c
00000070: 1c59 4fbd c0e2 4ebd 0730 1cbc 648d 9e3a
00000080: ff21 64bc 03b1 a3bc 675b 40ba b711 8f3d
00000090: bfaa f6bd 1a0f bf3d 8213 4c3d 376d 60bd
000000a0: d3c8 95bd c134 19bd 60fb b6bc 89fd ccbe
000000b0: cd95 ccbc 523d 163e a532 b53d d580 21bd
000000c0: 9111 a0bc a246 463d df19 9abc dc10 ef3c
000000d0: 2d1f 28bd f255 0ebe 78e8 b83d c3b6 c0bc
000000e0: 5202 523d 8bc0 373e f966 cbbc 489a 6fbe
000000f0: c0f7 17bd 9344 6bbd 6cde 03be 3f20 993e
00000100: 833a e0bd afd6 763d 9e3c 2dbd d291 4ebd
00000110: d994 373c f80b 1fbc acca 003d 9aeb 08bd
00000120: f0c5 09be 8b8c 6e3d bf93 46be 5f12 3cbe
00000130: b213 40be 4a77 db3d b3c1 bebd 200e 64be
00000140: 28bb 4a3e b3de acbd 95df 6dbd 72fc 533c
00000150: da67 0bbe de21 803c 2afe 9bbc e162 0ebe
00000160: f235 cabb 2dae d23c a01c 1bbe 8788 8fbd
00000170: d86e 5b3d c886 84ba a2b8 9d3d 0ba5 d0bd
00000180: 623b ce39 f62b 6c3d 91e6 45bd b0e9 51bc
00000190: 7510 d33d 2692 313e dacc 033e ad4e 6f3d
000001a0: fbad 31bc 885a 60bd 29a6 ac3d 881e 4c3e
000001b0: 0437 e43d 9b04 06bc 376d 1d3d 04f9 5f3e
000001c0: 1678 e3bd df63 c23d 8e78 603e 1f52 133e
000001d0: 32ca 213e 55b3 583e e878 d0bd ff72 64be
000001e0: 5cfd 803d 4713 6dbe cbe4 de3d 000e 3f3e
000001f0: 2649 69be 46d1 bb3d ef89 ecbd fc21 33bc
00000200: 5457 50bd 1639 09be e7ea 07be 90ae 09bc
00000210: a2ec 60be ae35 393d d2f3 8f3d 5d30 97bd
00000220: bcd3 fbbc ae5e 36bc 06a9 a9bd f007 96bc
00000230: 41fd 39bd 2435 943b 5094 943c fb05 81bd
00000240: 977a ac3d 1db7 c73c 369d 653c 0126 7abd
00000250: e1cc cdbd dcd8 043d efc6 4ebd 9d97 8fbd
00000260: eafb 263d 25fb c83d 4ae3 ed3c 749e c7bd
00000270: 0782 fa3d 1e2a 34be bb4b 9cbd e0bf ab3d
00000280: 5b2b ab3c c7dd cebd 17d5 1abe f131 f6bd
00000290: 0a07 053e 9862 e4bd beb9 10be ca06 513c
000002a0: 9614 c6bd 16cb 81bb 4a8e 823e accc b2bd
000002b0: 57d3 9ebe 4424 833b a872 f2bc 2c3c 733d
000002c0: c6de 22be 3067 f5bc 4a5c 7dbc 290c 183d
000002d0: fc1a 2d3e bf4f 89bc ea06 3dbe ecdb 88bd
000002e0: d774 3dbe b9e8 c33d 21a0 bdbd 5a89 07be
000002f0: 5a99 e73d 8127 0a3d 005d dd3d 5db7 17bd
00000300: 83f3 99bd d8ed 18be 810c 8ebc f7ad a13d
00000310: 4652 be3c 7c27 27bc 1f09 513e a6c4 7a3e
00000320: 5e47 b0bd e797 2c3d 9765 c03c bafd 43be
00000330: 4dbf a03d f018 783e 4081 aebd a2e4 873d
00000340: e0de 053e 1e0e 5b3e a36c 9abd 1459 6e3e
00000350: ab9d a53b c22d 82bd 6d74 3d3e 7e6e c13d
00000360: b016 9a3d 57dc 27bd 247d 5ebe 4adb 1f3e
00000370: c6dd c2bb 8c1c 2a3d 7e3f 603e 2aa5 efbc
00000380: 128b cdbd bd98 2a3e 9cb3 223b b519 c2bd
00000390: 5c91 a73d 9f61 11be 3d96 bcbc ce9d 06bd
000003a0: 8b92 4cbd 0772 f63d 7b1c eb3d 8a4c 803d
000003b0: d19c 9a3d 48e5 0dbe f403 b4bd ccaf 2bbd
000003c0: 7874 77bd 5231 a43d cfb7 4b3e 23fb de3d
000003d0: d8c1 b03d 304d 3b3d 6975 223e bdfe c4be
000003e0: 1369 053e fe2d 083d 4d64 c0bd c296 95bd
000003f0: 7bfc 5fbc 5cfe 07be ddd0 513e aef9 afbd
-0.08044164 -0.05363236 0.10126304 -0.12924197 0.2452431 0.06618704 0.041291658 0.042402364
0.05393833 -0.030752992 -0.11747577 0.12255574 0.1056895 0.31484917 0.046598855 -0.02861313
-0.051812883 -0.12971324 -0.16540301 0.14334385 -0.32712752 0.016200071 0.13050878 0.18483292
-0.04183963 0.04574443 -0.022068664 0.023979472 -0.05062209 -0.050509214 -0.009532935 0.0012096581
-0.013924121 -0.019981867 -0.0007337839 0.06985801 -0.12044286 0.09329052 0.04982329 -0.054791655
-0.07313695 -0.037403826 -0.022336662 -0.40037182 -0.024973774 0.1467183 0.0884755 -0.039429504
-0.019539626 0.048407204 -0.018811164 0.029182844 -0.041045357 -0.13899973 0.09028715 -0.023524648
0.051271744 0.17944543 -0.024829375 -0.23398697 -0.037101507 -0.057438444 -0.12877816 0.29907414
-0.1094866 0.060263332 -0.042294137 -0.050432034 0.011204922 -0.009707443 0.031443283 -0.033427812
-0.13454413 0.0582395 -0.19392298 -0.18366383 -0.18757513 0.10716112 -0.09314289 -0.22271013
0.19797957 -0.08440914 -0.058074553 0.012938606 -0.13613835 0.01564115 -0.019042093 -0.13904907
-0.0061709816 0.02571782 -0.15147638 -0.070084624 0.053572506 -0.0010110969 0.077012315 -0.101877294
0.00039335625 0.057659112 -0.04831559 -0.012812063 0.10305873 0.17340907 0.12871113 0.05842464
-0.010844703 -0.054773837 0.0843013 0.19933522 0.11143306 -0.008179809 0.038434234 0.21872336
-0.11106889 0.09491705 0.21920988 0.14386795 0.15799788 0.2116216 -0.10179311 -0.22309493
0.062983245 -0.23151885 0.108834825 0.18657684 -0.2278181 0.09170775 -0.11549746 -0.0109333955
-0.050864533 -0.13400683 -0.13273202 -0.008403435 -0.21965268 0.04521721 0.07028927 -0.073822714
-0.030740611 -0.011130972 -0.08284192 -0.018314332 -0.045407537 0.0045229364 0.018137127 -0.06299969
0.0842182 0.024379307 0.014014533 -0.0610714 -0.10048843 0.032433376 -0.050482687 -0.0701134
0.040767588 0.09813527 0.029039044 -0.097470194 0.12231832 -0.17594191 -0.07631632 0.083862066
0.020894697 -0.101008944 -0.1512035 -0.12021244 0.12990966 -0.11151618 -0.14133355 0.012757966
-0.09671895 -0.0039609773 0.25499183 -0.08730444 -0.31020615 0.004002126 -0.029595688 0.059383556
-0.15905294 -0.02995643 -0.015463898 0.03712097 0.16904825 -0.016761659 -0.18459669 -0.06682572
-0.18501602 0.09565873 -0.09259058 -0.13235989 0.11308546 0.03372908 0.10808754 -0.037040103
-0.07517149 -0.1493448 -0.017339947 0.07894509 0.02323259 -0.010202285 0.20413636 0.24489078
-0.08607362 0.042137053 0.023485942 -0.19139758 0.07848988 0.24228263 -0.08520746 0.06635405
0.13073301 0.21392104 -0.07540252 0.23276168 0.005054196 -0.06356384 0.18501444 0.09444903
0.075238585 -0.040981617 -0.21727425 0.15610996 -0.0059468476 0.04153113 0.2189922 -0.029253561
-0.10036291 0.16659828 0.0024826294 -0.094775595 0.08182022 -0.14197396 -0.023020858 -0.032865338
-0.04994444 0.12033468 0.114800416 0.06264599 0.075494416 -0.13856995 -0.087898165 -0.0419157
-0.060413808 0.080172196 0.19894336 0.10887744 0.08630723 0.04572791 0.15865101 -0.384756
0.13028364 0.033246987 -0.09394131 -0.073041454 -0.013671036 -0.13280624 0.20489831 -0.085925445

cnn_net.3.bias f4 [32]
00000000: 0000 0000 0000 0000 0000 0000 0000 0000
00000010: 0000 0000 0000 0000 0000 0000 0000 0000
00000020: 0000 0000 0000 0000 0000 0000 0000 0000
00000030: 0000 0000 0000 0000 0000 0000 0000 0000
00000040: 0000 0000 0000 0000 0000 0000 0000 0000
00000050: 0000 0000 0000 0000 0000 0000 0000 0000
00000060: 0000 0000 0000 0000 0000 0000 0000 0000
00000070: 0000 0000 0000 0000 0000 0000 0000 0000
0.0 0.0 0.0 0.0 0.0 0.0 0.0 0.0
0.0 0.0 0.0 0.0 0.0 0.0 0.0 0.0
0.0 0.0 0.0 0.0 0.0 0.0 0.0 0.0
0.0 0.0 0.0 0.0 0.0 0.0 0.0 0.0

hidden.weight f4 [32, 128]
00000000: f6e6 673e 0eef 03be 30be 5cbc f011 f23d
00000010: 7f75 753d a34f 75be d586 92bc 4aff 53be
00000020: af35 543d aa29 81bd b1cc 82be d54e 22be
00000030: f630 07be 0f0d 9c3e b9a1 1dbd d792 9cbd
00000040: 94f1 843e db3b 9bbc 7345 fcbc 30d4 36be
00000050: bb78 42bc 2220 a3bd a5fd a73c 698d f0bd
00000060: 4fac 21be 9585 b9bc 7f50 1b3e 9e8a fbbc
00000070: d24d b93d 8ebb aebd e091 d13d 6423 583e
00000080: 0d83 ecbd 6d2d 45be 4799 1cbe 3597 6dbe
00000090: 802d 183d 3fc8 23be e2c9 d93d b448 b7bd
000000a0: 0e7e 123e ebb7 a93d d63a 1139 218d 87bd
000000b0: 9b52 de3d 2177 593d 339e cebc bce0 93bd
000000c0: d773 0f3e 83fb 1c3e 4328 8d3e afb1 48bd
000000d0: 3ace ef3d ca76 19bc ce5a 4dbd 0923 a7bd
000000e0: 634b c03c 442a 01be 62cd 3a3e 618a aabc
000000f0: 2f74 9fba 1af9 f13d 5f59 1b3e 0f45 27be
00000100: 635e 2a3e 33ea 923e 284e ca3d ae5c e1bd
00000110: 6d80 8e3e f18c cb3d cfcf 983d 018f febd
00000120: 1f2c 1d3e 6a37 5bbc d30f ff3c e7f2 203e
00000130: f8f5 33be 0cbd ddbc fe06 2cbc 2a5b 56bc
00000140: fe23 12bc 17a0 95bd 75e3 88bd 5a6a c83d
00000150: 8cd6 553d 59c7 033e 8c3e cc3d 7b48 d5bd
00000160: 4047 efbd 60cb b8bc 6d14 7e3d 3a17 7c3c
00000170: 608c 43be 16cf 273d a45a 5c3d 16bb bbbd
00000180: 44d9 c2bd c8e4 6dbb 57d6 5fbd 1a9c 513d
00000190: 45fd 543d 37d4 0d3c 5969 a6bd ff82 af3d
000001a0: 8d2b 42be ea55 923c 389c 2bbd 3128 27be
000001b0: ff6e 073e 544b 6abe d799 bcbd 1a2e a8bd
000001c0: 9500 133c c510 563e 8a7a d8bd 3051 febd
000001d0: 0b78 e3bc 7fc1 023d 98f7 923d 179c 65be
000001e0: c0f8 e93c 2a7c fa3d 9f57 b53d f184 8fbe
000001f0: 153f a8bd a2ed 9ebd 51dc c6ba af30 02bd
00000200: 98e6 74bd 504e 54be 879a 1dbe 95c9 d3bd
00000210: eaab 74be 80d3 9d3d caf3 8bbe 606f 2cbe
00000220: 66f8 123e 5ac8 9ebd 8d62 8cbe 3371 1dbe
00000230: 54ae 59bb 2261 903d 9a53 52be cba5 17bd
00000240: 5c36 163e 8a1b fcbd 5731 d5bd d92a 2cbe
00000250: d825 c7bc cd04 8cbc 4a68 2dbe 1af8 d0bd
00000260: 5455 473d 25f3 16be b754 b83d aa43 673d
00000270: 6793 9a3d aaf3 293e fb3b 263e f66f e6bd
00000280: 8512 14bd bbd6 113d c24e 96bd 764f 60be
00000290: f3f2 81bd 5266 0fbe 5437 31be defb b5bd
000002a0: 4676 e2bd e8e5 873d a7b5 be3d 349b f3bc
000002b0: 6b26 013e af63 29be 5311 f03c 86c9 34bd
000002c0: fac7 6abe 1754 f4bd e267 883c f19b d13d
000002d0: 894b ecbb c988 943d e21c 16bd 868e 65bd
000002e0: c0da 1c3e ea4f f83d 91b9 c7bd 96e8 d53c
000002f0: e7b5 ac3d ed29 9d3d c219 edbd 1cf9 b5bc
00000300: ac82 813e 5e7a 2fbd 032b 6fbd 2071 863d
00000310: 3a94 323d 0d63 f73d 27a0 b43d 3b52 b9bd
00000320: 8133 cbbd 1a9e d33d f230 0bbe d3e9 2abe
00000330: 409a b0bd f206 cbbd 63c4 2abd f2a7 a9bc
00000340: 2a40 27be 3a1f d73c fa90 7c3e 6ff5 823d
00000350: 5715 ecbc 2b39 083d e09e 7abe 7cc0 13be
00000360: 80f3 d4bd 9b5e 103e 69f1 f5bc 4c64 dcbd
00000370: c54c 86bc b8c6 4f3e c948 6a3a 71cf 313d
00000380: 1071 6e3e c8eb 923d 0b3a dd3c b286 1cbe
00000390: ec0c f73d a9c2 0c3d ef47 c5bd e16b 49be
000003a0: 15fa 22bd 55bd 8b3d b15d d03d 9171 4b3e
000003b0: 3b5e 1fbe 3e86 693e 4383 883d 0028 b8bd
000003c0: 06ed f2bd bcb4 aebd b5b9 a2bd 4738 233e
000003d0: d411 183e 0da9 aabd c3a9 b0bd 3eaf 213e
000003e0: a14b f53d bb6e 69bd 4c0e 483b 1f11 203e
000003f0: ce3f 0fbd d7f8 ccbd 4b0a 303c 4164 99be
0.22646698 -0.12884161 -0.013473079 0.118198276 0.059926506 -0.2395616 -0.017886559 -0.20702854
0.05180901 -0.06306775 -0.25546792 -0.15850385 -0.13202271 0.30478713 -0.03848431 -0.07645195
0.2596556 -0.01894944 -0.030794835 -0.1785438 -0.011869605 -0.07965113 0.02050669 -0.11745722
-0.15788387 -0.022646705 0.15167426 -0.030705746 0.09048046 -0.08531867 0.102329016 0.2110725
-0.115484335 -0.1925561 -0.15292846 -0.23202212 0.037152767 -0.15994357 0.10634209 -0.08949414
0.14305899 0.08287033 0.00013850196 -0.06618715 0.108555995 0.053092126 -0.02522192 -0.07220599
0.14009033 0.15330319 0.2756978 -0.048997577 0.117092565 -0.0093667 -0.050135426 -0.08160979
0.023473447 -0.1261378 0.1824241 -0.020817937 -0.0012165363 0.118150905 0.15170811 -0.16334938
0.16637568 0.28694305 0.09878188 -0.11004005 0.27832356 0.09938992 0.07461511 -0.124296196
0.15348862 -0.013379911 0.031135475 0.1571766 -0.17574298 -0.027067684 -0.010499714 -0.013083259
-0.008919714 -0.07305925 -0.06684009 0.0978591 0.05220656 0.12869014 0.09972867 -0.10414215
-0.11683512 -0.022557914 0.0620312 0.015386397 -0.19096518 0.040968977 0.05379738 -0.09166543
-0.095140964 -0.0036299694 -0.05464777 0.05117426 0.05199935 0.008656553 -0.08125562 0.085699074
-0.18961926 0.017863233 -0.04189703 -0.16323926 0.13225935 -0.22880298 -0.0920903 -0.08211918
0.008972307 0.20904835 -0.105702475 -0.12417829 -0.027767202 0.031922814 0.07176131 -0.22422825
0.028560996 0.12230714 0.08854603 -0.28031114 -0.08215157 -0.077601686 -0.001517186 -0.03178471
-0.059790224 -0.20732999 -0.15390979 -0.10341183 -0.23893705 0.07706356 -0.27334434 -0.16839361
0.14352569 -0.07753058 -0.27418938 -0.15375213 -0.003321548 0.070497766 -0.20539704 -0.037023347
0.14669174 -0.1230994 -0.104098015 -0.1681322 -0.024310037 -0.017092133 -0.16934314 -0.102035716
0.04866536 -0.1474119 0.09000533 0.056461014 0.07547646 0.16596857 0.16233818 -0.112518236
-0.036150474 0.035605174 -0.073392406 -0.21905312 -0.06345167 -0.14003876 -0.17306262 -0.088859305
-0.11057715 0.06635648 0.09311991 -0.029737093 0.12612312 -0.16541933 0.029305136 -0.0441375
-0.22927848 -0.11930101 0.016651098 0.102348216 -0.007211153 0.07252652 -0.03664864 -0.056044124
0.15317822 0.121246174 -0.09752191 0.026111882 0.084331326 0.07674012 -0.115771785 -0.022213511
0.25295007 -0.042841308 -0.05839063 0.06564546 0.04359839 0.12079439 0.08819609 -0.09048887
-0.09921933 0.1033289 -0.1359289 -0.1669076 -0.08623171 -0.09913434 -0.041691195 -0.020709965
-0.1633307 0.026260007 0.24664679 0.06394469 -0.02881877 0.033257645 -0.24474669 -0.14428896
-0.103980064 0.14098589 -0.03002234 -0.107613176 -0.016394028 0.20290649 0.00089372374 0.043410722
0.23285317 0.07173878 0.027005216 -0.15285757 0.120630115 0.03436533 -0.09632861 -0.19670059
-0.039789278 0.068232216 0.1017412 0.19867541 -0.1556329 0.22805116 0.06665661 -0.089920044
-0.11861615 -0.08530566 -0.07945577 0.15939437 0.14850551 -0.08333025 -0.086261295 0.15789506
0.11977316 -0.056990366 0.00305261 0.15631531 -0.03497296 -0.100084 0.010744642 -0.299593

hidden.bias f4 [32]
00000000: 0000 0000 0000 0000 0000 0000 0000 0000
00000010: 0000 0000 0000 0000 0000 0000 0000 0000
00000020: 0000 0000 0000 0000 0000 0000 0000 0000
00000030: 0000 0000 0000 0000 0000 0000 0000 0000
00000040: 0000 0000 0000 0000 0000 0000 0000 0000
00000050: 0000 0000 0000 0000 0000 0000 0000 0000
00000060: 0000 0000 0000 0000 0000 0000 0000 0000
00000070: 0000 0000 0000 0000 0000 0000 0000 0000
0.0 0.0 0.0 0.0 0.0 0.0 0.0 0.0
0.0 0.0 0.0 0.0 0.0 0.0 0.0 0.0
0.0 0.0 0.0 0.0 0.0 0.0 0.0 0.0
0.0 0.0 0.0 0.0 0.0 0.0 0.0 0.0

out.weight f4 [1, 32]
00000000: 990e 26be bb40 92be f352 f6bd 9bbd d1be
00000010: d511 ee3b 37f0 a13e 3738 cdbe 961b 2fbd
00000020: 4dd1 63be 7804 73be 9896 82bb c24b b5bc
00000030: 8a5d 66bd eab0 463d 4e4e 373e 3187 8c3e
00000040: ac75 5ebd 9d2b a1be 9efd d63e 5f01 933e
00000050: 7b21 e5be 0ee7 253d e35f ae3d 97da c8be
00000060: 7f30 17bf b63a 10bd 805f 2fbd 3e24 25be
00000070: cff4 a0be 37f5 953d 168e 03be a37e 99bd
-0.16216506 -0.2856501 -0.1202754 -0.4096497 0.0072653093 0.31628582 -0.4008195 -0.042750917
-0.2224781 -0.23732173 -0.0039852373 -0.02213085 -0.05624155 0.048508562 0.17900965 0.27446893
-0.05431144 -0.31478587 0.4199037 0.28711984 -0.44752106 0.040503554 0.08514383 -0.3922927
-0.59058374 -0.03521224 -0.042815685 -0.16127107 -0.31436774 0.07322162 -0.1284717 -0.07494857
