train_history/olympics-running/11_24_23_53/actor.pth (torch, 48200 bytes, 14 tensors)

encoder.0.weight f4 [8, 4, 3, 3]
00000000: e1ff ecbe d7fd 9e3d 081b 7a3e 790d 3ebe
00000010: c177 6bbe 1153 8bbe bdbe b4be a787 0cbc
00000020: f02d 6e3e 65d3 01be 896f 45bd 8dae d73d
00000030: 4e04 f1be 22f1 68be 680f 04be 9cfe 7bbe
00000040: 6c74 eabe 4017 15bc 072a 9a3d f379 183e
00000050: 0320 87bd 0ace 35be 2312 c53e 2cd8 c23e
00000060: fbd9 823e 22e9 0f3f ca78 7fbe 0dbc 403e
00000070: 1385 513e 9137 28be 52ca 153e 8363 a53e
00000080: 2c6d 793e 983c 963d d564 bebe f843 98be
00000090: ab6b 2d3e f880 953d 4cfd 09bf 73b3 f63d
000000a0: dff9 fc3e 3171 83be ffee 0b3e 08b4 10be
000000b0: 928f a43e 7d3c 333f f125 513e 8618 673e
000000c0: 141b 853d 3644 553e b20e 203e ea32 b13a
000000d0: ea2b acbd 29ad 0f3f 20d7 a43e 6cea e7be
000000e0: 9cb2 f53d f6e9 1e3e 2e35 8e3e 99f8 8e3d
000000f0: e620 963e 6c50 973e b68c 9e3c 51c7 21be
00000100: ea70 fa3d 1522 033c d26d 823e 661d a4bd
00000110: 360c a2bc 62eb ecbc 3e3c 303d 22bd 153e
00000120: 78c1 35be aa49 863e ecff 543e 752b aa3e
00000130: 0e74 3c3e 4f76 aaba 7567 16be aca1 6d3e
00000140: c025 ab3d 51ef 123d cba6 debd ca41 27bf
00000150: 8935 24bd 0ef5 b1be 8d32 0a3d 1d02 bf3c
00000160: 5b68 da3c c92e f6bd 9e14 173e 3447 e73e
00000170: da8a 5dbe 4a97 063e df65 a43e 9b45 69bd
00000180: 64aa 5b3e ff33 393e 151e 173e a802 4dbe
00000190: 753a 3f3d 7ef9 553e 0818 57bd a689 8ebe
000001a0: 86bf 543d 85b1 9bbc 8145 1d3e 91f3 ca3e
000001b0: f1db b43e d170 683e 7c01 51bd 66db 253d
000001c0: f049 aa3e dba0 333d 89f4 153e e59a 243d
000001d0: 3d51 bc3d b1bd e7be 9478 863e 0ab9 263e
000001e0: 078c a4be f609 ebbd 3587 c0be b372 86bb
000001f0: 0295 1f3e 08e4 163e a24f f23d 1c75 f53c
00000200: 0d5c 8e3e 1c0b 3cbf 8b58 bdbe 11d2 3dbd
00000210: e336 19be ba1b cd3e 60cb 23ba 6722 5b3d
00000220: 792e 1cbe dfc1 4e3d 0937 353d 845f c5be
00000230: d17f 87be 51b6 42be 27dc 43be 41a7 99bc
00000240: 5a5d 9b3d 110b 14be e954 e13d 1162 063f
00000250: e73f 00bf 37ba 2d3e 1353 813e 8f5a 41bc
00000260: 8a7d da3d 5da9 b9bd 6f6e 703e 6e1f 8b3d
00000270: 395b d03c 2b82 dbbc 4417 65bd 27b1 273e
00000280: 8a88 e73d 7c1a 253d 18f6 19bf 7538 303d
00000290: ead4 1f3f 54ee 6ebe c0bc 073f 23ae b5be
000002a0: 74b8 763e 6674 ab3d bde3 90be 7cb8 d9bd
000002b0: b387 9d3d d211 96be 2e55 58be 1b78 cdbd
000002c0: 7eb7 543e 7979 75be 0c48 84bd 2934 803d
000002d0: 4271 bdbe ecda 8c3e 0117 91be 973b be3d
000002e0: 198e d9bd 3e59 623e 36b5 1fbe 462f cd3d
000002f0: 89fb 5b3d 29a5 14be 8dc9 1abd 0c55 52bd
00000300: 0805 c3bd aebc 993d 2a2a 3ebe 7538 cfbd
00000310: 8c85 ab3d f357 c13e 94d5 b03e 87a4 783d
00000320: d45f 163e 6bde e83c e309 a93e 97a1 04bf
00000330: 3e4d cfbe 44a1 20be 457a 8e3e 53b6 c8bd
00000340: 8e77 68be c86f 52bd 9962 b83e c045 963e
00000350: 5d1b a13e 773d 73be 8c05 80be e0d5 c0be
00000360: 4175 773e d1e7 f23e a2e0 c3bd 1622 a73e
00000370: 2dfe 98be 16f3 9dbe 553c 973e d943 93bd
00000380: 0c96 bbbe 1279 1ebe 3c55 a73e abea 033e
00000390: 0539 0c3f 15f7 7abe 3fec 85bc 9336 ddbd
000003a0: c84f 273e c9ee b0bd bf59 4e3e 5f90 a2be
000003b0: 5775 e4bd 6f0c 5b3d 09ed 583c b22f f53c
000003c0: 372a 683e d5e7 4e3e a2a3 b13e af75 ca3e
000003d0: 650e 91bd 150f 0abd 9cb4 90bd 4c3b d5bc
000003e0: 8c9c 75be 4285 663d 19cc 2cbe 6159 97be
000003f0: 3f93 27bd 4e3e f1be 4d57 913e 8e2d 8e3e
-0.4628897 0.0776326 0.24424374 -0.18559827 -0.22994901 -0.27211812 -0.35301772 -0.008577264
0.23259711 -0.12678297 -0.04820207 0.1053134 -0.47073597 -0.22748235 -0.12896502 -0.24608845
-0.45791948 -0.0090997815 0.07527547 0.1489027 -0.065979026 -0.17754379 0.384904 0.3805555
0.2555693 0.5621511 -0.24948421 0.18821736 0.2046092 -0.16427447 0.1462796 0.32302484
0.24358052 0.07335776 -0.37186304 -0.29739356 0.16935603 0.072999895 -0.53902125 0.12045946
0.49409387 -0.25672296 0.13665389 -0.14131176 0.32140785 0.7001417 0.2042463 0.22567949
0.06499305 0.20826802 0.15630606 0.0013519202 -0.084068134 0.56123596 0.32195377 -0.45296037
0.11996958 0.15518937 0.27774948 0.0698101 0.29321975 0.29553545 0.019354206 -0.1579869
0.12228568 0.008003731 0.2547441 -0.0801342 -0.019781213 -0.028920833 0.0430262 0.1462293
-0.17749584 0.26228076 0.20800751 0.3323628 0.18403646 -0.0013005229 -0.14687903 0.23206204
0.083568096 0.03587276 -0.10871657 -0.6533476 -0.040090118 -0.34757274 0.033739615 0.023316437
0.026661089 -0.12020642 0.14753959 0.4517151 -0.21634999 0.1314365 0.3210897 -0.056951147
0.21451718 0.18086241 0.14757569 -0.20020545 0.04668661 0.20895955 -0.052513152 -0.27839392
0.051940463 -0.019005546 0.15358545 0.3963895 0.35324052 0.22699286 -0.051026806 0.040492438
0.33259535 0.043854576 0.14644064 0.04018678 0.091951825 -0.4526191 0.2626387 0.16281524
-0.32138082 -0.11476509 -0.37603155 -0.0041030287 0.15584186 0.14735425 0.11831595 0.029963069
0.27804604 -0.7345445 -0.36981615 -0.046342913 -0.14962344 0.40060216 -0.0006248262 0.053499606
-0.15252103 0.05047786 0.04424194 -0.38549435 -0.26464704 -0.1901486 -0.1912695 -0.01875651
0.07586165 -0.14457346 0.110025235 0.5249339 -0.5009751 0.16965567 0.25258693 -0.011801376
0.10668476 -0.090655066 0.23479627 0.06793104 0.025434123 -0.026795467 -0.05593039 0.16376172
0.1130534 0.04030846 -0.60141134 0.04302259 0.62434256 -0.23333102 0.53022385 -0.35484418
0.24093801 0.083718106 -0.2829875 -0.10630891 0.07691898 -0.2931047 -0.21126243 -0.10032674
0.20773122 -0.2397212 -0.06459054 0.06259949 -0.3700047 0.27510774 -0.28337863 0.092887096
-0.10622806 0.22104356 -0.1559647 0.10018782 0.05370668 -0.14516129 -0.03778987 -0.05135064
-0.09522444 0.07506691 -0.18570772 -0.1011819 0.083750814 0.37762412 0.34537947 0.06070378
0.14684993 0.02842637 0.33015355 -0.51809067 -0.4048862 -0.15686518 0.2782766 -0.098004006
-0.22701856 -0.051376134 0.36012724 0.2935009 0.3146619 -0.23753916 -0.25004232 -0.37663174
0.24165823 0.47442487 -0.0956433 0.32643193 -0.2988142 -0.30849522 0.29538217 -0.07190675
-0.36637914 -0.15475872 0.32682216 0.12882487 0.54774505 -0.24508317 -0.016348002 -0.10801425
0.16339028 -0.08639295 0.20151423 -0.3175077 -0.11155193 0.053478654 0.013240107 0.02992997
0.22672354 0.20205624 0.34695154 0.3954291 -0.07082824 -0.03370579 -0.070656985 -0.026029252
-0.23985499 0.05627943 -0.16874732 -0.29560378 -0.04091191 -0.47117847 0.28386918 0.2776913

encoder.0.bias f4 [8]
00000000: ab23 83bc 1fa5 b7bb 3e83 31bd b035 803b
00000010: 15c5 53bd 5987 b63c 987a 88bd 78a4 e33b
-0.016008219 -0.0056044008 -0.043338053 0.00391265 -0.051701624 0.022281336 -0.06664008 0.0069470964

encoder.3.weight f4 [8, 8, 3, 3]
00000000: 1b99 dc3d dc23 0bbf e9ec 9b3c e6c5 5f3e
00000010: dac0 02be 5daf 723e 8e59 c7bd 2832 d33d
00000020: 23e2 2b3d fe6e 323d ac07 0ebd 73e8 36be
00000030: 0a6a 9abd 5bd0 9e3d f1fc b0be e315 a2bd
00000040: 6254 483e 66d1 21be 255e bb3c 946c 093b
00000050: 7267 0ebd b49a 343e 4d4c 47be cba6 91bd
00000060: a1ba 123e bbad 01be d2e8 a8be 3064 2bbe
00000070: 5443 063d 7e06 20be e3b3 dd3d 3612 153e
00000080: 8cbb f03e 5130 eabd ff04 193e 9716 cabd
00000090: 2ba4 8b3c 5445 29be e9c8 8dbd a9a5 30bd
000000a0: a15c a0bd 6463 9abe f485 6bbe 6b3c b93e
000000b0: 7b52 ecbd e0e6 453e 07b9 65bc b2e7 e03d
000000c0: b0d2 d9bd a00e c93e 25e6 a93b 0d77 763d
000000d0: 9f73 ac3e e61a 48bc 0056 d3bd a241 72bc
000000e0: 0ed3 463e 8332 a33c f964 2e3e e866 6c3e
000000f0: 9f14 013e ca46 18be 20f2 2f3e 7b16 493d
00000100: 4230 7dbb 41be 873e f6f0 19be 345f 423d
00000110: c52e 09bd 9a69 803d 3af1 bc3d accd cb3d
00000120: c483 dbbe a8c0 d8bd d246 823e 97c8 1bbe
00000130: 8f47 87bd fea8 48bc e860 1abe 5baf 8dbd
00000140: 8548 91bd b37a 72be ca91 83bd 9aa0 573d
00000150: 44fd bdbc a32a 84be 0918 483e 154c 9e3d
00000160: f538 d13e e6b6 bfbc 6817 71be 4532 573d
00000170: 8485 5d3e 34b2 75be 8d9b 31bd 8ae7 8e3c
00000180: d500 813d e047 bb3d 2ee0 aabd 109d b0bd
00000190: f6c7 80bc a874 6dbe 2c4c 103e 38e1 833d
000001a0: e808 423c 85b1 f83c 460a a2be 4eee 5ebd
000001b0: b713 36be 6f2c 88be 1e9a 27bd 22f4 15be
000001c0: 644a cebb 2aa0 893e ba13 fe3d b124 003f
000001d0: a0d2 4b3e c11e 9e3e a618 1f3e 30ba b53e
000001e0: f374 fabd e8fc e3bd 207d 8ebd 805d 39be
000001f0: f941 3dbe 45f7 a3be c5c9 07bd 71ae 30be
00000200: a249 003e e523 34be 3c82 0f3e 75c6 0f3e
00000210: 33dd eb3d 883b 663e 6357 0abe 2cfa a3bd
00000220: b347 58be e126 06be af1b b1bc 4528 633e
00000230: e050 46bd 8e4b 7abd e46d 3fbe 0b75 82be
00000240: 546f 0cbe 7bc1 d73d b6e3 efbc ca50 e73c
00000250: 0640 b7be 81cb 7cbe ad7c 90bd bb08 22be
00000260: 35f0 97bc 1bbd 45bd 2d26 8c3e 18ae 253e
00000270: 3239 33be 9de3 1fbe 17e9 f5bc e02e 9b3e
00000280: a4d3 b7bd 063b 5abe 4819 f73d 5c93 08bd
00000290: 0588 f83e 945a 6bbe 7eea 74be 29f0 71be
000002a0: c7a6 353e 9d70 88be 2566 1d3d 4ea7 23be
000002b0: 6de2 ea3c 10ee 7d3e 56db 993e abaa 613d
000002c0: 79de 323e 31dc f73d 9730 833e 18fe 66be
000002d0: d157 64be ccda 043e 7df3 4a3d 75ef ebbd
000002e0: f084 c5bb ef4a 6ebe 154d d33d 9229 07be
000002f0: b30f cdbd dcf0 0fbe f049 8d3e fd10 07be
00000300: df8b 453c 9d4b 2abe f9f0 95be ab25 41bd
00000310: 2e7c b1bc ec33 56be 0be2 183d a961 3bbd
00000320: edd7 e03d c488 8e3e 4c0e 453c 48ce 053e
00000330: 8c3e 353e a64f 443d eb83 83be fe07 86be
00000340: 2b84 e03e 248a 02be 874a 343d 557c 21bc
00000350: 1f26 923c d4a5 4a3c 1949 1c3d 8450 7ebe
00000360: 6f22 8f3e 035d ed3c cf1d 42bd 01e4 703e
00000370: 94f1 fa3b 9d92 423e e0c8 2d3e 8eca 083e
00000380: 60f3 a13d d6ba 7b3d d6e6 eabe 4bf9 38be
00000390: cff7 26be 7bb0 42be 3a15 373c 91bf 3fbd
000003a0: 38dc 153e 6335 e3ba 188c 07be e1dc 8738
000003b0: 168f febd c1f6 32be fa86 63bd 4e6a 9ebc
000003c0: 336d 263e da52 04bd ad62 313d 1e6a 8dbd
000003d0: 1381 c9bc 777e ac3e 1848 2c3e 517f 27be
000003e0: d0fa 2bbe aafc d7bd f8e9 cdbd 9540 b7bc
000003f0: 17fd a43e d242 8fbd 0dc3 b23e c0ec 79be
0.1077139 -0.5435159 0.019033866 0.21852836 -0.1276888 0.23699708 -0.09733878 0.10312301
0.041963708 0.04356288 -0.034675285 -0.1786211 -0.075397566 0.077545844 -0.3456798 -0.07914331
0.1956344 -0.15802535 0.02287204 0.0020969259 -0.034766622 0.1763714 -0.194627 -0.07111891
0.14329006 -0.12663929 -0.32990128 -0.16737437 0.032779053 -0.15627477 0.10825326 0.14557728
0.47018087 -0.11434997 0.14943312 -0.0986759 0.017046055 -0.16530353 -0.06923086 -0.043126736
-0.078301676 -0.30153954 -0.23000318 0.36178908 -0.115391694 0.19326353 -0.014021165 0.109816924
-0.106358886 0.3926897 0.005184906 0.06017213 0.33681962 -0.012213444 -0.103191376 -0.014786156
0.19416448 0.019921547 0.17030706 0.2308613 0.12605523 -0.14870754 0.17182207 0.049093705
-0.00386335 0.2651234 -0.15033326 0.047454074 -0.03349187 0.06270142 0.09225698 0.09951338
-0.42873967 -0.10583621 0.25444657 -0.15213238 -0.066054456 -0.012247322 -0.1507603 -0.06918212
-0.0709391 -0.23679619 -0.064242914 0.052643396 -0.023192056 -0.2581378 0.19540419 0.07729355
0.40863767 -0.023402642 -0.23544085 0.052538175 0.21632963 -0.2399376 -0.043361235 0.01744439
0.06298987 0.091445684 -0.0834354 -0.08623707 -0.015720349 -0.23189032 0.14091557 0.064394414
0.011842944 0.030358085 -0.31648463 -0.054426484 -0.17780958 -0.265964 -0.040918462 -0.1464391
-0.006295489 0.26880008 0.12406106 0.50055987 0.19904566 0.30882838 0.15536746 0.35493612
-0.122293375 -0.111322224 -0.069574594 -0.18102074 -0.18482198 -0.3202459 -0.033151407 -0.17254044
0.12528089 -0.17591818 0.14014524 0.14040549 0.115168 0.22483647 -0.13509898 -0.08006701
-0.21121101 -0.13100769 -0.021619646 0.2218333 -0.048416972 -0.06110721 -0.18694264 -0.25479922
-0.13714343 0.1053495 -0.029283386 0.028236765 -0.35791034 -0.24687006 -0.0705503 -0.15823643
-0.018547157 -0.04827605 0.27372876 0.16179693 -0.17502287 -0.15614171 -0.030018372 0.303092
-0.08975914 -0.21311578 0.12065369 -0.033343658 0.48541275 -0.22983772 -0.23917577 -0.2362677
0.17739402 -0.26648417 0.03842749 -0.1598179 0.028672421 0.24797845 0.30050153 0.055094402
0.17467679 0.12102545 0.2562301 -0.22557867 -0.22299124 0.1297409 0.049548615 -0.11520282
-0.0060278103 -0.23270772 0.103174366 -0.13199452 -0.1001276 -0.14056724 0.27595472 -0.13190074
0.012057274 -0.16630407 -0.2928541 -0.047155064 -0.021665659 -0.20918244 0.037324946 -0.045747433
0.109786846 0.2783872 0.012027334 0.13066971 0.17699641 0.04792752 -0.25686583 -0.26177973
0.43850836 -0.12748009 0.044016387 -0.009856303 0.017840443 0.012368638 0.03815565 -0.24835402
0.27955958 0.028975016 -0.04739171 0.23524477 0.007658193 0.19001241 0.16971159 0.13358518
0.07907748 0.061457478 -0.4587924 -0.18063848 -0.16305469 -0.19012634 0.011174494 -0.04681355
0.14634788 -0.0017334636 -0.13237035 6.4784435e-05 -0.12429635 -0.17476942 -0.055548646 -0.0193378
0.16252594 -0.032305576 0.043306995 -0.06905006 -0.02459768 0.33690235 0.16824377 -0.16357161
-0.16794896 -0.10546239 -0.100543916 -0.022369662 0.32224342 -0.06995167 0.34914437 -0.24406719

encoder.3.bias f4 [8]
00000000: 308a e0bb 012e 96bd e0ff 463d 084c b8bd
00000010: 75a3 a33d b7c4 2bbd e567 c3bd 6ac4 1ebd
-0.0068524107 -0.07332993 0.048583865 -0.08998877 0.07990161 -0.04193565 -0.09541301 -0.038761534

cnn_net.0.weight f4 [16, 8, 3, 3]
00000000: 8de7 263d 1cb1 3c3e d50d 9dbd 0d1c 893e
00000010: 82e7 90be 8088 10bf 73be 4f3e e3f6 343d
00000020: acea 433d 73d8 6cbe 2c39 e23c 0b5b 1fbe
00000030: f9fc a5be a687 0d3e 9613 253d f6da 833d
00000040: db67 31bc 6c24 4abe aef0 05bc 1f2e 603d
00000050: b2db 8e3e 294e 37be 9920 03be 0fe0 d43c
00000060: c9b0 693e ba02 e43d eb7c a43e 5b3b 6cbe
00000070: 5cd7 373d c772 cfbd 0d71 f8bd 027c ecbd
00000080: b285 fcbc a646 b83d 218c b53d 2081 533e
00000090: 5e5a c5bc db7c 5dbe 8338 a63e 116d 66be
000000a0: 9308 8ebe adcb 473e 2731 a3bc 8854 823d
000000b0: 1f11 b6bd 6718 983d 85e7 063e 739c 5e3e
000000c0: 0a70 d6bc fca2 a3bc 6b50 3b3e debf 4f3e
000000d0: 41fd 873e c432 e33c 35f5 763e e1a2 89bd
000000e0: 7635 ec3b 0dab 493e 62c2 08be 50b8 013a
000000f0: 2c30 d4bd d319 54bd 6ade df3c 2314 833d
00000100: 4dc7 923d c842 a73d 21e7 543e d819 3e3e
00000110: 6d67 533e 5ef8 17be bfe6 c83d d72c 283e
00000120: 5fb9 0ebe ca3f df3c d66e 9d3d e7e2 02be
00000130: 368b 7e3d e0e5 a6bd 3dfc b03e 9f5a c9bb
00000140: 2478 bb3d 3f51 743e 788b 3abc e8b9 dbbd
00000150: 5e87 843d 5923 40ba cea0 3d3e c7bd f33a
00000160: 4cd9 a33d a771 883e 0d1d 80be b0c4 50be
00000170: 566e 8f3e c956 14bd 0093 a7bc 5716 69be
00000180: 87bd 1fbd bb73 c13c 6f93 b53d d89e a53d
00000190: 961e 02be 4b36 08be 0297 c43d 268c 28be
000001a0: eaad 3f3e 045e 103d 5963 983d 9e25 74be
000001b0: 9ba2 2fbe 9878 fc3d 45c7 193e d990 353e
000001c0: fcfb 13be 9a09 9f3e d519 83bd cfc8 283e
000001d0: 4ee2 2a3a fc21 60bd bab7 b9be 719c 4e3d
000001e0: 25eb 683c 5b0f cbbd 3f81 1d3e 5fe9 8f3e
000001f0: 906d b63e ed00 a1be 4cf5 48be d93f aabd
00000200: 2eeb 883d 0ac4 7ebd 3173 35be 743c 7abe
00000210: 4b12 5c3d df8b f53c f5cf f2bb 4a58 1cbe
00000220: 12d7 24be 7c26 8a3e 0d9a 80be 001e 733e
00000230: ddb4 e0bd 26fd c03d 8857 913e d04e 40be
00000240: e4ae 003f 6fe7 673e fdee b93d 3184 a3be
00000250: 4122 d83e 3c72 483e a7b2 463e 2157 5fbe
00000260: e3b1 50be 292d 1ebe 7aed 79bd 55d4 a4bd
00000270: f96f 10be e1f8 2bbe cdf8 87be 07ca b43c
00000280: f9e1 ab3d 83de 413e d597 313e 17b9 a43e
00000290: ec95 2c3e eecf 223e baf7 d0bd cbf4 a03d
000002a0: c618 b0bd 0135 e4bd cb74 07bd 7315 9abd
000002b0: 7f1e 243d a7a7 9cbc 630b 4a3e 6562 0abe
000002c0: 63ba 96be 8d81 b93d 3b09 103d c79b f93d
000002d0: 334f 5d3e a19d 35be e9ca 4d3e fb52 803e
000002e0: 116b 23bd 45a3 973e 2c1f 6c3d 20d1 91be
000002f0: 7dd4 6a3e ca57 d23d 8dbc 523e edaf 7d3e
00000300: e2ce 873d 5954 bf3d 47b0 013e ea22 b23d
00000310: 1081 9dbc 3efe 603e 952b 8bbc 2872 093e
00000320: a499 4cbc 172a c3bd d11c a5be 0553 5abe
00000330: 7d6b ae3d cc6b d63d 8b34 c0bd 5c00 11be
00000340: a38c 793e ed89 a8bd ca59 24be 111a 00bd
00000350: 7afd 06bc 14cb 8fbe d4cb c6be c173 20be
00000360: d6d8 683e 4e82 aabd 415a ec3c 9df6 303e
00000370: 7be3 11bc 1ab3 aebe 03d4 1bbd 5f5c 8ebe
00000380: 807b 16be d37a 2dbd afe4 863d 0257 863e
00000390: 7866 933e b7ce dfbb d245 ac3d 6e3f fc3d
000003a0: 11e3 123e f26d 0cbe 00b5 853e 56a5 993d
000003b0: 4749 413e d5c8 b9bc ae26 01be 9365 ab3d
000003c0: a982 993e 86bd 123e fd09 8a3e b0ce 19be
000003d0: 3fe8 25be d05c 48be c924 a73e 6498 f73d
000003e0: 09f1 213d 5c79 dd3d 1f60 07be 512a d3bd
000003f0: 5982 dfbd ca83 3dbd 124d dcbd bc85 323d
0.040748168 0.18426937 -0.07668654 0.26779214 -0.28301626 -0.5645828 0.20287494 0.044180762
0.047831222 -0.23129444 0.027615152 -0.15562074 -0.32419565 0.13821277 0.04030188 0.06438248
-0.010827984 -0.19740456 -0.008175058 0.054731485 0.2790199 -0.1790091 -0.12805404 0.025985746
0.22821344 0.111333326 0.32126555 -0.23069517 0.044883117 -0.10129314 -0.12130938 -0.1154709
-0.03082547 0.0899785 0.08864618 0.20654726 -0.024090942 -0.2162966 0.3246499 -0.22502543
-0.27740917 0.1951129 -0.019920899 0.06363779 -0.08889984 0.074265294 0.13174255 0.21739368
-0.026176471 -0.019975178 0.18292396 0.20288035 0.26560405 0.027734168 0.24116977 -0.0672052
0.0072085215 0.19694157 -0.13355401 0.0004948424 -0.103607506 -0.05178244 0.027327735 0.06400325
0.0716692 0.081670344 0.20791294 0.18564546 0.20644923 -0.14840838 0.09809636 0.16423355
-0.13937901 0.027252097 0.07687156 -0.12781869 0.06214448 -0.08149314 0.34567443 -0.006144836
0.091537744 0.23859118 -0.011385791 -0.10728818 0.06471132 -0.0007329486 0.18518373 0.0018595987
0.080004305 0.2664921 -0.25022164 -0.2038753 0.28013867 -0.036215577 -0.020455837 -0.22762428
-0.038999107 0.023614755 0.08866011 0.08086938 -0.1270698 -0.13301961 0.09599115 -0.16459712
0.18718687 0.03524591 0.07440824 -0.23842475 -0.17151873 0.12327689 0.15017422 0.17731036
-0.14451593 0.31062013 -0.064014114 0.16482852 0.00065187074 -0.05471991 -0.36272985 0.050442163
0.014216219 -0.09915038 0.15381335 0.28107736 0.35630465 -0.3144602 -0.19624823 -0.08312959
0.06685482 -0.062198676 -0.17719723 -0.24437124 0.053728383 0.029973922 -0.0074100443 -0.15268055
-0.16097668 0.26982486 -0.2511753 0.23741913 -0.10971997 0.09423284 0.28387094 -0.18780065
0.5026686 0.22646879 0.090787865 -0.31936792 0.42213634 0.19574827 0.19404088 -0.21810581
-0.20380358 -0.15446915 -0.06101749 -0.080483116 -0.14105214 -0.16794159 -0.26557007 0.02206899
0.0839271 0.18932538 0.17343076 0.32172462 0.16854066 0.15899631 -0.102035 0.078591906
-0.08598475 -0.11142922 -0.033070367 -0.07523622 0.040068146 -0.019122912 0.19730906 -0.13514097
-0.29439077 0.09057913 0.035165053 0.12187915 0.21612243 -0.17735912 0.20096935 0.2506331
-0.03989703 0.29616752 0.057646915 -0.28479862 0.2293262 0.10270651 0.20579739 0.24774142
0.06631257 0.0934226 0.126649 0.086980656 -0.01922658 0.21971986 -0.016988555 0.13422453
-0.012487803 -0.095295124 -0.32248548 -0.21320732 0.085165955 0.10469779 -0.09385022 -0.14160293
0.24370055 -0.08229432 -0.16049877 -0.03127486 -0.008239144 -0.28084624 -0.38827384 -0.15669157
0.22738966 -0.08325635 0.02885163 0.17281576 -0.008904333 -0.3412102 -0.038043987 -0.2780485
-0.14695549 -0.042353462 0.06586587 0.26238257 0.28789115 -0.0068300623 0.08411755 0.12316786
0.14344431 -0.13713816 0.26114655 0.075022385 0.1887561 -0.022678772 -0.12612411 0.08368983
0.29982498 0.1433011 0.26960745 -0.15020251 -0.16201876 -0.19566655 0.32645252 0.12089613
0.03953651 0.10814163 -0.13220261 -0.103108056 -0.10913534 -0.046268262 -0.107568875 0.04358457

cnn_net.0.bias f4 [16]
00000000: 4876 2dbd 3142 4fbc 7bf3 cc3b 52c1 0cbd
00000010: 6561 863c 309e 80bc 3b5a 0dbd d9bd 18bc
00000020: f082 71bd e485 85bd 854e 47bc 601b a13c
00000030: 0790 9cbd 215c 0c3d ecfe 96bd 7b43 e03c
-0.04234913 -0.012650059 0.006254611 -0.034364052 0.016403863 -0.01570043 -0.03450988 -0.009322607
-0.058962762 -0.06519678 -0.012164717 0.019666374 -0.076446585 0.03426755 -0.07372841 0.027375927

cnn_net.3.weight f4 [32, 16, 3, 3]
00000000: 1ed5 73be 29d0 483e 1f54 0dbe 19cd 1f3e
00000010: a58d 25bb 86c2 f83c 0b03 813e 9701 443e
00000020: fcb7 bf3d 6370 263d 1a82 a2bd 048f 9e3d
00000030: d3a1 113e 8116 4fbd af70 55bb 71c3 c8bd
00000040: 7eb2 3dbe 9299 953d 0f75 b4bd 093e 8abc
00000050: 3754 d4bd 5399 85bd 3263 cf3d d3fb 3fbe
00000060: 81d9 a7ba 435b 0d3d 7ff1 12be c25d 8dbd
00000070: cf91 d23c 5cdf 8b3d 627c 5c3e 31d3 9c3c
00000080: 9513 abbd b30c ae3d 23bd 2cbd ef63 bbbc
00000090: 3207 90bd 92c1 133e 474f 7f3c 94b0 40be
000000a0: bcc5 103e 0acb 4cbe 49bc 833d 79ae 1abe
000000b0: 9cf3 833e 73da ed3c 5e73 0dbe edf7 00bf
000000c0: 33ba 9d3c a084 3d3e dbd6 493e 9e3a 093d
000000d0: a3c8 e4bd 38da 75be b304 6abe 9966 a6bd
000000e0: ea23 e4bd eb1a c3bd aec3 153e cc52 ec3d
000000f0: 47a8 28be f842 5a3d 83c7 303d 6c38 04be
00000100: b052 58be 4c4e bb3d d600 53be 8329 5abe
00000110: c462 873d a98b 48bc 81ce 0a3e aba1 053e
00000120: 35c5 803d 7075 96be a06d 07be 9a7b 4e3c
00000130: fc3d 21be 8915 213c dfd3 a23e 0993 d1bc
00000140: d7ae 87bd 8f9f f9bc 4fce 013d be65 12be
00000150: d9d3 62bd d35a 03bd f0f2 5bbe d863 52bd
00000160: 9fdf b13d 8310 1ebc 7b5a edbd 0dd5 afbb
00000170: 9a75 8c3d 615f d1bd ce51 84bb 1500 95bd
00000180: 89c5 5f3e c085 31bd 9554 313d bf42 0a3d
00000190: 1349 9abe e18f 5cbe 5666 69be 549c 1bbe
000001a0: 66be 323e 0b7b 1ebe 632e e1bd 3ef9 bdbd
000001b0: da08 153e f1e8 31bd b4de a6bd 9129 303c
000001c0: 829d 26be b30e 4b3e 50cb b9bd c305 e8bc
000001d0: ef0c 90bc a3a1 873e cdac 9d3d 9964 8fbc
000001e0: 513c 8abe 4aa7 01be d38d 51bd 231c 543e
000001f0: 9112 9c3d 2e46 afbd 6302 abbe 0a57 7dbc
00000200: 5698 dd3d 114d 343e e57f eabd 1ad2 113e
00000210: bb68 2d3e ded6 b3bd 1be7 6abd e8da babe
00000220: c494 f5bd b9f7 babc 021d 8539 128e d9bd
00000230: b0a4 aa3d 3ddc 5a3e ae63 febd a00c 9ebd
00000240: 81d7 c73c e4ca 80be 6d37 84be 90a6 f83d
00000250: d1fe ea3b 675f 45bc b8cc a6bd 7e29 8bbe
00000260: 9e16 723c e392 73be ba3f 10bd 148f 0b3e
00000270: e53f 523c bbde 1bbc f257 9d3d 30ee bc3c
00000280: 1555 dc3c 2f0f 6fbd 781a 8cbc 123c 193e
00000290: beb8 71be 5848 613d 632a afbd 3a6b 7f3d
000002a0: a869 a6bd 07ad edb9 ae6f 90bc 5123 43be
000002b0: 1038 33be 086c 5f3e 21a9 853c bfc3 5fbc
000002c0: ad9f 553d fa16 9f3c a094 a93c a524 1b3d
000002d0: 8521 693e 16af 4c3e f6a8 1f3d 7863 aabd
000002e0: 777e c03d 50f2 69bd 2e42 9c3c bbc6 96bd
000002f0: f568 5e3e b81f bb3c dd9f a8bd f5af ecbd
00000300: 8691 00bd bb6b 00bd 6d89 c83c b92c 4c3e
00000310: cdad c93b b03a 793e b78f fb3d eee8 0bbd
00000320: 5c53 dfbd 6f41 27be 776c cf3d 6575 403e
00000330: 9080 10bd add2 0c3e 34a9 04be fe5e ccbe
00000340: 55ee dc3d c7df 8abe c595 b23d f926 d7bd
00000350: 2f7a 5abe 9b9c 5f3e da2c fdbd 6f1d 863d
00000360: fc33 13bd d446 bc3c 3efa 94be 7d5d f43d
00000370: f108 393c 55cd 70bd 8201 2f3e 3f97 e63c
00000380: f744 693d 5a36 30bc 06d4 efbd 862e af3d
00000390: 1603 6b3d c66d 3fbd ed23 14bd 6590 013e
000003a0: 549c 9dbd 4733 713d 86cd b73c a241 8cbe
000003b0: 5b23 52be 0771 3c3e 1aa4 b33d 9e5f 433e
000003c0: 8e35 14be 7363 5fbc da95 0bbe cf6a 65bd
000003d0: 4191 4c3e 41b5 0fbe d028 80be 8145 57be
000003e0: 3709 1abd 823c 92bc 01ba 41bd acaa 32bd
000003f0: 1913 3c3d 8b21 3d3c 58c7 2dbe 0d95 1a3e
-0.23811767 0.19610657 -0.13801621 0.15605582 -0.0025261429 0.030366194 0.25197634 0.19141231
0.09361264 0.040634524 -0.07934971 0.07742122 0.14221887 -0.05055857 -0.0032568385 -0.098029025
-0.1852512 0.07304682 -0.0881139 -0.016875284 -0.10367625 -0.06523385 0.10126342 -0.18748407
-0.001280591 0.034510862 -0.14349936 -0.069026485 0.025704293 0.06829712 0.21531823 0.019143673
-0.08353344 0.08498516 -0.042172562 -0.0228748 -0.070326224 0.1442931 0.015582866 -0.18817359
0.1413793 -0.19999328 0.06432397 -0.15105619 0.25771797 0.029034829 -0.1381354 -0.50378305
0.019253826 0.18507624 0.19710867 0.033503167 -0.11171081 -0.24009025 -0.22853355 -0.08125038
-0.111396626 -0.095266186 0.14625427 0.1153923 -0.16470443 0.053286523 0.04315902 -0.12912148
-0.21125293 0.09145793 -0.20605788 -0.21304898 0.06610635 -0.012240329 0.13555337 0.13049953
0.06287614 -0.29386473 -0.13225412 0.012602711 -0.15746301 0.009831795 0.3180227 -0.025582807
-0.06625145 -0.030471591 0.03169089 -0.14296624 -0.055377815 -0.03206904 -0.21479392 -0.05136475
0.086852305 -0.009647491 -0.115895234 -0.005365974 0.06858368 -0.1022327 -0.004038072 -0.07275406
0.21852697 -0.043340445 0.043293554 0.03375506 -0.30133876 -0.2153926 -0.22792944 -0.15196353
0.17455444 -0.15476625 -0.10995176 -0.09276055 0.14554158 -0.04343504 -0.08147946 0.010752098
-0.16271022 0.19829826 -0.09071982 -0.02832306 -0.017584292 0.26490507 0.07698975 -0.017504023
-0.26999143 -0.12661472 -0.051160645 0.20713858 0.07620729 -0.085583076 -0.33400258 -0.015462646
0.108200714 0.17607524 -0.11450175 0.14240304 0.16934483 -0.08781217 -0.057349306 -0.36495137
-0.119912654 -0.022823201 0.0002538935 -0.10622801 0.08332193 0.21373077 -0.12421356 -0.07717252
0.024394752 -0.25154793 -0.25823537 0.12141144 0.0071714898 -0.0120466715 -0.08144516 -0.27180094
0.0147759 -0.23786502 -0.035217024 0.13628799 0.012832616 -0.009513552 0.0768279 0.023062795
0.026896039 -0.05836409 -0.017102465 0.14964321 -0.2360563 0.055000633 -0.085530065 0.06235812
-0.08125621 -0.00045333078 -0.017631378 -0.19056441 -0.17501855 0.21818554 0.016315999 -0.013657509
0.05215423 0.019420136 0.020700753 0.037876744 0.22766693 0.19988665 0.038979493 -0.083197534
0.09399121 -0.057115853 0.019074526 -0.073621236 0.21719725 0.022842273 -0.082336165 -0.11556999
-0.031388782 -0.03135274 0.024479592 0.19938935 0.006154752 0.24338794 0.12283271 -0.034157686
-0.109045714 -0.16333555 0.1012811 0.18794782 -0.035278857 0.13752241 -0.12955171 -0.39916223
0.10787646 -0.27123854 0.087199725 -0.1050548 -0.21335672 0.21837084 -0.123620704 0.06548583
-0.035938248 0.022982992 -0.2909717 0.11931894 0.011293636 -0.05878957 0.17090419 0.028148292
0.056950536 -0.010755146 -0.11710362 0.085537955 0.05737599 -0.046735547 -0.036167074 0.12652738
-0.07695833 0.058886793 0.022436868 -0.27393824 -0.205213 0.18402492 0.08771534 0.19079444
-0.14473554 -0.01363455 -0.13631383 -0.056010064 0.19977285 -0.14033987 -0.25031137 -0.21022607
-0.037606444 -0.017851118 -0.047296528 -0.043619797 0.04591665 0.011543642 -0.16970575 0.15095921

cnn_net.3.bias f4 [32]
00000000: 6075 97bc cafb 61bc e1be 85bc dc24 40bd
00000010: 11ff a6bd e04c 37bc fac9 f1bb 4826 eebc
00000020: 1f02 023b 5b28 02bd 2133 aebc 787f 42bb
00000030: b501 debc a93b 2abc 8525 693b 7fc5 f63c
00000040: 3428 29bd f5ae 72bd 72f7 b6bd 3bb7 8fbd
00000050: ea0a 0c3d 4301 fb3b 1ca1 95bc 5edd 52bd
00000060: e516 52bd c72b 263c 8ed2 95bc 17d5 d0bb
00000070: c159 563a 2320 21bc 607b 7dbb a516 453c
-0.018488586 -0.013792941 -0.01632637 -0.04691015 -0.08154119 -0.011187762 -0.007378814 -0.029070988
0.001983769 -0.031776767 -0.021264615 -0.0029678028 -0.027100423 -0.010390201 0.0035575342 0.03012347
-0.041298106 -0.059248883 -0.08933915 -0.0701737 0.034190096 0.0076600625 -0.0182653 -0.051480643
-0.051291365 0.010142273 -0.018288877 -0.0063730585 0.00081768265 -0.009834322 -0.0038678274 0.012029325

hidden.weight f4 [32, 128]
00000000: 9d93 60be 8d42 2abe 5869 0d3d 2b83 98bd
00000010: cc31 993e 4365 44be 7815 a43e 28db 84bd
00000020: 0f0a e43d 333d a03a 6322 46bd d752 023e
00000030: a658 f6bd 2c1c a4bd 5764 c83b 1fb7 f2bd
00000040: a135 95be 8fe5 81be be7b d33d cf76 113d
00000050: f113 253d 5498 23be 37cf 3b3e 572e d7bd
00000060: 0d18 aabe c1a9 783d b163 5dbe a511 bdbd
00000070: 476c bd3d f7d4 813e 44c2 95bd daeb a0bd
00000080: 4880 4dbe 0595 35be b5b1 5bbe 7da0 3e3e
00000090: 93a0 a8bd 507c 1a3c 4cc7 35bc 7cc6 643e
000000a0: fbca c33d 06d2 843c c7ac e7bc 893f b7bd
000000b0: aa27 75bd f214 81be 214f 26be fa56 bbbd
000000c0: 9536 703e ef65 8dbe 70c1 3c3e ea26 b0be
000000d0: 6e40 76be b0bc 87bc 46ca 083d 08f2 40be
000000e0: bae1 653d 96ed 0abe f6c2 0a3d be5f d4bd
000000f0: 042a 4bbe 4634 14be 8224 f63d 1a26 003d
00000100: 8dc7 e13c 6472 05bd 3cc1 5dbd c211 fcbd
00000110: d06c 66bd e5f8 3dbd 4b52 e23c 05d4 60bd
00000120: ccc7 503b 5b08 f03d e679 41be a7c5 13be
00000130: 2978 b4bd e135 a5bd 883d 093e 361e 633e
00000140: fd95 10be f730 f83d 6100 8d3d a519 16be
00000150: 382f 51be 6cb1 863d d3a8 1fbe 31a3 febc
00000160: ce44 473c 7010 81bd bece 203e 940b 50bc
00000170: f982 603a ac43 0d3e 0b58 7fbe b219 d4bb
00000180: 4157 383e abbe 29be faae 5b3e 5d1f 213e
00000190: 919d 263d e765 453d 04e9 583e e09d 423c
000001a0: a99c 4fbc 8ce0 9b3e d0e7 c8bd 7277 ee3e
000001b0: bd7c aa3c 6f40 8b3d 6329 1c3e 362d 3cbe
000001c0: b5c3 48be 1e13 083e f117 793d 3fc5 983a
000001d0: ecbf ed3c c7d8 513e 3197 90bd efbd 303d
000001e0: 0213 ea3d a78e 60bd 0c7a 093e 931f a33d
000001f0: 6d3d 58be b40b 10be 22f4 693d b5b4 c93d
00000200: 7ed6 10bd 2bd6 eebd 28c1 083e b36d 25be
00000210: 595a 363d 7199 163e 41a3 57be 0aba 87be
00000220: 5a11 dc3e 8e4f 31be c33f 9ebd 6266 bdbd
00000230: 3712 553e 9d64 b5ba cf37 21be 62f7 873c
00000240: a8df b3bd 0910 643e fb83 90be c09a cf3d
00000250: d04f 273e a9eb 1dbd d67f 41be d1ba 2ebe
00000260: 8a2e 52bd 1db6 d83d 3cc7 563d ec0a df3d
00000270: fed9 bbbd 5b21 533d 9a33 023e 3830 2dbe
00000280: 2515 6cbd 222c 0d3e 792d 9f3d c392 f33d
00000290: 4c10 62bd 76e6 11bd 4099 f83c eea4 da3d
000002a0: 5be0 53bd 4c3d 13be a4f4 dd3d 3bfc 943c
000002b0: 4c2e eebd d8f5 53bc d1ed 41be 48d7 3c3e
000002c0: d7d0 dbbc c955 56bd d242 49be 29d5 cc3d
000002d0: 651e f43c 99a2 3a3e 9685 30be 1403 a4bb
000002e0: 209b 8d3d 4d80 043d 1d47 a1be 9fb4 05be
000002f0: b671 b8bd b874 8bbd f9e2 8bbe 6155 983d
00000300: cf39 a7bd d282 0b3e dcb1 dd3d 70c1 d33c
00000310: 2ec8 f4bd 4bef b9bd 8841 02bd a176 fbbc
00000320: c537 233d e6cf f93d 6dcc d3bd 45cc 72bc
00000330: cbce 933d fdd9 80bd a782 2a3d 9b7c f43d
00000340: a805 4abe ac39 e7bc 9290 433e 65c9 493e
00000350: 0160 643e 0f08 c9bd 891e 3fbd 9636 28be
00000360: b927 3f3e 9547 c43d 20eb d5bd d865 b43d
00000370: cf2a 27be dcad 473e ea29 633e 4a7a 293d
00000380: 671f cebd 3b1f 823c 1131 2cbe 0adf 4cbe
00000390: e062 8bbe 614f 913d b467 78bd 7dfc 56be
000003a0: 345a f53d a0eb a43e 0e3b d8bb 3502 b53d
000003b0: 5d8d aa3d d6b8 6bbd c432 693d e252 c4bd
000003c0: 9a68 16bd 46e2 ebbd f096 edbd 0840 653d
000003d0: 65d4 59bc 3e42 eabc 4063 babe 22e7 afbe
000003e0: e7a0 5d3d ee1e 0bbd 9003 86bd e22b 013b
000003f0: fab9 b53e 5cff ed3d a4aa 873d ed5a 00be
-0.2193131 -0.1662695 0.03452429 -0.07446893 0.29920805 -0.19179253 0.3204763 -0.06487113
0.11134731 0.001222527 -0.048372637 0.12726913 -0.12028627 -0.08013186 0.006115477 -0.11851334
-0.29142478 -0.25370452 0.10326336 0.035513695 0.04030222 -0.15976077 0.18340765 -0.105068855
-0.33221474 0.060708765 -0.2162006 -0.09231881 0.09249168 0.25357792 -0.07312444 -0.07857485
-0.20068467 -0.17732628 -0.21454509 0.18615909 -0.08233752 0.0094290525 -0.011094879 0.22341341
0.095602 0.016213428 -0.028280629 -0.08947665 -0.05985228 -0.25211293 -0.16241123 -0.09147449
0.23458321 -0.27616832 0.18433166 -0.3440469 -0.24048015 -0.016569465 0.033396028 -0.18842328
0.056123473 -0.13567194 0.033877335 -0.10369824 -0.19840246 -0.14473066 0.12018682 0.031286336
0.027560974 -0.032579795 -0.05413936 -0.123080745 -0.056256115 -0.046379942 0.027627131 -0.054889698
0.003185737 0.11720344 -0.18894157 -0.14430867 -0.08811981 -0.08066917 0.13402379 0.22179493
-0.14119716 0.12118714 0.06884838 -0.1465822 -0.20428169 0.06576809 -0.15591745 -0.031083675
0.0121624 -0.06301963 0.15703866 -0.012698073 0.00085644383 0.13795346 -0.2493593 -0.0064727897
0.18002035 -0.1657664 0.21453467 0.1573462 0.04067761 0.048192885 0.21182638 0.011878461
-0.012671628 0.30444753 -0.0980984 0.46575505 0.020811433 0.06799399 0.15250163 -0.18376622
-0.19605906 0.13288543 0.060813848 0.0011655464 0.02902218 0.2049285 -0.070600875 0.043149885
0.11429407 -0.054823544 0.13425463 0.07965007 -0.21117182 -0.14066964 0.05711759 0.0984892
-0.035360806 -0.11661943 0.13354933 -0.16155128 0.044519756 0.14706971 -0.2105837 -0.26509124
0.42981988 -0.17315504 -0.07727005 -0.092480436 0.2080773 -0.0013839189 -0.15743946 0.016597454
-0.087828934 0.22271742 -0.28225693 0.10136938 0.1633904 -0.03855482 -0.18896422 -0.17063452
-0.051313914 0.1058161 0.0524361 0.10890755 -0.09172438 0.051545482 0.12714997 -0.16912925
-0.057637352 0.13786367 0.07772345 0.11893227 -0.055191323 -0.035620175 0.030346513 0.10675989
-0.051727634 -0.14378852 0.10837677 0.01818668 -0.11629924 -0.012937032 -0.18938376 0.18441498
-0.026832981 -0.052327905 -0.19654396 0.100015946 0.02979965 0.18226089 -0.17238459 -0.0050052498
0.06914353 0.03234892 -0.31499568 -0.13057183 -0.09006064 -0.06809372 -0.27321604 0.0743816
-0.08165323 0.13624123 0.108249396 0.025849074 -0.11952244 -0.09078845 -0.031800777 -0.030696215
0.039848108 0.121978566 -0.103417255 -0.014819209 0.07217177 -0.06291578 0.041628506 0.11937829
-0.1972872 -0.028225742 0.19098118 0.19705732 0.22302248 -0.0981599 -0.04665998 -0.16427073
0.18667497 0.09583966 -0.10445237 0.08808488 -0.16324924 0.19499916 0.22183958 0.04137639
-0.10064583 0.015884032 -0.16815592 -0.20006958 -0.27223873 0.070952184 -0.060645774 -0.20994754
0.119800955 0.32211018 -0.0065988367 0.088383116 0.08327744 -0.05754932 0.05693318 -0.09586121
-0.03672085 -0.115177676 -0.11601055 0.055969268 -0.013295268 -0.02859604 -0.36403847 -0.34356028
0.054108527 -0.033965044 -0.06543648 0.0019709994 0.3549345 0.116209716 0.06624344 -0.12534685

hidden.bias f4 [32]
00000000: 92ea 28bc dab6 a63c e9ab 923c f165 703c
00000010: ddb1 c3bc bb65 82bc ca97 343d 9ad6 d3bb
00000020: 5dab ef3c b3bd c1bc 7f90 f1bb 5b62 da3c
00000030: 3204 e9bc 2620 8a3d 42a1 8c3c 07bd 4e3c
00000040: 860f bb3b f862 303d e6c3 43ba 896c c6bb
00000050: 6a98 f33c bb94 f8bc 4942 0bbd d491 8dbc
00000060: bb4c 91bb 69dd 44bd 1059 29bb a31d 4fbc
00000070: 9214 0bbc 43bd 003d 7206 b23c 4110 cebc
-0.010309832 0.020350862 0.017904239 0.014672742 -0.023888523 -0.01591765 0.04409007 -0.0064647915
0.029256517 -0.023650026 -0.0073719616 0.026658228 -0.028444383 0.06744413 0.017166737 0.01261831
0.0057086376 0.043063134 -0.0007467851 -0.006055419 0.029735763 -0.030344358 -0.03399876 -0.01728145
-0.004434196 -0.048062716 -0.002584044 -0.012641343 -0.008488791 0.031430494 0.021731589 -0.025154235

mu_layer.weight f4 [2, 32]
00000000: d1fd 71bd dd1f 2e3e f66e bf3e 1d00 c7bd
00000010: 7622 a73d 6aed abbe 046f bd3e d7b7 b9be
00000020: 08fd 97bd 245d 29be d5aa a63e f7ae 8cbe
00000030: b3d8 963e e43a d0bc 35c0 14be 92a1 873d
00000040: d445 8abe 3c86 f0bd bf69 493d 922b 973e
00000050: 7a02 873e 794f 2fbe 04dd e53e 6501 d0be
00000060: e3ae 71bc b0dc a23e 7e8f 513e 4ff3 33bd
00000070: 9d26 333f 5822 933d 9b92 853e da95 ef3e
00000080: 85af 573f 207d a7bd 3986 8f3e 5168 3b3e
00000090: ae67 a43e 8007 16bb 6f9e bfbe cdb2 c73e
000000a0: 6194 76be 7e5b 98be 293a 0fbf 6b05 963e
000000b0: 2df0 c03d 08cd 323e a2a6 abbe 4d91 55be
000000c0: 641e 033e ed1a 02bd db36 e73e a3ee 1fbe
000000d0: 49ee 98be 2500 8dbd 16d4 693e b98c 2f3e
000000e0: 22df 3a3e f21f ccbd fe73 b3bd 95cf 033f
000000f0: 9f38 0cbd e1c9 f43e 207a a33e b7d7 db3e
-0.05907995 0.17004342 0.37389344 -0.097168185 0.0816087 -0.3357957 0.3699876 -0.3627307
-0.07421309 -0.16539437 0.3255221 -0.27477238 0.29462203 -0.025418706 -0.14526446 0.06622614
-0.270064 -0.11744353 0.049173113 0.2952543 0.26369077 -0.1712016 0.44895184 -0.40626064
-0.014751169 0.31808996 0.20464894 -0.04393321 0.69980794 0.07184285 0.26088414 0.46794015
0.84252197 -0.081781626 0.2803209 0.18301512 0.3211035 -0.0022892654 -0.37425563 0.39003602
-0.2408004 -0.29757303 -0.5594812 0.2930101 0.0942081 0.17461026 -0.33525568 -0.20856209
0.12804562 -0.03176396 0.4515904 -0.15618376 -0.29869297 -0.06884793 0.2283481 0.17143525
0.18249181 -0.099670306 -0.08762358 0.5148862 -0.034233686 0.4781027 0.3192911 0.42938015

mu_layer.bias f4 [2]
00000000: bcd3 e7bb 5952 f4bc
-0.0070748013 -0.029824423

log_std_layer.weight f4 [2, 32]
00000000: 6b18 d6bd 7bd7 a0be 0b31 233d d0a7 353e
00000010: 8c8b 1d3f 69e0 873e 5e70 d53d fba8 433e
00000020: b744 aabe 3377 8d3e b550 28bf 2b5d 293b
00000030: 8393 32be e33f c2be fe7d e83e 6e51 10be
00000040: 9ab7 e8bd 4a91 efbe 89d8 e03c 75e5 a93e
00000050: a385 95be 7355 f03d e9c4 953e fc89 b83d
00000060: 8a8c 09bf 2bb6 f53c 49b0 b53e 1c9e 113f
00000070: 7514 b73e 1a9b 913e c205 96be d7d5 163c
00000080: 9f01 003e 3475 963e 632d c23e 3ad7 0ebf
00000090: b243 8b3d 0274 903d b94d 533e 9dfc a43e
000000a0: 65aa 7cbe 25f7 89bd 2ec0 02bb 23b8 573e
000000b0: 28d1 973e ebcf 44be f06d 423f 92d8 19bc
000000c0: 5da8 a53e 027d 5e3d 111f 40be efbb 12bd
000000d0: 81fd a03b 1703 2d3e 6165 cc3e b81b 3c3e
000000e0: aade c6bc 2aa3 7d3e 3962 3cbf 7fa1 f83e
000000f0: 5905 ab3e 16f2 b9be 2909 c4be 7d60 a33d
-0.10453876 -0.314144 0.039841693 0.17739797 0.61541057 0.265384 0.10421823 0.1910743
-0.3325555 0.27630004 -0.6574815 0.0025842886 -0.17439084 -0.37939367 0.45408624 -0.14093563
-0.11363144 -0.46790534 0.027447002 0.33182874 -0.2920352 0.11735048 0.29251793 0.090106934
-0.5373007 0.029994091 0.35486057 0.5688188 0.35757795 0.28438646 -0.29301268 0.009206257
0.12500618 0.29386294 0.37925252 -0.5579716 0.06800021 0.07053377 0.20635118 0.3222398
-0.24674375 -0.06736592 -0.0019950974 0.21066336 0.2965176 -0.1921994 0.75949 -0.009390013
0.32355013 0.054318435 -0.18761851 -0.03582376 0.0049130325 0.1689571 0.39921096 0.18369949
-0.024276096 0.24769273 -0.73587376 0.48560712 0.33402517 -0.3631751 -0.3828824 0.07977388

log_std_layer.bias f4 [2]
00000000: 416b 84bd 92d8 4ebd
-0.064657696 -0.050499506
