train_history/olympics-running/11_24_23_53/critic.pth (torch, 47330 bytes, 11 tensors)

encoder.0.weight f4 [8, 4, 3, 3]
0.02848641 0.013567985 -0.12481607 0.24313307 0.12199001 0.051956933 0.035464432 0.010713669
-0.007898684 0.13254657 0.45756385 0.7398404 0.3463148 0.08866835 0.17093651 -0.38761404
-0.5871159 -0.592819 0.14466587 -0.044215564 0.13291238 0.00021955607 0.3641419 -0.026980497
-0.24397461 -0.53024304 -0.19956462 0.09885642 -1.9815868 -0.67503506 0.1385757 2.70956
0.4745903 -0.24110654 -1.6582984 0.7306423 -0.019726248 -0.21903281 0.07699048 -0.12543644
0.035590712 -0.5567623 -0.00014016128 0.35416037 0.108542785 -0.7053428 -0.21378624 -0.07548011
0.63667715 -0.15595725 -0.643728 -0.13338256 0.9419766 0.067985974 -0.17779352 -0.06253971
-0.26362136 0.033793334 -0.15756592 -0.311796 -0.1998705 -0.11528985 -0.41547316 0.55546206
-0.17762749 -1.5006468 1.7035946 0.5075611 -2.2700984 0.6340815 2.6766255 -0.10629884
-0.1390084 0.1228155 -0.22831386 -0.11181278 0.3176994 0.54776716 -0.7165684 -0.7652416
-0.039732087 -0.50936043 -0.20386276 -0.20330398 0.93802685 0.18358082 0.30227786 -0.98313975
0.5268615 -0.6774764 -0.035931934 -1.0008936 -0.98696876 0.56725 1.649504 -0.12591572
0.2421055 0.10869247 0.4207398 -0.59785306 -1.4130094 -0.21413195 -0.27221078 -0.18669857
-1.3350632 0.0688156 -0.7109451 -0.538292 0.5164643 -0.054650474 0.09684074 -0.1617484
0.5614361 -0.8187806 0.5340479 0.6419715 0.6826543 -0.65132284 -0.4979097 -0.15766844
-0.5416278 -1.162446 -0.27438894 -0.7042784 -0.07958701 -0.33128503 0.34919545 0.021903418
-0.124750294 0.6399215 -0.03475634 0.39336032 -0.22626515 0.5206456 -0.15690659 -0.19029386
-0.9433184 -2.6231713 -0.1589934 0.9574345 0.066957496 0.006858412 -0.9343045 0.09703471
-0.2895332 0.06751471 0.07456712 -0.024095679 -0.12217933 0.055482212 0.22004348 0.26926652
0.26678818 -0.42559034 -0.30320865 -0.23735265 0.29376325 0.42554674 0.46354717 0.062592745
0.147706 -0.010916548 -0.06506932 0.2328742 0.1431473 -0.19235486 -0.06599161 0.060549803
0.5971591 0.15839645 0.0858696 0.65056515 2.4108756 0.4400885 0.107142605 -1.9253525
-1.2918687 -1.420131 -0.6135071 -0.6150355 0.8899321 0.58281326 0.43897337 0.1773631
0.5814942 0.6352247 -0.29250288 0.45559496 0.40561998 -0.1881472 0.34248886 0.49646333
-0.019940082 0.30101684 0.46831006 -0.2287768 0.23641971 0.65165824 -0.18797737 0.46392265
0.5938794 0.52032614 0.6025109 0.4339771 0.039766293 0.36807063 0.7113623 0.95996606
-0.009507506 0.35513315 0.64728945 0.56511706 0.66896087 0.0396466 0.39791077 1.0240812
0.080960386 0.15363865 0.034553494 0.024019836 0.087265275 0.07501889 0.07403077 -0.1678545
-0.14643265 0.26097375 0.07717826 -0.08743158 0.06735901 0.6193185 0.43050382 0.017375108
-0.25845274 -0.3150306 0.7920598 0.1446928 -0.031522293 1.259381 1.0871049 0.36167347
0.07282118 1.183238 1.5063236 7.760924e-05 0.4582023 1.1097684 0.49879703 1.0561544
1.0763944 0.7202996 1.7167238 0.9589411 -0.55455863 -0.46635923 -0.8125116 0.48838726
00000000: 555c e93c 414c 5e3c 919f ffbd e0f7 783e
00000010: e6d5 f93d cbd0 543d 2743 113d 6288 2f3c
00000020: 7b69 01bc 4aba 073e cf45 ea3e 2e66 3d3f
00000030: 2c50 b13e c097 b53d fb09 2f3e 5975 c6be
00000040: 3a4d 16bf fcc2 17bf 4a23 143e 611b 35bd
00000050: 2f1a 083e a238 6639 cf70 ba3e 3406 ddbc
00000060: 7bd4 79be 02be 07bf ab5a 4cbe 3c75 ca3d
00000070: a3a4 fdbf 19cf 2cbf cae6 0d3e 6e69 2d40
00000080: 80fd f23e a2e4 76be 1f43 d4bf 600b 3b3f
00000090: f198 a1bc 234a 60be 2fad 9d3d 6972 00be
000000a0: 91c7 113d f987 0ebf 42f8 12b9 8254 b53e
000000b0: ae4b de3d 5991 34bf c8ea 5abe 5195 9abd
000000c0: 46fd 223f 42b3 1fbe 5ccb 24bf 7095 08be
000000d0: 6125 713f 3b3c 8b3d 810f 36be d214 80bd
000000e0: 61f9 86be e16a 0a3d f658 21be baa3 9fbe
000000f0: daaa 4cbe 161d ecbd e6b8 d4be c332 0e3f
00000100: fbe3 35be 3215 c0bf 630f da3f 86ef 013f
00000110: 4b49 11c0 2a53 223f d54d 2b40 35b3 d9bd
00000120: 3858 0ebe b186 fb3d 1ccb 69be 19fe e4bd
00000130: 7fa9 a23e 783a 0c3f 0771 37bf e0e6 43bf
00000140: 1dbe 22bd 7265 02bf 66c1 50be eb2e 50be
00000150: 8722 703f 9cfc 3b3e 2ac4 9a3e 0caf 7bbf
00000160: 65e0 063f 186f 2dbf 5d2d 13bd 481d 80bf
00000170: fca9 7cbf 4c37 113f f222 d33f 0df0 00be
00000180: 81ea 773e 289a de3d 356b d73e e60c 19bf
00000190: 7edd b4bf 6845 5bbe 365f 8bbe e92d 3fbe
000001a0: 5ae3 aabf 31ef 8c3d 8000 36bf 81cd 09bf
000001b0: 0137 043f 2dd9 5fbd 7054 c63d 5fa1 25be
000001c0: 47ba 0f3f 9b9b 51bf 5db7 083f 3f58 243f
000001d0: 6fc2 2e3f 18bd 26bf 05ee febe d673 21be
000001e0: 1fa8 0abf 08cb 94bf b57c 8cbe 974b 34bf
000001f0: 84fe a2bd 319e a9be bfc9 b23e cc6e b33c
00000200: 157d ffbd e5d1 233f aa5c 0ebd 8666 c93e
00000210: 0db2 67be 0849 053f 1fac 20be 65dc 42be
00000220: 517d 71bf 0ae2 27c0 2acf 22be 6d1a 753f
00000230: 0321 893d 88bc e03b 942e 6fbf 22ba c63d
00000240: b23d 94be 2745 8a3d a5b6 983d 4d64 c5bc
00000250: 2839 fabd 5141 633d 1453 613e 4ddd 893e
00000260: 7698 883e fae6 d9be 2a3e 9bbe 930c 73be
00000270: 2368 963e 43e1 d93e 0e56 ed3e a030 803d
00000280: 3e40 173e 52db 32bc 1043 85bd 9376 6e3e
00000290: 3595 123e acf8 44be 9c26 87bd 1203 783d
000002a0: 6bdf 183f ae32 223e 67dc af3d 708b 263f
000002b0: c94b 1a40 4853 e13e 956d db3d f371 f6bf
000002c0: f45b a5bf dac6 b5bf cd0e 1dbf f772 1dbf
000002d0: 97d2 633f 4033 153f 1ec1 e03e ac9e 353e
000002e0: cedc 143f 169e 223f f0c2 95be be43 e93e
000002f0: 6cad cf3e a9a9 40be b35a af3e 7130 fe3e
00000300: 6259 a3bc e11e 9a3e 56c6 ef3e 7744 6abe
00000310: 0218 723e 13d3 263f 247d 40be 4587 ed3e
00000320: 7b08 183f 1834 053f 283e 1a3f 3f32 de3e
00000330: fbe1 223d c173 bc3e d71b 363f 56c0 753f
00000340: 5fc5 1bbc 03d4 b53e c3b4 253f 83ab 103f
00000350: 0541 2b3f 7964 223d f6ba cb3e 1815 833f
00000360: 8fce a53d 7353 1d3e f787 0d3d 3fc5 c43c
00000370: 23b8 b23d 81a3 993d 729d 973d 0de2 2bbe
00000380: 71f2 15be 5a9e 853e a30f 9e3d 540f b3bd
00000390: 85f3 893d a88b 1e3f ff6a dc3e 3e56 8e3c
000003a0: eb53 84be b14b a1be 6ec4 4a3f 592a 143e
000003b0: 851d 01bd 6633 a13f 4126 8b3f 442d b93e
000003c0: 4523 953d 5874 973f 36cf c03f 25c2 a238
000003d0: 7e99 ea3e e40c 8e3f 5362 ff3e 1130 873f
000003e0: 4bc7 893f 8e65 383f 9bbd db3f 2a7d 753f
000003f0: 8ef7 0dbf a3c6 eebe c300 50bf e50d fa3e

encoder.0.bias f4 [8]
-0.01690543 0.011259246 0.025971735 0.021335581 0.002746213 0.5498109 -0.17257681 0.0036560202
00000000: 427d 8abc b378 383c adc2 d43c f5c7 ae3c
00000010: cff9 333b 68c0 0c3f fab7 30be d799 6f3b

encoder.3.weight f4 [8, 8, 3, 3]
-0.531766 -0.09035315 0.35208926 -1.3537881 -0.29210693 0.14287814 -0.68055105 -0.23735037
0.06149021 0.24680175 -0.23782253 -0.053015493 -0.33712447 6.7694964e-06 0.57804126 -0.84022796
-0.27044332 0.7353281 -1.262713 -0.7848685 0.17049374 -0.85702354 -0.23120019 0.38313243
-1.2670625 -0.37450287 0.27699053 0.362527 -0.66835946 0.26325104 0.16205938 -0.5350199
0.07710257 -0.22972268 -0.2764776 0.5236152 -0.93854725 -0.3870668 -0.10820269 -0.4770298
-0.40685618 0.47936237 -1.0117213 -1.0997579 -0.007581749 0.4030671 0.36634105 0.62154084
-0.29000032 0.06155676 0.33787388 -0.01199082 0.29724845 0.4363028 -0.24452016 0.07247275
0.8259561 -0.8551547 0.107957706 0.54014564 -0.47718558 0.13314459 0.7907542 -1.0650452
-0.75119907 0.24318512 -1.731927 -0.7490403 0.18426286 -1.4537442 -0.5868156 0.46063372
0.3003279 0.9273724 1.4830039 -0.45229748 -0.074659266 0.2661871 -0.35762706 -0.8631744
-0.36831173 -0.060046576 0.5501644 1.2474517 -0.15314582 0.094512954 -0.17652063 0.5837516
-0.062404748 -1.0312409 0.16148905 0.2487408 0.17209089 0.5678851 0.11540927 0.21675375
0.9776531 0.91676635 1.3151788 -0.12116487 0.515678 0.86007977 0.44774905 0.5048553
0.6721099 0.82368606 0.8889353 0.54114044 0.26471063 -0.16692689 0.051294003 0.22935162
-0.43302757 0.17027538 0.29871735 0.12422975 0.5720422 -0.17477825 -0.4239148 0.26684466
0.0513272 -0.053706996 -0.017252153 -0.09914181 -0.1965232 -0.3031303 -0.23476455 -0.039347284
-0.0837471 -0.17039753 0.08980154 0.02799156 -0.45074505 -0.4685497 -0.7925725 0.1702386
0.0027402607 0.16402894 0.36674756 0.34025836 0.020450026 1.1776611 1.0620687 0.83551174
-0.63737047 -1.3121431 -1.1744584 0.64293414 -0.44239995 -0.5484631 1.5043781 0.2408423
-1.7222843 -0.3375224 0.26994205 0.59994656 0.58083075 0.4120934 0.6118857 0.80726665
1.1163445 0.966499 1.3879896 0.54673123 -0.92508185 1.6105185 0.98967916 -0.85720867
1.8494604 1.5693855 0.3718548 0.8592885 1.0295435 0.6380716 -0.30036137 -0.08689893
-0.2688213 0.02577903 0.26687166 -0.17785329 0.37123746 -0.0141228605 -2.0407088 0.92855227
0.5970883 -0.6666008 0.3918726 -0.22165318 -1.4405769 -0.3893604 -0.3952163 -0.5205548
0.6562143 0.19487762 -0.5327389 0.58538395 0.548806 0.06552814 0.2858736 -0.6247701
-1.1533531 1.3495936 0.3317334 -0.47478446 0.9501248 0.8642623 0.35995448 0.2716103
-0.35190257 -1.2087419 1.2497611 0.51535404 -0.43730915 1.5301158 1.3963952 0.30336562
0.8818263 1.2166617 2.122876 0.06146247 -0.55223167 0.7442924 0.9557187 0.835114
1.6996865 -0.17016125 0.21614978 0.28654584 -0.0051830295 -0.237981 0.32438013 1.0713288
-0.15064384 0.32910693 0.84257466 0.68900156 0.8521372 0.27165055 -0.5729667 -0.073427275
1.4424343 -0.05341371 0.69740355 0.7711739 0.67307824 0.94522595 0.15544415 -0.26099542
-0.4248914 0.5696034 -0.005912725 0.124091856 1.2188416 2.681037 3.6391134 -1.0059595
00000000: d121 08bf 130b b9bd 0b45 b43e ee48 adbf
00000010: 0a8f 95be a64e 123e 9838 2ebf fa0b 73be
00000020: 29dd 7b3d 99b9 7c3e c087 73be c626 59bd
00000030: 949b acbe 8825 e336 83fa 133f 2e19 57bf
00000040: 8c77 8abe 763e 3c3f 94a0 a1bf 24ed 48bf
00000050: e995 2e3e e565 5bbf bebf 6cbe ef29 c43e
00000060: 1b2f a2bf d7be bfbe b4d1 8d3e 249d b93e
00000070: 9b19 2bbf d7c8 863e e5f2 253e 10f7 08bf
00000080: f4e7 9d3d 6c3c 6bbe 798e 8dbe a50b 063f
00000090: a244 70bf 9f2d c6be 5f99 ddbd 403d f4be
000000a0: 744f d0be fc6e f53e 1580 81bf dec4 8cbf
000000b0: 5270 f8bb d05e ce3e 0e91 bb3e 4d1d 1f3f
000000c0: ec7a 94be f122 7c3d cefd ac3e 2575 44bc
000000d0: f330 983e 1563 df3e 7e63 7abe 986c 943d
000000e0: dc71 533f 6beb 5abf ee18 dd3d fc46 0a3f
000000f0: ab51 f4be 0e57 083e de6e 4a3f 6753 88bf
00000100: 954e 40bf 8505 793e c9af ddbf 1bc1 3fbf
00000110: 67af 3c3e 4a14 babf 8c39 16bf 2fd8 eb3e
00000120: 94c4 993e 4768 6d3f 12d3 bd3f 8993 e7be
00000130: f5e6 98bd ad49 883e e51a b7be fff8 5cbf
00000140: 5b93 bcbe 66f3 75bd 93d7 0c3f 7fac 9f3f
00000150: 42d2 1cbe 0290 c13d d3c1 34be bf70 153f
00000160: 1f9c 7fbd b4ff 83bf 635d 253e e9b5 7e3e
00000170: 9838 303e eb60 113f b25b ec3d b2f4 5d3e
00000180: 7947 7a3f 33b1 6a3f c757 a83f 4a25 f8bd
00000190: 7903 043f 302e 5c3f 5d3f e53e 323e 013f
000001a0: 650f 2c3f 17dd 523f 4491 633f 2e88 0a3f
000001b0: 2788 873e e2ee 2abe a919 523d 27db 6a3e
000001c0: cab5 ddbe ab5c 2e3e 7bf1 983e 2b6c fe3d
000001d0: 5c71 123f 12f9 32be 5c0b d9be dd9f 883e
000001e0: 783c 523d defb 5bbd 6354 8dbc dc0a cbbd
000001f0: 613d 49be e533 9bbe 1e66 70be 9e2a 21bd
00000200: 9983 abbd b17c 2ebe dfe9 b73d 8e4e e53c
00000210: 0ec8 e6be bfe5 efbe 08e6 4abf 0753 2e3e
00000220: f295 333b 34f7 273e 56c6 bb3e 5836 ae3e
00000230: d086 a73c 99bd 963f def1 873f 19e4 553f
00000240: b62a 23bf 4ef4 a7bf a754 96bf 5597 243f
00000250: 3f82 e2be 1468 0cbf 768f c03f 5d9f 763e
00000260: d073 dcbf bccf acbe d835 8a3e 1996 193f
00000270: 53b1 143f e8fd d23e 8ba4 1c3f 07a9 4e3f
00000280: 60e4 8e3f 7a6c 773f a5a9 b13f 94f6 0b3f
00000290: 2ad2 6cbf 7825 ce3f 9d5b 7d3f 0772 5bbf
000002a0: 1ebb ec3f a0e1 c83f c163 be3e 55fa 5b3f
000002b0: 15c8 833f a958 233f f7c8 99be 11f8 b1bd
000002c0: f2a2 89be 8b2e d33c 67a3 883e 2c1f 36be
000002d0: d612 be3e 9263 67bc f99a 02c0 9ab5 6d3f
000002e0: c7da 183f 5aa6 2abf 87a3 c83e 0df9 62be
000002f0: d364 b8bf 3f5a c7be ca59 cabe 1443 05bf
00000300: a9fd 273f 008e 473e 9461 08bf b9db 153f
00000310: 8d7e 0c3f 9e33 863d 065e 923e eff0 1fbf
00000320: 13a1 93bf 7cbf ac3f f6d8 a93e f316 f3be
00000330: 613b 733f 4b40 5d3f f44b b83e 8110 8b3e
00000340: 932c b4be 0eb8 9abf 2cf8 9f3f 3eee 033f
00000350: fce6 dfbe d6da c33f 14bd b23f bd52 9b3e
00000360: 5ebf 613f 92bb 9b3f 33dd 0740 12c0 7b3d
00000370: 0e5f 0dbf f289 3e3f fba9 743f 08ca 553f
00000380: 548f d93f c03e 2ebe 5e56 5d3e 23b6 923e
00000390: 67d6 a9bb 4bb1 73be 2715 a63e 4d21 893f
000003a0: 6142 1abe b480 a83e f9b2 573f 6862 303f
000003b0: aa25 5a3f c815 8b3e f2ad 12bf 0a61 96bd
000003c0: b0a1 b83f 56c8 5abd 0a89 323f a76b 453f
000003d0: db4e 2c3f 54fa 713f c02c 1f3e 31a1 85be
000003e0: 5e8b d9be 87d1 113f 88bf c1bb df23 fe3d
000003f0: 0003 9c3f 1c96 2b40 3ce7 6840 48c3 80bf

encoder.3.bias f4 [8]
2.6311882 0.04154039 -0.29290196 -2.4438097 -0.6330835 -0.06929555 -0.435236 -0.4632819
00000000: 6365 2840 4226 2a3d 3ff7 95be 6167 1cc0
00000010: c311 22bf d3ea 8dbd 41d7 debe 4933 edbe

cnn_net.0.weight f4 [16, 8, 3, 3]
0.44781765 -0.66165394 -0.9822685 0.27232146 -0.33219427 -0.9199376 0.7625246 0.011561403
-2.7620497 0.5040381 0.5117973 0.62904507 -1.1484814 -0.008435998 0.37289885 -0.44042823
0.498114 0.35707548 -0.020552622 -0.018021919 0.34894806 -0.067111515 0.18010423 0.2627294
-0.5472313 -0.6807953 -0.32541475 0.17780094 0.6641178 0.6212406 -0.07041013 -0.15393773
0.04042983 -0.3056104 0.13284431 -0.17337003 -0.25281897 -0.20698446 0.13051932 -0.2858295
0.07660207 0.09082011 -0.28845564 0.37477416 -0.37133372 0.84775347 1.1497871 1.2476895
0.83221346 1.285861 1.0227525 0.36310303 0.5285715 0.5804431 0.658559 -0.19514455
-0.34030595 0.09066392 0.28369126 0.56864935 0.5775701 0.1226437 0.4880952 -0.1161868
-0.24101214 0.13206707 -0.081652455 0.16517949 0.4054542 -0.10612994 -0.20923671 -0.5427207
0.47996727 0.04806523 0.1976221 0.4740026 -0.40143028 0.22902746 0.3552511 0.14028583
0.56379926 -0.15776978 0.33697328 0.843652 0.37994552 0.48553595 3.32318 0.14342393
-0.40129912 0.98122 -0.34903538 -0.14025345 0.10229694 0.49902388 -0.84147346 -0.21731725
0.47008225 -0.9399457 -0.9243087 -0.3219593 -0.16023256 -0.46225137 0.2311183 -0.11446942
0.60544854 -0.64298403 -0.8967031 -0.17890257 -0.1114951 -0.32227626 -0.3294263 0.3628904
-0.3265163 0.16508672 0.6361632 0.09592021 0.086501546 -0.18334442 -1.003999 0.3093068
2.3263829 0.96993 1.8325287 0.45216697 0.64499944 0.36729282 0.70858556 0.37862536
-0.1913777 1.120831 0.3326947 0.9109495 0.2449187 -0.26425305 0.020600548 -0.5150844
-0.44039205 -0.27841213 0.12969196 -0.427908 1.1222885 -0.19197679 -0.44202662 -0.09644919
0.3741532 -0.16117315 0.387564 -0.75190943 -1.3786465 -0.2621916 -1.0651314 -0.20573616
-1.2333305 0.545151 0.29397237 0.73190063 0.14049342 -0.2461527 0.19114369 -0.10996342
-0.13154197 0.047803234 0.20445824 -1.0079768 -0.12325585 0.41293216 0.31821656 0.16429499
-0.156303 0.20302668 -0.45679784 0.115978956 0.10343864 0.66859055 0.90038663 0.045414183
0.2373424 -0.2721222 -0.69208276 0.16214584 -0.5106593 -0.29106227 0.19542332 0.67323744
0.30574152 0.050925296 -0.102672234 -0.08883872 0.2377762 0.49152187 0.24155188 -0.0036921084
0.64810526 0.3206721 -0.063229024 0.44574058 0.10815003 0.04127346 0.7455636 0.45684448
0.9474641 0.5381032 0.20130503 0.9088958 0.33178216 -0.4944069 0.7155229 -0.21204233
-0.9999263 -0.0037996983 0.45109648 0.14056967 -0.2630584 -0.43487513 -0.55832356 0.14846681
-1.0288321 -1.4371657 -0.55792093 -1.2469155 -1.5172236 -0.7561084 -0.4708861 -0.52018994
-1.2580751 0.6339761 -0.7646434 -0.94864 0.76461774 0.8607639 0.2738576 -0.79103804
-0.20940483 -0.4038691 0.63722354 0.32033324 -0.577052 0.19655931 0.27248278 -0.15183553
-0.20767158 -0.7351117 -0.7100006 0.15801647 0.077437066 -0.23786767 0.414006 0.20084274
0.36070418 0.2684585 0.29247338 0.43822095 0.28677276 -0.15263578 0.027508289 -0.015327408
00000000: 5b48 e53e 2762 29bf f375 7bbf b86d 8b3e
00000010: 5e15 aabe 0881 6bbf d034 433f 0a6c 3d3c
00000020: 6cc5 30c0 a408 013f 2605 033f 1909 213f
00000030: 7001 93bf 2437 0abc 99ec be3e cf7f e1be
00000040: cc08 ff3e 99d2 b63e f95d a8bc b4a2 93bc
00000050: 52a9 b23e c371 89bd 3e6d 383e 7884 863e
00000060: 5a17 0cbf 9a48 2ebf c39c a6be 7311 363e
00000070: a003 2a3f a009 1f3f 3033 90bd daa1 1dbe
00000080: c099 253d f778 9cbe 5708 083e ea87 31be
00000090: 7d71 81be bcf3 53be dba6 053e 3f58 92be
000000a0: 8ce1 9c3d e5ff b93d 75b0 93be 66e2 bf3e
000000b0: 741f bebe 5f06 593f 392c 933f 4ab4 9f3f
000000c0: f10b 553f 1897 a43f 8ee9 823f a4e8 b93e
000000d0: 7650 073f eb97 143f 5397 283f f9d3 47be
000000e0: 953c aebe 01ae b93d fb3f 913e 0193 113f
000000f0: a2db 133f 9f2c fb3d 9de7 f93e 58f3 edbd
00000100: e3cb 76be 973c 073e 6739 a7bd d024 293e
00000110: b197 cf3e a75a d9bd 2642 56be beef 0abf
00000120: 45be f53e 0ce0 443d 735d 4a3e 78b0 f23e
00000130: 4588 cdbe 2d86 6a3e 79e3 b53e 17a7 0f3e
00000140: 2655 103f 678e 21be c387 ac3e 94f9 573f
00000150: 3888 c23e 2b98 f83e fbae 5440 b9dd 123e
00000160: 1477 cdbe 3c31 7b3f c4b4 b2be 9a9e 0fbe
00000170: 0f81 d13d 0f80 ff3e ce6a 57bf 6a88 5ebe
00000180: 9fae f03e 48a0 70bf 7f9f 6cbf d9d7 a4be
00000190: 0114 24be 36ac ecbe 47aa 6c3e f16e eabd
000001a0: adfe 1a3f 9a9a 24bf 568e 65bf 3c32 37be
000001b0: 8b57 e4bd 6501 a5be 90aa a8be c5cc b93e
000001c0: 252d a7be 7e0c 293e 97db 223f d171 c43d
000001d0: b927 b13d a4be 3bbe 0a83 80bf 765d 9e3e
000001e0: 75e3 1440 554d 783f 4d90 ea3f 6e82 e73e
000001f0: af1e 253f ce0d bc3e dd65 353f 2fdb c13e
00000200: 84f8 43be 6477 8f3f f656 aa3e fd33 693f
00000210: f8cb 7a3e 2d4c 87be 7bc2 a83c 92dc 03bf
00000220: 117b e1be 098c 8ebe f8cd 043e c216 dbbe
00000230: 26a7 8f3f 9095 44be 5051 e2be 2787 c5bd
00000240: 0291 bf3e 930a 25be ca6e c63e 237d 40bf
00000250: 7d77 b0bf fa3d 86be 3a56 88bf 80ac 52be
00000260: c6dd 9dbf 048f 0b3f 8c83 963e d75d 3b3f
00000270: 82dd 0f3e 740f 7cbe 2cbb 433e 8034 e1bd
00000280: f0b2 06be 53cd 433d 805d 513e 6205 81bf
00000290: 906d fcbd d86b d33e 48ed a23e f23c 283e
000002a0: e50d 20be 3ae6 4f3e 68e1 e9be 6086 ed3d
000002b0: a3d7 d33d c028 2b3f bd7f 663f 3904 3a3d
000002c0: e309 733e 9a53 8bbe 562c 31bf 8f09 263e
000002d0: 91ba 02bf 1d06 95be 0d1d 483e 4a59 2c3f
000002e0: 278a 9c3e 0b97 503d d245 d2bd 13f1 b5bd
000002f0: 9b7b 733e c1a8 fb3e 6059 773e 4df7 71bb
00000300: 3aea 253f 222f a43e 387e 81bd 1c38 e43e
00000310: c37d dd3d 5c0e 293d 42dd 3e3f 85e7 e93e
00000320: 028d 723f 22c1 093f e822 4e3e 65ad 683f
00000330: 5adf a93e e722 fdbe 822c 373f a021 59be
00000340: 2cfb 7fbf 5c04 79bb 1ef6 e63e 7ff1 0f3e
00000350: 97af 86be f4a7 debe 4bee 0ebf af07 183e
00000360: c5b0 83bf 0cf5 b7bf e8d3 0ebf ed9a 9fbf
00000370: 6234 c2bf 5290 41bf fc17 f1be 2b2b 05bf
00000380: 9b08 a1bf 424c 223f abbf 43bf 12da 72bf
00000390: fdbd 433f 065b 5c3f 1037 8c3e 7881 4abf
000003a0: 386e 56be eec7 cebe 1521 233f b802 a43e
000003b0: aeb9 13bf d846 493e dd82 8b3e c67a 1bbe
000003c0: dca7 54be 4830 3cbf 99c2 35bf 12cf 213e
000003d0: 5397 9e3d 9593 73be 98f8 d33e b8a9 4d3e
000003e0: 38ae b83e 6473 893e 12bf 953e 7f5e e03e
000003f0: e1d3 923e 8e4c 1cbe 1059 e13c cf1f 7bbc

cnn_net.0.bias f4 [16]
-1.7173731 0.8127582 -0.85923696 -0.67420816 -0.80074006 -0.8955008 -0.61415493 -0.99367684
-0.4543365 -0.9054569 -0.86669713 0.56639487 -0.2575032 -0.41913155 -0.8463474 0.40216497
00000000: e2d2 dbbf ec10 503f f4f6 5bbf e898 2cbf
00000010: 4dfd 4cbf 8a3f 65bf 4239 1dbf 9b61 7ebf
00000020: cb9e e8be 06cc 67bf dddf 5dbf 41ff 103f
00000030: 76d7 83be 6998 d6be 39aa 58bf 91e8 cd3e

cnn_net.3.weight f4 [32, 16, 3, 3]
0.3963239 -0.24799605 -1.1202343 0.760116 1.0058805 -0.8621465 1.6400334 -0.39079905
-0.13948058 -1.4655145 -1.2204254 -1.3399316 0.72831047 0.41574752 -0.09129863 1.1744857
-0.80631226 -1.2121639 0.47603694 -0.50610036 -0.27461714 0.6572581 0.3694991 0.015983418
0.92396516 -0.6872341 -0.12598947 0.2437984 0.1868796 -0.95003176 0.91155773 0.9038465
0.010982366 0.6507831 -0.30374852 -1.1708103 0.003505407 -0.2969608 -0.2031876 0.105027586
-0.18463205 -0.18286353 0.9544963 -0.49333805 -0.4142227 0.37623572 0.48153397 0.072910495
0.3645122 0.27399313 0.040539533 -0.8562627 0.46275002 0.13008684 0.5008123 0.2116502
0.33709705 0.82349735 -0.023796119 0.05857162 0.23840608 0.13833949 0.023904843 0.38801536
1.458295 0.03499101 0.26662394 0.8038755 -0.43711418 -1.3455837 0.48474872 -0.77074546
-0.38331196 0.72898245 -0.33854336 0.21559551 1.0931948 -0.15317985 -0.5518784 0.07125355
-0.26998004 0.9723662 0.5487034 -0.111841924 0.44431993 1.1973871 -0.18505791 0.30108443
-0.106694475 -0.043659985 0.17907701 0.076703176 0.22493152 0.7785891 -0.34399688 0.20420167
0.47370252 -1.6374162 0.37697884 0.1912535 -1.4873059 -0.5976251 0.5380071 0.6652986
-0.29056564 1.6603662 -1.0480257 -0.33469024 0.5836405 0.75330585 0.4025511 0.37123215
0.22812939 -0.030757112 -0.4511365 0.530767 0.23665132 1.2885026 0.05770666 0.25495702
1.864935 0.94280905 0.11355716 1.4948263 -0.22084726 -0.31629968 -0.06483944 0.06200104
-0.05615078 -0.4081331 0.31611198 0.3042644 0.2583293 0.33953232 -0.0835179 -0.741456
-0.08335796 0.17741218 -0.74933845 0.056670666 -0.19827943 -1.1575286 -0.08670825 0.63559055
-0.40327698 -0.54989177 -0.7697684 0.19554241 0.5147329 -0.24215256 -0.25016382 0.36308822
0.21094589 -1.3999268 0.15148482 -0.14193635 0.660977 0.6181098 -0.95339257 -0.25758117
0.42425165 0.107953064 -0.8370666 -0.4289276 0.13693804 0.9746854 0.37653738 -0.1936577
-0.502853 0.0657738 -0.331899 -0.94949114 -0.6208584 0.0386988 -0.25736642 -0.15679169
-0.61448675 -0.23121779 0.284005 -0.14357178 -0.075588904 0.08108441 -0.23622034 0.45580834
0.32384288 -0.76160455 0.040218223 0.009906873 0.13616446 0.21096824 0.13077007 0.106590435
0.32065177 0.11555638 0.18305317 -0.48099598 -0.042205732 0.3917113 -0.14799078 0.09335158
0.32415223 0.013571853 -0.012934316 0.30858934 -0.5152594 -0.42860836 0.34553638 -0.47432503
-0.082240194 0.029697103 0.038898665 0.5726153 -0.25605473 -0.5289015 -0.4081833 0.6329835
0.0010864731 0.06015856 0.06864056 0.40356264 0.17318584 -0.20654899 0.12571491 0.16321084
0.032291226 -0.14888148 0.19568264 0.10267828 0.27844355 0.38369113 0.14444505 -0.6040053
0.18507901 0.65402853 -0.03178566 -0.19156459 -0.19970149 0.27689248 0.12871408 0.027030295
-0.32311773 0.21045591 0.1490473 0.22099684 -0.092358455 -0.24202068 0.13972272 0.7986999
-0.5925747 -0.43878752 0.7181522 -0.34894273 -0.0414993 0.052477878 0.2325424 0.026825836
00000000: f7ea ca3e adf2 7dbe d663 8fbf f696 423f
00000010: b1c0 803f a2b5 5cbf 9dec d13f d016 c8be
00000020: ffd3 0ebe fb95 bbbf e636 9cbf e182 abbf
00000030: 8e72 3a3f dcdc d43e c7fa babd 8c55 963f
00000040: 7b6a 4ebf 3028 9bbf 1dbb f33e cb8f 01bf
00000050: 9e9a 8cbe 1142 283f fc2e bd3e a8ef 823c
00000060: fb88 6c3f 93ee 2fbf 6203 01be 4aa6 793e
00000070: 5e5d 3f3e 4835 73bf d95b 693f 7c62 673f
00000080: 62ef 333c b999 263f ed84 9bbe 1ddd 95bf
00000090: f8ba 653b 3f0b 98be 6910 50be b418 d73d
000000a0: 2f10 3dbe 9440 3bbe df59 743f ce96 fcbe
000000b0: ff14 d4be f8a1 c03e 9f8b f63e 1952 953d
000000c0: 58a1 ba3e d448 8c3e c80c 263d 0834 5bbf
000000d0: 92ed ec3e 7c35 053e 3c35 003f d4ba 583e
000000e0: fc97 ac3e b9d0 523f 14f0 c2bc cce8 6f3d
000000f0: b920 743e dea8 0d3e 17d4 c33c f3a9 c63e
00000100: 69a9 ba3f bc52 0f3d ef82 883e c9ca 4d3f
00000110: 6ecd dfbe 163c acbf fc30 f83e 934f 45bf
00000120: 7741 c4be 989e 3a3f 8e55 adbe 12c5 5c3e
00000130: cfed 8b3f 2edb 1cbe e747 0dbf 62ed 913d
00000140: d33a 8abe feec 783f d377 0c3f 610d e5bd
00000150: e77d e33e fb43 993f d27f 3dbe bd27 9a3e
00000160: a282 dabd d0d4 32bd f75f 373e 8e16 9d3d
00000170: 7354 663e 9e51 473f 5c20 b0be 3e1a 513e
00000180: 2389 f23e db96 d1bf 5f03 c13e f5d7 433e
00000190: 0a60 bebf f5fd 18bf d5ba 093f 0251 2a3f
000001a0: 05c5 94be e186 d43f b525 86bf 855c abbe
000001b0: 7769 153f a7d8 403f 2e1b ce3e 2412 be3e
000001c0: c09a 693e 57f6 fbbc 5dfb e6be 59e0 073f
000001d0: b954 723e a7ed a43f d25d 6c3d ba89 823e
000001e0: 31b6 ee3f ef5b 713f a890 e83d 7856 bf3f
000001f0: c925 62be 08f2 a1be 8aca 84bd cdf4 7d3d
00000200: 5cfe 65bd d2f6 d0be 6ed9 a13e 8bc8 9b3e
00000210: bd43 843e 2ed7 ad3e 6f0b abbd 0fd0 3dbf
00000220: 94b7 aabd 8aab 353e a5d4 3fbf 801f 683d
00000230: c309 4bbe e629 94bf 1894 b1bd 10b6 223f
00000240: 527a cebe b5c5 0cbf 8b0f 45bf 453c 483e
00000250: 89c5 033f d7f6 77be 7915 80be b3e6 b93e
00000260: 3302 583e cd30 b3bf d61e 1b3e c357 11be
00000270: ca35 293f 723c 1e3f 8911 74bf aee1 83be
00000280: 8337 d93e 7f16 dd3d ff49 56bf 669c dbbe
00000290: 7c39 0c3e fb84 793f 82c9 c03e 344e 46be
000002a0: f9ba 00bf 6ab4 863d aaee a9be da11 73bf
000002b0: 93f0 1ebf a282 1e3d 88c5 83be 008e 20be
000002c0: 014f 1dbf 5bc4 6cbe 1a69 913e 7b04 13be
000002d0: 5bce 9abd 950f a63d bfe3 71be b65f e93e
000002e0: bcce a53e 84f8 42bf ddbb 243d 7050 223c
000002f0: b26e 0b3e 0f08 583e 97e8 053e 164c da3d
00000300: 782c a43e d3a8 ec3d 4a72 3b3e 1b45 f6be
00000310: ebdf 2cbd 628e c83e e58a 17be 1d2f bf3d
00000320: 48f7 a53e 7a5c 5e3c 74ea 53bc 6cff 9d3e
00000330: 0ae8 03bf 8e72 dbbe 25ea b03e bbda f2be
00000340: 8c6d a8bd 5747 f33c 3554 1f3d eb96 123f
00000350: 9b19 83be 1766 07bf 67fd d0be 350b 223f
00000360: fd67 8e3a d268 763d 6c93 8c3d c39f ce3e
00000370: a157 313e 9481 53be 69bb 003e be20 273e
00000380: ce43 043d 6374 18be 0861 483e fd48 d23d
00000390: 2790 8e3e 2a73 c43e 67e9 133e 17a0 1abf
000003a0: 5a85 3d3e 6a6e 273f ae31 02bd 8229 44be
000003b0: 8c7e 4cbe dac4 8d3e a0cd 033e a36e dd3c
000003c0: b06f a5be c181 573e db9f 183e ff4c 623e
000003d0: 6e26 bdbd 45d4 77be 7913 0f3e 9977 4c3f
000003e0: fab2 17bf c2a8 e0be d3d8 373f 9fa8 b2be
000003f0: 2cfb 29bd 0bf3 563d 981f 6e3e dbc1 db3c

cnn_net.3.bias f4 [32]
-0.21806389 0.019988835 -0.23723653 -0.3566738 -0.29102936 0.023401648 -0.16272415 -0.45357922
-0.12194223 -0.507564 -0.24807215 -0.62931246 -0.34167483 -0.050477497 -0.1490161 0.2432885
-0.8626532 -0.18187355 -0.28888756 -0.12559126 -0.030179417 0.063624926 -0.16359608 -0.17011589
-0.32134542 -0.24502718 0.052729305 -0.010137407 0.09857673 1.4455779 -0.65672237 -0.02271509
00000000: 244c 5fbe a0bf a33c 22ee 72be f39d b6be
00000010: cd01 95be d0b4 bf3c 29a1 26be 893b e8be
00000020: d9bc f9bd b7ef 01bf a006 7ebe 9f1a 21bf
00000030: 01f0 aebe 7ec1 4ebd ad97 18be 9f20 793e
00000040: d7d6 5cbf 0f3d 3abe 12e9 93be ff9a 00be
00000050: d33a f7bc c94d 823d bb85 27be dc32 2ebe
00000060: 6387 a4be 68e8 7abe affa 573d 5e17 26bc
00000070: 99e2 c93d b208 b93f f51e 28bf ff14 babc

hidden.weight f4 [32, 128]
-0.6643909 -0.1950826 -0.37842575 -0.082528934 -0.098763674 -0.15715294 0.1504055 0.17451592
0.3465719 0.20361818 -0.0074406294 0.38698608 -0.22599426 -0.45701626 0.3419166 0.11734856
-0.7283222 0.024006251 0.6941407 0.6788418 0.12513141 -0.07791905 -0.012468603 0.06460605
-0.5308424 -0.07021124 -0.5592832 -0.19946784 0.49216196 1.2245445 -0.35922286 -0.37890393
-0.10141911 0.9908923 -0.2557097 -1.0851614 0.78899735 1.1243503 -0.23025092 0.8404799
-0.31870013 0.12521768 0.6578266 0.10934212 -1.8066554 0.66222245 0.17851877 0.50910294
0.17044994 -0.6168524 0.1303789 0.5983846 0.13127515 0.2555013 -0.11888188 0.043094624
-0.36385453 -0.29598162 -0.32301053 -1.1275266 -0.6151578 0.14300807 0.022207888 0.20071247
0.35144222 -0.43217394 0.4788747 0.19272128 -0.461538 0.15401563 0.18275636 0.13340813
-1.2411366 0.24150422 -0.42233142 0.0049243686 -0.3953393 -0.06301059 -1.0459615 -0.036664072
0.013269391 -0.03671055 -0.03731591 -0.18031436 0.07721962 0.08264361 0.17624561 0.3431482
-0.035906583 0.35659537 0.38433373 -0.16574031 -0.21162336 -0.7818532 -0.30747634 -0.2306315
0.015850963 0.44469824 0.09487252 -0.021712217 -0.20656857 0.3887677 -0.0464806 0.045801472
-0.20100042 0.8088777 0.18500972 0.13819091 -1.8784764 0.2959657 0.26429883 0.07792553
-0.30848995 0.28133136 -0.0045622974 0.0077070175 1.1425508 0.42037857 0.25993145 -0.23203178
-0.12259518 0.36640882 0.011415083 0.5562067 0.76871943 0.22037156 -1.0601555 0.22800283
-0.06196575 0.0896617 0.003887626 0.0056407265 0.17101505 -0.1662163 0.018600648 0.07898937
-0.05201446 -0.23757677 -0.16635966 -0.3465351 -0.024205817 -0.2490111 -0.08799625 0.17627612
-0.027331198 -0.07421936 0.020080172 -0.26898083 0.054195687 0.009012318 0.11175168 -0.11957602
-0.0991396 0.012492625 -0.10174899 0.14273873 -0.09446812 0.17941232 0.16818714 -0.07814884
-0.012960554 0.107500374 -0.05231251 -0.04428021 0.020580312 0.08554417 0.24338643 -0.017644608
-0.11114063 0.02844909 0.040607188 -0.0065318025 0.15399727 0.03424256 0.069650434 -0.045406196
-0.07674084 -0.05317402 -0.07851674 -0.033139195 -0.40829733 0.14338553 -0.17569554 0.004180785
-0.27817312 -0.027636748 -0.012863584 -0.0154414 -0.064954825 -0.15078248 0.060995344 -0.05181457
0.050542764 -0.057169586 -0.055752367 -0.21224941 -0.084695004 -0.13739124 -0.05778327 0.011168629
-0.014676322 0.051904622 -0.1631583 0.19112961 -0.030884195 0.09169567 0.15260015 0.012303907
0.10409428 -0.0056031845 0.018475238 -0.11244865 -0.047398597 -0.17832908 -0.040382195 -0.15996525
-0.04506411 -0.05809522 0.17324331 0.021090131 -0.097324446 -0.013699265 -0.25482097 -0.10247779
-0.092749506 0.05202973 0.0044461875 -0.08429508 -0.040580723 -0.2108756 -0.059205092 -0.10000341
0.27312562 -0.011526746 -0.0059217582 -0.055629723 -0.3544161 -0.025456904 0.074975386 -0.00017846341
-0.007799974 0.22607978 0.09454843 -0.072440855 0.095928185 -0.09232885 -0.042878903 0.2013134
0.1923834 0.08443414 -0.12766942 -0.21627244 -0.07975996 0.21038745 0.015616357 -0.1345711
00000000: 8615 2abf bcc3 47be 05c1 c1be ee04 a9bd
00000010: 9c44 cabd b3ec 20be e603 1a3e 4db4 323e
00000020: df71 b13e 4981 503e 86d0 f3bb 0a23 c63e
00000030: 0a6b 67be 09fe e9be b10f af3e 7154 f03d
00000040: 5373 3abf c2a8 c43c 34b3 313f 94c8 2d3f
00000050: 7322 003e 0694 9fbd 1d49 4cbc 2d50 843d
00000060: 4ae5 07bf e9ca 8fbd 2f2d 0fbf 4c41 4cbe
00000070: a7fc fb3e e0bd 9c3f 0fec b7be b2ff c1be
00000080: d3b4 cfbd 1eab 7d3f 62ec 82be 92e6 8abf
00000090: bbfb 493f b6ea 8f3f e6c6 6bbe b129 573f
000000a0: aa2c a3be 1039 003e 5367 283f c3ee df3d
000000b0: 7c40 e7bf 6987 293f a0cd 363e 9254 023f
000000c0: 6e8a 2e3e 0aea 1dbf 0c82 053e bc2f 193f
000000d0: fe6c 063e 11d1 823e 5878 f3bd fd83 303d
000000e0: 244b babe e78a 97be a361 a5be cb52 90bf
000000f0: fb7a 1dbf b570 123e 51ed b53c 9287 4d3e
00000100: 3cf0 b33e e745 ddbe 112f f53e ba58 453e
00000110: b54e ecbe 46b6 1d3e 7c24 3b3e 249c 083e
00000120: 90dd 9ebf e24c 773e d33b d8be 995c a13b
00000130: ea69 cabe b20b 81bd 11e2 85bf 112d 16bd
00000140: dc67 593c cd5d 16bd 91d8 18bd 54a4 38be
00000150: 5225 9e3d 0e41 a93d bb79 343e 1fb1 af3e
00000160: c812 13bd ab93 b63e 64c7 c43e d4b7 29be
00000170: cbb3 58be 8827 48bf 8a6d 9dbe aa2a 6cbe
00000180: e1d9 813c 7daf e33e 864c c23d d2dd b1bc
00000190: b686 53be 8f0c c73e 7162 3ebd 539a 3b3d
000001a0: 0ed3 4dbe 9c12 4f3f 3073 3d3e eb81 0d3e
000001b0: ea71 f0bf d188 973e 2d52 873e 6c97 9f3d
000001c0: 65f2 9dbe aa0a 903e 537f 95bb 268b fc3b
000001d0: 1b3f 923f dc3b d73e bc15 853e bd99 6dbe
000001e0: 2f13 fbbd f099 bb3e 5406 3b3c 9063 0e3f
000001f0: ccca 443f 15a9 613e 2db3 87bf 9379 693e
00000200: cccf 7dbd 8ea0 b73d 8bc7 7e3b d8d5 b83b
00000210: 921e 2f3e 9b34 2abe 6360 983c 2ec5 a13d
00000220: 1d0d 55bd 5347 73be 305a 2abe 0c6d b1be
00000230: 474b c6bc c4fc 7ebe 6137 b4bd ba81 343e
00000240: ade5 dfbc 5200 98bd 2c7f a43c dbb7 89be
00000250: 4cfc 5d3d 67a8 133c 11de e43d 46e4 f4bd
00000260: b409 cbbd dead 4c3c c661 d0bd 1a2a 123e
00000270: 8078 c1bd ddb7 373e 4039 2c3e 800c a0bd
00000280: 8158 54bc 2829 dc3d a445 56bd 2a5f 35bd
00000290: 0b98 a83c c831 af3d 4b3a 793e 6d8b 90bc
000002a0: b39d e3bd 110e e93c b953 263d bb08 d6bb
000002b0: 76b1 1d3e ed41 0c3d e3a4 8e3d d9fb 39bd
000002c0: 4d2a 9dbd 00cd 59bd 62cd a0bd f7bc 07bd
000002d0: 590c d1be a8d3 123e 88e9 33be f7fe 883b
000002e0: b56c 8ebe 7666 e2bc c8c1 52bc edfd 7cbc
000002f0: 0907 85bd b966 1abe 41d6 793d 843b 54bd
00000300: ee05 4f3d a82a 6abd 985c 64bd e957 59be
00000310: 9374 adbd 4ab0 0cbe 26ae 6cbd a0fc 363c
00000320: f574 70bc f199 543d f812 27be 7bb7 433e
00000330: da00 fdbc f0ca bb3d 3743 1c3e 5496 493c
00000340: 622f d53d eb9a b7bb 6259 973c 7a4b e6bd
00000350: 0825 42bd e69b 36be cd67 25bd eecd 23be
00000360: 2595 38bd 41f5 6dbd b266 313e 36c5 ac3c
00000370: 0a52 c7bd e272 60bc e577 82be e0df d1bd
00000380: 74f3 bdbd 201d 553d 53b1 913b e6a2 acbd
00000390: f937 26bd c6ef 57be 0a81 72bd 96ce ccbd
000003a0: 1fd7 8b3e adda 3cbc 4f0b c2bb fedb 63bd
000003b0: 0776 b5be ff8a d0bc b28c 993d e821 3bb9
000003c0: ed96 ffbb 7581 673e 9ba2 c13d df5b 94bd
000003d0: ff75 c43d e816 bdbd caa1 2fbd 1a25 4e3e
000003e0: 2700 453e ceeb ac3d c6bb 02be 8676 5dbe
000003f0: 3159 a3bd cf6f 573e c0db 7f3c 02cd 09be

hidden.bias f4 [32]
-0.18635966 -0.012997129 -0.29461375 -0.121345334 0.23838922 0.25945875 -0.23296377 -0.004821521
-0.06212708 -0.1218627 -0.1905161 0.16209932 -0.33678982 0.09447986 -0.24741817 0.24616808
0.13256887 -0.06067564 -0.058633104 -0.626387 0.39139527 0.17194949 0.22254509 0.2660963
0.19707517 -0.029830907 -0.15467493 0.04463358 0.18593968 0.0 -0.6032149 0.16091731
00000000: 11d5 3ebe e9f1 54bc 9dd7 96be e783 f8bd
00000010: 4e1c 743e c7d7 843e 0e8e 6ebe dafd 9dbb
00000020: f778 7ebd 2793 f9bd a716 43be 5dfd 253e
00000030: b76f acbe a87e c13d 305b 7dbe 7c13 7c3e
00000040: 22c0 073e 0587 78bd 4429 70bd e65a 20bf
00000050: f664 c83e 8713 303e dce2 633e c63d 883e
00000060: 13ce 493e f25f f4bc 1b63 1ebe b3d1 363d
00000070: f966 3e3e 0000 0000 4b6c 1abf 82c7 243e

out.weight f4 [1, 32]
-3.3496902 -0.16667677 -1.0098168 0.96041113 1.1558167 0.27685952 -0.07086823 -0.054691385
2.920548 -0.57072407 -0.7864294 0.12057485 1.1436378 0.46761253 -0.30348378 0.21823609
0.068416074 2.5057137 2.9600644 -5.0578003 6.033403 3.0566888 0.7674405 3.5102327
3.0775874 0.114692956 -0.41342518 -0.6240172 0.09092382 0.32513902 -6.442209 0.16374683
00000000: 5361 56c0 51ad 2abe ad41 81bf 81dd 753f
00000010: cdf1 933f 88c0 8d3e 5d23 91bd 1304 60bd
00000020: 42ea 3a40 f91a 12bf 7053 49bf f2ef f63d
00000030: b962 923f e96a ef3e 3a62 9bbe 4879 5f3e
00000040: ba1d 8c3d 9d5d 2040 b271 3d40 80d9 a1c0
00000050: a311 c140 caa0 4340 fb76 443f a7a7 6040
00000060: 31f7 4440 24e4 ea3d 77ac d3be 97bf 1fbf
00000070: 4536 ba3d 9f78 a63e 9326 cec0 40ad 273e
