train_history/olympics-wrestling/11_29_15_0/actor.pth (torch, 48200 bytes, 14 tensors)

encoder.0.weight f4 [8, 4, 3, 3]
000000 a1 1e e3 be 55 be 13 3e ae 9e 47 3e cd 3e 27 bd
       -0.44359306 0.14428075 0.19494125 -0.040831376
000010 83 36 09 be 09 2c b3 be e8 c2 b4 be c7 84 af 3b
       -0.13399701 -0.34994534 -0.35304952 0.0053564045
000020 ad d9 14 3e d5 92 17 be 47 16 57 bc 62 d6 ee 3d
       0.14536162 -0.14802106 -0.01312787 0.11661984
000030 f4 73 af be a7 cb 0a be 2b 64 a6 bd 0f 7e 67 bd
       -0.34268153 -0.1355425 -0.08124574 -0.056516703
000040 6d da 1d bf 92 14 aa bc 59 18 ef 3d 90 5f 1e 3d
       -0.61661416 -0.020761762 0.11674566 0.038665354
000050 6d e8 81 bc cf 28 22 be 32 d8 89 3e 32 27 d1 3e
       -0.0158579 -0.1583588 0.26922756 0.40850216
000060 3e 79 a6 3e 85 50 d4 3e 6d 38 0c be 51 f5 fd 3d
       0.32514375 0.41467682 -0.136934 0.12400306
000070 45 8f 37 3e 26 00 51 be 79 4f 7b 3b 5f c2 42 3e
       0.17925747 -0.20410213 0.003834693 0.19019459
000080 bb 3d 20 3e 4e cf 16 bd 29 42 ca be c3 8e 4f be
       0.15648548 -0.036818795 -0.395036 -0.20269303
000090 56 6d ce 3d 23 a5 7d bc 1f 90 dc be 31 ef b7 3d
       0.10079448 -0.015481266 -0.43078706 0.08981169
0000a0 aa bd c9 3e ca ca 7c be b2 8f a6 3d e8 af d4 bd
       0.39402515 -0.24686733 0.081328765 -0.10385114
0000b0 2b b0 a8 3e 38 27 0f 3f f6 8c 68 3d fd 14 58 3e
       0.32946905 0.5591922 0.056775056 0.21101756
0000c0 f2 b1 0b bd f0 b5 85 3d 2a f5 5a 3e 9d 51 01 bd
       -0.03410525 0.065288424 0.21382585 -0.031571973
0000d0 ba b4 24 bd d2 92 0b 3f 29 98 07 3e ae 4a f0 be
       -0.040211417 0.54520905 0.13241638 -0.46931976
0000e0 0b c3 ab 3d b0 de c3 3d 74 54 91 3e b4 13 04 3d
       0.08386811 0.09563959 0.28384745 0.032245353
0000f0 92 0a 08 3e 15 5c 85 3e b2 4b ec 3c 65 9f 56 be
       0.13285282 0.26046816 0.028844688 -0.20959242
000100 b8 b2 16 3e 44 25 7c bc a7 90 81 3e e7 53 3d be
       0.14716613 -0.015389744 0.25305673 -0.18489037
000110 49 b0 a1 bc af 5c 88 bc bd 7e ba 3d f4 76 2e 3e
       -0.01973738 -0.016645757 0.09106205 0.17037565
000120 e1 ca 1f be e4 9f bb 3e ff de 55 3e 43 1e bd 3e
       -0.15604736 0.36645424 0.20885848 0.3693715
000130 72 24 8c 3e 1a c3 25 3d 1d b8 e4 bd 99 77 8a 3e
       0.27371556 0.040469266 -0.11167929 0.2704437
000140 47 60 0b 3d b6 cb 0c 3d e5 54 0c 3d 1d ca 28 bf
       0.034027364 0.03437396 0.03426065 -0.659334
000150 16 58 8a bd 44 24 b9 be 44 b2 a3 3d 6b 13 7b bb
       -0.06755082 -0.3616048 0.07992986 -0.0038311135
000160 71 5d da 3d 39 bd 9c 3c 97 77 b6 3d 7b 41 01 3f
       0.10662354 0.019133197 0.08909529 0.5049054
000170 b2 27 6e be 53 33 20 3e e7 df a2 3e d2 1c 83 bd
       -0.2325733 0.15644579 0.3181145 -0.064019814
000180 7a 2c fc 3d a0 f9 44 3e 31 88 5a 3e df ac 02 be
       0.12313171 0.1923585 0.21341015 -0.12761258
000190 71 44 ae 3d bf ed 68 3e 41 ad 28 bd 59 4b 64 be
       0.08509148 0.22746943 -0.041180853 -0.22294368
0001a0 48 61 90 3d fb 20 a6 3d 48 94 0e 3e 7b ab c7 3e
       0.07049805 0.08111759 0.13923752 0.38998017
0001b0 8a 10 1b 3e 94 57 6a 3e 13 b5 aa bd 8d 49 26 3d
       0.15143028 0.22884971 -0.083353184 0.040597487
0001c0 f2 8f db 3e e4 28 e2 3d 0b 3f 74 3e 28 89 0b 3e
       0.4288326 0.110429555 0.23852174 0.1362654
0001d0 ab 36 14 3d 8e 7c c8 be 6c fc 52 3e 43 1b cf 3d
       0.036184948 -0.39157528 0.20604104 0.10112622
0001e0 cb 46 8e be 3e 6d b3 bd 48 97 bc be 4e b2 99 3c
       -0.27788386 -0.08761071 -0.36834168 0.01876178
0001f0 3b 90 ee 3d 19 0a 3c 3e ce 06 2b 3e 45 ef 8a 3d
       0.116486035 0.18363227 0.16701815 0.06783918
000200 96 40 38 3e 51 8a 39 bf e3 fd aa be e6 29 93 bd
       0.17993388 -0.7247668 -0.33396825 -0.07185726
000210 80 42 f4 bd 64 1a d3 3e 9b f8 a6 bd 9c e9 ba 3d
       -0.11926746 0.41231072 -0.081528865 0.09126589
000220 33 d3 40 be b1 39 0e 3d eb 58 ca bb ae f2 9a be
       -0.18830566 0.034722988 -0.0061751506 -0.30263275
000230 80 a5 a0 be 9b b7 c0 bd 57 de 06 be 41 e8 4d 3c
       -0.31376266 -0.0941002 -0.13170753 0.012567581
000240 46 2c 5e 3d 25 f5 c6 bd 7c b5 1c 3e 66 72 ea 3e
       0.05424144 -0.09714726 0.15303606 0.45790404
000250 79 12 ee be 4e 3f 14 3e 3b 9a 4e 3e ac e8 8b 3d
       -0.4649847 0.14477274 0.20176022 0.06831488
000260 86 cb d3 3d 24 64 aa bd 27 63 50 3e c4 ed 4d 3e
       0.103415534 -0.083198816 0.20350324 0.20110232
000270 8a 3f 9a bc 46 5b 58 bd 83 55 16 3c 67 9b e7 3d
       -0.018829126 -0.05282142 0.009175661 0.113089375
000280 cd c4 d8 3d 8a 1d 11 3d 0b 41 07 bf 57 0e 00 3e
       0.10584412 0.03542856 -0.5283362 0.1250547
000290 33 f6 25 3f cf 1b f0 bd 52 17 ea 3e ed 8f af be
       0.64828795 -0.11724054 0.45720917 -0.34289494
0002a0 82 e7 e8 3d 21 60 25 3e 42 c8 68 be c3 93 15 bd
       0.113722816 0.16149952 -0.22732642 -0.03651787
0002b0 05 6a 4f 3d 31 c4 09 be 2e 29 0a be c0 b9 58 bb
       0.050638217 -0.13453747 -0.13492271 -0.00330697
0002c0 e6 2b 89 3e 53 a7 89 be cd d8 0c bd c9 04 a7 3d
       0.26791304 -0.2688547 -0.034386445 0.081552096
0002d0 a4 47 b6 be f6 51 5b 3e 89 5b d6 be ce 31 ad 3d
       -0.35601532 0.21417984 -0.4186671 0.08456765
0002e0 be 10 a9 bd a6 b6 58 3e 59 0f 32 be b9 28 b6 3d
       -0.082551464 0.21163425 -0.17388667 0.08894486
0002f0 ae 99 b2 bd f4 77 15 be 49 45 c7 bd fc 54 3f 3c
       -0.08720718 -0.1459654 -0.09730012 0.011677977
000300 da 24 23 be b6 f7 8d bd 00 f8 d9 bd c2 50 fc bd
       -0.15932027 -0.06932013 -0.10643005 -0.12320091
000310 94 e6 c2 3d 94 3c 9c 3e 75 0f bb 3e 95 ea 6c 3d
       0.095166355 0.30514967 0.3653523 0.057840902
000320 c1 c0 18 3e 9f f3 e9 3c 15 12 ab 3e 4d 8b d6 be
       0.1491728 0.02855855 0.33412233 -0.41903153
000330 5e dd ce be 47 c0 ac be 29 62 e0 3e cd c6 9f bd
       -0.40403265 -0.33740446 0.4382489 -0.0780159
000340 5f fc 1e be 06 2e 98 bc 9e f8 98 3e 42 d6 71 3e
       -0.1552596 -0.018576633 0.2987718 0.23616889
000350 eb 22 6e 3e 78 f8 45 be 2c 06 98 be f2 8a c1 be
       0.23255508 -0.19333065 -0.2969221 -0.3780132
000360 e4 d8 47 3d 3f ae f9 3e 92 5d 1d be 70 52 a4 3e
       0.048790827 0.48765752 -0.15367725 0.32094145
000370 b7 79 77 be 36 ed b5 be 91 33 8a 3e 18 22 75 bd
       -0.24167524 -0.3553254 0.26992467 -0.059846967
000380 95 4f b9 be 9f 75 0f be 5e 9b 83 3e df 55 56 3e
       -0.3619353 -0.14009713 0.25704473 0.20931195
000390 2b 76 14 3f d9 ec 89 be c0 18 c1 3d 9b 7a 06 bd
       0.5799281 -0.26938513 0.09428549 -0.03283177
0003a0 a2 41 1b 3e d8 44 84 bd 80 fc b2 3d 3d a3 78 be
       0.15161756 -0.064584434 0.08739567 -0.2428102
0003b0 2a 79 26 be 69 da f4 3d de 8c 51 3d f2 94 cb 3d
       -0.16257158 0.11955721 0.051159732 0.099405184
0003c0 a6 28 7e 3e db 82 bc 3d eb 8f bc 3e fa c1 ef 3e
       0.24820194 0.09204646 0.3682855 0.4682768
0003d0 ef d9 6f 3d 1b bb 0b bd c9 85 1e bd 68 ba d6 3c
       0.058557447 -0.034113985 -0.038701806 0.026211932
0003e0 0f 13 59 be 1a 5b 56 3d a4 74 27 be 5c fc 5b be
       -0.21198677 0.052332975 -0.16353089 -0.21482986
0003f0 33 e7 92 3d e1 2f bf be 8e c5 64 3e 78 88 5f 3e
       0.07173004 -0.37341216 0.22340986 0.21829402

encoder.0.bias f4 [8]
000000 78 de 56 3b d2 01 c5 bc 5c a8 19 bd 7a 1c 0d bc
       0.003278641 -0.02404872 -0.037514076 -0.008612746
000010 12 31 48 bc ef 69 1c 3b 96 ae cb 3b 8a 63 37 3c
       -0.0122187305 0.0023866852 0.0062158806 0.011193166

encoder.3.weight f4 [8, 8, 3, 3]
000000 c7 16 97 3d 5b d2 d8 be 8e 80 01 3c 34 3e 5e 3e
       0.07377391 -0.42347988 0.007904185 0.21703416
000010 a4 f9 71 bc fd 14 4c 3e 7d db f6 bd e9 cb 2b 3e
       -0.014768992 0.19929881 -0.12053583 0.16777004
000020 87 93 37 3d ac 87 10 3d e4 62 02 bd 67 55 32 be
       0.044818427 0.035285637 -0.03183259 -0.17415391
000030 ea e9 d9 bd 57 36 80 3d 04 3a 93 be 59 ce 6a bd
       -0.10640319 0.062603645 -0.287552 -0.057325695
000040 7b 13 56 3e 00 dd c7 bd 49 6e 02 3d 78 9f 8e bc
       0.20905869 -0.09758949 0.031843457 -0.017410025
000050 2f 12 98 bd 00 d2 4d 3e ab ef 29 be 53 b0 c5 bd
       -0.07425343 0.2009964 -0.16595332 -0.09652772
000060 04 3e 3a 3e 2a b7 cf bd 08 bd 99 be 4e c8 0e be
       0.1818772 -0.10142358 -0.30027032 -0.13943598
000070 3e 52 ca bc 70 02 43 be c2 c5 a2 3d e7 04 5e 3d
       -0.02469742 -0.19043899 0.079478756 0.054203894
000080 23 0e e1 3e 0e 48 b6 bd 11 a8 cc 3d e4 61 10 be
       0.43956098 -0.08900462 0.099929936 -0.14099842
000090 ed db ea 3d 83 79 01 be f6 89 be bd eb 8b 92 3c
       0.11467729 -0.1264401 -0.09303658 0.017888984
0000a0 e3 fd 96 bd 2d 31 c0 be 7c a1 0f be 0b 95 c4 3e
       -0.07372644 -0.37537518 -0.14026445 0.3839496
0000b0 2f 2b 3e be 5b 97 28 3e 70 f0 e9 bc b3 91 66 3d
       -0.1857116 0.16463988 -0.028557032 0.056291293
0000c0 b0 0b f1 bd 1c b5 c1 3e 9e bd 67 bd c6 6a 2d 3d
       -0.11769807 0.37833488 -0.056577317 0.042338155
0000d0 a7 8a 9d 3e fc a7 94 3a 8c 8f ad bd 29 bc b2 3c
       0.30769846 0.0011341567 -0.08474645 0.021818237
0000e0 76 76 26 3e b1 a3 35 3d 2b a0 37 3e 7f 55 79 3e
       0.16256127 0.04434556 0.17932193 0.2434902
0000f0 02 70 fb 3d d3 30 3b be 85 82 4a 3e b5 bc 03 3e
       0.12277223 -0.18280344 0.19776352 0.12864955
000100 3d 0a 19 3d e3 75 74 3e fb f8 14 bd a7 8c 3e 3d
       0.03736328 0.23873095 -0.03637026 0.046520855
000110 15 17 86 bd ba c8 d1 3d 8b 0b b4 3d 99 ad a8 3d
       -0.06547371 0.10243364 0.08791264 0.08236236
000120 f8 74 8e be 34 01 7a bd 11 d2 91 3e 0f 80 04 3c
       -0.27823615 -0.061036304 0.2848058 0.008087172
000130 01 9f 2f 3c 8d 05 09 3c e4 3a 01 3d 6f 6a 44 bc
       0.010719062 0.00836314 0.031550303 -0.011988266
000140 36 d4 39 bd 6a d6 65 bd d3 67 70 bd 44 4e a0 3d
       -0.045368396 -0.056112684 -0.058692764 0.07827428
000150 95 12 c5 b8 1b 9f 76 be af de 4b 3e 23 1a 64 3d
       -9.397153e-05 -0.24084131 0.19909166 0.05568899
000160 74 76 bb 3e 0b e8 42 bc ff 7c 86 bd a2 1a d1 3c
       0.3661381 -0.011896144 -0.0656681 0.025525395
000170 f7 f7 8e 3e 9f c6 31 be 86 97 87 bd bf 69 35 3d
       0.27923557 -0.17360924 -0.06620698 0.0442903
000180 4d bf af 3d 39 4f 0a 3d 02 d9 83 bd 89 93 1d 3d
       0.085814096 0.03376696 -0.06437875 0.03847078
000190 96 02 12 bc 0e 4c 34 be f0 00 0c 3e 89 56 2f 3d
       -0.008911749 -0.17607138 0.13672233 0.042807136
0001a0 fa 3b 25 3d 9e 38 b1 bc 3b 13 c4 be 2e b3 80 bd
       0.0403404 -0.021633442 -0.38295922 -0.06284176
0001b0 4b 49 0f 3c 3a 75 4e be 64 36 eb bc 44 62 17 bd
       0.008745502 -0.20161906 -0.028712459 -0.036958948
0001c0 72 9f 96 3b f3 40 a3 3e d9 83 0e 3e f9 55 e9 3e
       0.004596644 0.3188549 0.13917483 0.45573404
0001d0 0c 5f 47 3e 86 3c bb 3e 56 7b 09 3e c1 13 d9 3e
       0.19469851 0.36569613 0.13425955 0.42397884
0001e0 33 73 b4 bd 71 5b 1e be 4a 07 4b bc 92 ba 0c be
       -0.08811035 -0.1546457 -0.012391875 -0.13743046
0001f0 c4 32 31 be 3c e3 66 be e9 ac 22 3e ac 6c 01 3d
       -0.17304522 -0.2254762 0.15886272 0.03159778
000200 20 75 09 3e 20 2e c3 bd 2d 93 05 3e c6 f5 08 3e
       0.13423586 -0.09530282 0.13044424 0.13375005
000210 ad a8 20 3e 5b 85 3a 3e 7f 45 51 be 47 2f 16 3e
       0.15689345 0.18214934 -0.20436667 0.14666472
000220 d8 3a dd bd 58 54 c1 bd 6d af 7a 3d 91 e5 8a 3e
       -0.10802239 -0.094399154 0.061202455 0.2712827
000230 46 e3 f0 bc fc e4 41 3d b2 86 0b be c4 01 81 be
       -0.029405247 0.047337517 -0.13625601 -0.2519666
000240 50 d2 09 be ca b1 17 3d 8a 55 63 bd d5 02 d2 3d
       -0.13459134 0.037034787 -0.0555015 0.102544464
000250 07 9f b1 be 68 8f 4e be 98 7e c4 3c 25 4a c9 bc
       -0.3469164 -0.20171893 0.023986146 -0.024571488
000260 0e 1f 0a 3c 3a c1 b1 bc b6 7c 50 3e 49 cd a1 3d
       0.008430256 -0.021698583 0.20360073 0.07900483
000270 54 29 1b be 91 fa 0d be 12 0d 39 bc 65 98 9d 3e
       -0.15152484 -0.13865115 -0.01129462 0.3078033
000280 f3 15 52 bd a0 ee e5 bd 56 ef 20 3e dc 9c 77 bd
       -0.051290464 -0.11227155 0.157163 -0.060452327
000290 b2 11 ea 3e 4b 25 80 be 30 bc 8f be ee 6d 76 be
       0.45716625 -0.25028452 -0.28073263 -0.24065372
0002a0 60 8e 12 3e c0 cc 72 be 09 aa f9 3d eb 27 3b be
       0.14312124 -0.23710918 0.12190635 -0.18276946
0002b0 6c 8e a9 bd 6d d2 fa 3d b7 31 8a 3e 38 6f a7 bc
       -0.08279118 0.12247167 0.26991054 -0.020438775
0002c0 a1 fb c4 3d 97 10 12 3e 64 97 90 3e 20 db 33 be
       0.09618307 0.14264141 0.28240502 -0.17564058
0002d0 f9 a9 59 be 53 64 cb 3d 2b 92 65 bd 03 c5 a4 bd
       -0.21256246 0.09931245 -0.0560476 -0.080453895
0002e0 2c 1f 21 bd f6 e0 7a be cb 6f 16 3e 5d 93 d4 bd
       -0.03933637 -0.24499878 0.14691083 -0.1037967
0002f0 c4 8c ac bd 82 f4 b5 bd 60 5d 81 3e b0 27 1f be
       -0.084252864 -0.08884527 0.25266552 -0.15542483
000300 0d a0 89 3d 29 65 db bd 65 31 47 be 91 38 cb bc
       0.067199804 -0.10712654 -0.19452436 -0.024807246
000310 49 a4 00 3e 14 48 b3 bd 35 ff 82 3c c5 06 8e bd
       0.1256267 -0.08753982 0.015990833 -0.06934885
000320 eb 36 42 3d d0 e2 7e 3e 65 fb ca 3b a5 0c 0b 3e
       0.047415655 0.2489121 0.0061945193 0.13579042
000330 0b 82 12 3e 60 96 0c 3d f1 2b 5e be 3d 91 4a be
       0.1430742 0.034323096 -0.2169645 -0.19781967
000340 30 cb e2 3e d9 af 2f be 01 24 a4 3d d2 ea 92 bc
       0.44295645 -0.17156924 0.0801468 -0.017934237
000350 da 81 cf 3c d0 29 1c 3d 90 5e 6a 3c 75 9c 16 be
       0.025330473 0.038125813 0.014304772 -0.14708121
000360 af 81 76 3e ac 2d d7 3c c8 9d c0 bd 14 a4 33 3e
       0.24072908 0.026266895 -0.094050944 0.1754306
000370 80 29 02 bd 2e 34 9d 3d a9 c9 11 3e 2d 32 c8 3d
       -0.03177786 0.07675968 0.14237083 0.09775195
000380 1e 37 76 bc 7a 70 95 3d b3 46 eb be 08 38 34 be
       -0.015027789 0.07296844 -0.45952377 -0.17599499
000390 c5 66 0b be ba e2 3f be f1 89 16 3c 14 c9 92 bd
       -0.13613422 -0.18738833 0.009188161 -0.07167259
0003a0 f9 a3 23 3e 20 15 23 3d 68 09 25 be f5 ac bd 3c
       0.1598052 0.03981507 -0.1611687 0.023153761
0003b0 92 b1 e6 bd d7 99 1f be 82 fc dc bc 66 ef 02 3a
       -0.112643376 -0.15586029 -0.026975874 0.00049947796
0003c0 30 d8 2e 3e 92 61 21 bd 58 6b 02 3e bf 7a bf bd
       0.17074656 -0.03939969 0.12736261 -0.09349584
0003d0 5f b5 11 3b 9b 7a a7 3e bb ef 31 3e 89 fe 2d be
       0.002223335 0.32710728 0.17376606 -0.16991629
0003e0 54 3e 0e be a8 6f c3 bd 67 70 fd bd a4 76 ab 3d
       -0.13890964 -0.09542781 -0.12374955 0.08372238
0003f0 e5 c9 90 3e a7 96 e1 bd 13 0a 7c 3e d8 58 71 be
       0.28279033 -0.11015063 0.24613218 -0.23569047

encoder.3.bias f4 [8]
000000 70 39 2f bb ef f2 4f 3a 5e d8 fe b9 80 d5 d5 bb
       -0.0026737116 0.0007932623 -0.0004860786 -0.0065256953
000010 ea 2e 13 ba aa f6 f7 bb 2a c9 34 bc 23 71 ae 3b
       -0.0005614596 -0.0075672464 -0.011034289 0.0053235455

cnn_net.0.weight f4 [16, 8, 3, 3]
000000 1d 51 bc 3c 79 8b 04 3e 75 64 92 bd 7d 01 65 3e
       0.022987897 0.1294383 -0.07148067 0.22363849
000010 b5 95 a0 be be 28 08 bf 9f b5 17 3e fa 8a 40 3c
       -0.31364217 -0.5318717 0.14815377 0.011751885
000020 3e ce 76 3d cf 11 63 be a1 83 d5 3d cc bb c2 bd
       0.06025528 -0.22174762 0.10425497 -0.09508476
000030 96 e5 96 be 64 f9 34 3e 45 3d 09 3d ae 20 c6 3d
       -0.29472035 0.1767326 0.033505697 0.09674202
000040 15 82 d1 bc ab c4 62 be a7 42 eb 3c 34 5d a1 3c
       -0.025574723 -0.22145335 0.028718306 0.019697763
000050 7f f0 84 3e b9 fb c2 bd ea a5 10 be 57 4b f6 3b
       0.25964734 -0.095206685 -0.14125791 0.0075163054
000060 ed f7 55 3e 88 e2 98 3d fc b3 86 3e 7f 69 62 be
       0.20895357 0.074650824 0.26309192 -0.22110556
000070 5e 96 c3 3d 6a 11 5c bd a6 46 d9 bd 57 32 02 bd
       0.09550165 -0.053727545 -0.10609178 -0.03178629
000080 4a 2e 21 3d b8 5b 53 3d e2 07 f4 3d 43 8e 8d 3e
       0.039350785 0.05160114 0.11915566 0.276476
000090 f7 13 b5 3d d2 e9 85 be 96 36 81 3e 63 46 0e be
       0.088416986 -0.26154953 0.25236958 -0.13894038
0000a0 29 3d af be 53 e9 48 3e c6 9f 0c bd 8c 5e 59 bd
       -0.3422635 0.19620256 -0.03433206 -0.053068683
0000b0 8b 18 5f bd d6 2d 88 3d b4 87 a6 3d e6 10 6c 3e
       -0.054466765 0.066493675 0.08131352 0.23053321
0000c0 97 aa 32 bb 5a bd fb bc f9 a6 26 3e 59 6e 6d 3e
       -0.0027262324 -0.030729938 0.16274633 0.23186626
0000d0 dd e9 85 3e f6 1e 1d 3d 34 73 76 3e 0c b8 41 bd
       0.26154986 0.038359605 0.24067384 -0.04729466
0000e0 19 0e 37 3d ef fc 5d 3e b8 e4 b3 bd 05 d5 60 3d
       0.04469118 0.21678518 -0.08783859 0.05489065
0000f0 ff a2 e8 bd 8d 0b 85 bd 89 f5 16 3c 19 d0 83 3d
       -0.11359214 -0.06496344 0.009213814 0.06436176
000100 8b 1b 12 3d 87 f5 d5 3d 02 c3 44 3e dd 2d 4a 3e
       0.0356708 0.10447221 0.19215015 0.19744058
000110 fa 05 75 3e a4 1e 63 be bb 7c c2 bc e4 eb 0e 3e
       0.23928061 -0.22179657 -0.023741117 0.13957173
000120 59 22 c4 bd 80 32 30 3d 04 b5 7a 3d 17 3c ef bd
       -0.09576864 0.04301691 0.061207786 -0.11681383
000130 df 0c 4f 3d 02 9c 97 bd 8b 99 cb 3e 9a 6a 7d 3c
       0.050549384 -0.07402803 0.3976558 0.01546731
000140 32 38 af 3d d9 b0 80 3e 5f a5 42 bb 9c e5 3c be
       0.0855564 0.25134924 -0.002970062 -0.18446964
000150 fd e0 22 3d 8b 78 f4 bb 1a 45 53 3e 36 48 a3 3c
       0.039765347 -0.007460659 0.20631829 0.019931894
000160 c1 39 42 3d ad 1b 80 3e 86 8a 1c be 49 4c 76 bd
       0.04741836 0.25021115 -0.15287217 -0.060131345
000170 1b 0c bf 3e 47 81 24 3d dd 7c 8e bc f3 19 41 be
       0.37313923 0.04016235 -0.017393524 -0.18857555
000180 1f e7 b5 bb fe 8d c5 bb 9e 8b e8 3c 9f 49 b2 3c
       -0.0055512334 -0.0060288897 0.028386887 0.02176362
000190 bc 9e 3a be 2e 3a 30 be 23 d5 be 3d 04 66 77 be
       -0.18224615 -0.17209694 0.09317996 -0.2416001
0001a0 c1 ab f7 3d ba 68 0c 3d 9b 49 47 3d da ab 8a be
       0.12093306 0.034279563 0.04865418 -0.27084237
0001b0 ed 1c da bd 1d c5 ec 3d 70 8b d6 3d 0d d6 1c 3e
       -0.106500484 0.11561034 0.10475814 0.15316029
0001c0 b1 93 0c be bf c1 a3 3e 7a e4 e5 bd 55 45 a2 3d
       -0.13728215 0.31983754 -0.11225219 0.0792338
0001d0 13 29 67 bd 18 44 00 3d 6a c6 ae be ba bd 6d 3c
       -0.056435656 0.03131494 -0.34135753 0.014510566
0001e0 52 80 59 3d cf ab ea bd 10 31 a4 3d b1 68 78 3e
       0.05310089 -0.11458551 0.080171704 0.24258687
0001f0 55 19 90 3e cb de cd be 1f 38 58 be e8 90 05 be
       0.28144327 -0.4020904 -0.21115158 -0.13043559
000200 eb 8a 1a 3c f4 c2 22 bd de 05 38 be ef 6f 8c be
       0.009432535 -0.039736703 -0.17970988 -0.2742915
000210 84 f7 e9 3d 7e 94 24 3d 61 5b 68 bd dd c8 cb bd
       0.11424163 0.040180676 -0.05672777 -0.09950421
000220 1e ce 12 be 5b f1 60 3e b0 00 73 be 6b ab 64 3e
       -0.1433644 0.2196707 -0.23730731 0.22331016
000230 94 c4 28 be 3e 1b de 3d ee ac 83 3e ca c5 64 be
       -0.16481239 0.1084504 0.25717872 -0.22341076
000240 e3 1a ec 3e 68 98 54 3e eb cb 94 3d a3 72 9f be
       0.46114263 0.20761263 0.07265457 -0.31142148
000250 c4 a0 d4 3e 09 b3 5c 3e 2f 56 2a 3e 11 fa 58 be
       0.41528904 0.21552671 0.16634439 -0.21189143
000260 d2 3c 1d be 19 08 16 be 8e e5 33 bd a2 d8 fe bc
       -0.15355232 -0.14651527 -0.043920092 -0.031109158
000270 fa 7b cf bd 70 da c0 bd 09 99 02 be 9a 39 21 3d
       -0.101310685 -0.09416664 -0.12753691 0.039361574
000280 7a 5a a7 3d e6 17 33 3e 66 18 a2 3d a5 5a 92 3e
       0.08171554 0.17489585 0.0791481 0.2858478
000290 68 9c 06 3e 54 d8 15 3d f8 fc 0e be a2 97 f4 3d
       0.13145602 0.03658326 -0.13963687 0.11942984
0002a0 04 ea 01 bd 87 c6 0f bd 86 86 6c 3d 18 2b d3 bd
       -0.031717315 -0.03510144 0.05774548 -0.10310954
0002b0 a5 4d 89 3d 84 6f e7 3c bf 28 83 3e 9a dc d2 3b
       0.06704263 0.028251417 0.25617024 0.006434989
0002c0 5c 15 15 be 3f b7 10 3d 41 35 fc 3c ca ee 14 3e
       -0.14558929 0.035331007 0.030787112 0.14544216
0002d0 ec e7 7d 3d 0e c6 70 be 88 3a 44 3e 98 37 2f 3e
       0.061988756 -0.23513052 0.19162953 0.17111051
0002e0 18 bf f8 3c 49 d1 8b 3e 1d 26 ff 3d ac 32 e1 bd
       0.030364558 0.2730811 0.124584414 -0.10995993
0002f0 4d e4 85 3e 3b ec 3a 3d ab 40 fc 3d 51 59 4c 3e
       0.26150742 0.045635443 0.12317022 0.19955947
000300 a6 31 b8 3b 33 21 e6 3d b8 c1 22 3e 91 7d d5 3d
       0.005621153 0.11236801 0.1589421 0.104243405
000310 d3 b6 20 3d cf 2a 89 3e 88 ab d3 bd 85 5c a2 3d
       0.039236855 0.26790473 -0.10335451 0.07927803
000320 9c 75 4f bd 21 9c 11 be 86 da 96 be 79 43 42 be
       -0.05064927 -0.14219715 -0.29463595 -0.18971051
000330 ff 68 83 3d 86 f7 2d 3e 86 b1 a7 bb 53 fa 27 be
       0.06416511 0.16988954 -0.005117598 -0.16404085
000340 be 9e 42 3e c4 aa 2d be 67 10 63 be 48 a8 b7 bd
       0.19005868 -0.16959673 -0.22174226 -0.08967644
000350 fa 6b f9 bc f9 58 76 be 59 9e 85 be c4 db a9 bd
       -0.030446995 -0.24057378 -0.26097372 -0.0829387
000360 5b b3 9e 3e 1a 1c 65 bd 5c 09 58 3d fa cf 43 3e
       0.30996212 -0.055935003 0.0527433 0.19122306
000370 9f 2c 98 3c 70 6f a0 be 4b be 66 3c 96 fa 76 be
       0.018575964 -0.3133502 0.014083455 -0.24119028
000380 b0 7e 24 be 28 96 9a bd cd 1a 93 3d 4c c9 90 3e
       -0.16063952 -0.07548171 0.07182846 0.28278577
000390 b6 74 6a 3e 6a 9c e4 3c 36 13 ec 3d 91 57 c5 3d
       0.22896084 0.027906615 0.11527102 0.096358426
0003a0 62 59 34 3e 2c 95 10 be 97 83 b5 3e fb 9f 64 3d
       0.17612222 -0.14119405 0.35451958 0.05581663
0003b0 36 1b 52 3e 12 a3 27 3d e2 09 f6 bd 32 98 13 3e
       0.20518193 0.040927 -0.12013604 0.14413527
0003c0 29 7b b0 3e 35 a3 11 3e f6 43 6f 3e ec c7 0b be
       0.34468964 0.14222415 0.23365769 -0.13650483
0003d0 a8 57 f4 bd 0b cd 2f be 43 c7 91 3e fe a9 f1 3d
       -0.119307816 -0.17168061 0.28472337 0.118000016
0003e0 c0 cd ab 3d f0 a5 9a 3d c3 e4 48 be a4 54 ae bd
       0.08388853 0.07551181 -0.19618516 -0.08512238
0003f0 03 3f bc bd 09 f3 d4 3d 5e 0d 02 bd 75 f3 c9 3d
       -0.09191706 0.10397918 -0.03175103 0.09860889

cnn_net.0.bias f4 [16]
000000 5e 0c a8 3b 88 09 34 3c 3e 52 3a 3c c9 f3 e5 bb
       0.0051284274 0.010988601 0.011372147 -0.007017587
000010 78 87 b0 3b ae 42 ba bc 11 15 24 3b da 1d 20 3c
       0.005387243 -0.022736873 0.002503697 0.009772742
000020 f7 07 a1 bb 78 a6 1c bb 32 e4 62 3c 81 42 2c 3c
       -0.0049142796 -0.0023902934 0.013848351 0.010513903
000030 35 78 1e ba 23 40 1a 3c bd 70 03 bd 5b 10 c7 bb
       -0.0006045134 0.009414705 -0.032089937 -0.006074948

cnn_net.3.weight f4 [32, 16, 3, 3]
000000 96 50 93 be f2 43 28 3e a6 14 0f be 69 b6 04 3e
       -0.2877242 0.16432169 -0.1397272 0.12960209
000010 4d 78 80 bd 9c 5a b2 bc af f7 44 3e 40 77 09 3e
       -0.062729456 -0.021771722 0.19235109 0.13424397
000020 ab 6d d4 3d 34 af 7a bc 88 d8 60 bd 8f af bd 3d
       0.1037248 -0.015300561 -0.054894 0.09262001
000030 73 80 74 3d e0 36 0d 3d fc 66 91 3d 1c e7 28 bd
       0.05969281 0.03447616 0.07099721 -0.041236028
000040 73 3f 27 be 3a f4 d7 3d 9a c3 e6 bd 27 54 14 bd
       -0.16332798 0.105446294 -0.11267777 -0.036213066
000050 b5 ad c7 bc bb 1e 1b 3d 4d 30 60 3d fc 21 0d be
       -0.024374822 0.037871104 0.054733563 -0.13782495
000060 16 ff 95 bc 3b 37 9f 3c 5d da 11 be 0c 49 6c bd
       -0.018310111 0.019435516 -0.14243455 -0.05768685
000070 60 d2 27 3d 07 4b 43 3d df 59 45 3e b3 f4 81 bd
       0.040972114 0.047678974 0.19272564 -0.06345501
000080 7b e0 0b be 3e 74 b2 3d 80 e6 a6 bd a6 88 11 bd
       -0.13659851 0.08713578 -0.08149433 -0.03553071
000090 80 52 10 be 4d e9 50 3e 42 64 df 3d 66 d0 5d be
       -0.14093971 0.20401497 0.109077945 -0.21661529
0000a0 6e 91 e0 3d 37 92 37 be f7 f9 eb 3d 23 81 17 be
       0.109652385 -0.1792687 0.115222864 -0.14795355
0000b0 27 f4 22 3e 91 09 7e bc bb bb 23 bd 33 28 09 be
       0.15913449 -0.0155052105 -0.039973956 -0.13394241
0000c0 05 16 bf 3d da 57 00 3e 15 0d f3 3d f1 3c 3b 3d
       0.09330372 0.12533513 0.118677296 0.045712415
0000d0 df 65 89 bd 7c e7 14 be 8a 22 19 be 47 ab ee 3d
       -0.067088835 -0.1454143 -0.14954582 0.11653762
0000e0 18 05 2a bc df 53 e9 3c da 26 ca 3d 6e c8 c6 3d
       -0.010377191 0.028482376 0.098706916 0.09706198
0000f0 1f ee 1c bd f6 7e d2 3d 7d 26 0f 3d 71 34 0b be
       -0.038313027 0.10278122 0.034948815 -0.13594224
000100 ba 2e 86 bd 79 73 e3 3d 22 5e ba bd d3 6a 08 be
       -0.06551881 0.11106009 -0.09099986 -0.13322
000110 74 83 2c bc e2 54 19 be d8 bb 56 bc 63 29 47 3d
       -0.010529388 -0.14973786 -0.013106309 0.048623454
000120 bc fc a4 3d 2e a4 88 be 7c a1 8d bd 68 b9 0b bc
       0.08056018 -0.2668776 -0.06915566 -0.008528091
000130 10 af 3f be 16 91 81 bc a7 fe 8f 3e 09 7c 8b 3c
       -0.18719125 -0.015816253 0.28123972 0.017026918
000140 0b 98 89 bd 4e de 47 bd 55 5a bf 3c 26 7b d7 bd
       -0.06718453 -0.04879599 0.023358503 -0.105215356
000150 30 bf 76 bd 55 b0 18 be e4 87 43 be 6d 74 b6 bd
       -0.060240924 -0.14911015 -0.19094807 -0.08908925
000160 5d 6c 74 3c 72 00 b5 3d 65 8b 65 bd cc c6 24 bc
       0.014918414 0.088379756 -0.05604114 -0.0100571625
000170 22 e1 0d 3e b3 30 ad bd c5 ca 07 3d 13 7b 24 3d
       0.13855413 -0.08456554 0.03315236 0.040156435
000180 cf 52 5a 3e 17 fc f3 bd 66 86 e5 3c 86 e6 1b bd
       0.21320651 -0.11913317 0.028018188 -0.03806164
000190 e4 e4 02 be 6f 3a 5d bd 5f d5 45 be ec 64 05 be
       -0.12782627 -0.054010805 -0.19319676 -0.1302678
0001a0 bb 67 35 3e cb ae c5 bd a8 fd b9 bc ba 2e 3f be
       0.17715351 -0.0965248 -0.02270396 -0.18670169
0001b0 2b ec d9 3d 61 97 da bc 64 ac 58 bd dd ea 8a 3c
       0.106407486 -0.026683511 -0.05289878 0.016957695
0001c0 7f 53 8c bd ed 2d 90 3e b5 de 7b bd 1e a1 72 bc
       -0.06851863 0.2816004 -0.061491687 -0.014808921
0001d0 ca f5 24 3d 1b bd 51 3e 2e 79 99 3d 6f 42 25 3e
       0.040273465 0.20482294 0.07493816 0.16138624
0001e0 df e9 47 be 1b 9a 8a bd 72 41 1e be ba 3d b9 3d
       -0.19522808 -0.067676745 -0.15454653 0.090449765
0001f0 b1 24 d4 3d 5e 43 f1 3c cb f7 80 be 5a aa b6 bd
       0.10358561 0.029451068 -0.2518905 -0.08919211
000200 f9 c8 36 3e a9 62 5c 3e 27 9f 14 be 43 2c 13 3e
       0.17850102 0.21522011 -0.14513837 0.14372353
000210 c2 d3 06 3e 87 81 dd bd c0 dc 7e bc 78 6e 63 be
       0.13166717 -0.10815721 -0.015555561 -0.22210109
000220 63 d5 0c bd 5f 6e ae bc f9 69 af bc 38 5e 26 be
       -0.03438319 -0.021292863 -0.021412836 -0.16246879
000230 2f 9f c3 3c 47 17 d0 3d b0 bd 11 be c7 45 52 bd
       0.023879616 0.1016069 -0.14232516 -0.051336076
000240 14 8d 06 3d f0 3d 32 be b7 3c f2 bd 9f 23 8d 3d
       0.032849386 -0.1740644 -0.11827987 0.0689156
000250 ea 5a 72 3c 46 2a 3e 3d 1c 79 ec bd f3 2e 5e be
       0.014792183 0.046427034 -0.11546537 -0.21697597
000260 ce a3 ae 3c 5e 88 24 be 08 50 4e 3d 5a 39 99 3d
       0.021318343 -0.16067645 0.050369292 0.07481642
000270 fa 00 17 bd 3c a9 22 bd 82 f9 22 bd a6 e4 c4 3d
       -0.036866166 -0.039712176 -0.03978873 0.09613924
000280 5a 56 f4 3c a7 03 5a bc 41 8d fb bb 21 36 f9 3d
       0.029826332 -0.013306535 -0.007676751 0.121685274
000290 fa b7 6a be 97 c9 98 3d a3 14 84 bc 7c 17 01 3e
       -0.22921744 0.07460325 -0.016123122 0.12606615
0002a0 8e 07 dd bc 46 fa 2d 3d 2b 27 3b bc cd ce 0f be
       -0.026981141 0.042475007 -0.011422913 -0.14043732
0002b0 bb 17 2a be c8 24 76 3e a6 21 a2 bd 81 dc df 3b
       -0.16610615 0.24037468 -0.07916574 0.006831706
0002c0 3e 0c a5 bc 57 25 59 bd 4f 73 81 3c d8 9c 5e 3d
       -0.02014744 -0.053014126 0.015802054 0.054348797
0002d0 45 02 3e 3e cd 95 78 3e ee 14 b9 3d 45 98 2e be
       0.18555553 0.24275894 0.09037195 -0.17050274
0002e0 ef d2 ee 3d 6a 1a ad 3c d6 3f 96 bc e0 c7 b3 bd
       0.11661326 0.02113076 -0.018340986 -0.087783575
0002f0 2f 0c bc 3d a1 f8 28 3e 08 72 1c 3d 56 94 bb bc
       0.09182011 0.16501094 0.038194686 -0.02289788
000300 1b 97 07 3d ee 5e 17 bd 2f d0 76 3d b1 2e f3 3d
       0.03310309 -0.036955766 0.060257133 0.1187414
000310 4f 0b 47 3d 35 d3 5d 3e 42 47 19 3e 2c 73 1b 3d
       0.04859477 0.216626 0.14968589 0.037951633
000320 40 22 7f bd 3d f1 4b bd a4 f3 da 3d 49 c2 61 3e
       -0.062288523 -0.04979061 0.10691002 0.2204677
000330 c4 a7 8b bd eb 8a 47 3d e8 99 3c be d2 07 87 be
       -0.06819108 0.048716467 -0.18418086 -0.26373154
000340 48 a5 a6 3d ab 9a a8 be ca 34 56 3d 87 6f 30 bd
       0.08136994 -0.32930502 0.052296437 -0.04307511
000350 c8 63 c0 bd a2 f6 56 3e 29 26 1b bd e3 44 21 bd
       -0.09394032 0.2099252 -0.03787819 -0.039372336
000360 5e 32 98 bd e7 c7 2b 3d 86 00 60 be b0 b2 19 3e
       -0.07431482 0.04193869 -0.218752 0.1500957
000370 11 c5 20 3c bd 3a 9b bd 23 3b 0e 3e e6 40 38 3d
       0.009812609 -0.07579563 0.13889746 0.044983767
000380 d7 33 07 3c 91 1f 80 bb 8d ce 46 3c 76 6b aa 3d
       0.008252106 -0.003910013 0.0121342065 0.08321278
000390 37 07 89 3d 45 24 74 bb 94 ab eb bd 47 e9 3b 3c
       0.06690829 -0.0037253064 -0.11507335 0.011469192
0003a0 d2 20 39 bd 34 91 80 3d 4a 84 d5 3c f4 c2 1c be
       -0.045197316 0.06277695 0.026064057 -0.15308744
0003b0 e3 a1 6a bd 91 9a 07 3e 94 68 25 3e 11 5b 71 3e
       -0.057283293 0.13242556 0.16153175 0.23569895
0003c0 8f d2 be bd e0 a6 56 bd d6 a0 a3 bd e1 6f 0f 3d
       -0.093175046 -0.05240524 -0.079896614 0.035018805
0003d0 85 8f 5a 3e 12 9a b8 bd 50 8e 7b bd 7e 79 66 be
       0.21343811 -0.090137616 -0.061415017 -0.22507283
0003e0 6a ae f8 ba b3 5e 9b bd 8b 80 8b bd 98 5a cf bd
       -0.0018972878 -0.07586422 -0.06811627 -0.10124701
0003f0 75 6f 98 3d f6 c8 09 bc ec 36 2d be f7 4b 0b 3e
       0.07443134 -0.008409729 -0.16915482 0.13603197

cnn_net.3.bias f4 [32]
000000 2f ab 8e 3b 56 39 cb b9 12 4e 5d ba a7 c6 c1 3a
       0.004353903 -0.00038761896 -0.00084421143 0.0014783934
000010 7c eb eb ba 7d cb 0c 3c 2f eb 01 bc e8 51 96 bb
       -0.0017999257 0.008593437 -0.007929607 -0.0045874007
000020 a1 e8 cf bb eb 4e b8 ba 9f 5e 1d b9 06 37 32 3b
       -0.00634487 -0.0014061605 -0.00015007936 0.002719344
000030 29 77 dd 39 6b 9b e8 bb 36 51 bd bb 17 58 69 3c
       0.00042241186 -0.0070986054 -0.0057775034 0.014242194
000040 8f 66 b6 3a 55 f2 94 bb ce 9d 83 3b 45 18 93 b8
       0.0013916063 -0.00454549 0.0040166145 -7.014027e-05
000050 d2 88 da ba e1 c9 1d 3c 76 16 80 3a a8 4d bf bb
       -0.0016672856 0.009630651 0.0009772319 -0.005838115
000060 9f 89 ec bb f3 a5 cf 3a b9 3c 35 bb 36 2a d5 ba
       -0.007218554 0.0015842303 -0.0027654602 -0.001626319
000070 a7 9a da ba 86 7d 65 3b 6f f2 15 ba 65 f4 6c bb
       -0.001667817 0.0035017445 -0.00057200243 -0.0036156413

hidden.weight f4 [32, 128]
000000 d4 ab c9 bd 4d f5 c2 bd 0f 18 4d bd 9e 3e 86 bd
       -0.09847227 -0.09519444 -0.050071772 -0.06554912
000010 4f 25 4f 3e 4c b1 47 be e6 c6 8e 3e ae d2 93 bd
       0.20229076 -0.19501227 0.27886122 -0.07217918
000020 9e 40 1e 3e 7d 83 19 3d 67 3f 35 bd 23 9b 12 3e
       0.15454337 0.037478913 -0.04424992 0.14316992
000030 c3 0e e2 3c 95 59 32 bd 77 9a 34 3d 20 da d8 bd
       0.02759493 -0.043542463 0.04409262 -0.10588479
000040 c3 c4 65 be 7d 8b 9e bd 3a 20 d7 3d 8f 22 12 bd
       -0.2243834 -0.07741449 0.105041936 -0.03567749
000050 66 bc df bd 5e c1 12 be 8b c9 a3 3d 48 5f d7 bd
       -0.10924606 -0.14331576 0.07997426 -0.1051622
000060 f3 31 73 be ee c1 45 3d 37 69 3d be 73 ff a5 bd
       -0.23749523 0.04828065 -0.18497168 -0.08105364
000070 bc 2e 92 3d 5c cb 0e 3d b9 27 32 bd 39 f5 11 3b
       0.0713782 0.034861907 -0.043494914 0.0022271408
000080 15 71 25 be e5 dc f9 bd 96 bf 3a be d6 e5 33 3e
       -0.16156419 -0.122003354 -0.18237147 0.17568144
000090 c0 48 08 be 11 a4 84 3d 82 fc 7f bd 0b e6 7c 3e
       -0.13309002 0.06476606 -0.06249667 0.2469713
0000a0 02 5e f0 3d b3 df 21 3d df 7f a6 bc fc 9e 95 bd
       0.117366806 0.039519977 -0.020324646 -0.073057145
0000b0 bb a2 26 bd 87 50 8d be ab b3 3f be 09 9f 1a bd
       -0.040682536 -0.276005 -0.18720882 -0.037749324
0000c0 59 84 02 3e 91 a5 d5 bd 62 4f 31 3e 24 2e 7e be
       0.12745799 -0.1043197 0.17315438 -0.24822289
0000d0 38 95 72 bd 8f b8 eb bc 6b 98 ee 3d 12 28 8c bc
       -0.059224337 -0.028774528 0.11650165 -0.01710895
0000e0 61 60 83 3d 0b bc 43 be 76 54 e0 bb 9c bf 24 be
       0.06414867 -0.19114701 -0.006846006 -0.16088718
0000f0 cb 6b fb bd 30 69 11 be 24 4a e0 3d 08 f7 8c 3c
       -0.12276419 -0.14200282 0.10951641 0.017207637
000100 1a a6 bd 3d 2a 77 45 bd 63 76 a2 bd 0e 84 04 be
       0.09260197 -0.048209347 -0.07932737 -0.12941
000110 37 36 ed bd 99 2e 28 3d 04 ac 09 bc a8 9c 3f bc
       -0.11582606 0.041060064 -0.008402828 -0.011695065
000120 23 34 85 3d 0a c7 ed 3d 27 1e 62 be f9 40 fe bd
       0.06504085 0.11610229 -0.22081815 -0.12414736
000130 23 85 8b bc a4 e3 eb bd bd c1 ea 3d ec 7b 4a 3e
       -0.017031258 -0.115180284 0.11462734 0.19773835
000140 f9 99 41 bd 3e c8 d4 3d f3 a0 54 3e ef 6b d6 bd
       -0.04726598 0.10389756 0.20764522 -0.104698054
000150 1c a6 65 bc f2 7e 77 3d d1 49 53 bd cc 25 30 3d
       -0.014016654 0.0604238 -0.05158407 0.043004796
000160 95 ec c9 3c 7a bd 68 3b 98 85 77 3e 5d d7 48 3e
       0.024648944 0.0035513327 0.24172056 0.19613405
000170 2c b7 93 bd da 66 e0 3d 45 6d 6a be fa 8a 1c bd
       -0.07212672 0.109571174 -0.22893246 -0.038218476
000180 79 28 e7 3d af 0a 0a 3c ba c2 f3 3d cd 91 2d 3e
       0.112870164 0.008425399 0.119023755 0.1695015
000190 76 8b ac 3d 41 9e 1d 3d b4 d6 13 3c 7d 1d b7 3c
       0.084250376 0.038481 0.009023357 0.022352928
0001a0 74 36 9c 3c 03 1b 9f 3e cf 70 a2 bd bc ca cb 3e
       0.019068934 0.31075296 -0.07931673 0.39803112
0001b0 59 a8 13 3c 0e da 0f 3d 65 b0 a5 3d 7e aa d0 bd
       0.009012305 0.035120063 0.08090285 -0.10188769
0001c0 e8 d1 18 be dc 66 67 3d 6c ec 41 3b 7f 0c 90 bc
       -0.14923823 0.05649458 0.0029590381 -0.017584084
0001d0 89 08 b8 3c 06 9e 66 3e 11 e3 88 bc a9 cb 11 3d
       0.022465007 0.22521219 -0.016709836 0.035594616
0001e0 18 00 36 3e 8c 69 2b bd fb 07 05 3e 73 24 1e 3e
       0.17773473 -0.041848704 0.12991326 0.15443592
0001f0 5f 2f e9 bc f2 30 a9 bd 08 fc 59 bc 24 e9 2e 3d
       -0.028464971 -0.08261289 -0.013304718 0.04270281
000200 b1 cb d3 3c e1 fe dc bd c8 cc 1c 3e 0d 5d 14 be
       0.025853964 -0.10790802 0.15312493 -0.14488621
000210 6a bc 76 bc b9 88 fe 3d a9 fd 44 be 22 50 a3 be
       -0.01505957 0.124284215 -0.19237389 -0.31897074
000220 c7 cf bb 3e c5 db 9c bd de e0 7d bc 3b 27 d4 bc
       0.3668196 -0.07659105 -0.015495507 -0.025897613
000230 db 65 68 3e e4 4e a9 3c fa 05 88 bd 20 32 d6 ba
       0.22695105 0.0206675 -0.06641765 -0.0016341843
000240 2b d4 57 bd 29 95 84 3e 4d 13 85 bd da b4 ce 3d
       -0.052692574 0.2589505 -0.06497822 0.100930884
000250 1b e0 dc 3d b4 3c e0 bd 59 1a f4 bd 42 aa e9 bd
       0.10784932 -0.10949078 -0.11919088 -0.11409427
000260 93 13 bf bd 3e db ae 3d 67 a1 7f 3d 7f 02 e5 3c
       -0.09329905 0.08537911 0.062409785 0.027955292
000270 36 da 38 be 37 90 33 bd 5d 27 c6 3d 46 33 08 be
       -0.18051991 -0.043838706 0.09675477 -0.1330081
000280 17 02 d1 bc cf d5 d1 3d ee 8c 42 3e 3b ab 4c 3d
       -0.025513692 0.10245859 0.18999073 0.049967986
000290 93 b4 ec 3d 9d 78 2e bd be 99 a4 bd b4 5f cb 3d
       0.11557879 -0.042595495 -0.080371365 0.09930363
0002a0 77 35 ce bc bd de 1f be 73 11 df 3d a8 41 8f bd
       -0.025171978 -0.15612312 0.10892 -0.06994945
0002b0 75 77 39 bd f6 f1 91 3d 9c 81 32 be ba 4d d0 3d
       -0.04527994 0.071262285 -0.17432255 0.10171075
0002c0 86 42 88 3d a9 be b3 3c 03 21 8e bd f9 18 75 3c
       0.06653313 0.0219415 -0.0693989 0.014959567
0002d0 f5 3c 81 bd 98 6a fe 3d 86 0b a1 bd 65 e9 f1 3d
       -0.06310455 0.12422675 -0.07863526 0.118120946
0002e0 f0 b9 0e 3d 2f 96 3a 3c 52 04 55 be 81 bb d1 bc
       0.034845293 0.011388346 -0.2080243 -0.025602104
0002f0 ae 59 7d bd 8a 6e bb bd b6 87 95 be 39 69 70 3b
       -0.061853103 -0.09151943 -0.29205102 0.0036683811
000300 97 6b d0 bc 1a ec 0c 3e 11 23 10 3e 7a 87 ca 3d
       -0.025441928 0.1376194 0.14075877 0.09889121
000310 f1 e1 53 be 50 46 85 bd f0 41 63 bd a4 0a 1e bd
       -0.20691659 -0.06507552 -0.055482805 -0.038584366
000320 71 9e 17 bc c7 2e fa 3d ff 79 2f bd 30 2a c2 bc
       -0.009254084 0.12215953 -0.042840954 -0.023701757
000330 74 1b a5 3d 7c 53 7d bd a5 eb a7 3d ff f8 11 3e
       0.08061877 -0.061847195 0.081992425 0.1425514
000340 3f 3e 8b bb ca c2 ca bc 02 e8 ea 3d 5d 7a dd 3d
       -0.0042493637 -0.024751086 0.11470033 0.108143546
000350 cd 5e 9a 3e ce ae 3d 3d ee f3 bc 3d f4 70 17 be
       0.30150452 0.046309285 0.092262134 -0.14789182
000360 2a b7 90 3d 1f 45 07 3e 7d e8 3e 3d 59 7d d9 bc
       0.07066186 0.13209961 0.046608437 -0.026549028
000370 53 42 08 bd 04 61 43 3e f2 ed 40 3e 66 eb a6 3c
       -0.033266377 0.19079977 0.18840769 0.020375919
000380 b7 c9 c1 bd b4 d5 0a bd a3 0c 8c bd a2 99 46 be
       -0.09462302 -0.03389521 -0.06838348 -0.19394544
000390 f6 62 59 be 57 53 c6 bb 2b a8 1d bd fc 2a 34 be
       -0.21229157 -0.0060524154 -0.038490456 -0.17594522
0003a0 d4 26 eb 3d 7e 6d 64 3e ac f7 a1 bc 6d 26 89 3d
       0.11482015 0.22307393 -0.01977142 0.06696782
0003b0 77 e0 c7 3d f9 d1 92 bd 79 f8 82 3d 58 65 00 bd
       0.0975961 -0.07168955 0.06395049 -0.03134665
0003c0 82 9f 3a bc 9b 8f c3 bd 48 27 02 be bd e3 db 3d
       -0.011390569 -0.09548875 -0.12710297 0.10736797
0003d0 d3 73 8b bd ab e8 32 bd d9 56 9d be a8 98 ab be
       -0.06809201 -0.04367892 -0.30730322 -0.33514905
0003e0 6f 1b 1e 3d 2a d2 f4 bd 55 14 04 bd cd 49 98 3d
       0.03860038 -0.11954148 -0.032245953 0.074359514
0003f0 cb cd 80 3e f9 e0 12 3e 82 8d 70 bb 32 b8 33 be
       0.25157008 0.14343633 -0.003670544 -0.17550734

hidden.bias f4 [32]
000000 45 d3 88 3b 33 f5 11 bc 93 77 69 3b 2c 73 e6 3a
       0.004175576 -0.008908558 0.003562425 0.0017581931
000010 4b 8a 25 3c 5d 95 67 bb 1c e0 7d bb 52 0f e9 bb
       0.010103772 -0.003533683 -0.0038738316 -0.007112422
000020 5e 5b d0 b9 fb c7 76 ba a8 f2 5a bc 94 71 a9 bb
       -0.00039740925 -0.00094139547 -0.013363518 -0.0051710103
000030 08 08 d3 3b 3f d0 03 bb 91 36 16 bc c2 41 e7 bb
       0.0064401664 -0.0020113138 -0.009168283 -0.0070573995
000040 a0 da 81 3b 00 0a b6 bb 9c 83 fa bb 1d ef 4f bb
       0.0039628297 -0.0055553913 -0.0076450836 -0.0031728216
000050 07 8b 01 bc 02 ce e4 ba e0 97 85 3b e6 57 83 3b
       -0.007906682 -0.0017456415 0.004076943 0.004008281
000060 33 72 ef ba 47 b2 05 3a e5 3a 19 3c 68 70 82 bb
       -0.0018268287 0.0005100113 0.00935242 -0.003980685
000070 b3 fa be bb 00 00 00 00 00 00 00 00 d8 6b b7 3b
       -0.0058282255 0.0 0.0 0.005597573

mu_layer.weight f4 [2, 32]
000000 4c 54 db bc eb 8a 26 3e 20 46 c5 3e c2 a9 ca bd
       -0.026773594 0.1626393 0.38530064 -0.0989566
000010 45 3c ec 3d c1 5e c3 be 11 98 90 3e 03 b1 eb be
       0.11534933 -0.3815823 0.28241017 -0.46033487
000020 bd 54 b2 bd b2 00 35 be 75 0f 6c 3e 99 78 e9 bd
       -0.08707569 -0.17676046 0.23052771 -0.11399955
000030 c7 c0 ac 3e 30 ae 73 bd f1 b1 00 be eb f2 19 3d
       0.33740827 -0.05949229 -0.1256788 0.03758518
000040 92 03 89 be d8 78 06 be c0 5b 34 3d 65 02 63 3e
       -0.26760536 -0.13132036 0.044032812 0.22168882
000050 1b 9e 82 3e b5 c6 12 be 47 81 d9 3e 54 4a 5e be
       0.2551125 -0.14333613 0.42481443 -0.21708041
000060 20 27 41 3a b7 58 8d 3e d9 2e b1 3d 84 8f fa bc
       0.0007368196 0.27606747 0.086515136 -0.030586012
000070 b7 f5 24 3f 73 32 bc 3c 69 ac a6 3d f8 97 c5 3e
       0.6443743 0.022973275 0.081383534 0.38592505
000080 56 e7 26 3f 35 47 0b 3d 95 af 8a 3d c2 e8 d5 3d
       0.6519674 0.034003455 0.06771771 0.10444786
000090 1d 9e 53 3e 5f 4c 42 bc 2b e1 6a be f4 df 82 3e
       0.20665784 -0.011859029 -0.22937457 0.25561488
0000a0 06 8a 86 be 6d cc 92 be 4d 3a 77 be 77 8f 0b 3d
       -0.2627718 -0.2867159 -0.24143334 0.034072366
0000b0 87 70 ac 3d a7 25 ef 3d e6 6c 8c be f5 9c 0a be
       0.084199004 0.116771035 -0.27426833 -0.13536437
0000c0 51 e4 d3 3d d8 7d 24 bd e5 8d c0 3e 3d 62 04 be
       0.10346282 -0.040159076 0.37608257 -0.129281
0000d0 a6 cd a4 be 88 44 0b bd 55 ed 62 3e 3c 46 0c 3e
       -0.32188147 -0.034000903 0.22160847 0.13698667
0000e0 64 0e 26 3e 7d bd b6 bd 40 53 e7 bc 22 69 0b 3f
       0.16216427 -0.08922861 -0.028237939 0.54457295
0000f0 57 cd 8f 3d 46 fe ff 3e 59 8d f0 3d 31 4d 95 3e
       0.07021587 0.49998683 0.1174571 0.29160455

mu_layer.bias f4 [2]
000000 12 a9 89 3b 4b 83 ec bc
       0.004201063 -0.0288712

log_std_layer.weight f4 [2, 32]
000000 8b 6d 25 be b3 a2 52 be 40 47 68 bc e6 c8 75 3e
       -0.16155069 -0.20569877 -0.014177144 0.24002418
000010 12 44 99 3e 12 fa 72 3e 2e c7 80 3d c4 47 81 3e
       0.29934746 0.23728207 0.062879905 0.25250065
000020 3b a6 98 be b7 52 b4 3e f7 c2 08 bf 0d f2 2c bd
       -0.29814324 0.35219356 -0.5342249 -0.042223025
000030 79 be 35 be cf c0 8d be 0e ca 97 3e 0c a4 3f bd
       -0.17748441 -0.27686164 0.29646343 -0.046787307
000040 e0 a8 56 bc b9 ec d4 be 4c 36 91 3d e8 f5 a7 3e
       -0.013101786 -0.41586855 0.070904344 0.328048
000050 b3 2c 8c be 47 74 95 3d 03 f5 47 3e 34 fc ab 3c
       -0.27377853 0.07297569 0.19527058 0.020994283
000060 9d 15 00 bf 6a e3 23 3d 3b a8 0f 3e 46 b9 c6 3e
       -0.5003298 0.0400118 0.14029019 0.38813227
000070 be 86 76 3e ed 34 33 3e 85 1d 2c be 02 4d bf 3b
       0.24074838 0.17500658 -0.16808136 0.0058380375
000080 bb a9 1c 3e 40 92 60 3e fc 00 9e 3e 36 b9 0c bf
       0.15299122 0.2193079 0.30860126 -0.5497011
000090 61 ba 1a be 48 15 5b 3c 45 3b 9e 3c 3a 68 8e 3e
       -0.1511016 0.013371773 0.019315371 0.27813894
0000a0 6d 3d ee bd 11 c5 3c bd 78 4e b0 bd a7 02 21 3e
       -0.1163281 -0.046086375 -0.08608717 0.15723668
0000b0 54 1c db 3e cc 85 1a bd 67 b7 16 3f 1a 28 75 3d
       0.4279505 -0.037725255 0.588736 0.059852697
0000c0 4a 4a 75 3e 30 22 f0 3d a2 60 68 be 12 bc 90 bd
       0.2395412 0.11725271 -0.22693112 -0.070671216
0000d0 51 d7 09 3e c9 0b d8 3d b6 af 31 3e 30 8f d2 3d
       0.13461043 0.10549123 0.17352185 0.10281217
0000e0 0a b5 86 bb ec 05 16 3e 29 a0 1b bf f3 92 b3 3e
       -0.004110937 0.14650697 -0.6079126 0.3507305
0000f0 b7 71 56 3e be 7c a1 be 9a bb 55 be 7b da 1c 3e
       0.20941816 -0.31540483 -0.20872346 0.15317719

log_std_layer.bias f4 [2]
000000 90 c1 de 3b 60 a1 09 3c
       0.006797977 0.008400291
