train_history/olympics-running/12_6_16_49/actor.pth (torch, 48200 bytes, 14 tensors)

encoder.0.weight f4 [8, 4, 3, 3]
00000000: d75d 01bf 752b a43d aad4 833e dda1 69be
00000010: ffc7 58be c587 94be 66ed acbe a5fe bfbc
00000020: ab2a 703e 6535 ddbd ecf0 f2bc 4d21 d03d
00000030: b947 f9be ea8d 5cbe b447 1abe 14a1 94be
00000040: f038 d4be f457 c93b f3e9 8f3d bff6 0a3e
00000050: 5a4b a3bd 6839 58be 353c c13e be2d d13e
00000060: 04f8 813e 266d 0f3f c32f 83be cf9f 4a3e
00000070: 1be0 453e 1cfa 33be 6b8a 283e d0f5 ab3e
00000080: 9acb 763e f1a5 a43d ef27 c8be 293a a3be
00000090: 7a35 303e a68a 743d 2c1b 0cbf b961 d53d
000000a0: f30b 033f 79fc 82be 5c16 0f3e 11ab 1dbe
000000b0: c4d1 aa3e 1064 3a3f a64b 573e 12f7 6c3e
000000c0: bfe6 343d dab6 663e 1907 0a3e 7aca 173c
000000d0: 7a01 a1bd e678 093f f08f a73e 50c6 e3be
000000e0: 5289 023e db96 0d3e f401 8b3e 6fc8 ab3d
000000f0: f4dc 913e 47e3 903e cf93 c63c 9839 14be
00000100: a00b f23d 6b58 ba3c bf0a 8d3e 2f0f 8fbd
00000110: a05b c0bc e94d 42bc 0069 3d3d 2ff5 1a3e
00000120: 56ab 17be 66c3 8c3e 24d6 653e 4a40 a43e
00000130: 7dca 343e 44b2 343b 6433 21be 832c 6e3e
00000140: 902b bc3d 7339 3f3d df0e babd 9d6f 27bf
00000150: 3b68 cbbb 7d63 acbe e2a6 633b 2f4c 603c
00000160: 8eb2 af3c 9363 b3bd 1e9d 133e 811c ee3e
00000170: 61c3 47be 4a07 ea3d b4df aa3e 86c9 a6bd
00000180: fd9c 5f3e e0ad 2e3e b896 013e dd35 5bbe
00000190: 4c07 133d a4fb 553e 8d8a 91bd 19b0 a7be
000001a0: ff22 1a3d c5c1 b93b 7b5b 263e ecc3 c83e
000001b0: a2ad b33e 100f 763e 4523 44bd c560 8f3d
000001c0: b5b6 b03e 62f4 3e3d 8d5a 223e df90 963c
000001d0: 7f82 b13d a1e2 e5be 0cb9 863e 80ca 253e
000001e0: 8bae 9cbe 643f f7bd ab0e aebe 6b2f 3d3c
000001f0: c59a 323e 47f4 063e 0efb e53d ce7e 863c
00000200: 6985 943e 0f4d 43bf d9ec b5be 0b11 a5bd
00000210: 578a f0bd c9b8 ca3e 574c c1bc f517 b63c
00000220: a7ab 19be c32a 273d 606e 6d3d 5cd8 c8be
00000230: aef0 79be 5c9c 41be 7f4c 46be dee2 2cbd
00000240: bfc2 ae3d 7dda 0bbe 72f0 003e d4c7 093f
00000250: 3cfc 03bf 5a32 493e f71d 863e c8e5 52bc
00000260: ad3f e93d 27e1 7dbd 68bb 703e ae8e 9f3d
00000270: 6a03 4b3c a155 54bd 5b96 6cbd 19ff 223e
00000280: 8752 cb3d 1caf 0f3d 1313 1dbf f661 443d
00000290: 7255 253f 3cb0 76be 01dd 083f 91f1 b7be
000002a0: aca4 673e c114 a03d 67d5 8cbe 36a6 cdbd
000002b0: e19e 873d 6d6c 99be d5e4 65be 1278 e9bd
000002c0: 6cdc 5c3e ffb1 67be edc6 58bd 6041 7a3d
000002d0: 90fb a5be 3b29 8c3e e973 9abe e96d ca3d
000002e0: 3ed0 eabd 06e8 7d3e 0b43 44be b907 a23d
000002f0: a8c9 323d efc1 05be bb29 54bd b9e4 7fbd
00000300: 89a7 cdbd 35e8 9d3d c720 56be 82d4 01be
00000310: 8732 a33d 4614 c53e 64d0 ae3e da76 883d
00000320: d94e 223e b1de e93b 0426 b73e 3242 08bf
00000330: 8c0e d3be e0ae fbbd e378 983e 2521 95bd
00000340: 66e7 89be 531c 3bbd 32db bb3e 446e 9b3e
00000350: cc2d a23e d806 68be 3000 7ebe 8556 bcbe
00000360: 8074 823e f14b fa3e d8d9 24be 6ed5 a13e
00000370: 17f7 90be 9160 93be 07fd 973e edfc a3bd
00000380: e06b b7be 52d7 21be 2208 a53e 08f1 1e3e
00000390: 203f 0c3f b630 86be cf6a 26bd a3f5 13be
000003a0: 6ddd 383e 00cf 79bd f8ea 573e 1fa8 9fbe
000003b0: f3ea f2bd c023 793d 5d50 8a3c 2256 553c
000003c0: deac 7f3e 5d1a 5d3e d968 ae3e b8d5 ca3e
000003d0: 1d3b 90bd a179 2abd f20e 59bd 88fd 32bd
000003e0: a88d 84be bc4e 4f3d 8959 40be d17d 91be
000003f0: 3492 6bbd 6137 fabe 3cf7 933e 329f 913e
-0.50533813 0.08016101 0.25748187 -0.22815652 -0.21170042 -0.29009834 -0.3377487 -0.023436854
0.23453777 -0.108012 -0.029655896 0.101626016 -0.48687533 -0.21538511 -0.15066415 -0.29029143
-0.4144969 0.006144518 0.07027044 0.13570689 -0.079733565 -0.21115649 0.37741247 0.4085521
0.25384533 0.5602592 -0.25622377 0.19787525 0.1932377 -0.17575878 0.16459052 0.33585978
0.24101105 0.08039463 -0.39092967 -0.3188031 0.172079 0.059702538 -0.5472896 0.1041903
0.5119011 -0.25583246 0.13973373 -0.15397288 0.33363163 0.72808933 0.21024951 0.23141125
0.04416537 0.2253069 0.1347927 0.009264583 -0.0786161 0.537001 0.32727003 -0.44487238
0.12747696 0.13827078 0.27149928 0.08387839 0.28488886 0.282984 0.024240403 -0.14475095
0.118186235 0.02274724 0.2754726 -0.06985318 -0.02348119 -0.011859396 0.046242714 0.15132593
-0.14811453 0.27492827 0.2244497 0.320803 0.17655368 0.0027572075 -0.1574226 0.23259167
0.091879964 0.046685647 -0.09084868 -0.65404683 -0.0062074936 -0.33669654 0.003473692 0.013690039
0.021447446 -0.08759227 0.14415404 0.46506122 -0.19508125 0.114271715 0.33373797 -0.08143906
0.2183723 0.17058516 0.12655151 -0.21407266 0.03589563 0.20896775 -0.071065046 -0.3275154
0.03763103 0.005668851 0.16245835 0.39211977 0.3509341 0.24029183 -0.0478852 0.07000879
0.34514394 0.04661978 0.15854855 0.018379627 0.08667468 -0.44899467 0.26313055 0.16190529
-0.30601916 -0.12072638 -0.33995566 0.01154695 0.17441852 0.13179122 0.112295255 0.016417887
0.29008034 -0.7628946 -0.35532263 -0.08059891 -0.11745136 0.39594105 -0.023595972 0.02222822
-0.15006886 0.040812265 0.05796659 -0.3922757 -0.24408218 -0.18907303 -0.19365118 -0.042208545
0.085332386 -0.13657565 0.12591723 0.5382054 -0.51556754 0.19648114 0.26194736 -0.012872167
0.11389098 -0.0619823 0.2350899 0.07790886 0.012390951 -0.051839475 -0.057760578 0.15917625
0.0992785 0.035079107 -0.6135723 0.047944985 0.64583504 -0.24090666 0.53462225 -0.35926488
0.22621411 0.078164585 -0.27506563 -0.10041468 0.066221006 -0.29965535 -0.22450574 -0.11399855
0.2156846 -0.22626494 -0.052924085 0.061097503 -0.3241849 0.27375206 -0.30166557 0.09884245
-0.114655 0.24795541 -0.191662 0.07911629 0.043649346 -0.13062261 -0.05179761 -0.062473986
-0.100417204 0.077103056 -0.20910941 -0.12678722 0.07968622 0.3849203 0.34143364 0.06663294
0.1585039 0.0071371426 0.3577119 -0.53226006 -0.41222036 -0.12289214 0.2977973 -0.072817124
-0.26934355 -0.04568131 0.3669067 0.30357563 0.31675565 -0.2265886 -0.24804759 -0.3678476
0.25479507 0.48886064 -0.16098726 0.31608146 -0.28313515 -0.28784612 0.29685232 -0.08007226
-0.3582449 -0.15804794 0.32232767 0.15521634 0.5478382 -0.26209038 -0.040629204 -0.14449172
0.18053217 -0.060988426 0.21085727 -0.31182954 -0.11861219 0.06082511 0.016884023 0.013021024
0.24968287 0.21592088 0.34064367 0.3961618 -0.07042525 -0.0416199 -0.05299277 -0.043698817
-0.25889325 0.050612196 -0.18784155 -0.28416303 -0.057512477 -0.48870376 0.28899562 0.2844177

encoder.0.bias f4 [8]
00000000: 2f16 b0bc 6c3a ac3b 8060 bdbd 1e18 1b3c
00000010: 7ed9 d9bd b998 e83c 3892 7abd 40a8 f0bc
-0.021494953 0.005255988 -0.092469215 0.009466199 -0.106371865 0.028393136 -0.0611746 -0.029377103

encoder.3.weight f4 [8, 8, 3, 3]
00000000: 1087 f63d a782 0ebf f2ff 7cba 7820 7c3e
00000010: e32a 2fbe 340f 613e 3c28 c7bd 90c4 e03d
00000020: dff7 123d e784 193d b920 23bd 1c68 3ebe
00000030: 8a90 a0bd acc1 b33d cfaf aebe 0455 acbd
00000040: 603b 493e 8ccb 11be 0d3c 093d 05c3 1e3c
00000050: 2478 6dbd 489b 3d3e d09e 4dbe 060e c9bd
00000060: ebda 173e 2910 0bbe f385 a1be e28b 22be
00000070: 1c18 6a3d 1a39 21be 024f ac3d a203 e63d
00000080: 9ea2 e23e d470 f7bd 73c5 2c3e 3e6f e8bd
00000090: 3b43 cd3c 52a2 0abe a052 a6bd e8ca 3bbd
000000a0: b967 c5bd 0e4a 99be 07c1 6cbe 6267 b83e
000000b0: c624 0bbe 59e8 223e 68d7 4fbc 2c39 f53d
000000c0: 65b2 0dbe 6328 c53e cd9c 803c a1b3 973d
000000d0: 14f5 ba3e 2242 bcbc 0de3 f2bd ceff 81bc
000000e0: 04af 4e3e 41bf db3c 862b 343e ae1c 873e
000000f0: 994d 073e b48e 1fbe 19e5 1e3e 1da1 df3c
00000100: 79c5 7c3b fd9d 923e 6155 2cbe 74f3 0d3d
00000110: 74f2 1cbd 1741 b93d e7dc c03d 8a0a f63d
00000120: 4553 e6be 4a48 dcbd dad4 823e 473c 20be
00000130: 5227 94bd cc49 ddbc e0db 14be 62b0 29bd
00000140: 505a abbd 599e 74be 55e9 7abd 1955 643d
00000150: 9201 ebbc 894d 86be 547b 453e 8d53 8a3d
00000160: 1d8c d33e 6d41 fdbc 60fc 87be 06e5 283d
00000170: 5563 593e beba 72be 8a95 2bbd 56e8 aa3c
00000180: 98ea a53d 7d65 b53d 1095 bcbd 61a8 ddbd
00000190: 3250 fd3c 6bf7 61be 674d 213e 6bbf c53d
000001a0: 2392 de3c a541 363c 8b08 94be f210 a2bd
000001b0: 90cb 5bbe 59cb 77be 662b 5dbd bb79 30be
000001c0: 476b babc 7973 913e 8b0d 0c3e 1b7f 003f
000001d0: 9374 4b3e 503b a33e 49e1 133e 6c46 b43e
000001e0: e030 bbbd a357 d0bd 6d66 69bd 5af3 27be
000001f0: bd5f 58be a37a b0be a593 58bd 92ff 31be
00000200: 5ed6 003e c12c 2dbe 0fa0 193e a83d fb3d
00000210: 8390 f83d 8716 6b3e 69b2 11be adaa 97bd
00000220: c505 54be 4ab8 0abe 15f8 f6bc 727e 5c3e
00000230: 6fc1 2ebd 790d 61bd 56e7 47be 3625 7cbe
00000240: 43e3 03be 3b1b b33d 1d4e 0ebd df8f b83c
00000250: 146b bbbe af39 64be 2bac 43bd b8e2 0cbe
00000260: c07b dbbc 1d72 4abd acc8 903e 6535 303e
00000270: d18c 31be cc6e 21be 296a 5dbd 5dcb 993e
00000280: c3ac 98bd 4575 5fbe 2d49 e93d 6aaf ddbc
00000290: f8d4 f43e 8a9d 62be 0cb8 73be 0914 68be
000002a0: e960 443e acab 8fbe fca5 e63c 78c8 3abe
000002b0: 9cb3 2d3d db31 743e 2bee 983e 7436 903b
000002c0: 1c00 4a3e 4ea3 1d3e 0031 733e d9cb 4ebe
000002d0: 79b2 62be 1c0e 0d3e a584 6f3d 661f c4bd
000002e0: d977 0abc 33f0 63be c276 de3d cb2e 20be
000002f0: 4ebe babd caf0 36be 7692 933e d584 05be
00000300: c848 87bb 0471 14be ec46 a0be 7357 9cbd
00000310: 47be 4abc 1299 2cbe a283 b33c 02a6 62bd
00000320: 1e97 f93d 9086 893e b961 de3c e31f 143e
00000330: b7d4 3a3e 871c 763d d69a 79be 463e 8fbe
00000340: b880 e73e 5b6e 05be f1d3 173d 8742 a9bc
00000350: 79dd 383c 8ced 863b f816 7a3d 3222 8fbe
00000360: 8a51 8d3e 0e0d 193c a1ef 54bd b10c 773e
00000370: a180 ad3c e30b 303e 662b 443e a981 193e
00000380: b980 a83d 6f15 763d 1930 e1be b4ec 54be
00000390: d3a6 27be 5160 5cbe ba4c 153c 6e84 43bd
000003a0: 77ef 0c3e 2a48 73bc 8076 25be 6019 34bb
000003b0: bcb4 04be da6e 31be 3cf4 39bd a423 60bc
000003c0: d377 1d3e e92a e5bc 08d0 403d c12d 67bd
000003d0: 920f e1bc fffe a43e f097 263e e29d 3abe
000003e0: 5475 16be 2981 d6bd 1ec2 c6bd 9adb a4bc
000003f0: 81c1 ab3e 3ef7 9abd d530 ad3e a3f7 82be
0.1203748 -0.5566811 -0.0009651176 0.24621761 -0.17106204 0.21978456 -0.09724471 0.10974991
0.03588092 0.03748026 -0.03982613 -0.18594402 -0.07840069 0.08777174 -0.34118506 -0.08414653
0.19651556 -0.14237803 0.033504535 0.009690051 -0.057975903 0.18516266 -0.20080113 -0.09817128
0.14829604 -0.13580383 -0.31547508 -0.15873674 0.0571519 -0.15744439 0.08413507 0.11231162
0.44264692 -0.12082067 0.16872196 -0.11349343 0.025056472 -0.13538483 -0.08121228 -0.045847803
-0.09638924 -0.29939312 -0.23120509 0.36016375 -0.13588247 0.15908946 -0.012685634 0.11973795
-0.13837583 0.38507375 0.015699768 0.07407308 0.36515105 -0.022980753 -0.11859713 -0.015869047
0.2018395 0.026824595 0.17594728 0.26389068 0.13213195 -0.1558178 0.15517081 0.027298504
0.0038569851 0.2863616 -0.16829444 0.034656003 -0.03831716 0.09045618 0.09417134 0.12013729
-0.44985405 -0.107559755 0.25553018 -0.15647994 -0.07234062 -0.027012728 -0.14537 -0.041427977
-0.08366835 -0.2388853 -0.06125768 0.055745218 -0.028687272 -0.2623103 0.19285327 0.06754217
0.41317835 -0.030914987 -0.26559734 0.04123404 0.21229298 -0.23704049 -0.04189066 0.02086274
0.08101386 0.08857248 -0.09208119 -0.10823131 0.03092203 -0.22067039 0.15752183 0.09655651
0.027169293 0.011124049 -0.28912768 -0.07913388 -0.21464372 -0.24198665 -0.053996466 -0.17233936
-0.022756232 0.2840841 0.13677041 0.5019395 0.19868688 0.3188119 0.14441408 0.35209978
-0.091401815 -0.101729654 -0.056982446 -0.16401425 -0.21130271 -0.34468564 -0.05287518 -0.17382649
0.12581775 -0.16911604 0.15002464 0.12267619 0.121369384 0.22957812 -0.14228214 -0.07405601
-0.20705326 -0.13546863 -0.030147592 0.2153261 -0.04266494 -0.05494449 -0.19521841 -0.2462357
-0.12879662 0.08745428 -0.034742463 0.02252954 -0.36605132 -0.2228763 -0.047771614 -0.13758361
-0.026792407 -0.049425233 0.282781 0.17207868 -0.17338873 -0.15764922 -0.05405632 0.30037966
-0.07454827 -0.21822079 0.1139091 -0.027061183 0.47818732 -0.22130409 -0.23800677 -0.22663893
0.19177593 -0.28060663 0.02815532 -0.18240535 0.042407617 0.23847143 0.29869208 0.0044010226
0.19726604 0.15394327 0.23749161 -0.20194949 -0.22138394 0.13774914 0.05847611 -0.09576301
-0.0084514255 -0.22259597 0.10862495 -0.1564285 -0.09118329 -0.17865291 0.28822678 -0.13038953
-0.0041285492 -0.14496237 -0.3130411 -0.07633867 -0.012374467 -0.16855267 0.021913353 -0.0553341
0.121870264 0.26860476 0.027146207 0.14465289 0.18245207 0.0600858 -0.24375471 -0.27977198
0.45215392 -0.13030379 0.037067357 -0.020661606 0.011283272 0.0041176733 0.06105706 -0.27955776
0.27601272 0.009341491 -0.05198634 0.24125935 0.0211795 0.17192034 0.1915718 0.14990868
0.08227677 0.060079034 -0.43982008 -0.2079342 -0.16372232 -0.21521117 0.009112531 -0.047733717
0.13763224 -0.014848748 -0.16158485 -0.0027480945 -0.1295957 -0.17327443 -0.045398936 -0.013680372
0.1537774 -0.027974563 0.047073394 -0.05644012 -0.027473245 0.32225797 0.16268897 -0.1822429
-0.14693195 -0.10473854 -0.09704994 -0.020124245 0.3354607 -0.07566689 0.33826318 -0.25579557

encoder.3.bias f4 [8]
00000000: 3e04 6bbc 0436 8fbd 2bed 633d 0087 13be
00000010: fc8c c03d 3a15 4dbd c9df b7bd 3751 06bc
-0.014344273 -0.069927245 0.055646103 -0.14406967 0.09401891 -0.05006907 -0.089782305 -0.008198074

cnn_net.0.weight f4 [16, 8, 3, 3]
00000000: fddc 9f3d 332f 503e 535f e0bd b868 863e
00000010: f052 97be 0425 14bf 01b1 663e 2f8a 573d
00000020: 64d7 7f3d abef 55be 08b3 913c a255 0fbe
00000030: 69ee a2be 66ec 0b3e 6da6 443d 49e0 a53d
00000040: 250e f4bb e4f1 38be 864e 1f3c 9c83 613d
00000050: 9593 963e 9710 48be c6f6 18be 8b99 a03c
00000060: 4d35 5a3e 92eb f03d e8dc 9e3e 8462 5ebe
00000070: 747f 163d aae7 fcbd d40f fdbd bdf5 f0bd
00000080: f952 41bd 926b 703d c310 b33d a318 463e
00000090: 0b06 c4bc 92d8 7fbe 8f44 9c3e 30cd 77be
000000a0: 9f8d 86be 714f 4f3e 9d7e d7bc ef7b 8b3d
000000b0: 1ed1 e8bd da9c b63d 6c8c e83d 4b10 693e
000000c0: cdea febb 69ac 8dbc b302 583e 939f 4d3e
000000d0: e7d6 833e 8b07 db3c 065b 803e b8d2 b3bd
000000e0: 9457 eb3b 4e21 3c3e e5ea 19be 50ae 673b
000000f0: 7d93 bdbd 139d 4ebd 3a04 233d 7fe2 b83d
00000100: d919 573d 3be2 aa3d 4249 453e eaaa 3d3e
00000110: 1ead 623e 2c3a 25be 8bfd af3d 2a9e 153e
00000120: bcc7 07be 05a4 0b3d ea1b 823d 5a12 29be
00000130: 2f30 933d 2091 b2bd e7f8 a53e 69da 54bc
00000140: 496e b63d 4881 843e 4a52 64bb 46f6 febd
00000150: 86f5 6b3d 8f84 1abd 9564 183e 1436 eabb
00000160: 7b19 ce3d b7f1 873e be0f 8fbe 5e35 41be
00000170: 9925 933e 4b10 33bd dd38 d1bc 6210 69be
00000180: 56a6 f0bb 915f fc3c 8e46 8b3d 9ee5 c73d
00000190: f20d f6bd 3b1e 04be 2466 c43d 8410 48be
000001a0: 8e60 503e 84fa 073d 87a3 9c3d a6f0 5dbe
000001b0: cd8b 2ebe e2ec 063e dc99 113e 023f 473e
000001c0: 3c49 0fbe b5d2 a23e f302 9dbd 8ae1 3b3e
000001d0: 729c b13c 3bf7 c5bd 7dce b7be c40e 473d
000001e0: 6482 893c 6395 94bd 8cf2 173e 0078 943e
000001f0: 3503 b53e 03ee 96be aae5 59be ab3c cabd
00000200: 266f a13d 4b72 7bbd daf4 3abe 9a22 71be
00000210: d4b7 9f3d eb28 f63c 0053 9ebc cfb5 2abe
00000220: f49e 38be 396f 9e3e 0976 89be 7f0b 673e
00000230: 97fe 03be 5efc b83d fc5a 9f3e 2d74 36be
00000240: 3d53 ff3e fd35 7e3e 0346 c33d 2da9 a5be
00000250: c416 df3e 9d05 1e3e 1157 2e3e 2d4c 41be
00000260: 6591 6dbe feac 13be 58bc 38bd ac54 77bd
00000270: b071 e1bd a673 3fbe 56de 82be 8481 023c
00000280: ef4d e03d e6c1 4c3e 99f0 293e 8a12 a33e
00000290: 0c1d 023e 680d 133e 27cc ccbd 2310 9e3d
000002a0: 7416 d1bd 132c 03be 18a0 14ba 2ce9 7dbd
000002b0: 2965 e63c 28fc 86bd a510 6e3e 20c6 12be
000002c0: c3ca 9abe 097b 803d 0a4f e73c d4a2 203e
000002d0: bb49 783e c571 76be eae4 443e af49 873e
000002e0: 8070 cdbc 5c7e a43e 2fd2 803d cbb9 82be
000002f0: 6144 7f3e 1347 e43d b12a 3d3e 9967 7b3e
00000300: 4fbc 963d 2548 c43d 74af f63d ab13 b63d
00000310: 6b24 40bd 5641 333e d50c 14bc 5467 013e
00000320: f927 46bc b487 99bd 5311 a7be e5d5 5fbe
00000330: f3ec b73d 5d4d c33d 3658 a7bd 074a 13be
00000340: 6a55 623e 83d9 babd cdbc 18be 78c9 dbbc
00000350: 2079 b43c 19ca 9abe a05b c4be 5066 dfbd
00000360: 970c 843e e69a bdbd 874e 8b3d c09b 3a3e
00000370: 7419 aebc fbcc a0be b125 43bd cfd3 8cbe
00000380: 852c 04be b513 86bd cb06 273d dcba 8a3e
00000390: 80d3 9a3e adf6 0bbd 045a b43d bf53 043e
000003a0: 4f68 073e 7969 22be c10a 863e 08fd b33d
000003b0: 967b 473e 0ebb a8bb 1e7b e3bd 710d a93d
000003c0: cf2c 993e b637 223e f737 8e3e 41f1 febd
000003d0: 4dbf 2fbe f265 54be 24c5 c13e c834 1b3e
000003e0: 8420 383d e2b5 e73d a07a e6bd e759 72bd
000003f0: 9f0f dbbd 207c 9abc 4b5b f1bd 924d 843d
0.07805822 0.20330505 -0.10955682 0.2625177 -0.29555464 -0.5786898 0.22528459 0.052622017
0.062461272 -0.20892207 0.017785564 -0.1399751 -0.31822518 0.13664398 0.04801028 0.080994196
-0.007447975 -0.18061024 0.009723311 0.055057153 0.2940947 -0.19537579 -0.14937887 0.019604465
0.21309395 0.117636815 0.31027913 -0.21717268 0.036742643 -0.12348874 -0.123565346 -0.11765621
-0.04719827 0.058696337 0.087434314 0.19345336 -0.023928663 -0.24984959 0.30521056 -0.24199367
-0.26279923 0.20245148 -0.026305491 0.06810748 -0.11368011 0.08916636 0.11354908 0.22760122
-0.0077794553 -0.017294126 0.2109478 0.20080404 0.25749895 0.026736995 0.25069445 -0.08780426
0.007182071 0.1837208 -0.15031011 0.00353517 -0.09256647 -0.050442766 0.039798953 0.09027576
0.052514885 0.08343931 0.19266227 0.1852223 0.22136351 -0.16135472 0.08593281 0.14611116
-0.13259786 0.034091968 0.063529804 -0.16510907 0.07186925 -0.08719087 0.3241646 -0.012991526
0.08907754 0.25879884 -0.0034839087 -0.12449317 0.057607196 -0.037724074 0.14882119 -0.00714756
0.10063454 0.265516 -0.27941698 -0.18868014 0.28739622 -0.04371671 -0.02553981 -0.22760156
-0.0073440475 0.030807288 0.068005666 0.09760593 -0.120143786 -0.12902157 0.09589794 -0.1953755
0.20349333 0.033197895 0.07648378 -0.21673831 -0.17045517 0.13176301 0.14218849 0.1945763
-0.1399278 0.31801382 -0.07666578 0.18347755 0.021681044 -0.09666296 -0.35899726 0.048598066
0.016785808 -0.07255056 0.14838618 0.28997803 0.3535401 -0.29478464 -0.21279016 -0.09874853
0.07882528 -0.061388295 -0.18257466 -0.23548356 0.07798734 0.030048808 -0.019326687 -0.16670917
-0.18029386 0.3094423 -0.26847866 0.22562979 -0.12890087 0.0903251 0.31124103 -0.17817755
0.49868193 0.24825282 0.09534838 -0.32355633 0.43572056 0.15431829 0.170254 -0.18876715
-0.23199995 -0.1442146 -0.045101494 -0.060383484 -0.11008012 -0.1869646 -0.25560254 0.007965449
0.10952365 0.19995841 0.16595687 0.31850082 0.12706393 0.14360583 -0.099998765 0.077179216
-0.10209361 -0.12809782 -0.0005669608 -0.06198995 0.028124409 -0.06591064 0.23248537 -0.14333391
-0.3023282 0.06273467 0.028235931 0.15687114 0.24246876 -0.24066837 0.19227949 0.26423404
-0.025078058 0.32127655 0.06290089 -0.25532374 0.24928428 0.11146369 0.18473317 0.24551238
0.07360136 0.09584073 0.12045184 0.0889047 -0.04690973 0.17505392 -0.0090362625 0.12637073
-0.012094491 -0.074965864 -0.32630405 -0.21858938 0.08980741 0.0953624 -0.08171122 -0.14383708
0.22102895 -0.09123518 -0.14915772 -0.026829466 0.022030413 -0.30232313 -0.38351154 -0.109081864
0.25790855 -0.0925806 0.06802087 0.18223476 -0.021252371 -0.31406388 -0.047643367 -0.27505347
-0.12907608 -0.065467276 0.040777963 0.27095687 0.30239487 -0.034170795 0.088062316 0.12922572
0.13223384 -0.15860547 0.2618008 0.08788496 0.19480738 -0.005149252 -0.11107467 0.08254517
0.29917 0.15841565 0.27777073 -0.12448359 -0.17162819 -0.20742014 0.3784572 0.15156853
0.044952884 0.11313988 -0.112538576 -0.05916777 -0.10696339 -0.018858016 -0.11784991 0.06460108

cnn_net.0.bias f4 [16]
00000000: 7ee0 07bd ef9f c0bb c439 1d3d 52a4 37bd
00000010: 801b 413c ef63 c8bc 8171 f0bb 34e8 023c
00000020: 09cd 52bd f441 b0bd f9c1 25bd bf5b 8f3c
00000030: 50f5 5fbd 5075 083d d813 b1bd cd77 a03c
-0.033173077 -0.0058784406 0.038385168 -0.044834442 0.011786342 -0.024461715 -0.0073377495 0.007989932
-0.051465068 -0.086063296 -0.04046819 0.017499803 -0.054677308 0.033315003 -0.08646363 0.019588375

cnn_net.3.weight f4 [32, 16, 3, 3]
00000000: 5f74 80be 4557 4f3e c0c6 1bbe 6344 053e
00000010: 6de2 bd3b fc25 b83c f34d 7d3e 4440 2e3e
00000020: b515 b43d d8d3 a23d d305 1ebd 178c b63d
00000030: 8270 153e a127 eebc 3724 a73b ede3 4dbd
00000040: 7269 60be 3b62 c33d 0315 66bd 60e5 8abb
00000050: 56dd 16be 7aaa a5bd cc46 df3d ebb0 2ebe
00000060: 5a56 ccbc 48f8 473d ad69 07be 8c01 fbbd
00000070: 5822 3b3d ec24 da3c bc96 673e 1eae ed3c
00000080: 3317 a7bd 8384 913d ec24 22bd 37d6 b0bd
00000090: 47ad e0bd 9e60 2f3e 01ff 5b3d ee11 35be
000000a0: 07e9 423e 5f6e 39be d935 a83d 20ba 26be
000000b0: 0309 8d3e 0702 5cbd ed50 4abe 0cba f6be
000000c0: 65c1 cc3c 621d 343e e105 6a3e 3c2a 4a3d
000000d0: e997 e9bd 8a45 59be a185 63be 5291 ffbd
000000e0: a4f8 14be b360 72bd 78d4 2e3e 8ed3 103e
000000f0: 5e74 20be 5c4d 603d 5413 dd3c fa96 72bd
00000100: 54a6 96be b592 ae3d 9788 86be 236c 75be
00000110: ec22 a03d 018f 07bc 5636 ce3d 1bdc d83d
00000120: 2ae3 853d 436a a7be bb0b a5bd a6d8 90bb
00000130: 559d 1bbe 137f ab3c 28ff 943e e0e0 aebc
00000140: aa6b 6bbd 7220 5bbc 05aa 843d 7355 0ebe
00000150: 8ba9 54bd ab84 f4bc b018 62be 75a0 78bd
00000160: 9ae0 a43d cced 1dbd dcda 08be aeb7 80bc
00000170: 121e ff3c 0952 c4bd 6591 a93a 6ba5 aebd
00000180: 836d 7a3e f77e 03bd 7765 b13c 507a 9a3d
00000190: 14f6 98be 818a 50be b237 8ebe 0977 34be
000001a0: 9aa5 143e 8085 36be 6fdc c8bd 2b04 29be
000001b0: cc49 0f3e 6828 3bbb f3c7 6bbd ff40 923c
000001c0: 00c6 efbd a9bd 493e a89e a1bd 4bea 0dbd
000001d0: d7aa 2cbc cf50 a13e 7641 f63d 3639 3f3c
000001e0: 6ca9 77be a25e a2bd aba1 bdbc 0a9c 383e
000001f0: 5d00 403d 5b02 c3bd 00e2 94be 8aeb dbbc
00000200: bba5 053e fad5 1f3e 6073 d9bd 2572 203e
00000210: 7f12 493e cf24 b0bd ec31 54bd a7b1 a7be
00000220: 157b 1abe 272a 843d d36e 69bc 6ac8 ddbd
00000230: e506 c13d 8828 623e 42bb a8bd 5894 82bd
00000240: f855 883c 15d6 85be f7ea 79be eb49 ef3d
00000250: 5aec a43c 2dfc 9abb 146c aabd c4a2 92be
00000260: b9c8 d43c 9c9d 59be 8c63 8cbc 45e9 463e
00000270: 3b7f 393d 0dda 9aba ebe0 2d3d aa7b f5bc
00000280: 57df 7a3c 2244 57bd cda0 c6bb b86b 2e3e
00000290: 3673 39be f46d 3e3d 5923 a4bd 35e0 663d
000002a0: 7fa7 8cbd 1b83 ed3c 622c 27bc 4abd 18be
000002b0: 210c 19be 291d 6c3e d614 80bb 0f86 8cbc
000002c0: 8f52 4e3d 1ac6 ce3c e701 173d b54b 8f3d
000002d0: 0ef1 5d3e bdaa 2a3e e502 843d 194b a2bd
000002e0: 3818 b73d e680 94bd 324c 0b3c 3f1e 97bd
000002f0: b26a 663e 1bc8 ccbc ab93 dcbd f0db b8bd
00000300: 2de1 b7bc 89db 4ebc b9d0 fabb 5552 513e
00000310: eb06 9fbc 8138 583e 5611 003e ca0f 44bd
00000320: 7ec5 2dbe 0168 2cbe 634f 013e f9c8 5b3e
00000330: b53f 54bd e558 083e 356c 32be f029 c5be
00000340: 4dfa 3e3e 3410 5abe d105 463d e0d6 f9bd
00000350: 60c4 70be e7b2 563e 8da0 d3bd fc5f 3c3d
00000360: 1349 4dbd 0a26 e43c a88f afbe 0205 d83d
00000370: 7ec5 183d 6f44 8abd ca6e 093e 505a b43c
00000380: 0786 753d 04c0 f6bb 1325 0abe 9990 a23d
00000390: 2d98 2c3d 59bf d6bd 3424 1fbd 66dc 063e
000003a0: fb05 b5bd 12c0 273d 630b 093d 8fb1 86be
000003b0: c71c 46be 3f97 323e c368 cc3d 26a4 3a3e
000003c0: d3bd 3fbe b36d 523c af5f fcbd a04d 83bd
000003d0: 34ce 2e3e 8546 f6bd 08ab 97be 7a86 4dbe
000003e0: 6436 86bb 3785 0fbd 9a93 77bd df36 6abd
000003f0: 2965 df3c 9cf5 f8bc 1708 58be a391 0d3e
-0.25088784 0.20248134 -0.15212536 0.13014369 0.0057948143 0.02247905 0.24736767 0.17016703
0.08793203 0.07950562 -0.038579773 0.08913439 0.145937 -0.02907163 0.0051007527 -0.050266195
-0.21915224 0.0954022 -0.056172382 -0.0042387694 -0.1473287 -0.080891564 0.10902175 -0.17059676
-0.02494352 0.048820764 -0.13223906 -0.122561544 0.04568705 0.026628934 0.22616094 0.02901369
-0.08158722 0.07105353 -0.039585993 -0.08634608 -0.1097055 0.171267 0.053709988 -0.17682621
0.19034205 -0.1810851 0.082133956 -0.16281939 0.27545938 -0.05371287 -0.19757433 -0.48188818
0.024994561 0.17589334 0.22853805 0.049356684 -0.11405928 -0.21217933 -0.22218944 -0.124788895
-0.14547974 -0.05917425 0.17073238 0.14143202 -0.1566939 0.054761276 0.026986755 -0.059226014
-0.29423773 0.08524076 -0.26276085 -0.23967032 0.07819161 -0.008273841 0.100689575 0.10588857
0.06537469 -0.3269826 -0.08058878 -0.0044203578 -0.15196736 0.020934617 0.2910092 -0.021347463
-0.057475723 -0.013374435 0.06477741 -0.13899784 -0.0519195 -0.029848417 -0.2207973 -0.0606999
0.08050652 -0.03855686 -0.13364738 -0.015712585 0.031142268 -0.095859595 0.0012937008 -0.08527645
0.24455838 -0.032103505 0.021654828 0.075428605 -0.29875243 -0.20365335 -0.27776867 -0.17623533
0.14516297 -0.17824364 -0.09807669 -0.16505496 0.13992995 -0.002855802 -0.057563733 0.017853258
-0.117076874 0.19701256 -0.078915894 -0.034647267 -0.010538778 0.31506965 0.120242044 0.011671355
-0.24185723 -0.07928206 -0.023148378 0.18028274 0.046875346 -0.09521934 -0.29078674 -0.026845712
0.13051502 0.1560897 -0.10617709 0.15668543 0.19635962 -0.08600771 -0.05180542 -0.32752725
-0.15086015 0.064533524 -0.014247614 -0.108292416 0.09425143 0.22085774 -0.082388416 -0.063759506
0.016642556 -0.26139894 -0.24406038 0.116840206 0.020132232 -0.0047297687 -0.083213955 -0.28639805
0.025974618 -0.2125153 -0.017137311 0.19424923 0.045287352 -0.0011814252 0.042450827 -0.029966194
0.015312037 -0.05255521 -0.0060616494 0.17033279 -0.18110356 0.04649158 -0.080145545 0.056366164
-0.06867885 0.02899318 -0.010203453 -0.14915958 -0.14946033 0.23057999 -0.003908734 -0.017153768
0.050371703 0.025240947 0.03686705 0.06996862 0.21673986 0.16666694 0.064458646 -0.0792448
0.08940166 -0.07251148 0.008502053 -0.07378816 0.22501639 -0.024997761 -0.10770353 -0.09026325
-0.02244624 -0.012625583 -0.007654276 0.20441563 -0.019412478 0.21115305 0.12506613 -0.04786662
-0.16969869 -0.1683655 0.1262794 0.21463384 -0.05181857 0.1331516 -0.1742409 -0.38508558
0.1865017 -0.21295244 0.04834539 -0.12199187 -0.23512411 0.20966683 -0.10333357 0.045989975
-0.050118517 0.02785017 -0.3428929 0.1054783 0.03729772 -0.06751334 0.13421169 0.02201572
0.05994227 -0.0075302143 -0.13490705 0.07937736 0.042137314 -0.104857154 -0.038852885 0.13170013
-0.08839031 0.040954657 0.033458125 -0.2630734 -0.19346915 0.17440508 0.09980919 0.1822668
-0.18724756 0.012843537 -0.12322938 -0.0641129 0.17070848 -0.12025169 -0.29622674 -0.2007083
-0.0040958393 -0.035039153 -0.0604435 -0.057181235 0.027269917 -0.030390553 -0.21096836 0.13825087

cnn_net.3.bias f4 [32]
00000000: be93 9d3b f891 eebc d5d4 1abd db08 75bd
00000010: 2fe9 bdbd f1e1 adbc b8cd 9639 a135 6dbd
00000020: af3d e5bb 32b3 65bc 53b6 b4bc d85e 6ebb
00000030: f631 2cbd 3aa2 05bd 759d d73c 84f4 2d3d
00000040: ead0 41bd 968a abbd c7f6 a7bd 1bab cfbd
00000050: acba 8c3c 8903 c43b 8cf4 27bd 691a 8cbd
00000060: eaa5 0abd ba97 6bbc 636e 06bd 5f51 01bc
00000070: 7655 8d3c 0116 f139 2c84 243c 5713 94bc
0.004808872 -0.029122338 -0.03780063 -0.0598229 -0.09272992 -0.021225901 0.00028763502 -0.057912473
-0.0069958786 -0.014019774 -0.022059595 -0.003637245 -0.042039834 -0.032625414 0.026320199 0.042469516
-0.047318377 -0.083760425 -0.08201366 -0.10140058 0.017178856 0.0059818667 -0.041004702 -0.06840975
-0.033849634 -0.014379436 -0.032820117 -0.007892936 0.017252665 0.00045983496 0.010041278 -0.018075628

hidden.weight f4 [32, 128]
00000000: c187 41be 8107 36be 806e 053e 2f61 88bc
00000010: 0ed0 8b3e b0df 77be 77ea b73e fe38 70bd
00000020: 0aae ce3d 4a9f f93c 6507 a5bd 9750 9d3d
00000030: b4a7 2d3a e573 24be 1779 733c 5ab5 c6bd
00000040: e8bc 5ebe 03f7 5ebe b016 943c 09a4 013d
00000050: 12c4 973d 61c4 f8bd 59d9 4e3e 6a68 2cbe
00000060: 0530 afbe 5720 d53d 944d 67be b94f 00be
00000070: 33ae 8f3d 7815 7e3e f215 7ebd 1fef debd
00000080: 2971 1bbe 2ff4 1abe 6d8f 46be eaf4 573e
00000090: 3e11 abbd bcac 3f3a 5040 753c 7662 633e
000000a0: 1b47 af3d 53be 153d 0b43 01bb a90d acbd
000000b0: c962 5fbd 8222 4cbe 7682 1fbe df57 adbd
000000c0: 2c45 563e d2a4 92be c3d6 3d3e c049 adbe
000000d0: b44f 88be 87e4 353d 29a6 2d3e 4dd4 2ebe
000000e0: 5e34 1d3e 5010 2dbd ff5c 513d 357d 123c
000000f0: c87a 44be 38e7 05be 535e e93d d7fe 5d3d
00000100: 65e9 1f3d 1399 5cbd bbb3 cbbc d292 fbbd
00000110: a61b 7f3b ba11 71bd 4ae6 073d f5df 69bd
00000120: 4671 063c c5ab eb3d e49f 59be 1853 f1bd
00000130: 995f 97bd ae40 94bd 1c42 323e 9b5c 653e
00000140: e9ee 0ebe fc1f 033e c527 a33d d909 2fbe
00000150: 8fa2 4dbe c662 b73d bd41 38be 37dc 87bc
00000160: cb8e ba3c eb76 d8bd fbab c83d dd32 49be
00000170: f886 15be 79a4 083e a9da 67be 358e a73a
00000180: 5b44 3b3e fd67 3cbe 5b3b 753e bf3f 2f3e
00000190: 09a0 633c f66f a43c 6068 2d3e 5120 a13c
000001a0: 13c1 a0bb 938a 973e 90d0 b4bd ddcd 053f
000001b0: 2e1b ae3c 222a 523d e536 0b3e 5d9c ebbd
000001c0: 7cf5 44be 3555 063e 9560 713d e113 96ba
000001d0: 7715 c63d b00d 6a3e a5e7 21bc 5a6b 553d
000001e0: 5648 b23d d954 2dbd bca2 ca3d 0709 833d
000001f0: 8a07 74be a315 1fbe 4a2b a63d 8e38 d33d
00000200: 219c bdbd 8db0 06be 568d 513e 3327 9fbd
00000210: 6123 a93d b050 343e 6c45 3dbe c5a6 78be
00000220: d76a df3e bf63 1dbe 41b2 8dbd 259b 21be
00000230: f024 0d3e 1147 43bd be4c 6fbe 893d 283d
00000240: c171 2fbd a5ff 623e 3778 52be 73b2 b53d
00000250: 5359 253e e509 caba c00e 48be e840 2abe
00000260: 8beb d2bd c7c2 a73d d991 383d f24d b73d
00000270: 02b5 c1bd 4d4f 2e3d 823c 023e 1231 1ebe
00000280: f4c1 9fbd 72d3 3c3e 0b3c 563d fc0b f33d
00000290: d941 d3bd a6d6 25bd e4b6 fc3d 8c34 f43d
000002a0: 6993 c8bc 1970 eebd e0a2 d43d 52e6 733c
000002b0: 4900 48bd 7b6d a33c 3d68 39be 15a9 513e
000002c0: ef24 113d dd42 c9bc ed39 41be 399a 8b3c
000002d0: 60a3 553c 9e63 9a3e a27c 33be 837f cfbd
000002e0: 5a1d 593d ef2b ec3d cc27 e1be 4ec1 bebd
000002f0: 5b4f d7bd 762c 88bd d7e3 8bbe 0ff8 a93d
00000300: 90f6 ecbc 4099 453e 9986 703d 16ae 393b
00000310: 5ed4 17be 18aa c2bd 4f1b 9abd 6837 17be
00000320: 12cf 9a3d 5cbd 0a3e 88f6 19be d6a7 8fbd
00000330: f3f7 913d 0784 3abd e98c a63c 60d7 e63d
00000340: 4a17 26be c2f6 1cbc ba8f 493e 19b4 3f3e
00000350: fa97 9e3e 82bf b8bd 1874 d53c 1420 18be
00000360: c2ef 083e 5ca5 ca3d 6b93 1fbe 1d91 b23d
00000370: b861 0abe 8d29 613e 9014 793e 21a9 4b3c
00000380: fb26 e2bd 993b f4bc ae94 33be 2c7d 8fbe
00000390: e5e6 6abe d6a2 a93d 5cc0 cebd 0f25 7ebe
000003a0: 4e6b df3d 6861 b43e 3430 b6bc 4291 063e
000003b0: 0caa e23d 62be 2abd a52f 493c 2cd1 03be
000003c0: 397e 99bd d6be adbd 5943 f5bd bbc3 153d
000003d0: aa0b 773c 4317 be3c 19d4 d7be c44f b2be
000003e0: a720 963d ac66 41bd a139 d2bd a5cb 34bb
000003f0: 72b0 b43e 02b0 0b3e 48fb e03d da04 4cbe
-0.18899442 -0.177763 0.13030434 -0.016647903 0.2730717 -0.24206424 0.3592107 -0.058648102
0.10091789 0.030471463 -0.08058051 0.07681387 0.0006624416 -0.16059835 0.014860413 -0.09702559
-0.2175175 -0.21773915 0.018077224 0.031650577 0.07410444 -0.12146831 0.20200099 -0.16836706
-0.34216323 0.10406559 -0.22588187 -0.12530412 0.07015648 0.24812877 -0.062032647 -0.108854525
-0.15179886 -0.15132211 -0.1939065 0.21089521 -0.08352898 0.0007311811 0.014968947 0.22205529
0.08558484 0.03655846 -0.0019723799 -0.08401043 -0.05453757 -0.19935039 -0.1557711 -0.08464026
0.20924824 -0.28641373 0.18538956 -0.3384533 -0.2662331 0.044407394 0.16957916 -0.17073174
0.15352008 -0.042251885 0.05111408 0.0089409845 -0.19187462 -0.13076484 0.11394944 0.054198112
0.03904094 -0.05385692 -0.024865976 -0.12283863 0.0038926392 -0.058854796 0.033178605 -0.057098348
0.008205717 0.11507372 -0.212524 -0.11783427 -0.07391281 -0.07238899 0.17408031 0.22398607
-0.13958324 0.1280517 0.0796657 -0.170936 -0.20081542 0.089543864 -0.17993827 -0.016584499
0.022773167 -0.10569557 0.09798428 -0.19648309 -0.14602268 0.13343991 -0.22642006 0.001278347
0.18287794 -0.18399043 0.23948424 0.17114161 0.013893136 0.020072918 0.16934347 0.01966873
-0.0049058287 0.2959791 -0.08828843 0.5226725 0.021253195 0.051309712 0.1359516 -0.11504433
-0.1923427 0.13118441 0.05893 -0.0011450016 0.09672063 0.22856784 -0.0098818885 0.05210433
0.08705203 -0.042317245 0.0989432 0.06398206 -0.23831001 -0.15535598 0.081137255 0.10313521
-0.09258295 -0.13153286 0.20464072 -0.077711485 0.08258701 0.17608905 -0.18483514 -0.24282368
0.436362 -0.15370081 -0.06918765 -0.15781839 0.13783622 -0.047675196 -0.23369119 0.04107431
-0.042833094 0.22167833 -0.20553671 0.08871927 0.16147356 -0.0015414326 -0.19536877 -0.16626322
-0.102988325 0.08191448 0.045060966 0.08950414 -0.094583526 0.042556096 0.12718394 -0.15448406
-0.078006655 0.18440035 0.052303355 0.1186752 -0.10315294 -0.040487908 0.12339571 0.11924085
-0.024484353 -0.11642475 0.103826284 0.014886456 -0.048828397 0.019949665 -0.1810617 0.20474656
0.035435613 -0.024568016 -0.18869753 0.017041313 0.01303944 0.30154127 -0.17528012 -0.10131743
0.053006507 0.11531817 -0.43975675 -0.09314214 -0.10513183 -0.06649105 -0.27322266 0.082992665
-0.028926164 0.19296741 0.058722112 0.0028332523 -0.14827105 -0.09505099 -0.0752474 -0.1476723
0.07559027 0.13548797 -0.1503545 -0.07014434 0.07127371 -0.045536067 0.020330863 0.11271548
-0.16219822 -0.009580316 0.19683734 0.18721046 0.30975324 -0.09020902 0.026056334 -0.14855987
0.1337271 0.09894821 -0.15583579 0.087190844 -0.13513839 0.21988507 0.2432425 0.01243046
-0.11042591 -0.029813575 -0.17537186 -0.28025186 -0.22939642 0.082830116 -0.100952834 -0.24818824
0.109091386 0.35230565 -0.022239782 0.13141349 0.1106759 -0.04168547 0.012279426 -0.12872761
-0.07494778 -0.08483665 -0.11975736 0.036563616 0.0150784645 0.023204451 -0.42154005 -0.3482648
0.07330447 -0.047217056 -0.10264898 -0.0027587202 0.35290867 0.1364136 0.10985428 -0.19923726

hidden.bias f4 [32]
00000000: bffd 6ebc 3154 153d b54b 0b3c 3f51 223c
00000010: e252 e2bc b0de d8bc 250f 313d a162 0cbc
00000020: 0620 0a3d 4b0d d2bc 1db1 a3bb e39f 013c
00000030: 8e15 dabc 9cc2 a23d 49a0 573b 8957 c43c
00000040: 265a 973c 998e 653d bb28 bf3b 9ad8 b6bc
00000050: 8ace 1d3d 3ea3 16bd 3594 1cbd ef10 d6bc
00000060: bb4c 91bb bc0d 65bd 5c76 c43b 388b 9dbc
00000070: 4c0d d7ba f109 723d b059 003d 07cc d4bc
-0.014586865 0.036457244 0.008501937 0.009907066 -0.027627412 -0.026473373 0.043227334 -0.008568437
0.033721946 -0.025641104 -0.004995479 0.007911655 -0.026621606 0.07947275 0.0032901934 0.023967521
0.018475603 0.056044195 0.005833713 -0.02232008 0.03852705 -0.036776774 -0.03822728 -0.026131121
-0.004434196 -0.0559213 0.005995555 -0.019231424 -0.0016407161 0.059091512 0.031335533 -0.025976194

mu_layer.weight f4 [2, 32]
00000000: a2ba 56bd 7e7c 463e c203 b73e 3656 c6bd
00000010: d054 c53d ad32 aebe fee3 b23e b1a0 aebe
00000020: 8d19 92bd 2631 22be b9eb c23e 4574 a4be
00000030: aba1 9b3e a1d8 c3bc fddc 19be 9405 d03d
00000040: 97d3 99be a548 06be a1f6 173d eeb5 a13e
00000050: 39f7 863e 4c21 43be 821a e53e 99f5 e6be
00000060: e3ae 71bc 7ebc 993e c655 683d 69ab 1fbd
00000070: 678c 3e3f fcb7 b43d d1b6 873e f392 e73e
00000080: f793 553f 8d53 34bd 51cc 803e a452 3c3e
00000090: 05a2 a33e e968 363c 6586 bebe 1816 cd3e
000000a0: 5bea 88be b9b1 91be 9bcf 1dbf 7cb4 9f3e
000000b0: 017d f83d 21b6 283e 7188 aabe 7cb0 63be
000000c0: 17a7 473e 67ae adbc 90ce f53e 694a 2cbe
000000d0: 1b06 9cbe 2ff4 96bd 7d49 7b3e a273 553e
000000e0: 22df 3a3e 9a78 38be 3e58 5cbe e687 063f
000000f0: 7fff dfbb dc6c 183f 9bbf a03e 35d5 d93e
-0.05242408 0.19383428 0.35745054 -0.09684412 0.09635317 -0.34023038 0.3493957 -0.34106973
-0.0713378 -0.15839061 0.38070467 -0.32119957 0.3039678 -0.023907008 -0.15025707 0.10157314
-0.30044243 -0.13113649 0.037100438 0.31584114 0.2636049 -0.1905567 0.44746786 -0.4510925
-0.014751169 0.3002662 0.056722425 -0.03898183 0.74432987 0.08824155 0.26506665 0.452293
0.834289 -0.044024993 0.2515588 0.183909 0.3195955 0.011133411 -0.3721191 0.4005592
-0.267413 -0.28455904 -0.61644906 0.31192386 0.121332176 0.16475727 -0.33307222 -0.22235292
0.19497333 -0.021201326 0.48009157 -0.1682526 -0.30473408 -0.07370793 0.24539752 0.20844892
0.18249181 -0.18014756 -0.21518037 0.52551115 -0.0068358774 0.59541106 0.31396183 0.42545477

mu_layer.bias f4 [2]
00000000: 4d0f a1bc ebf4 07bd
-0.019660616 -0.033192556

log_std_layer.weight f4 [2, 32]
00000000: a4b0 e8bd 93f6 bebe 7f0a 163d e934 3e3e
00000010: 1bdc 383f 926f 8f3e e835 bb3d f7ce 4d3e
00000020: d55a acbe 3860 8f3e 8d65 33bf 787a 7dbc
00000030: bdf0 25be 6e6c b9be bddb ef3e 3f6b 34be
00000040: f549 03be 1515 f0be 8d15 1b3d 7b30 ae3e
00000050: 2307 93be 742f 003e 2ddd 943e 277b f33d
00000060: 8a8c 09bf d443 233d 4787 dc3e 8834 183f
00000070: 2001 bf3e 3099 ae3e e1c1 acbe b101 3abc
00000080: a1c9 e43d 3405 b33e febe cf3e 6069 0dbf
00000090: 247e 393d d20b d23d e2e0 733e 074a b23e
000000a0: 7316 8bbe 6b69 88bd b9cd 92bd 8360 443e
000000b0: 38d0 943e e2b8 42be 88ef 483f dc91 6fbd
000000c0: 965d cd3e ac90 7a3d 745b 53be 660d 20bd
000000d0: 9cdc d8bb 99b4 453e 9fc1 d03e 8b47 6a3e
000000e0: aade c6bc e83c 8b3e 0383 52bf 8f92 ef3e
000000f0: 8a45 a83e b2f2 d5be b322 d0be a8d9 d53d
-0.113618165 -0.37297496 0.036631104 0.18574871 0.72210854 0.2801481 0.09141141 0.20098482
-0.3366305 0.28003097 -0.7007683 -0.015471093 -0.16205116 -0.36215538 0.46847335 -0.17619036
-0.12821181 -0.46891084 0.03786235 0.34021363 -0.28716382 0.12518102 0.29074994 0.11888724
-0.5373007 0.039859608 0.43071958 0.59455156 0.37305546 0.34101248 -0.33741668 -0.011352942
0.1117127 0.34964907 0.40575403 -0.55238914 0.045286313 0.10256161 0.23816255 0.34822103
-0.27165565 -0.06660732 -0.07168145 0.19177441 0.29065108 -0.1901584 0.78490496 -0.05848871
0.40110463 0.061173126 -0.20640355 -0.039075278 -0.0066180956 0.19307174 0.4077272 0.22878854
-0.024276096 0.27194905 -0.8223116 0.46791503 0.32865554 -0.41786724 -0.40651473 0.10441905

log_std_layer.bias f4 [2]
00000000: 7b83 9bbd aeeb 4dbd
-0.07593437 -0.05027359
