train_history/olympics-running/12_6_16_49/critic.pth (torch, 47330 bytes, 11 tensors)

encoder.0.weight f4 [8, 4, 3, 3]
0.012475122 0.10400667 -0.076269224 -0.0019399099 -0.0074466984 0.041748293 -0.11942278 0.0014643897
0.023241531 0.10669715 0.31897616 0.6373471 0.16600901 0.048138216 -0.23464227 -0.09784547
-0.5376117 -0.58530855 -0.0069955015 -0.09392484 -0.08503373 0.12961157 0.39808664 0.21580951
-0.33797315 -0.5520872 -0.082723536 0.0031542298 -2.209389 -0.5393267 0.027901096 2.942449
0.50462455 -0.16885984 -2.8514502 0.64763105 -0.28912124 -0.17028667 -0.055075362 -0.1608739
-0.17208084 -0.65222365 -0.11700239 0.6383467 0.032649558 -0.22412488 -0.36953777 -0.020109523
0.35763207 -0.50759244 -0.47976625 -0.23503052 0.8483606 -0.27535212 -0.17336427 -0.020933036
-0.355475 -0.060763 0.2228884 -0.1446861 -0.053803153 0.1164574 -0.4030108 0.3498381
-0.108371906 -1.826285 1.822981 0.6767263 -2.517079 0.9967714 3.0740979 -0.14392442
-0.27963808 0.26671028 -0.33309698 -0.2727229 0.29492724 0.59005064 -0.85356075 -0.5937644
-0.07124354 -0.37063974 -0.6113711 -0.08085661 1.1356577 0.36147413 0.24385469 -1.033138
0.5793299 -0.43069044 0.12448663 -1.5431585 -0.5561384 0.64845586 1.676609 0.10523197
0.3181864 0.1576563 0.2891346 -0.8225844 -1.1176928 0.016453436 -0.13905346 -0.38082224
-0.6719733 -0.28655237 -0.38971475 -0.20890495 0.26301268 -0.7017826 0.2967859 -0.30464748
0.7298978 -1.1269783 0.45580596 0.9183213 0.586315 -0.85290617 -0.24684942 -0.22456448
-0.47695634 -1.1385645 -0.012418925 -0.4529406 0.04519618 0.060189936 0.31561854 -0.039312996
-0.5137872 0.6138925 0.11707072 0.1658988 -0.00052834064 0.6151231 -0.38352397 -0.107448846
-1.2178124 -3.2474663 -0.36916807 1.060309 0.22540648 -0.3579742 -1.1692235 -0.027509073
-0.5435051 -0.10784023 -0.11308783 0.05849938 0.19051264 -0.15766086 0.22584169 0.11701472
0.23597373 -0.15217113 -0.39473167 -0.18058339 0.40287834 0.5705442 0.049426332 -0.15650466
-0.23765536 -0.16211666 -0.059474513 0.061546367 -0.071146525 0.23256096 -0.16147158 0.09605135
0.26264057 0.27978387 0.13936397 0.88865143 2.6123953 0.38798672 -0.21441041 -2.4144785
-1.5020257 -1.2163637 -0.4685794 -0.83237576 0.6262989 0.5904815 0.5412578 0.49317276
0.97083044 0.5754733 -0.17011264 0.48957062 0.38800743 -0.22031905 0.3963923 0.30780184
-0.08635459 0.5398721 0.35988453 -0.2742576 0.35302463 0.7376415 -0.3424393 0.779003
0.98582673 0.50071734 0.7968297 0.37795442 -0.15550421 0.30761257 0.44573712 0.9075768
0.16539095 0.45236987 0.5585505 0.5311377 0.9714733 0.35651383 0.60864305 0.9037925
-0.09401353 0.24811389 -0.01759387 -0.047835846 0.14711027 0.1855991 -0.054708354 -0.29975867
-0.03609099 0.2033161 0.13429405 -0.22404793 -0.06911794 0.520508 0.2815015 0.07533068
-0.21186733 -0.28827608 0.5632116 -0.050037373 0.12302295 1.2666569 1.225714 0.41092154
0.0068534445 1.2096175 1.5854875 0.40233088 0.91798276 1.3480972 0.8483868 1.2223605
1.2753533 0.98662585 1.9057096 1.0153042 -0.31260905 -0.59061104 -0.61934847 0.59192926
00000000: 7464 4c3c 7301 d53d 0a33 9cbd 9344 feba
00000010: 6f03 f4bb 4200 2b3d ee93 f4bd c4f0 bf3a
00000020: 0665 be3c 0984 da3d d850 a33e 2e29 233f
00000030: 44fe 293e 942c 453d 1046 70be 3563 c8bd
00000040: eca0 09bf c8d6 15bf 853a e5bb ab5b c0bd
00000050: 2a26 aebd e5b8 043e 03d2 cb3e 2bfd 5c3e
00000060: d10a adbe 9655 0dbf f56a a9bd 32b7 4e3b
00000070: a166 0dc0 5111 0abf d790 e43c 1651 3c40
00000080: 132f 013f 98e9 2cbe 297e 36c0 26cb 253f
00000090: b307 94be a15f 2ebe b496 61bd 21bc 24be
000000a0: f635 30be 21f8 26bf f39e efbd b06a 233f
000000b0: 8bbb 053d fe80 65be 0e34 bdbe babc a4bc
000000c0: 8d1b b73e 94f1 01bf eca3 f5be d7ab 70be
000000d0: 292e 593f f4fa 8cbe 6786 31be c27b abbc
000000e0: d200 b6be a0e2 78bd db3c 643e 9828 14be
000000f0: b260 5cbd 3881 ee3d 6e57 cebe fb1d b33e
00000100: 17f2 ddbd b5c3 e9bf 7157 e93f ef3d 2d3f
00000110: d317 21c0 692c 7f3f 05be 4440 ec60 13be
00000120: b92c 8fbe 408e 883e b08b aabe 56a2 8bbe
00000130: b400 973e 8f0d 173f f582 5abf f200 18bf
00000140: 22e8 91bd 7ec4 bdbe d182 1cbf 2698 a5bd
00000150: 3b5d 913f 2313 b93e 0bb5 793e de3d 84bf
00000160: f74e 143f 7583 dcbe d9f2 fe3d 3886 c5bf
00000170: 165f 0ebf 3401 263f 209b d63f dc83 d73d
00000180: 54e9 a23e a770 213e 7309 943e e494 52bf
00000190: 8f10 8fbf 5bc9 863c 0864 0ebe 22fb c2be
000001a0: 7106 2cbf feb6 92be b188 c7be 2eeb 55be
000001b0: 99a9 863e 06a8 33bf 52f4 973e c1fa 9bbe
000001c0: 95da 3a3f d340 90bf 665f e93e 1b17 6b3f
000001d0: bd18 163f 0f58 5abf 18c6 7cbe 3bf4 65be
000001e0: 9f33 f4be 7bbc 91bf bf78 4bbc d5e7 e7be
000001f0: a11f 393d b989 763d c198 a13e aa06 21bd
00000200: 8f87 03bf 0f28 1d3f c6c2 ef3d 60e1 293e
00000210: 5780 0aba b578 1d3f 415d c4be 240e dcbd
00000220: 47e1 9bbf 7dd6 4fc0 9903 bdbe 35b8 873f
00000230: f5d0 663e 6548 b7be 1ea9 95bf b55a e1bc
00000240: 2623 0bbf 57db dcbd 989a e7bd 0c9d 6f3d
00000250: bf15 433e d971 21be 0b43 673e 6aa5 ef3d
00000260: 19a3 713e c0d2 1bbe 451a cabe daea 38be
00000270: 1246 ce3e 2f0f 123f 4473 4a3d c242 20be
00000280: ed5b 73be e901 26be 8c9b 73bd 0b18 7c3d
00000290: 45b5 91bd 7624 6e3e ce58 25be 92b6 c43d
000002a0: d378 863e d53f 8f3e 6eb5 0e3e a97e 633f
000002b0: 7c31 2740 32a6 c63e 678e 5bbe d186 1ac0
000002c0: 6142 c0bf ceb1 9bbf a4e9 efbe 9416 55bf
000002d0: 2055 203f cc29 173f df8f 0a3f 2481 fc3e
000002e0: 5888 783f 3852 133f 0232 2ebe 00a9 fa3e
000002f0: e9a8 c63e 519b 61be eef3 ca3e 3498 9d3e
00000300: adda b0bd 0f35 0a3f c942 b83e 7e6b 8cbe
00000310: a5bf b43e 13d6 3c3f 3454 afbe be6c 473f
00000320: 245f 7c3f 032f 003f 08fd 4b3f 3e83 c13e
00000330: 7f3c 1fbe 657f 9d3e a837 e43e f456 683f
00000340: 3f5c 293e 069d e73e 2afd 0e3f a4f8 073f
00000350: 79b2 783f fb88 b63e 08d0 1b3f f25e 673f
00000360: 2a8a c0bd 9111 7e3e 0521 90bc 85ef 43bd
00000370: 13a4 163e b10d 3e3e de15 60bd f879 99be
00000380: 25d4 13bd 1932 503e 6184 093e d26c 65be
00000390: b58d 8dbd 0340 053f f720 903e f946 9a3d
000003a0: c0f3 58be ec98 93be a32e 103f fdf3 4cbd
000003b0: 75f3 fb3d d021 a23f 32e4 9c3f 4f64 d23e
000003c0: dc92 e03b bfd4 9a3f 41f1 ca3f 50fe cd3e
000003d0: eb00 6b3f 738e ac3f e12f 593f 4f76 9c3f
000003e0: c73e a33f 8393 7c3f 4bee f33f 7df5 813f
000003f0: 4b0e a0be 4932 17bf 9f8d 1ebf ad88 173f

encoder.0.bias f4 [8]
-0.14042038 -0.13955188 0.061351907 0.08421667 0.08791439 0.6437458 -0.15039596 0.114150174
00000000: 5cca 0fbe b0e6 0ebe 234c 7b3d ca79 ac3d
00000010: 760c b43d 86cc 243f 6601 1abe 91c7 e93d

encoder.3.weight f4 [8, 8, 3, 3]
-0.76999867 -0.34636196 0.4466056 -1.3813145 -0.11002119 0.3207733 -0.91475785 -0.07817823
-0.14520922 0.31420714 -0.35119307 -0.01648326 -0.24831827 0.29258254 0.59193116 -1.1302298
-0.44875786 0.7198921 -0.7615088 -0.8627026 0.066620134 -0.3195167 -0.18155472 0.2319323
-1.4155812 -0.42912632 -0.3513698 0.16236007 -0.5211506 0.4891568 0.34075516 -0.43841106
0.18683356 -0.6596162 -0.6402971 0.6012375 -1.0271646 -0.7067547 -0.16934034 -0.2388891
-0.50911754 0.7559828 -0.56923646 -1.2757424 -0.14179306 0.4127246 0.16980532 0.8027032
-0.31498143 0.0409738 0.4629882 0.038241096 0.3623649 0.45621014 -0.06950555 -0.12598513
0.9893641 -0.75898665 0.0446534 0.8142722 -0.44793925 0.112163335 0.8854914 -1.4076718
-0.7924096 0.16144031 -2.1571233 -0.8433234 0.42262653 -2.207962 -0.83670557 0.81287223
0.02744617 0.84352714 1.8457644 -0.63704 -0.071566634 0.31225038 -0.2244123 -0.96499705
-0.47927985 0.02952117 0.62068343 1.4162296 -0.42762232 0.2182878 -0.11191684 0.5224745
-0.2390288 -1.110214 -0.18760687 0.078933135 0.32685873 0.505029 0.171393 0.21837029
1.2741828 1.0025209 1.3985558 -0.10023116 0.54500204 0.73915446 0.69258285 0.4568457
0.6901629 1.0495002 0.9324163 0.40197954 0.26083532 -0.24265775 0.4137154 0.3172851
-0.25538692 0.28990307 0.4396959 0.32201508 0.7380786 -0.16892086 -0.39276794 0.47778928
0.13318738 0.14017025 0.033232827 -0.1685129 -0.078065865 -0.6091748 -0.30614936 -0.17770793
-0.052582085 -0.081102654 -0.02752427 -0.020384306 -0.4719604 -0.44323522 -0.5752767 0.40644962
-0.117167495 0.40658218 0.37413773 0.22286537 0.16225564 1.3417269 1.080031 0.85617787
-0.23572461 -0.7881865 -1.1143193 0.67169255 -0.18631366 -0.17165971 1.2228572 0.29687306
-1.5919361 -0.37472004 0.19527154 0.99875313 0.8405525 0.5258236 0.7499767 0.8742779
1.0520029 0.9887126 1.6556333 0.33783525 -0.1342732 1.6703447 0.8227274 -0.69301665
1.651539 1.649822 0.8542438 1.2138059 0.97180766 0.59079516 -0.02778945 -0.42950386
-0.33891362 -0.29340208 -0.008227605 0.005558352 0.3115112 -0.06862994 -2.0085797 0.84192044
0.19556637 -0.8910725 0.07456495 -0.66256475 -1.5072198 -0.41397288 -0.58846027 -0.4022335
0.7058882 0.23399867 -0.43756428 0.6412498 0.68453574 0.18743186 -0.1062804 -0.8656851
-1.057358 1.3560858 0.35838002 -0.5287635 0.9323309 0.9369257 0.3877556 0.31782943
-0.14528029 -0.6605424 1.1431006 0.3282506 -0.52237755 1.2023644 1.1338985 0.012311389
1.0118152 1.2902005 2.527932 0.18962835 -0.72780913 0.8024055 0.8255824 0.91404897
1.9646267 -0.20652574 0.45355076 0.48036623 0.10013696 -0.046241302 0.42232394 1.0264657
-0.484358 0.026753925 1.0630544 0.8137552 0.93438745 0.13906834 -0.71065986 -0.4637432
1.4584724 -0.48005345 0.22049695 0.56319416 0.2628988 0.69570816 0.27928233 -0.56125414
-0.84108216 0.8230432 0.036939897 -0.41005194 1.2722448 2.7943406 4.052102 -0.50856507
00000000: a21e 45bf 5b56 b1be 7da9 e43e eace b0bf
00000010: ca52 e1bd 663c a43e 922d 6abf e81b a0bd
00000020: bab1 14be c2df a03e 94cf b3be e707 87bc
00000030: 2547 7ebe 61cd 953e cd88 173f 5fab 90bf
00000040: 97c3 e5be d94a 383f 3ef2 42bf 14da 5cbf
00000050: 2370 883d b197 a3be 7be9 39be a97f 6d3e
00000060: c431 b5bf 72b6 dbbe bee6 b3be b841 263e
00000070: 206a 05bf c372 fa3e 7677 ae3e 6a77 e0be
00000080: 4c51 3f3e 9bdc 28bf 83ea 23bf b3ea 193f
00000090: 217a 83bf e0ed 34bf 8e67 2dbe 589f 74be
000000a0: 8755 02bf 1788 413f 7bb9 11bf 874b a3bf
000000b0: 3332 11be a450 d33e 72e1 2d3e f57d 4d3f
000000c0: 3f45 a1be 25d4 273d ca0c ed3e b2a2 1c3d
000000d0: e487 b93e 6094 e93e ed58 8ebd 3f02 01be
000000e0: f746 7d3f f34c 42bf 7ce6 363d 2574 503f
000000f0: 4b58 e5be e4b5 e53d 90af 623f 972e b4bf
00000100: 5bdb 4abf 9c50 253e 4f0e 0ac0 0be4 57bf
00000110: 8162 d83e 404f 0dc0 5632 56bf 6518 503f
00000120: cad6 e03c 65f1 573f 0242 ec3f 0e15 23bf
00000130: 8791 92bd 48df 9f3e 57cc 65be 0c0a 77bf
00000140: 2b64 f5be 61d6 f13c 1ce5 1e3f 0347 b53f
00000150: 50f1 dabe d686 5f3e a834 e5bd e4c0 053f
00000160: f7c3 74be 7e1b 8ebf 041c 40be b2a7 a13d
00000170: 075a a73e 9549 013f a681 2f3e 769c 5f3e
00000180: 6c18 a33f 9b52 803f e003 b33f ff45 cdbd
00000190: 4185 0b3f 3a39 3d3f 1c4d 313f aee7 e93e
000001a0: 84ae 303f 0656 863f d6b2 6e3f 43d0 cd3e
000001b0: 358c 853e 467b 78be 81d2 d33e 3173 a23e
000001c0: 13c2 82be 2d6e 943e d21f e13e 29df a43e
000001d0: b8f2 3c3f 97f9 2cbe e118 c9be cca0 f43e
000001e0: 4662 083e ca88 0f3e 251f 083d a58e 2cbe
000001f0: ffe0 9fbd e1f2 1bbf 9cbf 9cbe 11f9 35be
00000200: 5060 57bd 2619 a6bd 947a e1bc fdfc a6bc
00000210: cba4 f1be baef e2be 5545 13bf 2a1a d03e
00000220: 83f5 efbd 8a2b d03e fb8e bf3e d236 643e
00000230: 5826 263e b5bd ab3f 753e 8a3f 792e 5b3f
00000240: cb61 71be 97c6 49bf 04a2 8ebf 0bf4 2b3f
00000250: 02c9 3ebe 90c7 2fbe 9686 9c3f bfff 973e
00000260: 90c4 cbbf 4edb bfbe 43f5 473e 49ae 7f3f
00000270: 732e 573f 609c 063f 79fe 3f3f add0 5f3f
00000280: 08a8 863f 451c 7d3f cbeb d33f bef8 ac3e
00000290: ea7e 09be dbcd d53f 439e 523f 8a69 31bf
000002a0: a165 d33f 5e2d d33f b9af 5a3f fe5d 9b3f
000002b0: 63c8 783f 5a3e 173f b3a6 e3bc eee7 dbbe
000002c0: 1686 adbe cc38 96be 14cd 06bc d622 b63b
000002d0: 657e 9f3e db8d 8cbd 928c 00c0 1988 573f
000002e0: 8d42 483e 541d 64bf 82b5 983d d89d 29bf
000002f0: 94ec c0bf 41f4 d3be 55a5 16bf 8df1 cdbe
00000300: 17b5 343f 599d 6f3e 6d08 e0be f228 243f
00000310: bc3d 2f3f 23ee 3f3e 8aa9 d9bd 8a9d 5dbf
00000320: 8257 87bf 3894 ad3f 967d b73e 0b5d 07bf
00000330: 3dad 6e3f 5dda 6f3f e787 c63e 8aba a23e
00000340: 5bc4 14be 4f19 29bf 1f51 923f 7610 a83e
00000350: 89ba 05bf 14e7 993f 9623 913f b5b5 493c
00000360: 2983 813f 4a25 a53f a3c9 2140 ef2d 423e
00000370: b351 3abf 726a 4d3f 5e59 533f 1dff 693f
00000380: e378 fb3f 7c7b 53be ce37 e83e 90f2 f53e
00000390: 9b14 cd3d 8567 3dbd d83a d83e 3a63 833f
000003a0: c6fd f7be 0c2b db3c 2b12 883f 4352 503f
000003b0: 0434 6f3f ee67 0e3e ceed 35bf c06f edbe
000003c0: 39af ba3f 91c9 f5be f4c9 613e 7e2d 103f
000003d0: ac9a 863e ee19 323f 18fe 8e3e 5aae 0fbf
000003e0: 2951 57bf f6b2 523f 4a4e 173d 54f2 d1be
000003f0: ebd8 a23f 7ad6 3240 d2aa 8140 5231 02bf

encoder.3.bias f4 [8]
2.8439064 0.064751014 -0.38778117 -2.6402738 -0.6541002 -0.09121726 -0.31207684 -0.7376408
00000000: 9002 3640 2e9c 843d 418b c6be 3ffa 28c0
00000010: 1c73 27bf 1dd0 babd 89c8 9fbe 07d6 3cbf

cnn_net.0.weight f4 [16, 8, 3, 3]
0.4787688 -0.6757668 -1.0486395 0.29945615 -0.3342265 -0.99811697 0.7189369 0.045718383
-2.744358 0.893371 0.6252356 0.62588286 -0.925316 -0.13376059 0.4475054 -0.5606797
0.11038514 0.06763433 0.03926054 -0.012131505 0.5018959 -0.07557753 0.09419014 0.38938126
-0.573073 -0.82538736 -0.43501794 0.31722215 0.7715439 0.72772026 -0.08290516 -0.18148878
-0.022960959 -0.53937733 0.11195713 -0.07114475 -0.30205992 -0.15768954 0.1880797 -0.37120187
0.089553945 0.116512984 -0.3891963 0.5129813 -0.28528216 1.1420027 1.2446688 1.2120504
0.6701118 1.3134925 0.91471964 0.030454298 0.5631933 1.0551738 0.5430784 -0.21979351
-0.20788407 0.12874271 0.76103705 0.46201605 0.58061266 0.3810128 0.70855796 0.023973655
-0.4500877 0.19778554 0.18534102 0.15441895 0.49287412 -0.23450725 -0.4299408 -0.13728303
0.65192616 0.19760789 0.06889651 0.54228705 -0.45407894 -0.00063755305 0.29189235 0.31058767
0.5556779 -0.14232579 0.57378435 1.4127381 0.44503513 0.5526501 3.8286333 0.45500702
-0.5216694 1.295137 -0.3787263 -0.21030147 0.18392341 0.53007764 -0.8701328 -0.1618213
0.3667091 -0.76582384 -0.7174538 -0.36393413 -0.14559665 -0.46215636 0.11516908 -0.3312274
0.6411404 -0.8401015 -1.0647379 -0.18221848 -0.10612409 -0.35307476 -0.38549212 0.18777974
-0.4355478 -0.012015864 0.7319256 0.33591673 0.19026202 0.08530312 -1.1182181 0.13230707
2.4222226 0.6217038 1.6524035 0.6637465 0.27470776 0.1810632 0.7058592 0.4043481
-0.48251304 1.0270131 0.38633832 0.7020441 0.7198401 -0.003929803 -0.327226 -0.57457924
-0.26631835 -0.025200361 -0.10070908 -0.47103477 1.237749 -0.20240527 -0.5915426 -0.00475566
0.6396462 -0.2436709 0.32800722 -0.6249695 -1.4881935 -0.30400884 -1.2072684 -0.17805685
-1.2142378 0.7497919 0.39996424 0.74353963 0.3395425 -0.12487307 -0.1718948 0.1539116
0.13105647 -0.1427638 -0.014183921 -1.0600998 -0.06535162 0.3657181 0.31669086 0.16783349
-0.52528864 0.20942204 -0.8318363 0.20251113 0.15479307 0.66567475 0.9270871 0.14528827
0.12778191 -0.39934033 -0.6726521 0.18312778 -0.555897 -0.19620514 -0.018951897 0.554063
0.26661497 0.042038072 -0.17513652 0.07105191 0.2299717 0.6507606 0.35335565 -0.2165677
0.7299826 0.43500128 -0.28014156 0.5135031 0.15792869 -0.1749697 1.2020422 0.5964952
0.7714719 0.40840012 0.48587564 0.73240566 0.2967189 -0.18115756 0.58612704 -0.24926908
-1.5144626 -0.42412677 0.50832725 0.20156161 -0.2124512 -0.3563135 -0.45300117 0.2724731
-0.8038701 -1.387518 -0.98094034 -1.2918963 -1.6216465 -1.1636528 -0.7742161 -0.6345657
-1.4331746 0.69310534 -0.70103276 -0.6266947 1.0041993 1.1978076 0.6811433 -0.42596388
0.27227917 -0.42959923 0.7498777 0.4301088 -0.38398302 0.21186964 0.20695549 -0.06932657
-0.27870443 -0.729234 -0.5979721 0.16250533 0.13247879 -0.31542686 0.3307172 0.19165567
0.27869347 0.17654322 0.2481113 0.47792864 0.43697903 0.015975384 -0.057896253 0.038877286
00000000: 2f21 f53e 0eff 2cbf d239 86bf 5152 993e
00000010: bc1f abbe 9884 7fbf 400c 383f 3343 3b3d
00000020: 90a3 2fc0 f6b3 643f 710f 203f dc39 203f
00000030: 82e1 6cbf 89f8 08be 6e1f e53e b488 0fbf
00000040: 9b11 e23d de83 8a3d a9cf 203d 38c3 46bc
00000050: 407c 003f 64c8 9abd c3e6 c03d fb5c c73e
00000060: eab4 12bf 964c 53bf acba debe f16a a23e
00000070: e783 453f e04b 3a3f 2eca a9bd 32d8 39be
00000080: 9f18 bcbc a214 0abf c849 e53d 57b4 91bd
00000090: 99a7 9abe 5e79 21be f797 403e 2c0e bebe
000000a0: 0f68 b73d 5c9e ee3d bd44 c7be be52 033f
000000b0: 8110 92be 252d 923f 4f51 9f3f 7824 9b3f
000000c0: 728c 2b3f 8620 a83f 112b 6a3f 4b7b f93c
000000d0: 702d 103f ef0f 873f 3007 0b3f 8d11 61be
000000e0: 90df 54be 21d5 033e 53d3 423f 5e8d ec3e
000000f0: 08a3 143f 1c14 c33e 0e64 353f 6664 c43c
00000100: e571 e6be 4b88 4a3e 09ca 3d3e 0020 1e3e
00000110: ff59 fc3e ab22 70be 3321 dcbe ec93 0cbe
00000120: a2e4 263f b959 4a3e 9d19 8d3d 53d3 0a3f
00000130: 097d e8be 7621 27ba ea72 953e 5905 9f3e
00000140: e840 0e3f dabd 11be 88e3 123f 9ad4 b43f
00000150: a5db e33e 7a7a 0d3f 5408 7540 aef6 e83e
00000160: 208c 05bf 0dc7 a53f 6ae8 c1be 4559 57be
00000170: 6b56 3c3e 2bb3 073f 06c1 5ebf 7cb4 25be
00000180: 4cc1 bb3e 080d 44bf 0dab 37bf 9355 babe
00000190: 4a17 15be c29f ecbe c4dd eb3d a396 a9be
000001a0: c721 243f e410 57bf 5549 88bf 7b97 3abe
000001b0: 9657 d9bd 37c6 b4be 395f c5be 5549 403e
000001c0: 1f00 dfbe 30de 44bc 7a5f 3b3f 47fd ab3e
000001d0: 0cd4 423e 67b3 ae3d c521 8fbf 817b 073e
000001e0: b205 1b40 fb27 1f3f f581 d33f 4aeb 293f
000001f0: 7fa6 8c3e a268 393e 30b3 343f b706 cf3e
00000200: f30b f7be 2a75 833f 23ce c53e 2ab9 333f
00000210: 7147 383f 94c5 80bb 2b8a a7be a017 13bf
00000220: e15a 88be fd70 cebc 9040 cebd 782b f1be
00000230: 8f6e 9e3f 5443 4fbe 566f 17bf 5ed5 9bbb
00000240: dabf 233f dd84 79be 90f0 a73e 00fe 1fbf
00000250: 207d bebf 0ca7 9bbe c587 9abf 8954 36be
00000260: 256c 9bbf 5df2 3f3f 1dc8 cc3e 9d58 3e3f
00000270: 84d8 ad3e 74bd ffbd 3105 30be 019b 1d3e
00000280: ab33 063e ac30 12be ad63 68bc 5ab1 87bf
00000290: 12d7 85bd 673f bb3e 4e25 a23e 8bdc 2b3e
000002a0: 5179 06bf bb72 563e 39f3 54bf 145f 4f3e
000002b0: 1382 1e3e a969 2a3f 9555 6d3f 73c6 143e
000002c0: 43d9 023e 5676 ccbe ee32 2cbf d985 3b3e
000002d0: 444f 0ebf 00ea 48be 0241 9bbc 13d7 0d3f
000002e0: c281 883e 1d30 2c3d fd56 33be aa83 913d
000002f0: b47d 6b3e 3f98 263f 08eb b43e ecc3 5dbe
00000300: 24e0 3a3f 7db8 de3e b76e 8fbe f074 033f
00000310: 0fb8 213e 422b 33be 85dc 993f e9b3 183f
00000320: 2f7f 453f d219 d13e b1c4 f83e f07e 3b3f
00000330: 8aeb 973e 5e81 39be 6c0c 163f 6540 7fbe
00000340: e9d9 c1bf 2527 d9be bc21 023f 2b66 4e3e
00000350: cf8c 59be b96e b6be c5ef e7be 9881 8b3e
00000360: 6eca 4dbf 319a b1bf e81e 7bbf dc5c a5bf
00000370: 1d92 cfbf 93f2 94bf 0733 46bf e672 22bf
00000380: 4472 b7bf 5a6f 313f e276 33bf 106f 20bf
00000390: 9a89 803f c251 993f 685f 2e3f f017 dabe
000003a0: 2d68 8b3e 6ef4 dbbe fcf7 3f3f 3837 dc3e
000003b0: 6c99 c4be 5bf4 583e 24ec 533e 17fb 8dbd
000003c0: 59b2 8ebe 14af 3abf b314 19bf cc67 263e
000003d0: 85a8 073e a17f a1be c453 a93e 6241 443e
000003e0: e9b0 8e3e bfc7 343e e310 7e3e 10b3 f43e
000003f0: b7bb df3e cfde 823c 9f24 6dbd ca3d 1f3d

cnn_net.0.bias f4 [16]
-1.8606693 0.65049684 -0.7510716 -0.6020893 -0.8441171 -1.2358351 -0.70807797 -1.4799134
-0.4085567 -0.76033 -1.1761606 1.0347018 -0.6413203 -0.41107702 -1.3006028 0.4417258
00000000: 692a eebf f686 263f 3a46 40bf 8622 1abf
00000010: 0f18 58bf d82f 9ebf 9944 35bf cd6d bdbf
00000020: 582e d1be fda4 42bf 6e8c 96bf 1c71 843f
00000030: 912d 24bf b078 d2be 277a a6bf e229 e23e

cnn_net.3.weight f4 [32, 16, 3, 3]
0.2497056 -0.53902906 -1.4436058 1.0657964 0.99896246 -0.8883495 1.7782218 -0.41368824
-0.19443649 -1.6736323 -0.8755092 -1.7396637 0.84991205 0.23727247 -0.287028 1.3074443
-0.67578626 -2.1837807 0.1853269 -0.41203487 -0.56046844 0.846799 0.19563678 0.019005837
0.49533385 -0.7877578 0.12586984 0.46496746 -0.021037294 -1.2504672 1.2713561 0.77352804
0.104470015 0.34831876 -0.54879606 -1.7541395 0.0037383668 -0.48526686 -0.18478647 0.05105449
-0.38833958 -0.48751658 1.1651652 -0.007649423 -0.58649594 0.3389321 0.5300927 0.14600289
0.2913435 0.3525213 -0.025314199 -0.9006741 0.33901173 0.12384635 0.56846553 0.41266653
0.37478027 0.8048208 -0.029756766 0.12128897 0.18088852 -0.1073259 -0.055848338 0.3053858
1.7751826 0.049276587 0.24399832 0.9073337 -0.37136576 -1.3514454 0.14376827 -0.46943238
-0.3698035 0.86075675 -0.425681 0.2625405 0.6811211 -0.21101944 -0.4141162 -0.03425508
-0.532546 0.8758616 0.8017446 -0.07818323 0.43663752 1.1602827 -0.29723814 0.1834929
-0.08795041 -0.06851344 0.16119711 0.20808344 0.3449532 0.82370967 -0.6385572 0.27558875
0.6231639 -1.956033 0.46709207 -0.37240192 -1.3378636 -0.6714597 0.37226358 0.5105821
-0.24749243 1.44879 -1.6612248 -0.5432283 0.8083591 0.72463787 0.57347083 0.36196214
0.17033687 0.048046246 -0.39674094 0.28202096 0.28255194 1.1618974 0.54325974 0.054095313
2.0628054 1.1517643 0.10254152 1.5065849 -0.39049408 -0.16103593 0.10244077 -0.063293606
-0.02330282 -0.3575942 0.35969454 0.2955189 0.07281336 0.11073251 -0.013928582 -0.72247136
-0.07104151 0.20865694 -0.7966314 0.032559 -0.25254917 -1.250429 -0.26062015 0.8083829
-0.5923351 -0.66352904 -0.8754809 0.2577903 0.49625108 -0.26386067 -0.39131755 0.21037893
0.33472157 -1.6888636 0.16098577 -0.3227753 0.8406883 0.7615834 -1.4262081 -0.5990217
0.17107503 0.15041812 -0.8780375 -0.7280192 0.17439783 1.2211081 0.30508777 -0.4058821
-1.2243571 -0.054590758 -0.3519972 -1.4659094 -0.4652243 0.2207285 -0.38143626 -0.2855091
-0.67066497 -0.20437041 0.24289437 -0.38887388 -0.3651053 -0.20903228 -0.079406366 0.25584692
0.4164581 -0.59354466 -0.2521222 -0.08762632 0.069885865 0.21142344 -0.017491296 -0.036507804
0.4076521 -0.0036135865 0.1305372 -0.7064818 -0.26571667 0.3925539 0.16327597 -0.06614738
0.22385593 0.088874996 -0.14271843 0.18015082 -0.7475111 -0.9326834 0.30739066 -0.767498
-0.14728121 0.07289719 0.60142976 0.6031836 -0.044179916 -0.78900546 -0.7164812 0.13599151
-0.32590815 -0.05192682 -0.03285394 0.32257375 0.24990128 -0.03539031 0.29219824 0.13114293
0.05787172 -0.26143783 0.07453539 0.068255804 0.3648382 0.31390497 0.22886348 -0.81252134
0.008830366 0.66659033 0.17407818 -0.41824713 -0.2545227 0.43407387 0.19711342 -0.07785887
-0.33480397 0.19523543 -0.059458792 -0.15630549 0.11270845 -0.046210732 -0.035920095 0.89252865
-0.37747136 -0.124121465 0.5211393 -0.5835249 -0.13649306 0.08044303 0.26865226 0.091724426
00000000: d3b2 7f3e cffd 09bf 13c8 b8bf 046c 883f
00000010: 01bc 7f3f df6a 63bf c69c e33f f2ce d3be
00000020: 5c1a 47be 9539 d6bf 5f21 60bf 4dad debf
00000030: d693 593f 8ef7 723e 56f5 92be 565a a73f
00000040: 5400 2dbf 10c3 0bc0 56c6 3d3e 3cf6 d2be
00000050: dc7a 0fbf d2c7 583f 0255 483e 21b2 9b3c
00000060: 669c fd3e 7faa 49bf 06e4 003e 3710 ee3e
00000070: 6756 acbc 4f0f a0bf ccbb a23f ef05 463f
00000080: 60f4 d53d d656 b23e e67d 0cbf a587 e0bf
00000090: 63ff 743b e674 f8be aa38 3dbe 831e 513d
000000a0: 72d4 c6be c69b f9be 2224 953f 03a8 fabb
000000b0: 9924 16bf 8288 ad3e 28b4 073f c881 153e
000000c0: fa2a 953e ac7d b43e b95f cfbc 9492 66bf
000000d0: f292 ad3e 28a3 fd3d f586 113f 0749 d33e
000000e0: 33e3 bf3e bc08 4e3f 76c4 f3bc 5a66 f83d
000000f0: d73a 393e aecd dbbd 3ac1 64bd 875b 9c3e
00000100: 2f39 e33f 3fd6 493d b2da 793e 0547 683f
00000110: a723 bebe 2afc acbf fd37 133e 7159 f0be
00000120: e256 bdbe 8e5a 5c3f dcf2 d9be b56b 863e
00000130: f45d 2e3f 7b15 58be 0a07 d4be 0e4f 0cbd
00000140: ef54 08bf 7738 603f 223f 4d3f 871e a0bd
00000150: f48e df3e 2584 943f 992f 98be 90e5 3b3e
00000160: 581f b4bd c650 8cbd db10 253e d313 553e
00000170: b59d b03e a3de 523f 7c78 23bf f819 8d3e
00000180: ab87 1f3f 4a5f fabf b126 ef3e 77ab bebe
00000190: 1d3f abbf c8e4 2bbf 5599 be3e 82b5 023f
000001a0: a86e 7dbe f371 b93f 04a3 d4bf 0311 0bbf
000001b0: 9ff0 4e3f de81 393f fcce 123f 1a53 b93e
000001c0: ca6c 2e3e 24cc 443d a121 cbbe 0d65 903e
000001d0: a6aa 903e 0eb9 943f 1213 0b3f 0c93 5d3d
000001e0: 0105 0440 036d 933f 4a01 d23d c6d7 c03f
000001f0: d7ee c7be 9ae6 24be 77cc d13d 14a0 81bd
00000200: 8ee5 bebc 9616 b7be e229 b83e 414e 973e
00000210: 2c1f 953d bac7 e23d b534 64bc e2f3 38bf
00000220: 367e 91bd 2aaa 553e 09f0 4bbf 965c 053d
00000230: 204e 81be 0f0e a0bf 0170 85be 2ff2 4e3f
00000240: 46a3 17bf 0add 29bf 841f 60bf 17fd 833e
00000250: 9f14 fe3e bf18 87be c65a c8be 936d 573e
00000260: a060 ab3e af2c d8bf 74d9 243e ce42 a5be
00000270: 5937 573f 21f7 423f fd8d b6bf 7c59 19bf
00000280: 4b2e 2f3e 3507 1a3e 11c7 60bf 775f 3abf
00000290: 5895 323e 454d 9c3f 7734 9c3e c7cf cfbe
000002a0: bcb7 9cbf 8f9a 5fbd fa38 b4be eba2 bbbf
000002b0: e131 eebe a706 623e 9d4b c3be 402e 92be
000002c0: b3b0 2bbf 7a46 51be 4db9 783e 7a1a c7be
000002d0: 15ef babe 8f0c 56be ce9f a2bd 5efe 823e
000002e0: ff39 d53e 8bf2 17bf 2916 81be 6e75 b3bd
000002f0: 5220 8f3d 637f 583e e849 8fbc 3589 15bd
00000300: c7b7 d03e ecd1 6cbb 8bab 053e fedb 34bf
00000310: 040c 88be d3fc c83e d131 273e 4778 87bd
00000320: 7d3a 653e 1804 b63d c824 12be 7579 383e
00000330: e35c 3fbf 57c4 6ebf 4f62 9d3e c07a 44bf
00000340: e3d0 16be 1f4b 953d 4df7 193f 3e6a 1a3f
00000350: 00f6 34bd 43fc 49bf 506b 37bf 5c41 0b3e
00000360: 6fdd a6be 38b1 54bd da91 06bd 6328 a53e
00000370: 1fe6 7f3e 6ef5 10bd 029b 953e 554a 063e
00000380: e60a 6d3d 2edb 85be 03a6 983d b3c9 8b3d
00000390: 13cc ba3e 27b8 a03e 305b 6a3e 6601 50bf
000003a0: 3dad 103c aaa5 2a3f 8d41 323e 7d24 d6be
000003b0: cd50 82be ee3e de3e 1ad8 493e 7974 9fbd
000003c0: 6d6b abbe cceb 473e 108b 73bd 8c0e 20be
000003d0: b0d3 e63d 7747 3dbd f320 13bd c27c 643f
000003e0: ed43 c1be 6533 febd 6369 053f e361 15bf
000003f0: d6c4 0bbe 51bf a43d ca8c 893e 04da bb3d

cnn_net.3.bias f4 [32]
-0.3265006 -0.007619681 -0.3384787 -0.38441136 -0.24720089 -0.020505702 -0.26281455 -0.43137825
-0.22993417 -0.50566244 -0.10467306 -0.5705722 -0.32548046 -0.1310427 -0.21644987 0.28812712
-0.90661216 -0.2768968 -0.4314004 -0.1710546 -0.040561456 0.07428589 -0.1385804 -0.23540446
-0.41441426 -0.6582773 0.13987783 -0.01826573 0.16605002 1.3990839 -0.63162637 -0.18915762
00000000: 162b a7be 84ae f9bb 154d adbe 91d1 c4be
00000010: 3b22 7dbe 93fb a7bc a18f 86be 9cdd dcbe
00000020: dd73 6bbe 1873 01bf d45e d6bd 0511 12bf
00000030: 60a5 a6be 0f30 06be 09a5 5dbe 6685 933e
00000040: bc17 68bf 6bc5 8dbe 83e0 dcbe f028 2fbe
00000050: c523 26bd 3323 983d 05e8 0dbe de0d 71be
00000060: 1b2e d4be dc84 28bf 223c 0f3e 03a2 95bc
00000070: 0409 2a3e 2e15 b33f 44b2 21bf 89b2 41be

hidden.weight f4 [32, 128]
-0.67136794 -0.3162076 -0.2671036 -0.10215467 0.020520167 -0.1776758 0.17957246 0.076565206
0.37568066 0.1861415 -0.0074406294 0.38698608 -0.06445028 -0.5454587 0.48793057 0.38076723
-0.32368505 -0.028320769 1.1908585 0.2639064 0.25211933 -0.07182917 -0.23151128 0.04087223
-0.66524655 -0.13422582 -0.70823294 -0.14086193 0.4737615 1.6233857 -0.35922286 -0.37890393
-0.15763286 1.1954794 -0.41796649 -0.9977456 1.0143261 1.2816144 -0.23025092 0.89444876
-0.28713128 0.08929471 0.38560304 0.00039288017 -1.7534411 0.6385623 -0.5606742 0.82587475
0.3768109 -0.6389812 -0.5137552 0.8395961 0.089965545 0.25107396 -0.025327548 0.030727401
-0.5208295 -0.4075993 -0.5064442 -1.3597159 -0.7890519 0.12493685 0.07542682 0.21275698
-1.1373572 -1.3589617 0.4788747 -0.19883342 -0.60225314 0.014868735 0.27677327 0.12791644
-1.270215 0.17858125 -0.4940913 0.07833533 -0.54782903 -0.13709371 -1.1285917 -0.053219773
-0.058178313 -0.09393704 0.0203113 -0.053413417 0.24465135 0.15652455 0.40544266 0.21923497
-0.13504001 0.41030294 0.32784188 -0.45534363 -0.4188781 -0.96202576 -0.27583396 -0.2184218
-0.05856896 0.43097258 0.04593807 -0.045922104 -0.282728 0.4648623 -0.045170236 0.040758047
-0.56567794 0.9741135 0.15947233 0.020529648 -1.6051648 0.44668323 0.42225066 -0.39811313
-0.30696613 0.19648379 -0.007273782 0.19303563 0.95432067 0.57700914 0.43519923 -0.37202182
0.32931533 0.33466363 -0.34240115 0.48409417 0.09704369 0.288898 -0.8466025 0.2604033
-0.06196575 0.0896617 0.003887626 0.0056407265 0.17101505 -0.1662163 0.018600648 0.07898937
-0.05201446 -0.23757677 -0.16635966 -0.3465351 -0.024205817 -0.2490111 -0.08799625 0.17627612
-0.027331198 -0.07421936 0.020080172 -0.26898083 0.054195687 0.009012318 0.11175168 -0.11957602
-0.0991396 0.012492625 -0.10174899 0.14273873 -0.09446812 0.17941232 0.16818714 -0.07814884
-0.012960554 0.107500374 -0.05231251 -0.04428021 0.020580312 0.08554417 0.24338643 -0.017644608
-0.11114063 0.02844909 0.040607188 -0.0065318025 0.15399727 0.03424256 0.069650434 -0.045406196
-0.07674084 -0.05317402 -0.07851674 -0.033139195 -0.40829733 0.14338553 -0.17569554 0.004180785
-0.27817312 -0.027636748 -0.012863584 -0.0154414 -0.064954825 -0.15078248 0.060995344 -0.05181457
0.050542764 -0.057169586 -0.055752367 -0.21224941 -0.084695004 -0.13739124 -0.05778327 0.011168629
-0.014676322 0.051904622 -0.1631583 0.19112961 -0.030884195 0.09169567 0.15260015 0.012303907
0.10409428 -0.0056031845 0.018475238 -0.11244865 -0.047398597 -0.17832908 -0.040382195 -0.15996525
-0.04506411 -0.05809522 0.17324331 0.021090131 -0.097324446 -0.013699265 -0.25482097 -0.10247779
-0.092749506 0.05202973 0.0044461875 -0.08429508 -0.040580723 -0.2108756 -0.059205092 -0.10000341
0.27312562 -0.011526746 -0.0059217582 -0.055629723 -0.3544161 -0.025456904 0.074975386 -0.00017846341
-0.007799974 0.22607978 0.09454843 -0.072440855 0.095928185 -0.09232885 -0.042878903 0.2013134
0.1923834 0.08443414 -0.12766942 -0.21627244 -0.07975996 0.21038745 0.015616357 -0.1345711
00000000: c5de 2bbf f6e5 a1be cec1 88be 7836 d1bd
00000010: e919 a83c a5f0 35be d8e1 373e 38ce 9c3d
00000020: 3759 c03e e19b 3e3e 86d0 f3bb 0a23 c63e
00000030: 82fe 83bd 2ea3 0bbf 09d2 f93e ecf3 c23e
00000040: 0cba a5be f500 e8bc 0d6e 983f bd1e 873e
00000050: c915 813e 2c1b 93bd 4b11 6dbe a469 273d
00000060: 994d 2abf 7e72 09be c14e 35bf 1c3e 10be
00000070: de90 f23e 1acb cf3f 0fec b7be b2ff c1be
00000080: 826a 21be 7805 993f b4ff d5be 416c 7fbf
00000090: 70d5 813f f10b a43f e6c6 6bbe 98fa 643f
000000a0: df02 93be 25e0 b63d c36d c53e 7cfb cd39
000000b0: c270 e0bf d278 233f 5888 0fbf 876c 533f
000000c0: 5ced c03e 4694 23bf 7685 03bf c5ef 563f
000000d0: db3f b83d c48c 803e b87b cfbc 08b8 fb3c
000000e0: 1555 05bf dbb0 d0be 54a6 01bf 2c0b aebf
000000f0: 4eff 49bf e4de ff3d 6079 9a3d f7dc 593e
00000100: ec94 91bf 75f2 adbf 112f f53e fd9a 4bbe
00000110: 432d 1abf ff9b 733c 3ab5 8d3e 87fc 023e
00000120: 6896 a2bf 01de 363e 89f9 fcbe 466e a03d
00000130: 863e 0cbf 4b62 0cbe b175 90bf fafc 59bd
00000140: 624c 6ebd 1062 c0bd e263 a63c 07c8 5abd
00000150: e285 7a3e f947 203e 2e96 cf3e 227f 603e
00000160: ee47 0abe 3a13 d23e e4da a73e cd22 e9be
00000170: 3177 d6be 5247 76bf 1c3a 8dbe f7a9 5fbe
00000180: 01e6 6fbd 70a8 dc3e 8f29 3c3d d118 3cbd
00000190: b9c1 90be 6e02 ee3e 6d04 39bd e9f1 263d
000001a0: 45d0 10bf 815f 793f b74c 233e cb2d a83c
000001b0: 0a76 cdbf aab3 e43e 3d31 d83e 7cd5 cbbe
000001c0: aa2a 9dbe 0c33 493e e858 eebb 22ab 453e
000001d0: 5c4e 743f dfb6 133f 6fd2 de3e a579 bebe
000001e0: 059c a83e 0859 ab3e 344f afbe 31db f73e
000001f0: d8be c63d 70ea 933e f1ba 58bf 9553 853e
00000200: cccf 7dbd 8ea0 b73d 8bc7 7e3b d8d5 b83b
00000210: 921e 2f3e 9b34 2abe 6360 983c 2ec5 a13d
00000220: 1d0d 55bd 5347 73be 305a 2abe 0c6d b1be
00000230: 474b c6bc c4fc 7ebe 6137 b4bd ba81 343e
00000240: ade5 dfbc 5200 98bd 2c7f a43c dbb7 89be
00000250: 4cfc 5d3d 67a8 133c 11de e43d 46e4 f4bd
00000260: b409 cbbd dead 4c3c c661 d0bd 1a2a 123e
00000270: 8078 c1bd ddb7 373e 4039 2c3e 800c a0bd
00000280: 8158 54bc 2829 dc3d a445 56bd 2a5f 35bd
00000290: 0b98 a83c c831 af3d 4b3a 793e 6d8b 90bc
000002a0: b39d e3bd 110e e93c b953 263d bb08 d6bb
000002b0: 76b1 1d3e ed41 0c3d e3a4 8e3d d9fb 39bd
000002c0: 4d2a 9dbd 00cd 59bd 62cd a0bd f7bc 07bd
000002d0: 590c d1be a8d3 123e 88e9 33be f7fe 883b
000002e0: b56c 8ebe 7666 e2bc c8c1 52bc edfd 7cbc
000002f0: 0907 85bd b966 1abe 41d6 793d 843b 54bd
00000300: ee05 4f3d a82a 6abd 985c 64bd e957 59be
00000310: 9374 adbd 4ab0 0cbe 26ae 6cbd a0fc 363c
00000320: f574 70bc f199 543d f812 27be 7bb7 433e
00000330: da00 fdbc f0ca bb3d 3743 1c3e 5496 493c
00000340: 622f d53d eb9a b7bb 6259 973c 7a4b e6bd
00000350: 0825 42bd e69b 36be cd67 25bd eecd 23be
00000360: 2595 38bd 41f5 6dbd b266 313e 36c5 ac3c
00000370: 0a52 c7bd e272 60bc e577 82be e0df d1bd
00000380: 74f3 bdbd 201d 553d 53b1 913b e6a2 acbd
00000390: f937 26bd c6ef 57be 0a81 72bd 96ce ccbd
000003a0: 1fd7 8b3e adda 3cbc 4f0b c2bb fedb 63bd
000003b0: 0776 b5be ff8a d0bc b28c 993d e821 3bb9
000003c0: ed96 ffbb 7581 673e 9ba2 c13d df5b 94bd
000003d0: ff75 c43d e816 bdbd caa1 2fbd 1a25 4e3e
000003e0: 2700 453e ceeb ac3d c6bb 02be 8676 5dbe
000003f0: 3159 a3bd cf6f 573e c0db 7f3c 02cd 09be

hidden.bias f4 [32]
-0.24336855 -0.012997129 -0.28063315 0.037944432 0.32126763 0.3947658 -0.23092681 -0.004821521
-0.018178785 -0.31170505 -0.3495104 0.16209932 -0.3484135 0.09447986 -0.3865879 0.37571692
0.13256887 -0.0064817118 0.0030898557 -0.8031165 0.42305422 0.25109455 0.19417642 0.38617808
0.28777617 -0.029830907 -0.3235062 -0.045154843 0.18593968 -0.015789615 -0.69865036 0.16370666
00000000: 9b35 79be e9f1 54bc 26af 8fbe 9f6b 1b3d
00000010: 317d a43e be1e ca3e 1478 6cbe dafd 9dbb
00000020: adeb 94bc ce97 9fbe 07f3 b2be 5dfd 253e
00000030: 4163 b2be a87e c13d d9ee c5be f85d c03e
00000040: 22c0 073e 8a64 d4bb 2d7f 4a3b 0b99 4dbf
00000050: 909a d83e 778f 803e 2fd6 463e 22b9 c53e
00000060: 6657 933e f25f f4bc 9ba2 a5be 49f4 38bd
00000070: f966 3e3e 3959 81bc c0da 32bf b8a2 273e

out.weight f4 [1, 32]
-4.9074726 -0.16667677 -0.5497785 0.8572613 3.0216622 0.13952628 0.9086978 -0.054691385
3.0313554 -0.55332077 -0.71713275 0.12057485 1.2164518 0.46761253 -0.20720702 0.12210813
0.068416074 2.6741874 3.0162184 -5.6419287 6.4198794 3.1687913 0.9080997 3.6962304
3.2587724 0.114692956 -0.30627277 -0.53622925 0.09092382 0.3093495 -6.941413 0.9736888
00000000: 040a 9dc0 51ad 2abe 49be 0cbf 7a75 5b3f
00000010: ea62 4140 fadf 0e3e 6ba0 683f 1304 60bd
00000020: ba01 4240 6ea6 0dbf 0396 37bf f2ef f63d
00000030: b1b4 9b3f e96a ef3e 142e 54be d413 fa3d
00000040: ba1d 8c3d e325 2b40 b909 4140 ae8a b4c0
00000050: a76f cd40 7acd 4a40 3979 683f 0a8f 6c40
00000060: ba8f 5040 24e4 ea3d c9cf 9cbe 5246 09bf
00000070: 4536 ba3d 0f63 9e3e 0e20 dec0 ab43 793f
