train_history/olympics-running/11_23_13_4/actor.pth (torch, 48200 bytes, 14 tensors)

encoder.0.weight f4 [8, 4, 3, 3]
00000000: 9ae1 c8be 3555 073e 1847 473e a469 9dbd
00000010: bd4d 0dbe b417 a6be 32f3 bdbe 9b32 393d
00000020: d98e 1b3e ba52 01be e3bc 113d 8d6c ae3d
00000030: 3f89 99be 8daf 21be 63aa 12be 3973 6cbd
00000040: 8067 1ebf f75d 15bd 078e 013e bd04 be3d
00000050: 77c6 87bd 20b9 22be 8e3e a73e 0b47 df3e
00000060: 6f9b a73e 9841 e83e 86fd 56be 15a7 fb3d
00000070: f230 0a3e 851e 55be 0a69 733d 4cf0 733e
00000080: 8f46 0c3e 270a d13c 9f25 e0be ba4b 8dbe
00000090: 3043 ee3d eec7 833a d8f8 00bf 1588 053e
000000a0: 5aac bd3e 2998 87be fff8 193e cbb9 bebd
000000b0: f4bc aa3e abd5 1d3f 5098 d23d 25fa 503e
000000c0: bfab 0abc 301a a83d 4e8c 2a3e 49a3 60bd
000000d0: 7499 a2bd be9f 093f ad1d 6f3e 0a01 e5be
000000e0: 1381 923d 6064 053e 1bf1 993e bb11 6a3c
000000f0: 8b40 583e 9519 8a3e 7559 83bb 336a 5bbe
00000100: a8e3 d53d bb87 d4bd f89b 863e 3129 50be
00000110: a9fa 9abc ff73 04bb c6e9 713c 8763 043e
00000120: df97 84be 50a9 a23e a018 1d3e de8e 9c3e
00000130: a1c5 8e3e fcbd d63c 9de7 09be 00f5 833e
00000140: 4de5 e43c b818 5c3c 8bbf 3abd c3d5 1dbf
00000150: 604d a9bd 6621 adbe 3883 c23d 85e2 2fbd
00000160: f27c 9c3d 4818 80bd 6872 e83c 30c3 f83e
00000170: d2da 69be 6686 1b3e bfc9 a23e d980 48bd
00000180: e851 133e 4b6e 0f3e 5203 653e 68eb 50be
00000190: b9c7 cf3c a96d 793e 4cdd c7bd 97cd 92be
000001a0: 1cd9 df3d baf7 89bb 25f7 0e3e 94fd d83e
000001b0: 06de 4f3e 359b 9b3e 14bb 5cbd cf59 6c3c
000001c0: bcbb d43e 0919 f63d 70d5 343e 856e f83d
000001d0: b0f6 173c cdff d1be 0cf6 4f3e fb19 293e
000001e0: 4e44 adbe f507 d2bd c179 98be c53d 6e3c
000001f0: 3b86 233e 5626 483e ba7b 273e 470d bf3d
00000200: 1ca1 553e 416d 1cbf 8a9a 95be 5557 8ebd
00000210: 0f23 d8bd 929e e63e e862 62bd 8c3e fc3d
00000220: 83d6 22be 7e49 803d 7278 d23c 768d a9be
00000230: 513c a0be c3d0 21be bdda 24be 1292 66bc
00000240: 3ed1 863d d541 f5bd f70c c63d 7ec7 f33e
00000250: ee7c f4be 4e55 193e c8c5 4f3e 4338 dc3c
00000260: ee82 da3d 3c46 93bd 8237 593e 0c32 213e
00000270: cd09 0bbd 3cb1 ed3b 0895 9dbb d578 c23d
00000280: a49e 023e af6e eb3c 96b2 06bf 62ed 563d
00000290: c573 2f3f f286 12be 7254 fb3e 0ebe b2be
000002a0: 4d6b 3e3e c3ad ea3d 97d9 7abe 63c6 0bbd
000002b0: db92 eb3d 3f3d 3cbe a8ef 38be 315a 67bc
000002c0: e0a6 963e 9371 82be b75c bbbd d309 b83d
000002d0: c3d4 babe 11e5 943e bc21 e0be cd33 ce3d
000002e0: c943 99bd d2f9 883e de90 56be cf9f 313e
000002f0: 6cd4 6d3c 8118 12be 5564 edbd a4e7 adbc
00000300: 27a7 0bbe 05d2 caba 4d48 0abe ef76 ddbd
00000310: b0fe 323e a663 973e 53e3 a93e 0e10 873d
00000320: 3932 f23d 4f53 123d 333f 9d3e 4dec c5be
00000330: 0bf6 acbe b87e 4cbe b41f ba3e ec35 6bbd
00000340: ed30 3ebe f86c 0ebe 9bfd 9f3e cc33 893e
00000350: 452f 883e fb65 67be 58bd 51be a5b7 c8be
00000360: cd24 063e 2a42 073f ffb9 1bbe 508d 933e
00000370: 7fa7 94be 3cf4 9bbe 2a70 923e ad04 5abd
00000380: b8f1 a1be d91d 37be 6cb2 b93e e85a 873e
00000390: a4f7 143f 95e0 78be 5e86 c53d 2c4c 2ebd
000003a0: 5d55 0f3e 5e3c 86bc 7f2b f13d 8c03 6abe
000003b0: ba5e 03be 0b9c cd3d ef12 6e3c 48d8 ae3d
000003c0: d04a 6a3e c9d2 563e 32cf a83e ff7e e03e
000003d0: e29b 983c 2260 17bd 28f1 2ebc 937a 873c
000003e0: 29db 52be f27d 933d f556 14be edca 8abe
000003f0: 9f55 15bc d916 d4be 0185 5c3e 86f6 8d3e
-0.3923462 0.13216098 0.19460714 -0.07686165 -0.13799186 -0.3243996 -0.37099606 0.045214277
0.15191211 -0.12629214 0.035580527 0.08516798 -0.29987523 -0.15789624 -0.1432281 -0.057727072
-0.6187668 -0.036466565 0.12651835 0.092782475 -0.06629651 -0.15890932 0.32664913 0.4360889
0.32735774 0.45362544 -0.20995149 0.12287728 0.13495234 -0.20812424 0.059426345 0.23822135
0.13698791 0.025517536 -0.43778703 -0.27596837 0.11633909 0.001005409 -0.50379705 0.13040192
0.37045556 -0.26483276 0.1503639 -0.09312781 0.33347285 0.61654156 0.102829576 0.20407923
-0.008463799 0.0820812 0.16655084 -0.05484322 -0.07939425 0.5375937 0.23351164 -0.44727355
0.07153525 0.13026571 0.3006676 0.014286454 0.21118371 0.26972643 -0.004008467 -0.2142723
0.104438126 -0.10377451 0.2629087 -0.20328213 -0.018918352 -0.002021074 0.014765209 0.12928592
-0.25897118 0.317698 0.15341425 0.3057775 0.27885154 0.026213638 -0.1346726 0.25772858
0.02794137 0.013433628 -0.045592826 -0.616543 -0.08266711 -0.33814543 0.09497684 -0.042940635
0.07641019 -0.06254631 0.028374866 0.48586416 -0.2283738 0.15187988 0.31794545 -0.048951004
0.14386714 0.14006917 0.22364548 -0.204023 0.02536379 0.24358238 -0.09759006 -0.28672478
0.10930082 -0.0042104395 0.13961466 0.42380965 0.20299539 0.3039185 -0.05388935 0.014425709
0.4154948 0.12016494 0.17659545 0.12130455 0.0092751235 -0.41015473 0.20308703 0.16513817
-0.33841175 -0.10255424 -0.2978039 0.014541094 0.15969174 0.19545874 0.16355792 0.09328704
0.2086224 -0.6110421 -0.29219466 -0.06950251 -0.10553562 0.45042855 -0.055270106 0.12316617
-0.15902142 0.062640175 0.025692198 -0.3311574 -0.31296018 -0.15802293 -0.16099067 -0.014072912
0.065828785 -0.11975447 0.096704416 0.47613138 -0.47751564 0.14973947 0.20290291 0.026882296
0.10669504 -0.071911305 0.21212581 0.15741748 -0.033944894 0.007253794 -0.0048090257 0.09495703
0.12755829 0.028739301 -0.5261625 0.05247248 0.68536025 -0.1430929 0.49087864 -0.34910625
0.1859562 0.11458924 -0.24497066 -0.034124743 0.1150262 -0.18382739 -0.18060172 -0.014120624
0.2942419 -0.25477275 -0.09148543 0.08986249 -0.3649045 0.29081014 -0.43775737 0.10068474
-0.07483632 0.26753098 -0.209537 0.17346118 0.014515977 -0.1426716 -0.115914024 -0.021228619
-0.13637982 -0.0015473968 -0.13504143 -0.108137004 0.17479968 0.29568213 0.33181247 0.06594859
0.118259855 0.03572398 0.3071228 -0.38656846 -0.33781466 -0.19970214 0.36352313 -0.05742447
-0.18573351 -0.13908756 0.31248173 0.2679733 0.26598564 -0.22597496 -0.20482385 -0.3920261
0.13099976 0.52835333 -0.1520767 0.2881875 -0.2903404 -0.30459774 0.286012 -0.053227115
-0.3162973 -0.1788248 0.36268938 0.26436543 0.5819037 -0.24304421 0.09644769 -0.042553112
0.13997407 -0.016386207 0.11775874 -0.22852916 -0.12829104 0.100395285 0.014530881 0.08537346
0.22880101 0.20978846 0.32970577 0.4384689 0.018629018 -0.036956914 -0.010677613 0.01653794
-0.20591415 0.072017565 -0.14486296 -0.27107945 -0.009114652 -0.4142368 0.21535112 0.27727145

encoder.0.bias f4 [8]
00000000: 5568 0a3b 443f a9bc 2464 2abc 4237 f9bc
00000010: 153e 0039 09b0 b33c b032 b5b9 baa2 d5bb
0.0021119316 -0.02066005 -0.010399852 -0.030421857 0.00012230159 0.021934526 -0.00034560775 -0.0065196427

encoder.3.weight f4 [8, 8, 3, 3]
00000000: 96d2 df3d db84 e6be ca25 59bc 9483 623e
00000010: 80dc 12bd a2c1 6a3e 54ea bcbd f89e 0e3e
00000020: 21fa 893d 3e88 1d3d d48f 15bd 94aa 3dbe
00000030: 9ed8 c9bd a1be 473d f493 a1be 2d69 8dbd
00000040: cff5 523e 42b0 cbbd 64e5 f13c 794c aa3a
00000050: cb88 56bd 08bf 473e 0003 47be a420 d5bd
00000060: 878f 333e 0166 c6bd 831a 9abe 47c6 11be
00000070: 1fa2 a338 acc8 fcbd 5298 d03d 4626 b23d
00000080: bf36 003f 8222 a2bd 0391 093e 8da4 b3bd
00000090: 4eae 923d 30b9 11be 2728 48bd ae44 6cbc
000000a0: fe02 abbd d462 b2be 3519 2cbe 8004 c93e
000000b0: bb1b 34be c019 2a3e 3478 87bb e3e3 9b3d
000000c0: ffb8 05be 3020 bd3e 2840 86bd 617c 773d
000000d0: 658c a13e 1c96 0abd 8533 ddbd 688d fc3b
000000e0: d8f6 423e d1ed 0c3d 5d47 353e 5a16 763e
000000f0: e240 103e 2ac5 22be c938 573e 101e 883d
00000100: c8aa ee3c d8b3 893e f0b1 a3bd 4604 553d
00000110: 4e63 a2bd 528b e83d 1c9a cb3d a80d 913d
00000120: 11dd b3be a6b2 c1bd d030 8e3e 7992 3fbd
00000130: 3ab5 54bd 1661 94bc 16de 09bd 58a8 8bbd
00000140: 3e6e cbbd 31c8 febd 8e8e 6bbd 884b 943d
00000150: 4c6f 11bd 6272 70be 1eeb 513e 6f17 903d
00000160: 8962 c83e 009b 24bc dd9b 0dbe 122f ccbb
00000170: e0b7 8d3e 7047 6abe 66de bcbd 6634 5c3d
00000180: c048 553d ede7 113d b086 72bd d823 cebc
00000190: 3d41 9abc 2066 3ebe 8d8b ec3d d17b 0a3d
000001a0: 89f8 e43c 05fd e5bc f632 c3be ec8b a7bd
000001b0: 39a5 87bd 37c2 58be 76f1 4abc ba9d bbbd
000001c0: a907 1fbc edcd 9f3e 8be4 003e 4ed5 f23e
000001d0: c3a7 533e 1772 9e3e 62c3 e33d f396 d83e
000001e0: 6653 f1bd 1e4c 0fbe 7b4f 01bd 0df8 30be
000001f0: f42b 35be 419e 91be 18df 9f3d 373e cfbc
00000200: 8679 063e 77cf 25be 6a19 c73d 09be 083e
00000210: 5745 0d3e 2a64 4d3e 5ab1 45be aad5 373d
00000220: fd27 33be b64f 01be 2b4f 36bc a913 6c3e
00000230: b375 38bd 82f9 a9bc 3cd4 44be f191 85be
00000240: eb26 e7bd 37b0 9b3d d87d b6bc 9682 d23d
00000250: 485d a8be f71b 59be e7fe c3bc 0b67 2abb
00000260: 4e17 913a 5585 bbbc 62e6 783e db1b e83d
00000270: 6409 2dbe 1fd2 1abe 951e a0bc ee91 933e
00000280: 2df8 71bd 5737 3cbe 8eed 003e 44b2 1fbd
00000290: 7690 f63e 18e8 80be 6274 91be 1211 81be
000002a0: 8c90 103e 5348 8abe cefb 1a3d a698 29be
000002b0: 7a78 08bd c3e8 513e 03a1 863e b426 1cbc
000002c0: 1462 113e dda8 033e b898 943e 5d03 33be
000002d0: 8b15 5fbe 8279 093e 7cff c0bb fce0 cabd
000002e0: d9bf 8abc 310d 52be db31 fd3d 6b91 ebbd
000002f0: 631e c4bd 0676 d7bd 5b98 953e 9d9e 0cbe
00000300: 6c97 b03c ab94 f6bd b349 48be 4eb8 13bd
00000310: 722b cc3d a765 16be 2d0e 163d 0013 f3bc
00000320: 07ca ca3d 41f8 823e 7109 1d3c d02b 213e
00000330: d5a9 183e 3a1b f63c a905 69be 92cb 4dbe
00000340: e3e3 ec3e 7937 0bbe 740f 8a3d 5721 cebb
00000350: 399b 383d 5dfe 443c 0d9a fe3c 7cf9 4ebe
00000360: 6a44 913e 51d9 4b3d 8140 babd 4aad 483e
00000370: 633e 083c 4b6a ed3d 77f2 fc3d 3c05 ca3d
00000380: fdc5 c0bc acd2 cd3d 9aed e5be e0cd 1cbe
00000390: 6079 20be 3f1f 55be 5093 a73a 824e 7fbd
000003a0: fd09 153e 389b 993c a0f1 05be 2e0c 793c
000003b0: 4e8d a9bd 7827 36be 65fd 54bd 2cba a43b
000003c0: 3570 1d3e a964 2abd e9ab e83d 0700 9cbd
000003d0: 7c4e 903c 0e3b b03e 47f8 213e 3b8d 3cbe
000003e0: f258 26be 43f6 0cbe 5a8f 15be 8d62 b63c
000003f0: 85d3 9b3e 1307 bfbd 6e92 a53e 20f8 83be
0.10928838 -0.45023236 -0.0132536385 0.22120506 -0.035854816 0.22925428 -0.09224382 0.1392783
0.067371614 0.03846001 -0.03651412 -0.18522102 -0.098557696 0.048765782 -0.31558192 -0.06904826
0.20601581 -0.09945728 0.029528327 0.0012992761 -0.05237655 0.19506466 -0.19434738 -0.10406616
0.1753522 -0.096874245 -0.30098352 -0.14235793 7.802643e-05 -0.123429626 0.10185303 0.08698706
0.50083536 -0.07916738 0.13434224 -0.0877162 0.07162152 -0.142308 -0.048866417 -0.014420671
-0.0835018 -0.34841025 -0.1680649 0.39261246 -0.17588703 0.16611385 -0.0041342024 0.07611825
-0.13058852 0.3693862 -0.065552056 0.06042135 0.31552425 -0.03383456 -0.10800842 0.0077072866
0.19039476 0.034406487 0.17703004 0.24031964 0.14087251 -0.15895525 0.21017756 0.06646359
0.02913417 0.26895022 -0.07992923 0.05200603 -0.07929097 0.11354698 0.099415034 0.07082683
-0.35129598 -0.094579026 0.27771616 -0.046770547 -0.051930644 -0.0181127 -0.033659063 -0.068192184
-0.099331364 -0.12440527 -0.057508998 0.07240969 -0.03550653 -0.23481134 0.20499846 0.070357196
0.39137676 -0.0100467205 -0.13828988 -0.006231197 0.27679348 -0.22878814 -0.09222107 0.05376091
0.052071333 0.035621572 -0.05921048 -0.025163576 -0.018829936 -0.18593645 0.11550055 0.033809487
0.027950542 -0.02807475 -0.38124818 -0.08180985 -0.066233106 -0.21167837 -0.01238667 -0.09160943
-0.009706416 0.31211796 0.12587182 0.47428364 0.20669465 0.3094642 0.11121251 0.42302665
-0.11783485 -0.1399388 -0.03156994 -0.17282124 -0.17692548 -0.2844105 0.07806224 -0.025298221
0.13132295 -0.16192423 0.09721644 0.13353743 0.13795982 0.20057741 -0.19305936 0.0448815
-0.17495723 -0.12628064 -0.011127274 0.23054375 -0.04503412 -0.020748857 -0.19221586 -0.26087907
-0.1128672 0.0760197 -0.022276804 0.102788135 -0.32883668 -0.21202074 -0.023925258 -0.002600136
0.0011069567 -0.022890726 0.24306634 0.11333438 -0.16898113 -0.15119217 -0.019545833 0.28822273
-0.05907457 -0.18380485 0.1259062 -0.038988367 0.4815709 -0.25177073 -0.28409106 -0.25208336
0.1411764 -0.27008304 0.037837796 -0.16562137 -0.03331802 0.20498948 0.26294717 -0.009530712
0.1419757 0.12857385 0.29022765 -0.17481752 -0.21785562 0.13425258 -0.005889831 -0.099061936
-0.016937183 -0.20512845 0.12363025 -0.11502346 -0.09576108 -0.10520558 0.292178 -0.13732381
0.021556579 -0.12040075 -0.19559364 -0.03606444 0.09969224 -0.14687215 0.036634613 -0.029672146
0.09901815 0.25580028 0.009584771 0.1573937 0.14908536 0.03004228 -0.22756065 -0.20097187
0.46267614 -0.1359538 0.06741229 -0.0062905955 0.045069907 0.012023536 0.031079317 -0.20212358
0.28372508 0.049767796 -0.090943344 0.19597355 0.008315655 0.115925394 0.12350934 0.0986428
-0.023531908 0.10049948 -0.44907838 -0.1531291 -0.15671301 -0.208127 0.0012784991 -0.06233073
0.14554591 0.018750772 -0.13080454 0.015200658 -0.08278905 -0.17788494 -0.05199947 0.005027076
0.15374835 -0.041599903 0.11360914 -0.07617193 0.01761555 0.34420055 0.15817367 -0.1841325
-0.16244867 -0.13765816 -0.14605466 0.02226379 0.30434814 -0.09327521 0.3233828 -0.25775242

encoder.3.bias f4 [8]
00000000: 0882 c7bb b225 b3bc 2024 ef3b e9bc 12bd
00000010: 6b6d 563d 2afc 58bd f257 3dbd 58ba 87bb
-0.006088499 -0.02186856 0.0072980076 -0.03582469 0.052350443 -0.052974857 -0.04622645 -0.004142087

cnn_net.0.weight f4 [16, 8, 3, 3]
00000000: 7cf0 313d de8b 123e 81a3 bbbd 58f8 6d3e
00000010: bd38 9ebe 59b8 0dbf 9629 173e 85fc 103c
00000020: 02c8 dd3c cf6c 86be 95de a13d 7ef4 e9bd
00000030: 666c b2be 075f 213e 4a94 343c 1158 053d
00000040: 6b0a 89bd 8617 6ebe 52ce 60bb b729 8d3d
00000050: 91a4 833e dbf6 c9bd 0502 19be b55b d5bc
00000060: 5fff 483e 0451 4f3d 69f9 7d3e fc98 54be
00000070: 2ec0 d73d 4aee 2abd bf87 debd 5bcc 3fbd
00000080: dc64 283d cf1b 643d b270 c83d 3615 823e
00000090: 8227 0d3d 0294 8bbe b521 8d3e 4276 27be
000000a0: 6082 b3be e0bf 343e 65b6 10bd 7c75 33bc
000000b0: 5956 73bd 0379 8c3d d262 ff3d 4c0c 893e
000000c0: 42ef cebc e771 05bd b9fb 423e b57c 3e3e
000000d0: bd4c 773e 9b12 133c a0a2 823e 4958 21bd
000000e0: 2320 023d 07f6 583e eabf a9bd 29d9 1b3d
000000f0: 73c3 01be e832 8fbd 500c 97ba 5b6c 8e3d
00000100: a99f 8b3d 34a5 913d 2e38 483e 420f 643e
00000110: de8f 7a3e 9d9d 58be 4219 a53a 8370 203e
00000120: f5b6 eebd 761b 1a3d 778c af3d 2691 e0bd
00000130: 7972 673d a23f a1bd 4596 c63e 420c a53c
00000140: 0311 f03d 04fc 6d3e fa82 e5bb 0e61 3abe
00000150: 405b 733d 60c9 5bbb af4f 5a3e dc46 583c
00000160: 25bb 9b3d 87b5 8e3e bdfe 46be 768a e5bd
00000170: 06d1 c03e 9ef5 453d 7d11 0bbb fd79 39be
00000180: 9b7e e4bb 066b 13b9 af8b 473d 1364 013d
00000190: 4c40 3dbe 97ea 29be 6e06 d33d f2e5 69be
000001a0: 4f8a 053e f2e4 603d 3a5a 8e3d ac6d 80be
000001b0: e442 00be c335 f33d 9b3a 093e d3d5 e03d
000001c0: dbf7 1ebe 1fb3 aa3e 038c c6bd 7464 d63d
000001d0: 7395 70bd 70df f3bc b397 a4be 3df4 443d
000001e0: 3b39 03ba 9a04 06be 30a5 d93d 67b5 763e
000001f0: 2f33 9d3e e1f8 bdbe 1025 53be 29d9 f2bd
00000200: d849 5f3d a222 8abd f6a9 47be 5672 7bbe
00000210: 521b e43d f1e0 533d 5f9e 16bd fd2e bbbd
00000220: 307e 0abe adb0 783e f1c3 71be 90af 843e
00000230: f6fa cfbd 84e7 9e3d 4ad6 803e b6c8 6ebe
00000240: 474c f33e 3e7c 7a3e 905f d63d 17cb a3be
00000250: 0691 da3e 3c1f 6a3e 19bc 383e 7ea5 45be
00000260: ed11 33be 7249 18be 1d49 babc d54d d5bc
00000270: e6c0 d9bd ea40 febd 4a3f 23be 72ed 7c3d
00000280: 2f3c c23d 3de6 2b3e bbce 073e d7d3 9d3e
00000290: 306d 0f3e be09 773d 2a60 e2bd e6b1 bf3d
000002a0: 331e a8bd d90a 40bc 698c 4f3d 1164 e8bd
000002b0: 8acb 7a3d ddf1 5e3d fcd3 813e f69e a1bc
000002c0: 655b 3bbe 2211 703d ac8e db3c 3747 c03d
000002d0: 4ebd 313e 4a9e 45be 1f60 503e 6035 423e
000002e0: d525 37bc ed0d a23e f76a 483d 4a9f 42be
000002f0: 54f9 943e 72d2 843d d24d 263e b6a5 803e
00000300: fc57 a3bc 51a0 943d 9bd8 033e 82c5 683d
00000310: 45af 9a3b 6425 703e 9fb4 97bd cfba e53d
00000320: f986 cebc 77c1 fdbd dba4 95be efd1 3cbe
00000330: 98e0 813d 55f4 143e 1ee4 32bd b80c f7bd
00000340: b35a 703e b9fb fabd 12ab 3ebe aa5d 13bd
00000350: 78fe f6bb 0589 8cbe 3bc3 98be 7f3a bcbd
00000360: e2cb 933e 84bf 83bd ac59 193d d3cb 3a3e
00000370: 66cd dd3c db4b 98be b6c2 a6bb df9e 72be
00000380: 91c1 1abe 4f4a 59bd f164 be3d 8d28 893e
00000390: 207f 713e ab92 e83c 170c ca3d 80a8 d03d
000003a0: a198 3c3e 0124 12be 351f ad3e 0e88 f33d
000003b0: 9f6b 753e 4d4d 913c 7cff d8bd 2978 023e
000003c0: 6dd7 ab3e 07c3 113e 9bfa 7f3e 2098 12be
000003d0: 8a49 0ebe 89ad 54be f971 9d3e 579c ca3d
000003e0: f512 da3c f34a d93d e695 38be a3dc febd
000003f0: 7d53 b4bd 3e1c fe3d 64be 91bd bb62 d73d
0.043442234 0.14311168 -0.09162045 0.23239267 -0.30902663 -0.5535942 0.14761958 0.008849268
0.02707291 -0.2625489 0.07903782 -0.11423586 -0.34848326 0.15758906 0.011021683 0.03255469
-0.0669144 -0.23251161 -0.0034302664 0.06892722 0.25711492 -0.09861537 -0.14942177 -0.026044706
0.19628666 0.050614372 0.24802174 -0.20761484 0.10534702 -0.041731156 -0.10865735 -0.046825748
0.041111812 0.055690583 0.0978712 0.25406808 0.034461506 -0.27261358 0.2756478 -0.16353706
-0.35060406 0.1765132 -0.035330195 -0.010953303 -0.05940852 0.06859019 0.1247002 0.26767194
-0.025260571 -0.03257933 0.19041337 0.1860226 0.24150367 0.008976604 0.25514698 -0.039390836
0.03176893 0.21187602 -0.08288558 0.038048897 -0.12672214 -0.069921315 -0.0011524055 0.06954261
0.06817562 0.07111588 0.19552681 0.22271445 0.24468943 -0.21153875 0.0012596028 0.1566792
-0.1165599 0.037623845 0.085717134 -0.10965185 0.056505654 -0.07873465 0.38786522 0.020147447
0.11721995 0.23240668 -0.007004139 -0.18201086 0.059413195 -0.0033536777 0.2131946 0.013200488
0.07604054 0.2787287 -0.19433112 -0.1120805 0.37659472 0.048329942 -0.002122014 -0.18112941
-0.0069731004 -0.00014058882 0.048717197 0.03158958 -0.18481559 -0.16593395 0.10303961 -0.22841623
0.13041042 0.05490584 0.06950803 -0.25083673 -0.12525517 0.118754886 0.13401262 0.10978284
-0.15524237 0.33339784 -0.09694674 0.10468379 -0.058736276 -0.02976963 -0.32146987 0.048084486
-0.00050057814 -0.13087693 0.1062721 0.24092637 0.30703112 -0.37103942 -0.20619607 -0.11857826
0.054513782 -0.06744887 -0.19498429 -0.24555334 0.111380234 0.051728193 -0.03677213 -0.09139822
-0.13524699 0.24286146 -0.23609902 0.25915194 -0.10155289 0.07759002 0.2516349 -0.23318753
0.47519132 0.24461457 0.10467446 -0.31990883 0.4268877 0.22863477 0.18040504 -0.19301412
-0.17487307 -0.14871767 -0.022739941 -0.02603809 -0.106324956 -0.12414725 -0.15942112 0.061749883
0.09484135 0.16787048 0.13262455 0.30825683 0.14006495 0.060312025 -0.11053498 0.09360103
-0.08208885 -0.011721336 0.050671015 -0.11347211 0.061229266 0.054429878 0.25357044 -0.019729119
-0.18296583 0.05861009 0.02680143 0.09388583 0.1735737 -0.19298664 0.20349167 0.18965673
-0.011178453 0.3165125 0.048930135 -0.19006076 0.29096472 0.06485452 0.16240624 0.25126427
-0.019939415 0.072571404 0.12875597 0.056828983 0.004720601 0.23451763 -0.074074976 0.112172715
-0.025210844 -0.12390416 -0.29227337 -0.18439458 0.06341666 0.1454633 -0.04367458 -0.12062973
0.23472099 -0.122550435 -0.18619946 -0.035977997 -0.0075376593 -0.27448288 -0.2983645 -0.09190845
0.28866488 -0.06433013 0.037439033 0.18241815 0.02707548 -0.29745373 -0.0050891293 -0.23693417
-0.15112902 -0.05304938 0.09296597 0.2678875 0.2358365 0.02839025 0.09865587 0.10188389
0.18417598 -0.14271547 0.33812872 0.11891185 0.23966835 0.017737055 -0.10595605 0.1274115
0.33562794 0.14234553 0.24997942 -0.14315844 -0.1389524 -0.20769323 0.30751017 0.09893101
0.026620368 0.106099986 -0.18025932 -0.12444427 -0.088049866 0.124077305 -0.07116392 0.10516878

cnn_net.0.bias f4 [16]
00000000: 7d12 1ebd 337c 863c 4fec d7bc 0ade d7bb
00000010: 52e5 8a3c dc49 5abc 8080 923c 0c25 d03c
00000020: 96b0 38bd 59b0 aebb 65f2 8cbb 720d 1c3d
00000030: 534a a1bc 165d 273d d600 06bd 6b2b 15bc
-0.03859185 0.016416645 -0.026357798 -0.0065877484 0.016955052 -0.0133232735 0.01788354 0.02540829
-0.04509028 -0.005331081 -0.0043013566 0.03809876 -0.01968876 0.040860258 -0.03271564 -0.00910459

cnn_net.3.weight f4 [32, 16, 3, 3]
00000000: 8e1d 89be f1f6 213e c28b f2bd a138 163e
00000010: 518a 4cbd adae 03bc 27e8 453e fa2a 083e
00000020: 4e9b 433d eb45 afbc 474e b6bd 5c70 ec3d
00000030: 0040 7d3d a2b9 0a3c e43f 5a3d 9f7b 00bb
00000040: acda 3fbe f523 203d aaae d6bd a4e0 97bd
00000050: 3476 9ebd eb4d 083d bf76 923d 47a4 4ebe
00000060: c7d2 21bd e276 e4bc 1769 fbbd 2004 21bd
00000070: 1a75 acbc 40b6 103d f735 4a3e a42f 99bd
00000080: c0ce 9dbd bf5b 4c3d 7850 b6bd 2504 823c
00000090: 341d 08be 2ef1 0e3e a50d 323d 0f77 56be
000000a0: d283 153e 45da 70be 3c0e c53d 5d7d 07be
000000b0: cf89 2a3e d012 f53b 7aad f1bd 179b 4cbe
000000c0: 4168 323d baf3 143e 2a70 8d3d b8da 323d
000000d0: e45c d8bd cff2 61be f3d9 2cbe e199 2c3d
000000e0: 35db 6abd fdc0 50bd 940a c63d 22e3 083e
000000f0: 0c05 d1bd ff60 793d fc8a 573c 977b c9bd
00000100: 71b5 eabc 4069 ca3d 384e 44be 5ae7 2abe
00000110: 6da0 06bc 6d09 b4bd 4872 283c b604 4d3d
00000120: 0194 643c 6bea 8cbe f735 dbbd f34c 16bd
00000130: 0219 3ebe 40e8 f8bc 32a6 813e e97e c8bc
00000140: 6a9a c6bd 92c7 98bd 3b29 393d 2d33 88bd
00000150: db40 5dbd da43 03be 07fa 54be 0885 e7bd
00000160: 969b 82bc 770b fa3c f71c 33bd 22f9 38bb
00000170: e711 1e3e 56a9 dbbd bf5b 183d 93c3 153d
00000180: 4e34 6d3e 6292 93bd 7c05 b53c 1de8 5dbd
00000190: d82e 5fbe 3b52 31bd 13da 7dbe 30e8 37be
000001a0: b0f3 263e d32a 03be 6330 20be 677a 02be
000001b0: 7bf4 023e c935 a0bd bc59 81bd d359 e43b
000001c0: 2fa7 01be ddf5 8e3e 1b8a a5bd 8ce8 21bd
000001d0: 60b0 bc3b a9e6 603e fc7d 913d a1f3 aa3d
000001e0: 3a45 80be 087d b3bd 2021 cdbd 6ed1 d13d
000001f0: b5d6 283d 2b23 e6bc 4fb2 9cbe d8ca d3bd
00000200: 7b6a 0d3e 2bef 6d3e fc50 31be b63e 1d3e
00000210: 09c7 1c3e 414a 0cbe 77f8 d83a 7dc0 9cbe
00000220: ae7e 03bd 6817 af3c 6857 8dbd 5fee a1bd
00000230: 88e3 823d 3635 023e bff8 19be 3329 36bb
00000240: 4ffc da3c c56a 4ebe 9c45 66be b930 e03d
00000250: aa97 0abc 2f0f 80bc a6fe d2bd 5976 6cbe
00000260: 9d17 3abc 3599 40be 6b54 f53b 9241 af3d
00000270: fbab 26bc 9afb 2ebd 1421 123d 3bf3 c73d
00000280: 2fef 553c a1af 8abd 1352 7abc fa84 313e
00000290: 2bdd 92be 9866 7d3d 3f67 6bbc 75e5 b73d
000002a0: e142 99bd cd72 a13c 7aac 5fbd 4f8c 0dbe
000002b0: 47b8 03be 08a4 483e bcfb 94bd 4f34 93bc
000002c0: de27 27bc 6a14 9fbc cd9a 073d 820b 943c
000002d0: a87f 4f3e 7c5b 803e 86fc db3c 5a32 18be
000002e0: 6815 ac3d c8fe 29bd 4822 68bc 6bdd ccbd
000002f0: fee5 003e 8ed2 9b3d f21c 50bd 1b1c 9dbd
00000300: 6665 b8bc d556 a8bd 0207 6f3d 36b5 da3d
00000310: 64e8 d4bc 6f77 603e 807d 183e 5f16 7dbc
00000320: e5aa b4bd 443e b4bd 5c06 a93d 25e9 583e
00000330: 8d60 7dbd d2df 033c bbde 32be 2c18 85be
00000340: 7d48 a43d d40a c7be 81b3 cf3d 7718 ffbd
00000350: 8b0d 60be 8236 223e c8fe d4bd 84de 083d
00000360: 9ed2 a5bd eb00 ab3c f59f a1be 5fe0 0b3e
00000370: 02be 9e3a 2660 b1bd b73b 2e3e 4ab4 ef3c
00000380: feef cd3c b550 11bd 33ec acbd b902 123d
00000390: 2ffb a63d 44fe 64bc 7096 e9bd 4326 123d
000003a0: 03fe 08bd fed5 a93c 3086 c93c 131e 8ebe
000003b0: 5cfb c9bd 7559 1f3e ef98 d23d 5793 173e
000003c0: ce4c 42bd cfcb 2abd a78c c6bd 0dee b13c
000003d0: 773b 253e 2418 97bd 81bc 35be e515 6cbe
000003e0: afcc 903c a4b8 f1bd df83 e1bd 4a51 9cbd
000003f0: d988 1b3d 5136 36bd c849 25be 6d34 033e
-0.2678036 0.15816857 -0.11843063 0.1467004 -0.049936596 -0.008037251 0.1932684 0.13297644
0.047755532 -0.021395644 -0.08901649 0.11544868 0.061828613 0.00846711 0.053283587 -0.0019604934
-0.1873576 0.03909679 -0.10482533 -0.07415894 -0.07737389 0.033277433 0.07151555 -0.20179854
-0.039507654 -0.027888719 -0.12275904 -0.039310575 -0.021051932 0.035330057 0.19747148 -0.0747979
-0.0770545 0.049892183 -0.08902067 0.015871117 -0.1329239 0.1395919 0.043470044 -0.20943855
0.14601067 -0.23520763 0.096218556 -0.13231416 0.16654132 0.0074790493 -0.11800666 -0.19981037
0.043556456 0.145461 0.06906159 0.043665618 -0.105645925 -0.2206528 -0.16880016 0.042138938
-0.05733796 -0.050965298 0.09669986 0.13367894 -0.10206041 0.06088352 0.013155695 -0.09838026
-0.028650971 0.09883356 -0.19170463 -0.16689816 -0.008216959 -0.0879086 0.010281153 0.05005332
0.0139513025 -0.27522597 -0.10703652 -0.03669448 -0.18564227 -0.030384183 0.2532211 -0.024474578
-0.09697421 -0.0745994 0.045205336 -0.06650386 -0.05401693 -0.12818852 -0.20798503 -0.113046706
-0.01594333 0.030523045 -0.043728795 -0.0028224667 0.15436517 -0.10725658 0.03719687 0.036563467
0.23164484 -0.07205655 0.022097342 -0.05417644 -0.21795213 -0.04329131 -0.2479022 -0.17959666
0.16303897 -0.12809305 -0.15643458 -0.12742005 0.12788574 -0.07822759 -0.063159436 0.0069687157
-0.12661432 0.27921954 -0.08082982 -0.039528415 0.00575833 0.2196299 0.07104108 0.0834725
-0.25052816 -0.08764082 -0.10016084 0.10245024 0.041220386 -0.028092941 -0.3060479 -0.10341424
0.1381015 0.23235767 -0.1731605 0.15355954 0.15310301 -0.137002 0.001655354 -0.30615607
-0.032103233 0.021373466 -0.06901437 -0.07906794 0.063910544 0.12715611 -0.15036295 -0.0027795553
0.026731638 -0.20157917 -0.22487491 0.10946793 -0.008459011 -0.01563224 -0.103024766 -0.23092021
-0.011358169 -0.18808444 0.00748687 0.085574284 -0.010172839 -0.042720415 0.035676077 0.097631894
0.013057514 -0.0677178 -0.015278357 0.17335883 -0.28684363 0.06186542 -0.0143678775 0.08979312
-0.07483459 0.019708062 -0.054607846 -0.13823055 -0.12863265 0.19593823 -0.07274577 -0.017969279
-0.010202376 -0.019418914 0.033106614 0.018071894 0.2026354 0.25069797 0.026853811 -0.14862958
0.084025204 -0.041502744 -0.01416833 -0.100031696 0.12587735 0.076085195 -0.050808854 -0.07671376
-0.022509288 -0.08219687 0.058356293 0.106790945 -0.025989719 0.2192056 0.14891624 -0.015447228
-0.08821658 -0.08800939 0.08253166 0.21182688 -0.061859656 0.008048968 -0.17467777 -0.25995004
0.080216385 -0.3887545 0.101416595 -0.12455838 -0.21880166 0.15841106 -0.10400158 0.033415332
-0.08096813 0.020874461 -0.3156735 0.1365981 0.001211107 -0.08660917 0.17014967 0.029260773
0.025138851 -0.03547736 -0.08443489 0.035647128 0.08153378 -0.013976637 -0.11405647 0.03568102
-0.03344537 0.020731922 0.024600118 -0.2775732 -0.09862396 0.15561469 0.10283076 0.148023
-0.047436528 -0.041698273 -0.09694796 0.021719957 0.16135965 -0.07377651 -0.1774769 -0.23055227
0.017675726 -0.118027955 -0.110114805 -0.07632692 0.037972305 -0.044485394 -0.16141427 0.12812968

cnn_net.3.bias f4 [32]
00000000: 07d2 f1bc e78d 15bc 7c3c 62bc ebe3 cbbc
00000010: 54e7 5ebd 1d1e 69bb 3eaf 303a a408 adbc
00000020: b123 a93b c519 3ebb 65fe 56bc 0b15 203b
00000030: ede5 a3ba f08b 413b a9fb 973c 8875 82bc
00000040: b4d3 edbc f511 2c3a 3cfb c7bc e8a3 edbc
00000050: 0004 533c 19d0 edba 92c2 ac3c e09a fbbc
00000060: 1a61 d3bc ed60 953c 8ef6 febb a190 afbc
00000070: 1a82 22bb 743f 283c b696 aebc c37f 953c
-0.029519094 -0.00912807 -0.013808366 -0.024888953 -0.05441983 -0.0035570927 0.00067399803 -0.021122284
0.0051617255 -0.002900706 -0.013122176 0.0024426605 -0.0012504436 0.0029532872 0.018552618 -0.015925184
-0.029031612 0.0006563955 -0.02441179 -0.02900882 0.012879372 -0.0018143683 0.021088872 -0.030713499
-0.025803138 0.018234694 -0.0077808565 -0.02143127 -0.0024796785 0.010269035 -0.021312099 0.018249398

hidden.weight f4 [32, 128]
00000000: f9f2 58be 5cca d2bd 8737 403c 171c b9bd
00000010: e9e5 6a3e 0c76 3abe f67d 853e 24d7 aebd
00000020: 7f94 203e 84ce 193d 72f2 89bc 0f55 083e
00000030: 53b7 9ebc b8b9 62bd 17dd 99bd 8845 b7bd
00000040: 6cd5 8dbe a457 fcbd 6e46 0a3e feb7 73bd
00000050: 3ea2 f93c bb63 4ebe 81ae 513e 3b5d 41be
00000060: cb0e 93be 9c8c 893d 0ea2 50be cc7c d6bd
00000070: 8fc6 973d bc1c ab3d e632 68bd 28b4 7fbc
00000080: 5979 61be 7a8e 0dbe 53a9 4fbe a57d 1d3e
00000090: fdbf 81bd 8f8a 7d3d 9bba 02bc 4e01 7a3e
000000a0: 9da6 db3d 8d7c 3f3d 620a 86bc dcf1 90bd
000000b0: 7a3b f0bc 4436 62be 3636 29be 5714 013e
000000c0: 5365 583e 507b 77be 9eaf 3e3e ca3f 85be
000000d0: 3b6e a9bd 0f02 95bc 0c93 d33d 4322 7abb
000000e0: 77c2 3c3d 4fe2 4bbe d0b4 7f3c 24c2 f8bd
000000f0: fd67 1cbe 4d34 e5bd 2a04 db3d 02e9 03bb
00000100: c6af 763d 2c40 0dbd f757 cebd 20c0 e6bd
00000110: a3d7 9fbd 6891 453d ca74 36bc cf2f e5bd
00000120: 8714 1e3d ee2d dd3d 830d 66be cb36 f9bd
00000130: 9fae 13bd 4bc7 f7bd 692d fd3d 2d41 493e
00000140: 5879 86bd 51d9 033e 5739 163e 84cb 16be
00000150: 3c9c 15be 8d7c 663d 9d7c 10be 90f1 4abc
00000160: 51e6 1c3d 6253 44bd 548d 6c3e 18d5 333e
00000170: 224a 3abc d803 343e d69f 68be 7f42 b8bc
00000180: 295e e33d 5cbc 2bbd 6bff 493e 25c5 1d3e
00000190: 25ed 2e3d 1142 3e3d 180c d13d da36 bbbc
000001a0: 6dd8 853c 1d58 a63e 6c06 93bd fabb c73e
000001b0: 4ad1 153d b4ce 253d 28fe cf3d fa47 eebd
000001c0: 74ce 2abe a728 003e 018e 7e3d 444b b2bc
000001d0: dfb3 ad3c cc81 743e ad81 b2bc b0c3 553d
000001e0: ec83 623e 265a 79bd ba15 063e 5e28 ee3d
000001f0: 47e5 16be 8d14 e1bd 3488 633d df26 de3d
00000200: 4210 0b3d 35b3 d2bd c3b9 2b3e e069 06be
00000210: 1862 98bc 24a5 f23d 0c14 90be 95e4 95be
00000220: e10a ce3e 0cfd acbd 1710 363c caee c8bc
00000230: fda4 5f3e 90ae aa3c 3449 f4bc c8da 443c
00000240: 224c 17bd 3517 983e 6ee1 d2bd 1a80 e73d
00000250: 9c50 093e 0981 ebbd 2b8e 37be 1234 20be
00000260: 440d cfbd 68b6 bc3d bf99 753d b679 3c3d
00000270: c807 3dbe 5edf 9abc d31f d13d e646 e5bd
00000280: 2f85 4a3d acb7 d63d ada7 a93d e938 873d
00000290: d1ac 103d cae5 11bd fd6b 37bd eac0 fa3d
000002a0: 7c91 a3bd d13e 33be 60da cf3d 1849 39bd
000002b0: dbd3 c3bd 0ded 083c 9766 4ebe 7b05 2e3e
000002c0: 22fd b23c 956f 14bd d9f8 42bd 1036 843d
000002d0: 9cc1 a3bd d332 4b3e b436 70bd 2d3c d43d
000002e0: d5ba 0d3d 15fe bd3c 77d9 73be 596a 62bd
000002f0: 66ad 89bd 47a0 9abd b913 8fbe ed36 563d
00000300: fda2 fdbc d795 0f3e 6fc7 353e 4572 043e
00000310: b2e5 43be 7a2a c0bd bff6 32bd 6c32 64bd
00000320: c6b6 bc3b f992 013e 30fb 57bd 28c1 61bc
00000330: 45b4 923d 253c 61bd 513d 7c3d 9432 f03d
00000340: a049 43bd bba4 62bd 0d2b 283e b2da 193e
00000350: fdb6 843e f8c8 ef3b 0e0a d13d 6323 d5bd
00000360: 7e6c 053e 23bf 1c3e 6d8e 9ebc 91bd acbc
00000370: e0d9 89bd 5cba 223e 9510 523e 479f ab3c
00000380: f3c9 96bd ee9e 2a3d dc15 dcbd 7c9d 54be
00000390: b917 8cbe bb04 b6bc aa4b 9dbb 3d34 72be
000003a0: 3095 da3d 6680 633e 1f56 1cbc 2207 8f3d
000003b0: b679 cf3d 1bbb 43bd f53f 4e3d c5a1 d1bc
000003c0: 316d d1bc e497 18be eef7 15be 48b2 5f3d
000003d0: 16f6 99bd 679b 20bd 9f96 99be 44eb a7be
000003e0: 06c0 b53d 60c2 c5bd 79c7 02bd 816c b93d
000003f0: 40a3 913e 3921 f83d 6845 0e3c 4577 f5bd
-0.21186437 -0.10292503 0.011731989 -0.09038561 0.22939266 -0.18209094 0.26072663 -0.085371286
0.15681647 0.037550464 -0.01683924 0.13313697 -0.019374525 -0.055352896 -0.07512873 -0.08948809
-0.2770189 -0.123214036 0.1350343 -0.05950164 0.03047287 -0.20155232 0.20476724 -0.18883221
-0.28722224 0.06716272 -0.20374319 -0.10473022 0.07410919 0.0835509 -0.056689166 -0.015606917
-0.22018947 -0.13823882 -0.20279436 0.15379961 -0.06335447 0.061899718 -0.0079790605 0.2441456
0.10725138 0.04674964 -0.016362373 -0.07077381 -0.029325236 -0.22091013 -0.16524586 0.12605415
0.21132402 -0.24168134 0.1862168 -0.2602523 -0.08272978 -0.018189458 0.10330781 -0.0038167394
0.046083894 -0.19910549 0.015607074 -0.121464044 -0.15274043 -0.11191616 0.106941536 -0.0020127897
0.060226224 -0.034485027 -0.10075372 -0.11267114 -0.07804801 0.048234373 -0.011136243 -0.111907594
0.038593795 0.10799776 -0.22466092 -0.12168654 -0.036055204 -0.12098559 0.12362177 0.19653769
-0.06566113 0.12875868 0.14670311 -0.14726073 -0.1461038 0.056271125 -0.14110036 -0.012386695
0.038305584 -0.047931083 0.23100787 0.17561758 -0.011370214 0.17579591 -0.22717223 -0.022492645
0.11101944 -0.04192768 0.1972634 0.15407236 0.042706627 0.046449725 0.10207385 -0.022853304
0.016338551 0.324891 -0.07178959 0.39010602 0.036576547 0.04048033 0.10155898 -0.11634822
-0.16680318 0.12515508 0.062147144 -0.021764405 0.021203933 0.23877639 -0.02179035 0.052188575
0.22120637 -0.060876988 0.13094226 0.11628793 -0.147359 -0.10990248 0.055549815 0.10847258
0.03395105 -0.10288087 0.16770081 -0.13126326 -0.018601462 0.11847904 -0.28140295 -0.29275957
0.40242675 -0.08446702 0.011112235 -0.024527926 0.21840282 0.020835191 -0.029820062 0.012015052
-0.03693784 0.29705206 -0.102969036 0.1130373 0.13409656 -0.11499221 -0.17925327 -0.15644863
-0.10109952 0.09214479 0.059961077 0.04601451 -0.1846 -0.018905338 0.10211148 -0.111951634
0.04944342 0.104842514 0.08283935 0.066026516 0.03532106 -0.035619535 -0.04478072 0.12243827
-0.07986733 -0.17504431 0.101490736 -0.045235723 -0.095618926 0.008357299 -0.20156322 0.16994278
0.021849219 -0.036239225 -0.0476006 0.06455624 -0.079959124 0.19843607 -0.05864592 0.1036304
0.034602005 0.023192445 -0.23813425 -0.055277202 -0.06722526 -0.07550102 -0.27944735 0.052298475
-0.030961508 0.14022003 0.17751859 0.12934215 -0.1913059 -0.09383102 -0.043692347 -0.05571215
0.005759093 0.12653722 -0.052729785 -0.013778962 0.0716329 -0.054989 0.061581913 0.11728397
-0.047677636 -0.05533288 0.16422673 0.15024832 0.2592086 0.0073176585 0.10206996 -0.1040714
0.13029668 0.15307288 -0.019355023 -0.021086486 -0.067310095 0.15891403 0.20514138 0.020949973
-0.073627375 0.041655473 -0.10746357 -0.207632 -0.2736185 -0.022219053 -0.0048002796 -0.2365274
0.106729865 0.22216949 -0.009542017 0.06983782 0.101306364 -0.04778586 0.050353963 -0.025589833
-0.025564762 -0.14901692 -0.14645359 0.05461338 -0.0751764 -0.039210703 -0.29997727 -0.3279668
0.08874516 -0.09656215 -0.031928513 0.090538986 0.28444862 0.12115712 0.00868354 -0.119856395

hidden.bias f4 [32]
00000000: 9192 1e3b daae 003b 6bc5 27bc e169 df3b
00000010: 8f2b 81bb 0b41 87bb 0000 0000 ae38 103c
00000020: 74d4 1ebc 6fd2 4cbb d906 3dbc aa07 993c
00000030: 0225 2abc e41a 013d 4df7 07bc 3941 a13b
00000040: b9c1 ebba 6ddd 7e3c fddc 81bb 5822 3dbc
00000050: a7f7 0d3c 33fe 26bc 3a60 dcbc 28f5 56bb
00000060: 0000 0000 d52b 45bc 5a91 f6b8 465b 88bc
00000070: cc24 8a3b 0000 0000 0000 0000 d344 26ba
0.0024196247 0.001963547 -0.010239939 0.0068180417 -0.00394196 -0.004127627 0.0 0.008802576
-0.009694207 -0.0031253358 -0.011537277 0.018680412 -0.0103848 0.031519786 -0.008298707 0.004921105
-0.0017986811 0.015555722 -0.0039631114 -0.011543833 0.008665002 -0.010192442 -0.026901353 -0.0032799933
0.0 -0.012034376 -0.00011757268 -0.016645085 0.0042158123 0.0 0.0 -0.0006342653

mu_layer.weight f4 [2, 32]
00000000: 028c 45bd 103e 343e 2761 b83e c52e d8bd
00000010: 62a7 e33d 8287 c0be 3a89 8f3e 5aae f0be
00000020: 73ff 97bd 00b5 2dbe c355 823e ad2a 31be
00000030: 7ba2 ad3e 0605 3cbd a918 d4bd dad5 fd3c
00000040: 929e 80be 18f0 fcbd 9005 e93c d770 733e
00000050: 5de2 863e 0dd3 14be 1eb3 cb3e 3710 5fbe
00000060: d022 413a 1557 953e 0e6c b53d 67c8 ccbc
00000070: e0db 2c3f 5e32 bc3c 69ac a63d c7a7 cc3e
00000080: 879b 523f 24d6 733c c159 e73d 96ca 363e
00000090: 64fb bc3e e528 12bd 2af3 6ebe d5ae ad3e
000000a0: 86d3 79be 84e5 9abe 724a c9be d57f 5b3e
000000b0: 7851 cc3d d168 283e 6484 86be 8e2a 3ebe
000000c0: c991 023e 79f9 3abd bb1e d83e 8b29 21be
000000d0: b4c8 99be 7253 81bd e803 5e3e 7a4e 203e
000000e0: 133a 333e ac9d 13be 0e77 49bd 5ea9 183f
000000f0: c282 293d 46fe ff3e 5b8d f03d 8f5f cf3e
-0.048229225 0.176018 0.3601162 -0.105557956 0.1111591 -0.37603384 0.28034383 -0.4700802
-0.0742177 -0.16963577 0.25456056 -0.17301436 0.33913025 -0.04590323 -0.10356266 0.030985761
-0.2512098 -0.12350482 0.028445035 0.23773514 0.26344576 -0.14533634 0.39785093 -0.21783529
0.0007367553 0.29168 0.088585004 -0.024997903 0.67523 0.022973236 0.081383534 0.39971754
0.82268566 0.014882598 0.11296416 0.17850718 0.36910546 -0.03568353 -0.23334947 0.3392245
-0.24397096 -0.30253232 -0.3931461 0.21435483 0.099764764 0.16446234 -0.2627288 -0.18570921
0.12750925 -0.045648072 0.42210945 -0.15738504 -0.30035937 -0.06314744 0.21681178 0.15654936
0.17502622 -0.14415616 -0.049185805 0.59633434 0.041384466 0.49998683 0.117457114 0.40502593

mu_layer.bias f4 [2]
00000000: b3ce a3bb 779a efbc
-0.0049990057 -0.02924846

log_std_layer.weight f4 [2, 32]
00000000: b1e6 85bd 5b54 83be 9649 d3bc eecb 623e
00000010: ffed d23e f249 553e 2fc7 803d b778 f13d
00000020: 6595 96be 769d a43e 501e 01bf 0832 b4bc
00000030: 592b 3cbe 5322 a4be 6307 9f3e 1175 41bd
00000040: 0f97 2dbd 6b20 e8be 12c7 993d c3fa 9a3e
00000050: 6cd6 93be a63a 3a3d 2f0f 513e e22e 593b
00000060: 0f31 00bf af88 473d b99f 4c3e 856a dd3e
00000070: ea68 7c3e ed34 333e 801d 2cbe 7b1a 00bd
00000080: 4908 063e 32e4 8b3e eaf2 8e3e 976e 0ebf
00000090: ecb0 b7bd 5de5 343c 453b 9e3c f317 733e
000000a0: bbcf 12be d2b5 87bd 001b c33d 1735 f23d
000000b0: c90b ae3e cf6d ffbd 1f0d 373f e196 a93c
000000c0: acd1 793e d1a0 c03d 9cc6 35be 5a68 96bd
000000d0: 10fa f93c fbb0 993d 20ed 823e 7e91 c53d
000000e0: 088b 68bc c73d 263e 2fe1 23bf b6ee bc3e
000000f0: a92a 8a3e be7c a1be 99bb 55be bd03 1d3e
-0.065381415 -0.25650296 -0.025791924 0.22148106 0.41197202 0.20828989 0.06287991 0.11790603
-0.29410854 0.32151383 -0.5043688 -0.021996513 -0.18375911 -0.32057437 0.31060323 -0.047230784
-0.04238039 -0.45337233 0.07508673 0.3026944 -0.28874528 0.045466088 0.20415948 0.0033139517
-0.5007486 0.048714336 0.19982804 0.4324533 0.24649397 0.17500658 -0.16808128 -0.031275254
0.13089098 0.27322537 0.27919704 -0.55637497 -0.08969292 0.011041013 0.019315371 0.23739605
-0.14337055 -0.06626476 0.09526634 0.11826532 0.33993366 -0.12472116 0.71504396 0.020701827
0.2439639 0.09405673 -0.17751545 -0.07344122 0.030514747 0.075044595 0.25571537 0.09646891
-0.014193304 0.16234504 -0.6401548 0.36900872 0.26985672 -0.31540483 -0.20872344 0.15333457

log_std_layer.bias f4 [2]
00000000: 4f85 06bd be0c a4bc
-0.032841977 -0.020025607
