train_history/olympics-running/11_23_13_4/critic.pth (torch, 47330 bytes, 11 tensors)

encoder.0.weight f4 [8, 4, 3, 3]
00000000: 014b f13e ac08 bdbe 5daa ffbe e10b 663e
00000010: 8ea1 bb3d 81f8 a53e 67b2 363e ab79 9bbf
00000020: 37bd babf c36a b93e ed1e 9c3e c45a b93f
00000030: 2008 4c3f 5832 cd3d 2bc4 84be b68f 1ebe
00000040: 721e 7abf bbe6 3bbf 9641 9e3d becb 983d
00000050: f8e5 463f cd47 c7be 2818 a03e bef6 91be
00000060: 0b08 203d 63fe 3abf 4509 0b3e ec4d 143f
00000070: bd0e 43bf 14c0 f0be c237 f13d e87c ad3f
00000080: d2ca 313f cf0e 253d ef65 7abf 4fa5 723e
00000090: 94f5 933e 51bf b2be 6db3 4dbf 1bae 62be
000000a0: b4b3 863e d85a 5fbf 1afc 693e 63b0 df3e
000000b0: edd4 0d3f c52f 20bf 5f81 2cbf 23e5 b3be
000000c0: 9e93 0e3f bae7 bc3d d765 b2bf 1a9d 0c3e
000000d0: 3827 af3f a318 f53e 2699 963b 67b8 183f
000000e0: d521 7cbe ce0c 503d 59f7 c7be fea5 b1be
000000f0: 8679 80be f5f5 1c3e 236e b9be 33ee 0b3e
00000100: 395b 9abe 6a4b 7ebf 4511 3b3f 1f0d a5bd
00000110: 4e87 94bf a3bd 953e e774 d33f cc08 583f
00000120: 0db4 e43d 5a16 a43d 16de 093e 4e82 71bd
00000130: f331 7f3e b60d a33e 717a 5dbf 1a21 08bf
00000140: 73f7 86be 8ead 66bf e9a2 9a3d 5ad5 88bf
00000150: ba04 293f 0f3a e4bd defc 493e b3fa 79bf
00000160: bd47 363f c09b babe 53c8 bb3e 8667 26bf
00000170: 9e0b ed3d febd 163f ac8b a03f 5074 3ebd
00000180: 1f66 023e 81e8 883e f28b 083f 655c 0dbf
00000190: 9acd 32bf 56a1 aabd 678c 50be 3574 04be
000001a0: f070 63bf 339f 493e ad1e 53be eb63 ebbe
000001b0: a4d2 bc3e d615 7ebe fd60 a03e f447 04bf
000001c0: 582b d73e b498 52bf 7a8b cb3e a9e9 1a3f
000001d0: 5521 613f 7f8b 78bf d318 f7be d7e1 f6be
000001e0: d8d0 4fbf b804 12bf 7633 02bf 3861 89be
000001f0: 63cc bdbd b3ff 3fbe 1b0f 713e b78f 6d3e
00000200: a822 68bd 58a6 b83e 1f19 c43d 86dd c53e
00000210: e87e 31bf a845 093f 1e13 cbbe 2244 d33d
00000220: a49f 04bf 936a ccbf 6603 2e3d a618 4c3f
00000230: ba7b 453f 8a57 83be de3a 31bf eea7 60bd
00000240: 93a7 da3d 092f 3fbe b58f 94bd 85e2 8cbf
00000250: 913b 15be 9b0e 9ebe 3c82 293d e282 bd3e
00000260: 1b0b 3e3f 6c1e 253d 7406 383d 42b4 813d
00000270: d72a 1d3e 3590 65be 0a96 163f 5151 eabd
00000280: dee8 173e baa4 abbd f146 2d3f 1f0e 8f3d
00000290: 2b4f 1c3e 4fd7 9cbf 081e aabf 5d84 bbbe
000002a0: 4d28 ed3d 28d8 023e edcf a43e bf26 b63c
000002b0: d4c4 973f 77aa 0c3f 9102 333e 4268 e3bf
000002c0: 813c 1bbf 2d1a 8cbf f3ed f3bd 82f0 84be
000002d0: e448 1b3f 8127 773e 1996 a33e 3e11 7e3e
000002e0: b959 cc3e ded1 f13e c119 22bd df96 cbbc
000002f0: aa64 7bbe b3ec be3d ce20 6c3e 1770 393f
00000300: 2004 cc3d 9ad4 3c3e 4246 563f 2653 6bbd
00000310: f2a2 c83e 9367 453f e968 863e 52be 073f
00000320: 1933 bb3e fd0b d33e ba01 093f d0f1 003f
00000330: 1b40 dcbd 3dde 553e 662e 2a3f 99bb f23e
00000340: 6cae b7bd 6221 0f3e 670c 523f d8d1 893e
00000350: e426 eb3e 2ba6 313e 6cd5 0a3f b1d9 253f
00000360: 564f 3dbd 805b fbbd e7fd 5cbc 1e17 c2bd
00000370: db8d 6dbe c0d0 9abd 4dd0 afbc 2990 50be
00000380: e2b0 74be 4567 013f c3b3 c63e 0a49 df3e
00000390: 1e54 633f 303f 3e3f f2c6 4c3f 3536 483d
000003a0: 447e 9ebe 446a 38be b7bc de3e 6103 c33d
000003b0: 22ab 7f3e cbbb 313f 8805 513f acd3 323f
000003c0: d13d 1d3e 1223 633f 1493 963f fa5e 19be
000003d0: fda0 0ebe 5f59 143f 5b7e 103e cc22 3f3f
000003e0: e939 383f 4c7d dd3e e180 863f 7bc2 d63e
000003f0: 230a 84be f0c1 78be 27f4 16bf 2321 693d
0.47127536 -0.3692068 -0.49934664 0.22465469 0.091616735 0.32416156 0.17841493 -1.2146505
-1.4588994 0.36214265 0.30492344 1.4480824 0.796999 0.10019368 -0.25930914 -0.15484509
-0.97702706 -0.7339894 0.07727353 0.07460736 0.77694654 -0.38921967 0.3126843 -0.28508562
0.03907017 -0.73044413 0.13577755 0.579314 -0.76194364 -0.47021544 0.11778213 1.3553743
0.69450104 0.040297326 -0.9781179 0.23695873 0.288983 -0.34911588 -0.80351907 -0.22136728
0.26308978 -0.8724799 0.22850075 0.4368926 0.55403024 -0.6257289 -0.67384905 -0.35135755
0.55693996 0.09223886 -1.3937329 0.13731804 1.3683844 0.4787036 0.0045958934 0.59656376
-0.24622281 0.05079346 -0.390559 -0.34696954 -0.25092715 0.153282 -0.3621684 0.13665085
-0.30147722 -0.9933382 0.73073226 -0.08059143 -1.1603792 0.29246244 1.6520051 0.8438842
0.111671545 0.08012076 0.13463625 -0.05896216 0.24921398 0.31846398 -0.86514956 -0.5317551
-0.26360664 -0.90108573 0.07550604 -1.069011 0.6602284 -0.11143886 0.19725367 -0.9764816
0.71203214 -0.36446953 0.36676273 -0.65001714 0.115744814 0.58883655 1.2542624 -0.046497643
0.12734269 0.26739886 0.5333854 -0.5521911 -0.69844973 -0.08331554 -0.20366059 -0.12934954
-0.88844204 0.19689636 -0.2061717 -0.4597467 0.36879456 -0.24813017 0.31323996 -0.5167229
0.42025256 -0.82264256 0.3975485 0.6051279 0.87941486 -0.97087854 -0.48261127 -0.48219177
-0.81178045 -0.5703845 -0.50859773 -0.26831985 -0.09267499 -0.18749885 0.23540919 0.23199354
-0.056673676 0.3606441 0.09575104 0.3864557 -0.6933427 0.5362191 -0.39663023 0.1031573
-0.5180609 -1.5970024 0.04248371 0.7972511 0.77141917 -0.25652725 -0.6923045 -0.05484765
0.106764935 -0.18670286 -0.072539724 -1.1006628 -0.14573504 -0.30870518 0.041383967 0.37013918
0.74235696 0.040312216 0.04492803 0.063332096 0.15348373 -0.22418292 0.5882269 -0.11441291
0.14834926 -0.083810285 0.67686373 0.06985115 0.15264575 -1.2253207 -1.3290415 -0.36624423
0.115799524 0.1277777 0.32189885 0.022235272 1.1856942 0.5494761 0.17481448 -1.7766192
-0.60639197 -1.0945488 -0.119106196 -0.25964743 0.606581 0.24136163 0.31950453 0.24811265
0.39912203 0.47230428 -0.039575342 -0.024852214 -0.24550119 0.093224905 0.23059389 0.7243666
0.09961724 0.18440476 0.83700955 -0.057452343 0.39186817 0.77111167 0.26251915 0.5302478
0.36562422 0.41220084 0.5351826 0.50368977 -0.10754415 0.20885558 0.6647705 0.4740875
-0.08968815 0.13977578 0.82050174 0.2691791 0.4592811 0.17348544 0.54231906 0.64785296
-0.04621824 -0.122733116 -0.013488269 -0.094770655 -0.23198645 -0.07559347 -0.02146163 -0.20367493
-0.238956 0.505482 0.38809022 0.43610412 0.8880023 0.74315166 0.79991066 0.04887982
-0.30955708 -0.18009287 0.43503353 0.09522129 0.24967626 0.69427174 0.81649065 0.69854236
0.15355612 0.8872539 1.1763635 -0.14977637 -0.139286 0.5794887 0.14110701 0.7466247
0.71963364 0.43259656 1.0508081 0.41945252 -0.25788984 -0.24292731 -0.58966297 0.056916367

encoder.0.bias f4 [8]
00000000: ec15 86bc 2e20 56bd 493a 013d 83a7 21be
00000010: a77d 00be 982e 463e 3c2f d13d a7bb 39bc
-0.016367875 -0.052276783 0.031549726 -0.15786557 -0.12547933 0.19353712 0.10214087 -0.011336244

encoder.3.weight f4 [8, 8, 3, 3]
00000000: e390 2bbf 8d76 673e bb71 d63e 0821 17bf
00000010: 000c 5a3e 0578 e03e 8c9f 86be 3fb5 283c
00000020: 70da 80bb ef14 00be 9af9 eebd 3f5b 80be
00000030: 5285 83bf aae6 893d c9c9 063f b91b 8ebf
00000040: 26c4 75bd 29b4 3d3f 0f52 29bf ccb6 153d
00000050: 49cf 523f a4be 71bf 6779 c9bd 3a89 0d3f
00000060: 623b d2be 5b9e cfbe 0498 4a3e 2b6e 02bf
00000070: 3336 95be 89f2 e43e 887e c4be 2ddd dcbe
00000080: 64ed 0e3f a33c 12be 57b6 d2be b50f 613d
00000090: 18b9 9abe bd4a 25be 4c01 4bbe ea89 16bf
000000a0: ec97 323d faa9 ab3d aab6 0bbf ea30 06be
000000b0: cad7 0fbf 0137 073d 4684 b73e 91af c33e
000000c0: 7ef6 c0be 9971 b03e 8d57 ae3e bf46 c0bc
000000d0: 5592 a23e 0e04 773e bd2b cdbe da7a 163e
000000e0: 6c38 ee3e 8afc 54bf d35d e13e 1bea b73e
000000f0: 8091 abbe 27e9 7d3e b330 153f 8e77 93be
00000100: de4d 5f3c ad13 bf3d b890 70bf 8ada c4be
00000110: e066 22be 257b 36bf a91f f0be 0bed 2fbf
00000120: 4ec4 033f 2dce b53e 957c 033f b10b 213d
00000130: 20c3 a03e 82cf 993d 5593 403e f8a3 8bbe
00000140: 8566 56be 1c1e e5bd 5bc1 c03e ae24 a73e
00000150: 138e da3e 3c55 0abe 48bb 2fbe 11cb 933e
00000160: c598 fe3c bcb1 a4be adea 91bc 779d dcbd
00000170: 5f3a de3c 52b2 853e 99de 27be c6e5 f83d
00000180: bc3d fc3e c650 013f 14ff 1a3f e611 b53e
00000190: 4eaf b73e 3c47 fd3e b3ee 263f 736e 2d3f
000001a0: 06a6 da3e c9d1 443f 2e55 523f 8bbc 083f
000001b0: 2395 f93e 0824 8b3e 1e6c 6fbc 3379 253e
000001c0: 8ca0 f0bd 663a 4ebe 5b8b b53e 0287 213d
000001d0: 8172 d4bd a743 e2bd 182d 48be 97ce cebb
000001e0: cb6b 0bbe a669 14bd d8bc 7e3d 1f9f 71be
000001f0: 73ca 4bbe eca1 d03d b26f 92bd 35f9 493d
00000200: 5af3 a9bd 319d c0bd 25a1 193e 6156 9e3c
00000210: c0da 80be 9108 f3be f9ab 0dbf 37d3 3bbe
00000220: a18f c33d d5b6 ee3c cb3d 9cbd ffff e5bd
00000230: 33ed acbe 31b4 433f 60ec 3a3f 6002 013f
00000240: edd9 fcbc 510c 4ebf bedf 48bf c042 4b3e
00000250: 8f38 afbe ec96 65bf 22f8 323f b899 93be
00000260: 32e9 5fbf fbf0 803d efe7 7cbe 8880 0cbf
00000270: 3f44 723d 6a90 0e3f 5fe2 4b3f 604f 713f
00000280: b0d7 833f 3fb2 943f 0629 443f fa1e 7cbe
00000290: d5ec a6bf 108b 743f e9dd 143f 8dcd 1dbf
000002a0: e2c1 8f3f 06f0 953f 63b9 163f 6d90 3f3e
000002b0: a651 d73d ae5e 81bf 8dae 13bd 29f3 0f3e
000002c0: 054c fbbe f204 423f dab0 5d3f 335e 023f
000002d0: a5f9 c9bd 249e 79be 678f 77bf b263 88be
000002e0: 1106 48be df3b 78be eb84 813b 5b28 5e3e
000002f0: 7416 afbe b073 d3bd 2bbf e4be e2d0 fbbe
00000300: 05bc 043f 3c4a 413d 976e 69be b3e5 173f
00000310: c0dd 543e 2ace cb3e c914 e33d 6b7a 83be
00000320: 9224 31bf 7027 6f3f cbb2 f93d 0b79 01be
00000330: 5354 5d3f acdb 1a3f 7f57 2b3f f469 d93d
00000340: 9d58 1abf f965 95bf 700e 323f da67 ca3e
00000350: caaa e8be d79d 9b3f d4ca b73f d71f 413f
00000360: 69f8 ab3f 65c9 4c3f ccbe 1d3f 8f81 983c
00000370: 4a51 45bf bae5 88be 521b 843f 8255 713f
00000380: 5cbf 693f 7313 7b3f d785 143f 3646 933f
00000390: a073 b03d 7adc d3bd ebe9 163f 3719 4e3e
000003a0: 2aad e33d ad42 cc3f 504b 1c3e 8466 d73e
000003b0: facd 183f e528 043e 9407 b2be ea0c 16bd
000003c0: f157 4b3f f55b dd3e f313 9b3f 0b7a 193e
000003d0: 2f63 943e 5222 fd3e aae9 43be d026 91be
000003e0: 6baf d43c 24f8 d23e 2673 2f3f 3afc 693f
000003f0: b0d4 2140 4532 0740 be2b d53f 756a 8dbe
-0.67017955 0.22603817 0.41883644 -0.59034777 0.2129364 0.43841568 -0.262936 0.010297119
-0.00393229 -0.12507986 -0.116687015 -0.25069615 -1.0275061 0.06733449 0.5265165 -1.110221
-0.060001515 0.7410303 -0.66140836 0.03655128 0.8234754 -0.9443152 -0.09837609 0.55287516
-0.4106093 -0.40550503 0.19784552 -0.5094935 -0.29142913 0.4471629 -0.38377786 -0.43137494
0.5583098 -0.14280944 -0.4115474 0.05494662 -0.3021934 -0.16141792 -0.19824713 -0.5880419
0.043601915 0.0838203 -0.545756 -0.13104597 -0.5618864 0.03301144 0.35843104 0.38219884
-0.3768806 0.34461668 0.3405117 -0.023471234 0.31752267 0.2412264 -0.40072432 0.14695302
0.4652742 -0.83197844 0.44016895 0.35920796 -0.33509445 0.24795972 0.58277434 -0.2880215
0.013629405 0.09329925 -0.93970823 -0.38447982 -0.15859556 -0.71281654 -0.46899155 -0.68721074
0.5147141 0.35508862 0.5136197 0.03931779 0.3139887 0.07510282 0.18806203 -0.27273536
-0.20937546 -0.111873835 0.3764752 0.32645172 0.4268652 -0.13509077 -0.17161286 0.28865865
0.031078706 -0.3216685 -0.017812097 -0.107722215 0.027127443 0.2611261 -0.16393508 0.12153201
0.4926585 0.50513875 0.6054547 0.35365218 0.35875934 0.4946841 0.65207976 0.6774666
0.4270479 0.76882607 0.82161224 0.53412694 0.48746595 0.27175927 -0.0146131795 0.16159515
-0.11749372 -0.20139465 0.35457882 0.039435394 -0.103734024 -0.1104806 -0.19548452 -0.0063112485
-0.13615339 -0.036233567 0.062191814 -0.23595856 -0.19901447 0.10187134 -0.071502104 0.049309928
-0.08298369 -0.09404982 0.15002878 0.019328298 -0.25166893 -0.47467473 -0.55340534 -0.18342291
0.095488794 0.029139915 -0.076289736 -0.11230468 -0.3377472 0.76446825 0.7301693 0.5039425
-0.030865634 -0.80487543 -0.78466403 0.19849682 -0.34222838 -0.89683414 0.6990987 -0.28828216
-0.874652 0.062959634 -0.2469785 -0.54883623 0.059147116 0.5568911 0.7964229 0.9426174
1.0300198 1.1616896 0.76625097 -0.24621192 -1.3041025 0.9552469 0.5815111 -0.6164177
1.1231043 1.1713874 0.5887663 0.18707438 0.1051362 -1.0107019 -0.036055136 0.14057602
-0.49081436 0.75788796 0.8659798 0.50924987 -0.09862069 -0.24376732 -0.9670319 -0.2663856
-0.19533564 -0.24241589 0.0039526126 0.21695082 -0.34196818 -0.103248 -0.446771 -0.49182802
0.51849395 0.047189936 -0.22796093 0.5933487 0.20787716 0.39805728 0.11087949 -0.25679335
-0.69196427 0.9341955 0.12192305 -0.1264383 0.86456794 0.6049144 0.66930383 0.10615912
-0.60291463 -1.1671745 0.6955328 0.39532357 -0.45442802 1.2157544 1.4358773 0.7543921
1.3435184 0.79994804 0.6161926 0.018616466 -0.7707716 -0.26737767 1.0320837 0.942711
0.91307616 0.9807655 0.58016723 1.1505802 0.08615804 -0.10344787 0.5895068 0.20126806
0.11117013 1.5957848 0.15263104 0.420704 0.59689295 0.12906225 -0.34771407 -0.03663341
0.7943106 0.4323422 1.2115463 0.14987962 0.2898192 0.49440247 -0.19132105 -0.28349924
0.025962552 0.4120494 0.6853508 0.9140049 2.5286064 2.1124432 1.6653974 -0.27620283

encoder.3.bias f4 [8]
00000000: 8dcc 573f b67b 92be 20e5 02bf 74ad 9abf
00000010: a35c 41bf 690d 6cbe ac28 71be 1e1e 91be
0.84296495 -0.2861001 -0.51130867 -1.2084184 -0.7553198 -0.2305199 -0.23550671 -0.2834329

cnn_net.0.weight f4 [16, 8, 3, 3]
00000000: 5bfb 653e b64a d0be a25c 4dbf 66db 99be
00000010: d5f1 0ebf 4b2a 66bf 90c8 063e deb4 6ebf
00000020: c68d 1bc0 cfca d23e 8f37 b43e 928c e938
00000030: 92ec 14be d7e6 ba3e bc6c 103f fb12 cf3e
00000040: 9eab 9a3e 9661 203f 619e 4cbe 2e6a 093e
00000050: 0d74 c23e 53a0 3cbd df73 753e 32e2 8f3e
00000060: 35f2 4abe 203e 20bf 0183 53be ab26 39be
00000070: 1c74 c33e 3bc0 f03e 53a3 a9bd 376f acbe
00000080: efe8 173e 2ed9 063d 23e9 a53e 1b08 193d
00000090: 16cf 80bd 8bbe d43c 40e0 a13d b31d 3abe
000000a0: c1a6 023e 20bc 903c e6d1 acbe 01d0 2abe
000000b0: 7d2b 23be dda7 0a3f fd72 083f afc0 bd3e
000000c0: 2ca4 ff3e 81f5 3f3f 2415 393e a60d 353f
000000d0: e724 f63e e77e 123f 17b6 1d3f 3ea4 c1bd
000000e0: 4d9c 633e 389b b03e f4ff 0b3f a423 5e3f
000000f0: 3946 3f3f aa86 de3d 89db c93e 1a81 253e
00000100: 59b6 663e 5444 413e 8d67 873e 4e18 cf3b
00000110: b1c8 ab3e 7ecf f0bd cd8e 4dbe a35e 3cbe
00000120: 7698 103e 0036 da3e 4194 b93e 19bd b7bd
00000130: 0389 d4bc 266a a5be 3445 cbbe 4f60 1fbf
00000140: 467a c1be 091f bcbe 23d4 a13e 0d1c e93e
00000150: ce38 6f3f 2a8d 573f ed78 a23f d227 2d3e
00000160: 5f02 5dbe 6afd b63e 6bd5 babe 79f0 9abd
00000170: 9e9d 633c 2700 34bd 548c e6be 20db 8fbc
00000180: dbf0 8a3e 52dd 31bf 68be 9ebe ed2c 8fbe
00000190: 682a c8bd 32f4 63bd ddf6 923e 5956 913e
000001a0: 68ec a93e 0210 a7be d8be 05bf d607 983d
000001b0: e12e 17be ce37 91be 4859 ccbe 65b0 a43e
000001c0: b514 943d 8233 23be 3b2d 04be e3ad 11bf
000001d0: 21c7 5cbe 8668 773d 7ae7 89bd 1952 173f
000001e0: e5e9 403f a8e6 153f 6620 513f 2008 273e
000001f0: ebc7 ec3e 0093 fd3d 1b2c 2e3d 1b0f 463f
00000200: dbd0 e43e c456 2f3f c8d3 3d3f a31f 6e3f
00000210: db0c b2be b45b 6b3c 8ebd 263e 1a3e bdbe
00000220: bacc 9fbd 2576 7ebe 772d e83e 2af1 b63e
00000230: c0f6 023f ae67 0bbe 3f93 9ebe 993e 5bbe
00000240: 8169 1c3d db95 fabe 2c9a b1bd e5e4 34bf
00000250: ef0f 75bf c4ea 1cbe 498b c2bf 5bf1 26bf
00000260: 30b8 bdbf ba46 b73e 8d2c 82bb c47c a63e
00000270: 6600 003f 1171 723e 7922 043e 39a0 513e
00000280: a01c 62bd fc8a 663e b65d e23b 7317 0cbf
00000290: 739c cabc 04b2 6c3e a4f2 e53e 2216 633e
000002a0: 7e20 bcbd 0004 c23d b9db 06bf f96e 2d3e
000002b0: bb1b 86bd 70fc a83e 03ab dc3e da06 34bb
000002c0: 8ec8 703e 982c bc3d 1b25 48be e6a8 e23e
000002d0: 6334 a8bd 3ece bfbe ed7a 413e c0c5 693e
000002e0: 826d 193e 1fdc 913e 8bc6 f5be 2c76 33be
000002f0: be9f b0bd 2af1 2c3f 834c 8f3e ffc5 2e3e
00000300: 9959 613f 5831 603f 0ac5 cb3e f996 5a3f
00000310: b6dc c13e 3dd5 773e fcdd 0d3f acbb 843e
00000320: 56c8 d43e 9a94 583f b67e 9d3e cb2b 1f3f
00000330: 0a83 d43e 5fc3 843e c2ac 1c3f e8c6 883e
00000340: 9cc1 bfbe 7a86 b93e d4e2 d13e 15ba 9a3e
00000350: 6d1d 15be 0af6 b63e f396 0bbe d4d1 283d
00000360: 1fe4 33bf 96c4 79bf 5e42 01bf 3e63 9ebf
00000370: e407 84bf bc8a 7fbf dfe0 4dbf e0a0 b3be
00000380: e11d b4bf 2f09 f83e c54f 083e 2662 823e
00000390: 610d 353e e0c4 c93e 8e8b 303f eb7c 72bd
000003a0: 47d4 acbe 85dd 973e f4a7 b63e 556e e93b
000003b0: 8e01 adbe 866f 06bd 09dd 293e 0b3d 283e
000003c0: ba2a dbbe a98c 2dbf 0c47 9bbe 0d20 ba3d
000003d0: 08c2 063e 9521 5e3d 4b09 d13e a588 d13c
000003e0: 12bf 4e3e 5596 373e 89b4 dd3a 0cfa 773e
000003f0: b4e7 923e fdec 573c 43ed 983d 45b8 dcbd
0.22459166 -0.40682 -0.8021947 -0.300502 -0.55837756 -0.89908284 0.13162446 -0.9324473
-2.4305282 0.41170356 0.35198638 0.00011136489 -0.1454337 0.36504242 0.56415915 0.40444168
0.3020906 0.62648904 -0.19982292 0.1341941 0.37979165 -0.046051335 0.23969983 0.2810226
-0.19818957 -0.62594795 -0.20655443 -0.18081157 0.38174522 0.4702166 -0.08283105 -0.336786
0.14834951 0.032921962 0.32404432 0.037361246 -0.062894985 0.025969764 0.079041004 -0.18175392
0.12758924 0.01766783 -0.3375389 -0.1668091 -0.15934558 0.5416239 0.5330046 0.37061068
0.4992994 0.74983984 0.18074471 0.7072395 0.4807503 0.5722489 0.6160597 -0.09455155
0.22227593 0.34493423 0.5468743 0.86773133 0.74716526 0.10865529 0.39425305 0.1616253
0.22530498 0.18873721 0.2644619 0.006320036 0.33551553 -0.11758326 -0.20074005 -0.18395476
0.14120659 0.42619324 0.3624592 -0.089716144 -0.025944239 -0.32307547 -0.39701235 -0.6225633
-0.377886 -0.36742428 0.3160716 0.45529214 0.9344605 0.84199774 1.2693154 0.16909721
-0.21582936 0.35740215 -0.3649095 -0.07565398 0.013892559 -0.043945458 -0.45028937 -0.017560542
0.27136883 -0.69478333 -0.31004643 -0.27963963 -0.09773713 -0.055652805 0.28703967 0.2838619
0.33188176 -0.326294 -0.5224433 0.074233696 -0.14763977 -0.28362888 -0.39911866 0.32165828
0.07230512 -0.15937617 -0.12907879 -0.56905955 -0.21560337 0.060402416 -0.06733604 0.59109646
0.75356895 0.5855508 0.8169006 0.16311693 0.46246275 0.12381554 0.04252253 0.773668
0.44690594 0.6849177 0.7415128 0.93017024 -0.34775433 0.014365125 0.16283247 -0.36961442
-0.0780272 -0.24849756 0.45347187 0.3573087 0.5115776 -0.1361377 -0.30971715 -0.21410598
0.038186554 -0.48942456 -0.08671984 -0.70661765 -0.9572744 -0.15323931 -1.5198756 -0.6521203
-1.4821835 0.35796148 -0.003972596 0.32517064 0.5000061 0.23675944 0.12903775 0.20471276
-0.05520308 0.22513956 0.006908144 -0.5472328 -0.024732804 0.23114783 0.44911683 0.22176412
-0.09185885 0.09473419 -0.5267902 0.16936864 -0.06548258 0.33005095 0.43099222 -0.0027469904
0.23514006 0.09188193 -0.19545405 0.44269484 -0.08213117 -0.37462038 0.18894549 0.22829342
0.1498318 0.28488252 -0.4800304 -0.17525548 -0.086242184 0.6755549 0.2798806 0.17067717
0.8802734 0.8757529 0.39798766 0.85386616 0.37863702 0.24202438 0.55416846 0.25924432
0.41559094 0.8460175 0.30760735 0.621762 0.41506225 0.25930306 0.6120111 0.26714253
-0.374524 0.3623541 0.4099337 0.30220094 -0.14562006 0.35734588 -0.13631801 0.041215733
-0.7026996 -0.9756559 -0.50491893 -1.2374036 -1.0314908 -0.99821067 -0.8042125 -0.35083675
-1.4071618 0.48444507 0.1331168 0.25465506 0.17680885 0.39408016 0.68962944 -0.059201162
-0.33755705 0.29661193 0.35675013 0.0071237483 -0.3379025 -0.0328212 0.16588224 0.16429536
-0.42806035 -0.67792755 -0.30327642 0.090881445 0.13159955 0.054231245 0.40827402 0.025577853
0.20190075 0.17928441 0.0016914766 0.24216479 0.286924 0.013179061 0.07467129 -0.10777334

cnn_net.0.bias f4 [16]
00000000: 562e 95be f215 cebd 5543 98be 6f93 e0be
00000010: e753 b2be 9e16 08bf 16a3 d0be aa12 80be
00000020: ce4d 77be 181c bebe 1986 f7be 43cc e9be
00000030: 9df2 febd a3bc ddbe be7b cfbe 10cb 7f3e
-0.29136914 -0.100627795 -0.2973887 -0.43862483 -0.34829637 -0.5315951 -0.40749425 -0.2501424
-0.24150774 -0.3713081 -0.48344496 -0.45663652 -0.124486186 -0.4330798 -0.40524095 0.24979806

cnn_net.3.weight f4 [32, 16, 3, 3]
00000000: 8e61 d8bd 38c7 80be fde7 2abf 8c21 3d3f
00000010: 3e23 213f df2d 29bf 06e1 a43f 6053 49be
00000020: a6a1 46be a5a2 03be 9084 bbbf b045 36bf
00000030: 8e2c 153f 81ee 333e eb58 023d 95b2 9cbd
00000040: c5b6 3abf f9ba 1ebd 5c72 9b3e 6ca9 60bf
00000050: 72bd 613d 9894 293f 591b 173e 919f 443e
00000060: 2de4 013f 844f 92bf a1e3 4bbe 11c6 243e
00000070: 9d2f 8dbe 8726 ebbe 673f 933f ed6e 493f
00000080: bd31 5c3c 7881 663f 33b5 0dbf af52 edbe
00000090: 59f8 afbe a46f 72bf 4f40 10be c535 3a3f
000000a0: a4d6 aabe 2158 a8be 1f19 3b3f 5e30 88bf
000000b0: bbc5 edbe fdcd 973e 1c75 9c3e 789e b13c
000000c0: 377a 233f 04ab 2a3e 80a0 223e 2e89 2f3c
000000d0: b0ce b63e 6491 403e 82d3 023f 1dce 8a3d
000000e0: a2c6 f23d 4972 763f cac6 1c3e 765b 373e
000000f0: 2f79 1e3f 7f51 d13d 2570 4f3d 9549 6a3d
00000100: 12c1 3a3f 17b4 87bd 5086 083f 1837 433f
00000110: e13c 63be 3107 003f 1fea 693e 2376 dbbe
00000120: 188c b5be 5482 c43e bdca 47be b0ad 413e
00000130: 3030 393f c80f 28be 1131 0f3d f401 413e
00000140: 9577 afbe 130a 8d3f bea6 653d 53b1 ce3c
00000150: ffb9 003f d2fa 4a3f 0564 8fbe 9016 1f3f
00000160: 2181 8f3a 5dc0 acbe b904 243f 26d0 3fbe
00000170: cfdc 563d 817b 2e3f 49ef c8be e8ef a8bc
00000180: e6a4 653f f6fd 65bf a6aa e2bd bd0f bc3e
00000190: 690b 7cbf 88c6 17bf 7777 813f 6a8d 223e
000001a0: 55c8 62ba f578 8a3f 9975 09bf f004 7dbe
000001b0: eee7 e43e 38f3 153f d0c8 823e bb07 113f
000001c0: 86a1 7a3e 4a60 0ebd 63fb 803e 851a bb3e
000001d0: c84e 703e 2d9b a03f c881 3bbf c550 34be
000001e0: d2a8 d83f 4db5 4c3f 3717 acbd 4641 8f3f
000001f0: a897 c4bd c2a2 ab3d 5569 8cbe 349b e9bd
00000200: 18c3 35be 9c93 a1be 2bec af3e ee61 b23e
00000210: 7f65 453e 0f01 2e3e 2ef9 363d 59ef fabe
00000220: 58cd 5dbd 0668 a73e a543 e5be d7d1 1a3e
00000230: a792 34bc 0e18 66bf 32d8 c6bd c7f1 0d3f
00000240: 834e 96be 2f07 eebe eee5 35bf 8488 133e
00000250: bcca f03e 10fc cc3c 4561 2b3e 152a b93e
00000260: 85bd 8d3d 1d6b 6cbe 88db 893e 7a38 eabd
00000270: 0215 e43e 6d21 db3e c57e 8dbe 801f 8e3e
00000280: 4e02 1b3e 9233 50bd e966 1bbe ef28 3abe
00000290: b6b7 b83d 6de4 453f c7b1 e73e 8f70 ebbd
000002a0: c4d9 cc3e cda9 443e d9bc f0bd d900 22bf
000002b0: 5779 81be a564 453d 1fbd 023e ff19 8cbc
000002c0: f35e b1be dcd5 6a3d 20a3 953e f631 3a3e
000002d0: 46e5 fcbd c65f eaba 382f a0be d572 d93e
000002e0: 49cf c7bc e354 00bf 70eb 103f d917 4f3e
000002f0: 3c35 993c b905 bd3d d998 1d3e 9242 313e
00000300: c9f5 4e3e 071f 0b3e 8945 393e 3729 87be
00000310: 8988 59be 1a1d 8d3d 35dd d8bd ddfa 4a3e
00000320: 8496 c53e 622e 0a3e 4905 023e c035 c03e
00000330: ad0e 5fbe 51da 8fbe 7857 cd3d fb64 70be
00000340: d496 813c d953 083e 8fa6 1c3e 7222 563e
00000350: 205b 00be ecdd b2be d8ab 2dbd fde5 103f
00000360: 3704 5dbd 9a4b 0dbd 087d 143e d039 703e
00000370: f014 4e3e 6a50 703d bead 9d3c aa74 513e
00000380: d56c f03d aed1 3fbe b559 9d3d c2a7 e23d
00000390: e8f7 bc3e c8fc cc3e d87b 22bb bc95 8fbe
000003a0: 94d4 1e3e e56a b23e 693d a8be e49e 3ebd
000003b0: 3a48 c7bd 9b36 d83e f3ab 1e3e bf58 8fbc
000003c0: c2a4 a8bd 78c7 4a3e 6e47 c23d d086 e53e
000003d0: 3ecf 333e 17b5 cabe 56c5 e03e e9c3 b53e
000003e0: d86f a7be b4c0 2ebe 4177 e83e 626f 793e
000003f0: 2e35 86ba 81fe 053e 3b3e 893e bca8 e13d
-0.10565482 -0.25151992 -0.66760236 0.73879313 0.629444 -0.6608562 1.2881172 -0.19660711
-0.19397601 -0.12855013 -1.464983 -0.71200085 0.5827111 0.17571451 0.03182308 -0.07651249
-0.72935134 -0.03875253 0.30360687 -0.8775852 0.05511231 0.6624236 0.14756526 0.19201495
0.50738794 -1.1430516 -0.19911052 0.16091181 -0.2757539 -0.45927832 1.1503724 0.78684884
0.013439593 0.90041304 -0.55354613 -0.46352145 -0.34369162 -0.947016 -0.14087032 0.72738296
-0.33366883 -0.32879737 0.73085207 -1.063976 -0.4643992 0.29649344 0.30558097 0.02168201
0.6385836 0.166668 0.15881538 0.0107138585 0.35704565 0.18805462 0.51103985 0.06777594
0.118542925 0.96268135 0.15310207 0.17905983 0.6190366 0.10220622 0.05064406 0.05719908
0.7295085 -0.06626146 0.53329945 0.7625594 -0.22191192 0.50010973 0.22843216 -0.4286357
-0.35458446 0.38380682 -0.19510932 0.18913913 0.72339153 -0.1641227 0.034958903 0.18848401
-0.3427092 1.10187 0.05606722 0.02523104 0.5028381 0.7928897 -0.28005996 0.621438
0.0010948518 -0.33740512 0.64069706 -0.18731746 0.052456673 0.681572 -0.3924506 -0.020622209
0.8970474 -0.8984064 -0.11067705 0.36730757 -0.9845491 -0.5928731 1.0114583 0.15874258
-0.00086510676 1.0818163 -0.53695065 -0.24708915 0.44708198 0.5857425 0.25543833 0.5665242
0.24475679 -0.034759797 0.25191793 0.3654367 0.23467553 1.2547356 -0.73244905 -0.17608936
1.692652 0.79964143 -0.084028654 1.1191795 -0.09599239 0.08380653 -0.27424112 -0.11406556
-0.17750204 -0.3155793 0.3435987 0.3484034 0.19276999 0.16992591 0.04467123 -0.49010733
-0.05415091 0.3269655 -0.4477817 0.1511911 -0.011021293 -0.89880455 -0.09709205 0.5544705
-0.29356775 -0.46489856 -0.7105397 0.14407545 0.47029674 0.025022537 0.16736324 0.3616492
0.069209136 -0.23087735 0.26925302 -0.11436553 0.44547278 0.4279894 -0.2763578 0.27758408
0.15137598 -0.05083043 -0.15175976 -0.18179677 0.09019415 0.77301675 0.4525282 -0.11496078
0.40009892 0.19205399 -0.1175477 -0.63282543 -0.25287887 0.048191685 0.12767456 -0.01710224
-0.34642753 0.05733286 0.29226017 0.18183121 -0.12348418 -0.0017881326 -0.31286025 0.42470422
-0.024390833 -0.50129527 0.5660925 0.20223941 0.018702142 0.09229607 0.15390338 0.17310551
0.20210947 0.13586055 0.18092932 -0.26398632 -0.2124349 0.06890316 -0.10589067 0.19822259
0.38591397 0.13494256 0.12697329 0.37541008 -0.21782942 -0.2809625 0.10026449 -0.23476021
0.01581899 0.13313235 0.15297912 0.20911577 -0.12534761 -0.34934938 -0.04240021 0.56600934
-0.053959098 -0.034495927 0.1450082 0.23459554 0.20125175 0.05867044 0.019247886 0.2045466
0.11739508 -0.1873233 0.07683126 0.110671535 0.36907887 0.40036607 -0.0024793055 -0.28043926
0.1551078 0.3484718 -0.32859352 -0.04653825 -0.09730573 0.4222916 0.15495281 -0.017498372
-0.0823455 0.19802654 0.094862804 0.44829416 0.17559525 -0.39591286 0.43900555 0.3550103
-0.32702518 -0.17065698 0.45403484 0.24358895 -0.0010239237 0.13085367 0.2680529 0.11018512

cnn_net.3.bias f4 [32]
00000000: 5985 6cbd d5a8 823d ffad 89be 7204 0ebe
00000010: 8de6 babe f2d0 b13c 80e3 b2bd 7831 cdbe
00000020: a2ec ddbd d437 06bf 7c83 6e3c 09ff e4be
00000030: 4035 cabe e050 093d b04d 22be c5ed 233e
00000040: 4a29 2dbf 1d48 abbd 726a 20be 9708 923b
00000050: 05ec 913c f5e6 403c a90b 603d ea17 19bd
00000060: 803f 0cbe 2e71 343d 46c3 643d 9768 dfbb
00000070: 03e5 243d 1f04 203f d0c7 08be 9751 47bd
-0.057744358 0.063798584 -0.2689056 -0.13868883 -0.3650402 0.021706078 -0.087347984 -0.40076804
-0.1083615 -0.52428937 0.0145577155 -0.44725826 -0.39493752 0.033524394 -0.15849948 0.1600867
-0.6764113 -0.08363364 -0.15665606 0.0044565904 0.017812738 0.011773814 0.05469862 -0.03737632
-0.13696098 0.04405325 0.05585029 -0.006817888 0.040257465 0.6250629 -0.13357472 -0.048661795

hidden.weight f4 [32, 128]
00000000: 9109 dcbe dabf 3dbe 98f6 cabe 4a86 00be
00000010: b88d f7bd 4e83 41bd a8a0 94bc 5994 083e
00000020: dc0f 643d f5b2 8d3e 907b f2bd c2bf a43e
00000030: 5ca5 e33d b7c2 4d3d fc93 e3bd 8c58 d23d
00000040: 46c9 01be 642b 66be a293 26be b27f 0b3e
00000050: c28f ff3d b60e dc3d ea6f 7abd f2ab a3bb
00000060: 4b07 1abe b851 0abe 88ba 63be 04eb 6b3d
00000070: 0fac 07be dc3a 9cbd 0fec b7be 1420 a4be
00000080: dbb6 093e f862 3e3e 67b8 613e da96 56be
00000090: 4765 ea3c aead 20be e6c6 6bbe facd 56be
000000a0: 7fdc a3bc 7a26 943d 280f 553e 0e40 833d
000000b0: 6fef 9bbe 7d98 663f bb55 823e 173d 1fbe
000000c0: 0eeb 09be d168 81be 8eee 8bbe 7652 73be
000000d0: a132 2dbe e953 0a3e 5ade 7dbe 3356 cdbc
000000e0: 37ec 503e 7632 4b3e 51d0 573c 18fe f8bd
000000f0: 8985 20be 3014 d23d 7b5b 01bd b3a8 123e
00000100: 8f19 fa3e 0b77 e83e b788 8c3e 0fa3 e43e
00000110: 60c0 8ebe 14bd 6b3e 7f2e e63c f531 373d
00000120: 6556 10bf 29d4 323e aa86 77be 12d7 9dbd
00000130: 0985 26bd 9852 a13d a5b6 8cbe 945d 8cbd
00000140: 6942 363d c03f 1f3e f86e 33bd d33c 70be
00000150: 0d06 0fbe 1609 a63d d52d c8bc 997d 3f3e
00000160: 0bdf 25be 4131 bc3c 89f0 8d3e 0c2f 85bd
00000170: 42a6 b6be 8e80 62be 4b00 53be 2512 40be
00000180: 2398 b33d 2e9a 913e d3e9 e23d 8cdc f03d
00000190: 274d 4bbc f3c9 6e3e 55e9 6abd 467e 08bb
000001a0: 5b8f 9a3d 9d49 2e3e 6dd7 4e3e f7bd b23d
000001b0: 1895 7ebe 709c 143e 173a 5d3c 8f61 8cbd
000001c0: fb7e 24bb c75c 5e3e 003d 773d d217 f93c
000001d0: 46e0 4fbf ffb2 1ebd 327c 2d3e c789 92bf
000001e0: 4e8d 613e 7757 5a3e f76b c0bd 07b2 1c3e
000001f0: ad0f 46be db51 92be e394 b6be 4735 05bf
00000200: cccf 7dbd 8ea0 b73d 8bc7 7e3b d8d5 b83b
00000210: 921e 2f3e 9b34 2abe 6360 983c 2ec5 a13d
00000220: 1d0d 55bd 5347 73be 305a 2abe 0c6d b1be
00000230: 474b c6bc c4fc 7ebe 6137 b4bd ba81 343e
00000240: ade5 dfbc 5200 98bd 2c7f a43c dbb7 89be
00000250: 4cfc 5d3d 67a8 133c 11de e43d 46e4 f4bd
00000260: b409 cbbd dead 4c3c c661 d0bd 1a2a 123e
00000270: 8078 c1bd ddb7 373e 4039 2c3e 800c a0bd
00000280: 8158 54bc 2829 dc3d a445 56bd 2a5f 35bd
00000290: 0b98 a83c c831 af3d 4b3a 793e 6d8b 90bc
000002a0: b39d e3bd 110e e93c b953 263d bb08 d6bb
000002b0: 76b1 1d3e ed41 0c3d e3a4 8e3d d9fb 39bd
000002c0: 4d2a 9dbd 00cd 59bd 62cd a0bd f7bc 07bd
000002d0: 590c d1be a8d3 123e 88e9 33be f7fe 883b
000002e0: b56c 8ebe 7666 e2bc c8c1 52bc edfd 7cbc
000002f0: 0907 85bd b966 1abe 41d6 793d 843b 54bd
00000300: ee05 4f3d a82a 6abd 985c 64bd e957 59be
00000310: 9374 adbd 4ab0 0cbe 26ae 6cbd a0fc 363c
00000320: f574 70bc f199 543d f812 27be 7bb7 433e
00000330: da00 fdbc f0ca bb3d 3743 1c3e 5496 493c
00000340: 622f d53d eb9a b7bb 6259 973c 7a4b e6bd
00000350: 0825 42bd e69b 36be cd67 25bd eecd 23be
00000360: 2595 38bd 41f5 6dbd b266 313e 36c5 ac3c
00000370: 0a52 c7bd e272 60bc e577 82be e0df d1bd
00000380: 74f3 bdbd 201d 553d 53b1 913b e6a2 acbd
00000390: f937 26bd c6ef 57be 0a81 72bd 96ce ccbd
000003a0: 1fd7 8b3e adda 3cbc 4f0b c2bb fedb 63bd
000003b0: 0776 b5be ff8a d0bc b28c 993d e821 3bb9
000003c0: ed96 ffbb 7581 673e 9ba2 c13d df5b 94bd
000003d0: ff75 c43d e816 bdbd caa1 2fbd 1a25 4e3e
000003e0: 2700 453e ceeb ac3d c6bb 02be 8676 5dbe
000003f0: 3159 a3bd cf6f 573e c0db 7f3c 02cd 09be
-0.4297605 -0.18530217 -0.3964126 -0.12551227 -0.120875776 -0.047244363 -0.018143013 0.1333784
0.055679187 0.27675596 -0.11839974 0.3217755 0.11115524 0.050234523 -0.1111221 0.10270795
-0.12674436 -0.2247749 -0.16267255 0.1362293 0.124785915 0.107449934 -0.061141886 -0.0049948627
-0.15041845 -0.13507736 -0.22239125 0.057597175 -0.13249229 -0.07628414 -0.35922286 -0.32055724
0.1344866 0.18592441 0.22043 -0.20955983 0.028612746 -0.15691254 -0.23025092 -0.20977011
-0.020002602 0.07233901 0.20806563 0.06408702 -0.3045611 0.9007643 0.25456032 -0.15550648
-0.13468572 -0.2527528 -0.2733044 -0.23761925 -0.16913845 0.13508572 -0.24791852 -0.025065517
0.20402609 0.19843468 0.013172225 -0.121578395 -0.1567594 0.10257757 -0.031581383 0.14322166
0.48847625 0.45403323 0.27448055 0.44655654 -0.27881145 0.23021346 0.028098343 0.044725377
-0.5638183 0.17463745 -0.24172464 -0.07707037 -0.040654216 0.07877082 -0.27483097 -0.06853786
0.044496927 0.15551662 -0.043807 -0.23460703 -0.13967152 0.08107202 -0.024435917 0.18700255
-0.16198365 0.022972705 0.27722576 -0.06503114 -0.3567372 -0.22119352 -0.2060558 -0.18756922
0.08769252 0.28437942 0.11079755 0.11760816 -0.012408531 0.23319225 -0.05735143 -0.0020827218
0.07546874 0.17020269 0.20199366 0.08727639 -0.24861562 0.14512801 0.013502619 -0.06854545
-0.00251001 0.21715079 0.06036091 0.030406866 -0.8120159 -0.038744923 0.16941908 -1.1448296
0.2202656 0.21322428 -0.09395593 0.15302287 -0.19341917 -0.28578076 -0.35660467 -0.5203442
-0.06196575 0.0896617 0.003887626 0.0056407265 0.17101505 -0.1662163 0.018600648 0.07898937
-0.05201446 -0.23757677 -0.16635966 -0.3465351 -0.024205817 -0.2490111 -0.08799625 0.17627612
-0.027331198 -0.07421936 0.020080172 -0.26898083 0.054195687 0.009012318 0.11175168 -0.11957602
-0.0991396 0.012492625 -0.10174899 0.14273873 -0.09446812 0.17941232 0.16818714 -0.07814884
-0.012960554 0.107500374 -0.05231251 -0.04428021 0.020580312 0.08554417 0.24338643 -0.017644608
-0.11114063 0.02844909 0.040607188 -0.0065318025 0.15399727 0.03424256 0.069650434 -0.045406196
-0.07674084 -0.05317402 -0.07851674 -0.033139195 -0.40829733 0.14338553 -0.17569554 0.004180785
-0.27817312 -0.027636748 -0.012863584 -0.0154414 -0.064954825 -0.15078248 0.060995344 -0.05181457
0.050542764 -0.057169586 -0.055752367 -0.21224941 -0.084695004 -0.13739124 -0.05778327 0.011168629
-0.014676322 0.051904622 -0.1631583 0.19112961 -0.030884195 0.09169567 0.15260015 0.012303907
0.10409428 -0.0056031845 0.018475238 -0.11244865 -0.047398597 -0.17832908 -0.040382195 -0.15996525
-0.04506411 -0.05809522 0.17324331 0.021090131 -0.097324446 -0.013699265 -0.25482097 -0.10247779
-0.092749506 0.05202973 0.0044461875 -0.08429508 -0.040580723 -0.2108756 -0.059205092 -0.10000341
0.27312562 -0.011526746 -0.0059217582 -0.055629723 -0.3544161 -0.025456904 0.074975386 -0.00017846341
-0.007799974 0.22607978 0.09454843 -0.072440855 0.095928185 -0.09232885 -0.042878903 0.2013134
0.1923834 0.08443414 -0.12766942 -0.21627244 -0.07975996 0.21038745 0.015616357 -0.1345711

hidden.bias f4 [32]
00000000: 3bd3 0bbe e9f1 54bc 78cb 30be 0842 2cbe
00000010: 57c0 623e aa71 693e ffbc 26be dafd 9dbb
00000020: cb01 94bd 59ed 2dbe 88c3 3abe 8c46 513e
00000030: ba51 23be 72fe 193e 9445 3fbe dab9 653e
00000040: 76f9 593e 0b6c 0cbe 7ac6 8cbd 10b3 97be
00000050: 47f5 3f3e 66ac 00bd e0d5 523e f996 06bd
00000060: ac7a 3cbd f25f f4bc 5ab3 2ebe d369 183e
00000070: 71a6 593e 0000 0000 9243 abbe f250 653e
-0.13654797 -0.012997129 -0.17265117 -0.16822064 0.22143684 0.22797266 -0.16283034 -0.004821521
-0.072269045 -0.16985072 -0.18238652 0.20437068 -0.15949145 0.1503847 -0.18678886 0.22434178
0.21286568 -0.1371309 -0.06873794 -0.296288 0.1874591 -0.031414412 0.205894 -0.032858822
-0.046015427 -0.029830907 -0.17060605 0.14884119 0.21254899 0.0 -0.3344999 0.2239416

out.weight f4 [1, 32]
00000000: cabe 38bf 51ad 2abe 308c 85be 4d1a c9bd
00000010: 9928 943e dcc5 fb3e 675c cabe 1304 60bd
00000020: 550a 3240 947c 6abe 1ca4 97bd de01 e03d
00000030: 3cb1 7bbe 273d cb3e 8979 06bf 351f bb3e
00000040: 77f6 7b3e c055 2940 5b81 3c40 fb2a febf
00000050: 038b 253d 9ad2 4440 909a d83d 3e2d 4c40
00000060: f12f 4540 24e4 ea3d 569e f4be c5c9 9fbd
00000070: 321f 293e 9f78 a63e 3cd1 08c0 ed8c a63e
-0.7216612 -0.16667677 -0.26083517 -0.098194696 0.28937224 0.49174392 -0.39523622 -0.054691385
2.7818806 -0.22899085 -0.07404348 0.10937856 -0.24579328 0.39695093 -0.525292 0.36547247
0.24605738 2.6458588 2.9453952 -1.9856867 0.040415775 3.075354 0.105763555 3.1902614
3.081051 0.114692956 -0.4777705 -0.07802156 0.16515806 0.32513902 -2.1377707 0.32529393
