train_history/olympics-running/11_23_13_17/actor.pth (torch, 48200 bytes, 14 tensors)

encoder.0.weight f4 [8, 4, 3, 3]
-0.39133435 0.120099075 0.18944658 -0.0721357 -0.15505071 -0.3173905 -0.35816917 0.034463994
0.15763089 -0.13902624 0.039038796 0.08244255 -0.31418526 -0.1515365 -0.1470294 -0.06135632
-0.6017715 -0.03736103 0.12130537 0.08474867 -0.06736311 -0.16538869 0.33611247 0.44449857
0.34146085 0.45554703 -0.2134639 0.1150632 0.12997955 -0.2020989 0.0573968 0.2584377
0.1483809 0.026583755 -0.4304078 -0.27780876 0.11433731 0.0025106466 -0.48722953 0.121773995
0.37098202 -0.26555708 0.14568408 -0.084670566 0.33024907 0.62049276 0.11141993 0.19768618
-0.0040901112 0.08602855 0.16490394 -0.04796873 -0.09009079 0.5375738 0.24132076 -0.44186592
0.07686376 0.13859348 0.2964032 0.017155102 0.20478064 0.26066083 0.0034487087 -0.20547162
0.10874149 -0.09912907 0.26747257 -0.20598128 -0.009515381 -0.003757853 0.016295014 0.1277453
-0.25462544 0.32328478 0.15843007 0.31001294 0.27869603 0.035594705 -0.123044625 0.25369647
0.026413579 0.005346931 -0.034350116 -0.6193927 -0.08146815 -0.33138826 0.099259235 -0.037748385
0.08019107 -0.05532971 0.027320849 0.48227918 -0.2324978 0.15897568 0.31387022 -0.04628313
0.14045717 0.14620882 0.22231358 -0.20532994 0.027317457 0.25174722 -0.0914533 -0.2842994
0.120129846 -0.0010894734 0.14034566 0.42866072 0.20605141 0.30225357 -0.07022295 0.028713448
0.41294494 0.1120482 0.17399831 0.12371713 0.0043907715 -0.41583404 0.18810561 0.166793
-0.34270453 -0.10667238 -0.28964612 0.0185781 0.15551053 0.19484705 0.15521649 0.090555206
0.21508476 -0.61504537 -0.29613343 -0.06548164 -0.112033546 0.45694125 -0.04772764 0.11797201
-0.17299628 0.060792312 0.013181329 -0.3307097 -0.30894926 -0.16652682 -0.16297935 -0.01799516
0.058277328 -0.10472791 0.099176235 0.4836957 -0.48033732 0.14528178 0.20704013 0.033764828
0.10085671 -0.07065569 0.20054017 0.15858074 -0.03632936 0.0055510327 -0.012646323 0.09121284
0.13791583 0.018900717 -0.5279462 0.05829001 0.68873894 -0.14655223 0.4806155 -0.35388064
0.18520577 0.10246764 -0.24039625 -0.026991801 0.120574705 -0.17993824 -0.18576491 -0.01617683
0.2887245 -0.27319038 -0.09671683 0.08839572 -0.3611114 0.28244838 -0.44721588 0.10344945
-0.082057826 0.26892787 -0.20921719 0.16736872 0.009853123 -0.14754716 -0.11510712 -0.020189883
-0.13951704 -0.00072575425 -0.13540426 -0.12212685 0.16021754 0.29260716 0.32756045 0.06956269
0.12579271 0.037857514 0.30018356 -0.3844293 -0.34927568 -0.20508748 0.35987628 -0.054002173
-0.18228859 -0.1305475 0.31483707 0.27416682 0.27465767 -0.22707707 -0.20672432 -0.38951325
0.13602845 0.53406465 -0.15900525 0.28416684 -0.2862182 -0.3013564 0.2801993 -0.05032478
-0.30996722 -0.17953973 0.36067247 0.26100072 0.5899625 -0.24161668 0.09243763 -0.04228537
0.13350487 -0.022341968 0.11938988 -0.22697148 -0.12589309 0.09566574 0.0104565825 0.08505971
0.22988309 0.20539787 0.31924123 0.44560993 0.023681695 -0.047265336 -0.0025245862 -0.001439341
-0.2164938 0.06457001 -0.15426584 -0.27885154 -0.010245952 -0.41101024 0.21424265 0.273395
00000000: fa5c c8be 81f6 f53d 49fe 413e e2bb 93bd
00000010: 9dc5 1ebe 0281 a2be f361 b7be 1e2a 0d3d
00000020: fe69 213e e55c 0ebe 25e7 1f3d a4d7 a83d
00000030: e4dc a0be 622c 1bbe e08e 16be c450 7bbd
00000040: b20d 1abf e107 19bd f36e f83d b690 ad3d
00000050: acf5 89bd a75b 29be ef16 ac3e 5195 e33e
00000060: f5d3 ae3e 763d e93e 4896 5abe 41a6 eb3d
00000070: 5c19 053e 04f3 4ebe e818 6b3d f251 843e
00000080: 2af1 173e 2dc6 d93c 695e dcbe f33c 8ebe
00000090: ae29 ea3d a989 243b 2676 f9be a564 f93d
000000a0: 5bf1 bd3e 19f7 87be 352e 153e c367 adbd
000000b0: 6816 a93e 9dd8 1e3f 2230 e43d 3f6e 4a3e
000000c0: 5706 86bb bd2f b03d 94dc 283e dc7a 44bd
000000d0: 8581 b8bd 709e 093f ca1c 773e 403c e2be
000000e0: bf6a 9d3d 73eb 0d3e 29c2 973e db88 8c3c
000000f0: 04b2 513e 5675 853e bb03 623b 2767 52be
00000100: dcb3 de3d 2f04 cbbd 2af2 883e c2ec 52be
00000110: 67e6 1bbc 5046 76bb 1f7d 853c aacf 023e
00000120: 445e 82be 9585 a53e 7e3b 223e 04ba 9e3e
00000130: 3fb1 8e3e c1cb 113d d2fe fbbd 81e4 813e
00000140: 4a61 d83c 4f35 af3b b5b2 0cbd 8590 1ebf
00000150: c6d8 a6bd b9ab a9be 6d48 cb3d 0d9e 1abd
00000160: 373b a43d 68a1 62bd f9cf df3c 4ced f63e
00000170: e713 6ebe 85ca 223e 99b3 a03e 6193 3dbd
00000180: 01d4 0f3e c4b7 153e 2ca6 633e 0342 52be
00000190: dcc8 df3c 03e5 803e de4b bbbd b18f 91be
000001a0: a306 f63d a9cc 8eba c6b6 0f3e 6b79 db3e
000001b0: 24ff 523e fbc0 9a3e 0dd1 8fbd 7738 eb3c
000001c0: 856d d33e 8779 e53d 9d2c 323e 685f fd3d
000001d0: 76e0 8f3b 33e8 d4be c29e 403e c9cb 2a3e
000001e0: f876 afbe 0c77 dabd 7f4c 94be 1931 983c
000001f0: 273e 1f3e fc85 473e 12f1 1e3e 0275 b93d
00000200: 2e3f 5c3e 9d73 1dbf cd9e 97be 3d1b 86bd
00000210: d871 e5bd 34f4 e93e 0f7e 43bd 4f9b f13d
00000220: f025 31be 5c01 793d 80f6 573c c852 a9be
00000230: 992e 9ebe 0286 2abe 0fe4 26be 966a 93bc
00000240: 35b4 6e3d 967b d6bd e91c cb3d f6a6 f73e
00000250: c6ee f5be bfc4 143e 5402 543e fd4c 0a3d
00000260: f68d ce3d eeb3 90bd 675a 4d3e fd62 223e
00000270: 18ce 14bd 70e5 b53b 8632 4fbc cccd ba3d
00000280: cf39 0d3e add5 9a3c 7b27 07bf 81c1 6e3d
00000290: 3251 303f ca11 16be 3c13 f63e d82f b5be
000002a0: 95a6 3d3e 8eda d13d 6f2a 76be e91d ddbc
000002b0: dfef f63d bb41 38be 2839 3ebe 4585 84bc
000002c0: b3d3 933e 9cdf 8bbe 7913 c6bd d108 b53d
000002d0: 98e3 b8be 139d 903e 7bf9 e4be 4edd d33d
000002e0: ef0d a8bd eab0 893e 083d 56be b562 2b3e
000002f0: fe6e 213c 9a16 17be 48bd ebbd 4165 a5bc
00000300: 8edd 0ebe 8b40 3eba 6aa7 0abe a41d fabd
00000310: 1110 243e 9bd0 953e 01b6 a73e e276 8e3d
00000320: cecf 003e 7b10 1b3d a9b1 993e ebd3 c4be
00000330: 43d4 b2be 7402 52be b441 b83e 6231 5dbd
00000340: dca9 3abe 3eae 05be 5332 a13e 985f 8c3e
00000350: ee9f 8c3e e486 68be 8aaf 53be 486e c7be
00000360: 0b4b 0b3e 76b8 083f 46d2 22be 517e 913e
00000370: 318b 92be 634b 9abe 4876 8f3e 5b21 4ebd
00000380: 06b4 9ebe 43d9 37be 10aa b83e e3a1 853e
00000390: c807 173f 5d6a 77be f14f bd3d 6d33 2dbd
000003a0: 80b5 083e 8106 b7bc ae82 f43d 366b 68be
000003b0: 1eea 00be 66ec c33d 1652 2b3c c933 ae3d
000003c0: 7966 6b3e d253 523e 9673 a33e fc26 e43e
000003d0: 1d00 c23c 4c99 41bd 8773 25bb 45a8 bcba
000003e0: 8db0 5dbe 483d 843d ddf7 1dbe a1c5 8ebe
000003f0: a3de 27bc ef6f d2be 6d62 5b3e 6efa 8b3e

encoder.0.bias f4 [8]
0.0029913723 -0.015740246 -0.0059944303 -0.02622244 -0.003304612 0.02251179 -0.0034995137 -0.0006116959
00000000: e60a 443b b0f1 80bc ed6c c4bb 71d0 d6bc
00000010: 3092 58bb a56a b83c 1958 65bb 385a 20ba

encoder.3.weight f4 [8, 8, 3, 3]
0.11074084 -0.45353177 0.0003488264 0.22026877 -0.043815922 0.23042814 -0.094583064 0.13371998
0.060246468 0.043771815 -0.03125837 -0.18064871 -0.09352052 0.051449265 -0.31433854 -0.06750192
0.20471565 -0.10760394 0.03607055 0.00479598 -0.055704802 0.20074466 -0.19491379 -0.107085235
0.17277692 -0.10547734 -0.30821425 -0.1468507 -0.01748734 -0.13802555 0.09850062 0.081663966
0.4955962 -0.07514059 0.12751931 -0.10202187 0.065505505 -0.14545406 -0.044113554 -0.014922
-0.07796876 -0.34570408 -0.16926302 0.39238343 -0.1794392 0.15894997 -0.008124119 0.07456599
-0.13369817 0.36347982 -0.06537525 0.06106894 0.30522025 -0.04030622 -0.104732886 0.008684007
0.1952455 0.031063732 0.17849825 0.24428247 0.13839836 -0.15943979 0.20735261 0.06593419
0.032203548 0.2720882 -0.07806433 0.055117045 -0.07057704 0.11106605 0.09826213 0.068792276
-0.35915244 -0.094307676 0.27947542 -0.042214587 -0.05217263 -0.022856696 -0.036769297 -0.07168499
-0.105866514 -0.12544477 -0.052938122 0.07595057 -0.029173797 -0.22797723 0.20833728 0.07129227
0.39426666 -0.0055745007 -0.14390536 -0.001985055 0.2797679 -0.2238886 -0.08940236 0.055684663
0.05370999 0.033454638 -0.055540837 -0.037788223 -0.02650459 -0.19095874 0.10518346 0.029930854
0.026820699 -0.034529377 -0.38432148 -0.07979525 -0.07390609 -0.21581502 -0.015469987 -0.08754454
-0.006150341 0.3109299 0.12615244 0.47158796 0.2026174 0.30406487 0.11009072 0.42103863
-0.11690996 -0.13843694 -0.03459443 -0.17993052 -0.17740573 -0.29092973 0.072164565 -0.035868373
0.13089071 -0.1640478 0.098212294 0.1349484 0.13718298 0.19993211 -0.18921173 0.043440092
-0.17714433 -0.12191724 -0.004127668 0.23358741 -0.043100767 -0.019421356 -0.19161135 -0.2583469
-0.120827086 0.08149772 -0.020212442 0.098756306 -0.3231936 -0.2106857 -0.022133432 -0.0043018297
-0.0017302872 -0.026853798 0.23734707 0.111532055 -0.16854088 -0.15548739 -0.022145525 0.2931826
-0.06080693 -0.18371993 0.12885159 -0.035569474 0.480584 -0.2519729 -0.28261712 -0.2551104
0.14188711 -0.26628125 0.03373134 -0.16571218 -0.024569742 0.2122839 0.26169688 -0.005725372
0.14327861 0.12735568 0.2933034 -0.18805014 -0.21793962 0.13365182 -0.0017201136 -0.09941539
-0.013875938 -0.21415794 0.12635438 -0.109386556 -0.105394416 -0.0986014 0.29211372 -0.14458081
0.01789227 -0.118981265 -0.20647712 -0.04111689 0.09642055 -0.14344463 0.03109317 -0.031898726
0.10056317 0.2516247 0.011113447 0.15883441 0.1502142 0.029182164 -0.22722514 -0.20068125
0.46221742 -0.13485685 0.07097125 -0.0020079329 0.04666201 0.017021501 0.035439044 -0.19370088
0.28813386 0.05176826 -0.08899836 0.19669531 0.0074690976 0.11901895 0.12546104 0.10435032
-0.015717717 0.10419351 -0.44276455 -0.1509676 -0.15203358 -0.20426239 0.002340092 -0.064489044
0.14658213 0.018298926 -0.12988433 0.016261937 -0.077709205 -0.17281504 -0.04914158 0.007777163
0.15688118 -0.040781364 0.11261302 -0.08571888 0.016499093 0.34252384 0.14950405 -0.18615788
-0.15928788 -0.14470585 -0.1519135 0.025705133 0.30798575 -0.09579587 0.32539767 -0.2536862
00000000: 18cc e23d 5135 e8be b0e2 b639 238e 613e
00000010: 5378 33bd 5bf5 6b3e c4b4 c1bd e4ed 083e
00000020: 00c5 763d 134a 333d c708 00bd fafb 38be
00000030: b087 bfbd 77bc 523d fbf0 a0be 723e 8abd
00000040: fba0 513e 745f dcbd b7be 133d 9927 9d3b
00000050: b82a 64bd 0290 4d3e 7b97 47be 814f dbbd
00000060: 6fec 303e 8104 d8bd 42ce 9dbe 0860 16be
00000070: 9c41 8fbc 9256 0dbe b1ba c93d 703f a73d
00000080: c9be fd3e 4fe3 99bd 6c94 023e d8f0 d0bd
00000090: c027 863d e9f1 14be 6ab0 34bd 677b 74bc
000000a0: 16ae 9fbd 2000 b1be 4953 2dbe 7be6 c83e
000000b0: e9be 37be c8c3 223e 061b 05bc 0eb6 983d
000000c0: 2ce8 08be 071a ba3e 76e3 85bd 6d23 7a3d
000000d0: d445 9c3e 2318 25bd 327e d6bd 5e47 0e3c
000000e0: 70ee 473e 5e79 fe3c 3fc8 363e 2f25 7a3e
000000f0: 4db8 0d3e 2f44 23be 3e54 543e 8108 873d
00000100: dee7 033d 254f 8b3e 31e0 9fbd 69c2 613d
00000110: b28a 90bd 9976 e33d a83d c93d f7e2 8c3d
00000120: d4e2 b7be 6224 c1bd 6717 8f3e 34e9 2cbd
00000130: f8b2 55bd f73d bbbc 679b 16bd 94cf 92bd
00000140: 8bd0 d8bd 9874 00be a5d5 58bd f98b 9b3d
00000150: e3fd eebc dd72 69be 5e56 553e af01 923d
00000160: 52dd c93e 4daa b6bb ed5b 13be b217 02bb
00000170: bd3d 8f3e 0e43 65be 9618 b7bd 9a15 643d
00000180: 02ff 5b3d bb07 093d ca7e 63bd d3c7 1abd
00000190: 2720 d9bc b08a 43be 6d6a d73d 8d31 f53c
000001a0: 15b7 db3c ad6e 0dbd c9c5 c4be b16b a3bd
000001b0: 135c 97bd 9dfe 5cbe d475 7dbc 8d4a b3bd
000001c0: cd88 c9bb 3432 9f3e 1b2e 013e fa73 f13e
000001d0: f07a 4f3e 64ae 9b3e 3e77 e13d 6092 d73e
000001e0: 7d6e efbd 6ac2 0dbe e4b2 0dbd b53f 38be
000001f0: d9a9 35be bef4 94be 04cb 933d b7ea 12bd
00000200: 3708 063e 25fc 27be 8723 c93d ea2f 0a3e
00000210: b279 0c3e 01bb 4c3e b8c0 41be 3dee 313d
00000220: 5365 35be bfaf f9bd 6441 87bb 8a31 6f3e
00000230: 6e8a 30bd 8919 9fbc c435 44be 0b46 84be
00000240: 3174 f7bd 47e8 a63d 9094 a5bc bf40 ca3d
00000250: a279 a5be febd 57be 2c51 b5bc 5df6 8cbb
00000260: ceca e2ba 7ffc dbbc 1c0b 733e eb6a e43d
00000270: fb95 2cbe 1638 1fbe 886a b5bc 081c 963e
00000280: b010 79bd 1421 3cbe acf1 033e 4cb1 11bd
00000290: 1b0f f63e 9802 81be 31b3 90be d59d 82be
000002a0: db4a 113e 0456 88be e029 0a3d 74b0 29be
000002b0: 7c46 c9bc f360 593e 22fd 853e e79b bbbb
000002c0: a1b7 123e 8769 023e dd2b 963e 3790 40be
000002d0: 902b 5fbe 06dc 083e 6f75 e1ba 4c9a cbbd
000002e0: e757 63bc 384c 5bbe 0b63 013e 0f06 e0bd
000002f0: 07d9 d7bd 88ef c9bd ee8f 953e fe0c 14be
00000300: cf92 923c 73ac f3bd bd6e 53be 2f6a 28bd
00000310: 2378 c53d 26e3 12be 1bb7 fe3c 3da8 02bd
00000320: 10f4 cd3d f4d4 803e 2d15 363c 7da5 223e
00000330: c0d1 193e 6f0f ef3c b5ad 68be 637f 4dbe
00000340: c3a7 ec3e ea17 0abe 6059 913d 8697 03bb
00000350: aa20 3f3d ad70 8b3c 8828 113d 8659 46be
00000360: 4886 933e f40a 543d c644 b6bd 7f6a 493e
00000370: 55bf f43b 35c0 f33d dc78 003e 9fb5 d53d
00000380: 71c2 80bc 6863 d53d 09b2 e2be 4097 1abe
00000390: b1ae 1bbe 292a 51be 3b5c 193b d512 84bd
000003a0: a019 163e a1e7 953c 6600 05be c137 853c
000003b0: 0126 9fbd 6df6 30be ae48 49bd 92d7 fe3b
000003c0: 76a5 203e 5c0a 27bd a8a1 e63d 618d afbd
000003d0: 1b29 873c 495f af3e 9717 193e 2ca0 3ebe
000003e0: 5d1c 23be c52d 14be 368f 1bbe 9293 d23c
000003f0: 4fb0 9d3e a030 c4bd 869a a63e 28e3 81be

encoder.3.bias f4 [8]
-0.010540201 -0.025891816 0.009166914 -0.040813036 0.0503463 -0.058673352 -0.04450067 -0.000465795
00000000: cfb0 2cbc 131b d4bc d330 163c 922b 27bd
00000010: ec37 4e3d 7853 70bd 5646 36bd f235 f4b9

cnn_net.0.weight f4 [16, 8, 3, 3]
0.04274665 0.14534393 -0.09098919 0.23238525 -0.30784434 -0.5519501 0.14625601 0.0049867434
0.028317502 -0.25834262 0.07633569 -0.11870434 -0.34582698 0.15795363 0.004612066 0.03507505
-0.06443592 -0.23574397 -0.0088855075 0.060425166 0.25573534 -0.09871759 -0.15730754 -0.031408556
0.19791564 0.048655216 0.24522027 -0.20734404 0.111745074 -0.040461052 -0.1027303 -0.039505493
0.039265625 0.059789523 0.10265773 0.25190094 0.019301135 -0.2883753 0.26704174 -0.1718592
-0.35870355 0.1637972 -0.03884663 -0.0132002095 -0.065552026 0.06902532 0.12406176 0.26819023
-0.02217375 -0.037712935 0.18648636 0.19263089 0.23764461 0.0009757915 0.2561482 -0.0373675
0.031719524 0.21397083 -0.07959144 0.03798998 -0.12429081 -0.06737144 -2.0961754e-05 0.06816073
0.070378974 0.06911987 0.19409488 0.22301328 0.24134463 -0.20774303 0.0038318532 0.15396692
-0.11741668 0.046382867 0.095648974 -0.109247595 0.06325837 -0.075930074 0.3874215 0.022397425
0.1172064 0.23237297 -0.003563776 -0.18008722 0.05794953 -0.003075666 0.20392212 0.0073280213
0.072670385 0.26935682 -0.19716254 -0.11392574 0.37989423 0.04573454 0.0018510916 -0.18150419
-0.007145442 0.0012909825 0.049748342 0.026463103 -0.18133593 -0.16062929 0.10158558 -0.22999202
0.13296276 0.0489898 0.068380326 -0.2513431 -0.12819341 0.13051552 0.15036121 0.10503175
-0.15093708 0.34552884 -0.10552197 0.1030702 -0.044327997 -0.03549747 -0.32288143 0.05009248
-0.005107242 -0.13455161 0.10859412 0.23944998 0.3049354 -0.37135753 -0.20288673 -0.11543621
0.057868846 -0.066490784 -0.19568332 -0.24527375 0.10619131 0.050326254 -0.03936877 -0.09623389
-0.1329268 0.2532031 -0.23723459 0.26188913 -0.09632772 0.075636975 0.2530617 -0.23305199
0.4738323 0.2433044 0.106386594 -0.3236978 0.42224094 0.22487192 0.17639287 -0.19845028
-0.17961317 -0.14188094 -0.02355966 -0.023677763 -0.107179426 -0.13279335 -0.16339013 0.05358861
0.08337702 0.16713426 0.13398829 0.3144703 0.14201753 0.058690738 -0.10914532 0.09221832
-0.08787618 -0.011441932 0.049640853 -0.111604206 0.061367355 0.05376036 0.25120673 -0.023762029
-0.18743922 0.047971744 0.021443725 0.08978162 0.17064774 -0.19705768 0.2075964 0.18941334
-0.012773556 0.32439 0.05237997 -0.18825008 0.29812154 0.06514391 0.16557792 0.25596544
-0.026200721 0.06776583 0.1302728 0.051776838 -0.00050145545 0.23693271 -0.06942932 0.11628161
-0.021885755 -0.12204401 -0.2916737 -0.18380283 0.05498617 0.14059159 -0.050447356 -0.121532455
0.24057993 -0.115496226 -0.18923286 -0.033845056 -0.004082454 -0.27768847 -0.30006945 -0.09795285
0.28605226 -0.06333959 0.033257015 0.17987622 0.034442157 -0.30289957 -0.007657373 -0.23141897
-0.1569033 -0.056032836 0.09824557 0.26976362 0.23736735 0.037109207 0.09841679 0.0992627
0.18336488 -0.14321274 0.33180568 0.11855225 0.23295657 0.022423835 -0.09965097 0.12739952
0.33376703 0.14556488 0.24550427 -0.14878786 -0.13918535 -0.2032938 0.305321 0.10036302
0.027880523 0.1089988 -0.1755006 -0.1296855 -0.09197808 0.12593195 -0.068736486 0.10556833
00000000: 1c17 2f3d 0ad5 143e 8a58 babd 66f6 6d3e
00000010: c69d 9dbe 9a4c 0dbf 23c4 153e d667 a33b
00000020: 1bfa e73c 7c45 84be e355 9c3d 431b f3bd
00000030: 3c10 b1be 99be 213e d020 973b dbaa 0f3d
00000040: fbf6 83bd de66 71be 8594 11bc 6180 773d
00000050: beef 823e 732c cabd 3a15 21be 42a6 00bd
00000060: 66aa 4a3e b14a 473d 061b 7b3e ff51 54be
00000070: 9ada e43d 7dba 25bd 4364 d2bd 83d0 21bd
00000080: fed4 203d dce5 743d 373e d23d 29f9 803e
00000090: 6a1d 9e3c eda5 93be b2b9 883e dcfb 2fbe
000000a0: fea7 b7be 74ba 273e a51d 1fbd b145 58bc
000000b0: 2440 86bd 265d 8d3d 1814 fe3d 3b50 893e
000000c0: b9a5 b5bc e178 1abd 48f6 3e3e 0841 453e
000000d0: 1c59 733e 42cc 7f3a db25 833e aa0e 19bd
000000e0: 55ec 013d 2b1b 5b3e d600 a3bd 629b 1b3d
000000f0: 2e8c febd 0afa 89bd 06d7 afb7 da97 8b3d
00000100: da22 903d b88e 8d3d cfc0 463e 985d 643e
00000110: 0c23 773e 97ba 54be d41f 7b3b 81a9 1d3e
00000120: 2878 f0bd f6fb 3d3d 9ce3 c33d 34bd dfbd
00000130: 9b8d 813d 3a81 9bbd 1c5c c63e ce7a b73c
00000140: e909 f03d 2ef3 6d3e 3d8e 69bb c968 38be
00000150: 7d5c 6d3d 1d91 49bb f6d0 503e e61f f03b
00000160: 36d4 943d 23e9 893e fae4 49be e651 e9bd
00000170: 7f81 c23e 2454 3b3d 54a0 f23a 3cdc 39be
00000180: 5024 eabb 2f36 a93a ebc4 4b3d 26c9 d83c
00000190: 20b0 39be 017c 24be 1a0c d03d 0783 6bbe
000001a0: 6427 083e 87a9 483d fc0a 8c3d 0bb0 80be
000001b0: 2245 03be dca5 053e 4af8 193e e31a d73d
000001c0: 408f 1abe 28e9 b03e e71b d8bd 7816 d33d
000001d0: 4691 35bd cc65 11bd b750 a5be c62d 4d3d
000001e0: a75a a7bb e6c7 09be 9866 de3d 6032 753e
000001f0: 7e20 9c3e 9322 bebe 8ac1 4fbe d269 ecbd
00000200: e207 6d3d 522c 88bd 3561 48be 0b29 7bbe
00000210: d47a d93d e722 4e3d 2641 21bd 4616 c5bd
00000220: f71d 08be d6a3 813e a0ed 72be 5516 863e
00000230: 7847 c5bd 8fe7 9a3d 4e91 813e 2ea5 6ebe
00000240: 269a f23e ca24 793e 37e1 d93d b8bb a5be
00000250: f72f d83e d344 663e 55a0 343e 8d36 4bbe
00000260: 84ec 37be 3d49 11be 3000 c1bc def7 c1bc
00000270: e380 dbbd fbfa 07be be4f 27be bb7f 5b3d
00000280: 92c1 aa3d 3e25 2b3e 3a34 093e 4002 a13e
00000290: 0b6d 113e b365 703d 9587 dfbd f5dc bc3d
000002a0: 6df8 b3bd f176 3bbc 3554 4b3d bf90 e4bd
000002b0: 565c 7b3d d333 5c3d 2b9e 803e 96a8 c2bc
000002c0: 11f0 3fbe 057e 443d c0aa af3c 6ddf b73d
000002d0: 48be 2e3e 7dc9 49be 2794 543e 92f5 413e
000002e0: 2d48 51bc 7216 a63e 618c 563d a1c4 40be
000002f0: 63a3 983e 2c6a 853d 428d 293e e70d 833e
00000300: e5a2 d6bc d0c8 8a3d 3c66 053e f313 543d
00000310: 1b74 03ba 7d9e 723e f630 8ebd 0e25 ee3d
00000320: c149 b3bc 36f2 f9bd 4156 95be cf36 3cbe
00000330: 2e39 613d 3ef7 0f3e e3a1 4ebd 02e6 f8bd
00000340: 965a 763e 4989 ecbd 42c6 41be 1da1 0abd
00000350: 1bc6 85bb 2f2d 8ebe b4a2 99be 819b c8bd
00000360: 7175 923e 30b8 81bd 8238 083d 7931 383e
00000370: 3813 0d3d a715 9bbe b3ea fabb 18f9 6cbe
00000380: 42ab 20be b082 65bd f934 c93d 751e 8a3e
00000390: 6d10 733e d3ff 173d be8e c93d 3e4a cb3d
000003a0: 01c4 3b3e 5ca6 12be 6fe2 a93e 86cb f23d
000003b0: 2b8c 6e3e 31b2 b73c cf15 ccbd 0575 023e
000003c0: 83e3 aa3e f60e 153e 7965 7b3e d85b 18be
000003d0: 9b86 0ebe 402c 50be 0953 9c3e 218b cd3d
000003e0: b265 e43c c33a df3d 6eb6 33be 47cc 04be
000003f0: 015f bcbd 4ef4 003e b7c5 8cbd 3534 d83d

cnn_net.0.bias f4 [16]
-0.039403897 0.01565854 -0.029956294 -0.003837263 0.02048241 -0.01923206 0.013772142 0.026943563
-0.043203294 -0.0073106005 -0.0013902189 0.042509627 -0.018710477 0.03504685 -0.041123103 -0.0018632564
00000000: fb65 21bd 5746 803c e766 f5bc 977a 7bbb
00000010: baca a73c 8e8c 9dbc 8da4 613c bfb8 dc3c
00000020: f0f5 30bd c38d efbb 0138 b6ba 931e 2e3d
00000030: b746 99bc 498d 0f3d b370 28bd 8338 f4ba

cnn_net.3.weight f4 [32, 16, 3, 3]
-0.2782131 0.15905723 -0.112907425 0.14509352 -0.05283915 -0.016871594 0.19405043 0.12643263
0.04343351 -0.02587375 -0.0936603 0.12438443 0.06883932 0.0091536315 0.044452418 -0.0018289767
-0.1903819 0.048674498 -0.11605069 -0.07355852 -0.06861868 0.030123696 0.077502355 -0.20674445
-0.038635824 -0.025400221 -0.12182713 -0.045330953 -0.029025069 0.047363356 0.19452374 -0.07398719
-0.08800618 0.04899138 -0.09627683 0.015686907 -0.1318312 0.14320385 0.04495476 -0.20381272
0.14273681 -0.24052505 0.09954161 -0.13782007 0.16217884 0.01577435 -0.10742401 -0.21260409
0.053198177 0.12908912 0.06361607 0.04616388 -0.10209112 -0.22593002 -0.1715467 0.04330165
-0.056595303 -0.06068734 0.090745695 0.12218271 -0.12094927 0.046908822 0.007454225 -0.107114255
-0.042356454 0.08906369 -0.20948024 -0.17556848 -0.008411575 -0.09042912 0.0075460947 0.06317171
0.007840544 -0.27353442 -0.11190281 -0.03494125 -0.19557588 -0.03701749 0.25202686 -0.026773376
-0.10107617 -0.07164408 0.0472449 -0.047968723 -0.052631926 -0.13331236 -0.21213652 -0.103013165
-0.015617714 0.025461981 -0.04721703 -0.0081097605 0.14901096 -0.10575959 0.02518593 0.031502876
0.22572792 -0.080885164 0.024070507 -0.04088776 -0.19758755 -0.037075054 -0.2508948 -0.18331894
0.1801925 -0.12687413 -0.14890829 -0.13395624 0.124199346 -0.086956024 -0.04974172 0.0043906816
-0.12912479 0.26992154 -0.077776216 -0.039415438 0.0036993916 0.22345874 0.07663795 0.07845046
-0.2559023 -0.10007147 -0.10763956 0.08524067 0.03058053 -0.025760042 -0.30334863 -0.11100111
0.14710523 0.23424868 -0.17555098 0.14613153 0.15806627 -0.131961 -0.0055060266 -0.31925127
-0.04676172 0.036861606 -0.06451323 -0.07711035 0.03456686 0.12820187 -0.15473129 -0.0005792432
0.023826618 -0.1989289 -0.21239801 0.111468315 -0.0025819999 -0.005663921 -0.10062993 -0.2291132
-0.0052195415 -0.18564877 0.0063140015 0.09419785 -0.010536027 -0.040518455 0.036845353 0.09531214
0.0019924936 -0.067674875 -0.0031412796 0.1869179 -0.27963078 0.06447533 -0.011863814 0.09941247
-0.066953674 0.017233165 -0.04093301 -0.13324705 -0.13004744 0.21309736 -0.06708951 -0.016971413
-0.0037071058 -0.01907958 0.035216924 0.02545791 0.22515738 0.25388375 0.053209458 -0.14180681
0.08293464 -0.039051134 -0.013943338 -0.08868239 0.13877748 0.09506491 -0.039343808 -0.06530155
-0.0054009054 -0.074885 0.05386413 0.12675379 -0.021669451 0.22130531 0.13982399 -0.015483207
-0.09911056 -0.08465429 0.08913403 0.21393335 -0.05289664 0.013958058 -0.17643076 -0.25756323
0.087748565 -0.38889858 0.11323786 -0.111671336 -0.22860886 0.16239928 -0.10583085 0.04716667
-0.0779324 0.024929596 -0.30969855 0.1356705 0.0019637654 -0.08727279 0.17132176 0.029215407
0.024920046 -0.042652994 -0.080540694 0.045573924 0.08034449 -0.014175814 -0.113692865 0.03638026
-0.03748675 0.015037431 0.01968967 -0.28231373 -0.08842736 0.15544496 0.10323775 0.1497543
-0.04910723 -0.042618144 -0.09984451 0.050054427 0.18715586 -0.07154582 -0.18343708 -0.20992585
0.00502665 -0.11027116 -0.11116562 -0.08882948 0.037473895 -0.035749875 -0.14368728 0.12756678
00000000: f371 8ebe e6df 223e 023c e7bd 6593 143e
00000010: dd6d 58bd 4c36 8abc 28b5 463e 8e77 013e
00000020: 56e7 313d 30f5 d3bc f9d0 bfbd 44bd fe3d
00000030: a1fb 8c3d 1df9 153c bd13 363d 46ba efba
00000040: 79f3 42be e95e 473d fcab edbd d9a5 96bd
00000050: f387 8cbd f8c5 f63c 8eb9 9e3d d1b4 53be
00000060: 9940 1ebd 2014 d0bc 8180 f9bd f3ac 39bd
00000070: fbc5 edbc 1400 423d 3b31 473e 9986 97bd
00000080: 963c b4bd 2fab 483d c92c c5bd d481 803c
00000090: c2fe 06be 08a4 123e 7b22 383d 48b4 50be
000000a0: 9929 123e 334c 76be 79dc cb3d b420 0dbe
000000b0: 3612 263e 3639 813c 1f01 dcbd e3b4 59be
000000c0: 55e6 593d f02f 043e 2449 823d 5616 3d3d
000000d0: 2615 d1bd 335a 67be f0a9 2fbe 125d 313d
000000e0: 7ad0 67bd 4a93 78bd e1d8 b93d ee3a fa3d
000000f0: 40b4 f7bd 7723 403d 9242 f43b b85e dbbd
00000100: f67d 2dbd 0667 b63d fd81 56be 39c8 33be
00000110: b4d0 09bc e732 b9bd 3b45 f73b 2b60 813d
00000120: a075 003c b40c 8cbe 4d2d e5bd 8e1e 0fbd
00000130: 0b45 48be a79f 17bd aa09 813e d753 dbbc
00000140: 0601 cfbd 22ba 92bd de83 413d da7a 44bd
00000150: 9394 57bd 0983 08be 513a 59be 91f8 d2bd
00000160: 71e1 7fbc a595 d03c a566 41bd cdde 04bc
00000170: 5496 183e 7c98 d8bd b952 ce3c 2909 013d
00000180: 3825 673e 1fa7 a5bd 832f c53c ed79 27bd
00000190: 6454 4abe 03dc 17bd 4975 80be f6b7 3bbe
000001a0: 6284 383e 4beb 01be 6a7b 18be d32b 09be
000001b0: 3a5c fe3d 0016 b2bd f9bd 4bbd b5df 8f3b
000001c0: 4a39 04be 2833 8a3e 2349 9fbd 1572 21bd
000001d0: 7e71 723b 5ed2 643e 5cf4 9c3d a3aa a03d
000001e0: a005 83be 45f2 ccbd 2172 dcbd a992 ae3d
000001f0: 0584 fa3c b906 d3bc 8350 9bbe 8d54 e3bd
00000200: c1a2 163e e3de 6f3e a3c3 33be 81a3 153e
00000210: 20dc 213e c920 07be e66b b4bb e774 a3be
00000220: 3889 3fbd 32fc 163d 831f 84bd 08ec 9dbd
00000230: fb95 0d3d 5a47 033e e171 1ebe 5ad8 17ba
00000240: 0a30 c33c 04b4 4bbe dd7e 59be 8049 e43d
00000250: c536 29bb 6a98 b9bb 1117 cebd a79c 6abe
00000260: b008 abbb b61a 3ebe afe5 ce3b cdea c03d
00000270: 4d9f 2cbc aef6 25bd 27eb 163d 0333 c33d
00000280: 7f94 023b 2099 8abd eddd 4dbb 6867 3f3e
00000290: c42b 8fbe a40b 843d 7160 42bc c498 cb3d
000002a0: 021f 89bd 912c 8d3c 5fa9 27bd ea71 08be
000002b0: 282b 05be 3236 5a3e 3a66 89bd a207 8bbc
000002c0: eaf2 72bb c84c 9cbc 9f3f 103d 1b8d d03c
000002d0: a88f 663e 0dfd 813e 29f2 593d ce35 11be
000002e0: a3d9 a93d 15f4 1fbd 9972 64bc 1d9f b5bd
000002f0: af1b 0e3e 64b1 c23d f926 21bd d2bc 85bd
00000300: 14fa b0bb 4f5d 99bd a2a0 5c3d bfcb 013e
00000310: 2284 b1bc dc9d 623e 052e 0f3e 47ad 7dbc
00000320: 7afa cabd 3a5f adbd e78b b63d 5811 5b3e
00000330: 26aa 58bd 57b0 643c 44aa 34be 54df 83be
00000340: 85b5 b33d b71d c7be 40e9 e73d f1b3 e4bd
00000350: 7118 6abe ff4b 263e d8bd d8bd d731 413d
00000360: 069b 9fbd 2739 cc3c cf90 9ebe 35ed 0a3e
00000370: 84b2 003b 14bc b2bd f96e 2f3e 2655 ef3c
00000380: 2025 cc3c e8b4 2ebd 85f2 a4bd b9ab 3a3d
00000390: a78b a43d ac41 68bc ced7 e8bd 7803 153d
000003a0: b58b 19bd 8f5f 763c 3b4c a13c 6d8b 90be
000003b0: 6719 b5bd f72c 1f3e 506e d33d 3159 193e
000003c0: aa24 49bd 5d90 2ebd 477b ccbd df05 4d3d
000003d0: c9a5 3f3e 9d86 92bd eed6 3bbe cdf6 56be
000003e0: 99b6 a43b d9d5 e1bd cdaa e3bd 3bec b5bd
000003f0: 3a7e 193d 766e 12bd c222 13be dea0 023e

cnn_net.3.bias f4 [32]
-0.035383534 -0.0076388586 -0.016636228 -0.025374424 -0.050437137 -0.005551875 -0.0006730958 -0.021588914
0.011597875 -0.0043684654 -0.013434732 -0.00048463297 -0.004578973 0.004759617 0.020777114 -0.02031854
-0.02674392 0.0014928658 -0.022670306 -0.028019838 0.012254479 0.00038884665 0.021082787 -0.030415947
-0.030584082 0.01836417 -0.011244982 -0.022857169 0.0005544076 0.009700716 -0.021530762 0.018509882
00000000: 53ee 10bd 644f fabb b348 88bc 06de cfbc
00000010: 2c97 4ebd 81ec b5bb b272 30ba 3cdb b0bc
00000020: 0305 3e3c 5825 8fbb 5a1d 5cbc 5616 feb9
00000030: 360b 96bb 90f6 9b3b c434 aa3c 1173 a6bc
00000040: 1116 dbbc 44ac c33a 14b7 b9bc dc89 e5bc
00000050: 03c7 483c 1dde cb39 cfb5 ac3c dd2a f9bc
00000060: 788b fabc 7570 963c df3c 38bc f53e bbbc
00000070: aa55 113a c0ef 1e3c 4861 b0bc 09a2 973c

hidden.weight f4 [32, 128]
-0.23781191 -0.11715092 0.012433308 -0.076611914 0.24213515 -0.18135843 0.2905923 -0.09515355
0.15654376 0.03606111 -0.010435802 0.13165583 -0.017180216 -0.055153303 -0.06902729 -0.090129465
-0.2685746 -0.12230705 0.13895157 -0.06729161 0.032939214 -0.1951665 0.20096414 -0.1836974
-0.2853313 0.06917494 -0.20131238 -0.10313531 0.06811596 0.0852353 -0.053893346 -0.010380503
-0.21778427 -0.14086227 -0.19795175 0.15763137 -0.07003925 0.065907516 -0.018527066 0.24768335
0.106144585 0.047098666 -0.018156078 -0.07209863 -0.038520575 -0.22268791 -0.1651466 0.11093518
0.21707323 -0.2230927 0.18291143 -0.2522112 -0.07259172 -0.021819875 0.107893825 0.016094211
0.063039385 -0.18986419 0.013200099 -0.12717809 -0.14800672 -0.10678514 0.10851434 0.018134773
0.05632457 -0.037891924 -0.07406548 -0.10675104 -0.078281924 0.05947951 -0.0070891515 -0.10153398
0.036221594 0.10634363 -0.22251457 -0.11849475 -0.03966367 -0.12439675 0.121933006 0.19692211
-0.07033703 0.12573843 0.14074902 -0.13805752 -0.1370029 0.06279428 -0.13210617 -0.018177072
0.045727056 -0.041336562 0.24181762 0.17499615 -0.0156219695 0.17394371 -0.22572206 -0.022086618
0.116010465 -0.04802647 0.20246573 0.15637094 0.05597368 0.048440754 0.12741743 -0.023797052
0.015772944 0.32883537 -0.07332727 0.3896378 0.03417025 0.041213065 0.104244955 -0.12524772
-0.17271833 0.12263335 0.0628885 -0.018461816 0.020892363 0.2388492 -0.015713118 0.05442815
0.21714406 -0.06657875 0.12977706 0.10662582 -0.14912482 -0.10931867 0.067799285 0.11152826
0.026714616 -0.096432954 0.16642505 -0.12002483 -0.01826071 0.11473491 -0.27474076 -0.30187678
0.39794233 -0.086634055 0.0186593 -0.024589973 0.2133491 0.01755731 -0.020441413 0.017681466
-0.057215746 0.2863862 -0.10849866 0.119368434 0.12094223 -0.11345534 -0.20338565 -0.15633874
-0.10531912 0.08819874 0.060158093 0.044834714 -0.19692463 -0.016042164 0.09963379 -0.119775966
0.040950444 0.101817556 0.08202591 0.068869404 0.027596038 -0.04020489 -0.038725056 0.115580685
-0.08412249 -0.17949991 0.09908361 -0.042635787 -0.10256939 0.01369184 -0.20630702 0.16367587
0.015528029 -0.0336746 -0.05719094 0.055233244 -0.08526958 0.18851255 -0.049845874 0.09353997
0.042575795 0.026609318 -0.23127559 -0.051423784 -0.06858871 -0.086526036 -0.28221667 0.04463497
-0.033863667 0.13455339 0.180805 0.12403241 -0.19011065 -0.088125005 -0.045887925 -0.05227567
0.0042888117 0.12209119 -0.05082271 -0.012457043 0.0717411 -0.054023206 0.059651844 0.11115534
-0.053452466 -0.06628648 0.16123466 0.15287215 0.25986844 0.014634254 0.102354355 -0.10704355
0.13714692 0.15342355 -0.04191999 -0.016087634 -0.07034645 0.16145007 0.2128272 0.023501964
-0.084998555 0.04547292 -0.1110764 -0.21502881 -0.27695006 -0.008222452 -0.02639053 -0.2499737
0.103711426 0.2200716 -0.009083796 0.073646314 0.1033926 -0.04807618 0.050104067 -0.01295493
-0.023741975 -0.15411022 -0.13104787 0.06630303 -0.07518023 -0.040674392 -0.30209598 -0.327269
0.09820456 -0.091301635 -0.036748406 0.094967134 0.27108204 0.12217027 0.013419251 -0.13023765
00000000: f784 73be d2ec efbd 13b5 4b3c b5e6 9cbd
00000010: 47f2 773e 06b6 39be 84c8 943e dddf c2bd
00000020: 024d 203e d1b4 133d edfa 2abc c9d0 063e
00000030: 86bd 8cbc 6ee8 61bd 2e5e 8dbd cc95 b8bd
00000040: 9c82 89be 1e7c fabd 5249 0e3e 2fd0 89bd
00000050: 45eb 063d bad9 47be 8bc9 4d3e 2c1b 3cbe
00000060: f216 92be 97ab 8d3d d524 4ebe 9b38 d3bd
00000070: 6180 8b3d d88f ae3d 45bf 5cbd fc12 2abc
00000080: d702 5fbe 333e 10be ddb3 4abe 1e6a 213e
00000090: bd70 8fbd 85fa 863d 13c6 97bc b4a0 7d3e
000000a0: 5562 d93d 88ea 403d 0ebc 94bc 72a8 93bd
000000b0: c0c7 1dbd 4d08 64be 311c 29be fc31 e33d
000000c0: 7248 5e3e 6a72 64be 224d 3b3e d421 81be
000000d0: f8aa 94bd 98bf b2bc 70f7 dc3d 02d8 833c
000000e0: cb1a 813d c26b 42be 3a45 583c f93a 02be
000000f0: 138f 17be 2bb2 dabd c43c de3d 608f 943c
00000100: 98b4 663d 9034 1bbd a4af 97bd 4aa0 dabd
00000110: 4652 a0bd c9a0 733d 1d4c e8bb 0cf1 cfbd
00000120: 185d 143d b0ca d93d dcda 63be 60ad f2bd
00000130: 5f76 22bd b9c3 febd 03b8 f93d f3a5 493e
00000140: dc0c 90bd 93c1 003e 8320 103e f35e 0dbe
00000150: 7d4a 0cbe 4a9a 803d d746 07be 15e8 94bc
00000160: 4b4c 3b3d 8750 29bd 0a9f 773e 3132 333e
00000170: 4af3 7fbc 4d1e 323e af23 67be ffee b4bc
00000180: e596 ed3d 67b7 44bd 2d53 4f3e b41f 203e
00000190: a844 653d d069 463d b779 023e 09f2 c2bc
000001a0: 4336 813c 1c5d a83e 9c2c 96bd 9b7e c73e
000001b0: 1bf6 0b3d 08cf 283d 617e d53d f040 00be
000001c0: 13dd 30be 3227 fb3d b0cb 803d 3c3d 97bc
000001d0: 7626 ab3c e294 743e ccb8 80bc 0df0 5e3d
000001e0: 035b 5e3e 715a 88bd 47e4 043e a35e da3d
000001f0: 2db4 18be 78e2 dfbd 5ada 8a3d ee68 e43d
00000200: 9cd8 da3c a47e c5bd 546b 2a3e 94cf f5bd
00000210: 7c97 95bc 23fa ea3d d2aa 8cbe 988f 9abe
00000220: 19bf cb3e 326d b1bd 63db 983c e970 c9bc
00000230: 3078 5a3e 59d4 8f3c c074 a7bc b9d8 903c
00000240: 0f5b 6abd 36a1 923e 8c34 debd 7077 f43d
00000250: 8fb0 f73d 465b e8bd 5444 50be 4317 20be
00000260: 8db1 d7bd 8aa1 b43d 5568 763d 9ba4 373d
00000270: 9ca6 49be db6a 83bc cd0c cc3d 1a4d f5bd
00000280: a7bb 273d b985 d03d 33fd a73d 670b 8d3d
00000290: 1611 e23c e2ad 24bd 2a9e 1ebd 91b5 ec3d
000002a0: 6948 acbd d3ce 37be 59ec ca3d dda2 2ebd
000002b0: e60f d2bd bd53 603c 2642 53be a69a 273e
000002c0: 4669 7e3c 61ee 09bd 0c41 6abd 413c 623d
000002d0: d1a1 aebd 6f09 413e 302b 4cbd e291 bf3d
000002e0: f563 2e3d c9fb d93c 82d3 6cbe bfa1 52bd
000002f0: 3d78 8cbd 9034 b1bd b47e 90be 29d3 363d
00000300: a1b4 0abd 5dc8 093e f224 393e b404 fe3d
00000310: 5eac 42be e27a b4bd faf4 3bbd 031f 56bd
00000320: 2989 8c3b f20a fa3d 792b 50bd a018 4cbc
00000330: ffec 923d 7047 5dbd 7e55 743d 69a5 e33d
00000340: f9f0 5abd 35c1 87bd b31a 253e 848a 1c3e
00000350: 7a0d 853e 83c4 6f3c 299f d13d a639 dbbd
00000360: 3e70 0c3e 101b 1d3e 4cb4 2bbd 37ca 83bc
00000370: cd11 90bd 2b53 253e 60ef 593e 3187 c03c
00000380: b913 aebd d041 3a3d 067c e3bd 8330 5cbe
00000390: 66cc 8dbe 77b7 06bc f430 d8bc 1bf9 7fbe
000003a0: a866 d43d 735a 613e 34d4 14bc e1d3 963d
000003b0: 80bf d33d 87eb 44bd ec39 4d3d ea40 54bc
000003c0: 887e c2bc 12cf 1dbe 6a31 06be e2c9 873d
000003d0: 18f8 99bd 319a 26bd 53ac 9abe cd8f a7be
000003e0: 791f c93d 5afc babd 7f85 16bd 217e c23d
000003f0: 44cb 8a3e 6834 fa3d 6bdc 5b3c 055d 05be

hidden.bias f4 [32]
0.0011757887 0.00440647 -0.010239939 0.00571909 -0.004989511 -0.0051331758 0.0 0.0070270663
-0.009694207 -0.0047931755 -0.0083410535 0.019507963 -0.009596407 0.032717273 -0.00097370433 0.0053534475
-0.0031745855 0.017177247 -0.0053132796 -0.0086221965 0.010475715 -0.010760218 -0.027293222 -0.0013007257
0.0 -0.011174935 -0.00375927 -0.011550053 0.0029568686 0.0 0.0 -0.0018984111
00000000: ec1c 9a3a 2664 903b 6bc5 27bc 3467 bb3b
00000010: 0d7f a3bb 3334 a8bb 0000 0000 4e43 e63b
00000020: 74d4 1ebc 1210 9dbb eaa8 08bc 2acf 9f3c
00000030: 403a 1dbc 8c02 063d 3140 7fba f96b af3b
00000040: b50c 50bb 4cb7 8c3c 051b aebb 1d44 0dbc
00000050: 55a2 2b3c a04b 30bc 0996 dfbc 1d7d aaba
00000060: 0000 0000 1317 37bc 165e 76bb 6f3c 3dbc
00000070: 06c8 413b 0000 0000 0000 0000 1bd4 f8ba

mu_layer.weight f4 [2, 32]
-0.055615913 0.17204626 0.3601162 -0.10697952 0.098961785 -0.37259838 0.28034383 -0.4614081
-0.0742177 -0.16967823 0.23879237 -0.17407957 0.3414235 -0.044997685 -0.119930826 0.03428841
-0.25299954 -0.12293715 0.031665284 0.2450962 0.26432666 -0.14462563 0.40551782 -0.22026955
0.0007367553 0.29128012 0.08012493 -0.01598346 0.6768415 0.022973236 0.081383534 0.3967723
0.81392443 0.03423559 0.11296416 0.1750317 0.3868052 -0.030161155 -0.23334947 0.34335548
-0.24397096 -0.30371112 -0.39971596 0.21083194 0.10223754 0.15990788 -0.28920475 -0.19741893
0.1203938 -0.04145438 0.41931325 -0.16216439 -0.30451974 -0.05465721 0.22768985 0.18193626
0.17502622 -0.14594078 -0.042142313 0.5925185 0.03892552 0.49998683 0.117457114 0.40651923
00000000: 83cd 63bd e52c 303e 2761 b83e 1418 dbbd
00000010: 7aac ca3d 37c5 bebe 3a89 8f3e af3d ecbe
00000020: 73ff 97bd 21c0 2dbe fd85 743e ea41 32be
00000030: 10cf ae3e 7e4f 38bd 4b9e f5bd 0172 0c3d
00000040: 2889 81be 79c6 fbbd 75b3 013d 80fa 7a3e
00000050: d355 873e be18 14be 08a0 cf3e 578e 61be
00000060: d022 413a ab22 953e 8a18 a43d bfef 82bc
00000070: 7c45 2d3f 5e32 bc3c 69ac a63d bd25 cb3e
00000080: 5a5d 503f 9e3a 0c3d c159 e73d 833b 333e
00000090: 550b c63e 8714 f7bc 2af3 6ebe 4acc af3e
000000a0: 86d3 79be 0680 9bbe 92a7 ccbe 54e4 573e
000000b0: ea61 d13d e4be 233e a512 94be 3028 4abe
000000c0: 0691 f63d 11cc 29bd 3ab0 d63e 6c0e 26be
000000d0: 03ea 9bbe 3de0 5fbd 8727 693e 804d 3a3e
000000e0: 133a 333e 8071 15be 6b9d 2cbd 4baf 173f
000000f0: 5e70 1f3d 46fe ff3e 5b8d f03d 4a23 d03e

mu_layer.bias f4 [2]
-0.004249808 -0.029729469
00000000: f941 8bbb 378b f3bc

log_std_layer.weight f4 [2, 32]
-0.064408734 -0.2575266 -0.025791924 0.2201684 0.4144108 0.21092036 0.06287991 0.11986881
-0.29410854 0.32034218 -0.5084453 -0.026296966 -0.18231049 -0.31910947 0.3275555 -0.051244646
-0.043803293 -0.45867988 0.07957608 0.30190328 -0.29006168 0.042860776 0.20685904 0.0057349056
-0.5007486 0.052023154 0.23371156 0.4668166 0.24712446 0.17500658 -0.16808128 -0.03015338
0.13484332 0.27330223 0.27919704 -0.5550627 -0.085122116 0.012983161 0.019315371 0.23936099
-0.14337055 -0.0660245 0.07444974 0.10580474 0.3415924 -0.12333717 0.7065424 0.033791043
0.24493976 0.091654934 -0.18124542 -0.07259409 0.030222422 0.07387776 0.24694943 0.103214845
-0.014193304 0.16489601 -0.63463914 0.39986762 0.26518223 -0.31540483 -0.20872344 0.14785966
00000000: bae8 83bd 87da 83be 9649 d3bc d373 613e
00000010: a72d d43e 82fb 573e 2fc7 803d c77d f53d
00000020: 6595 96be e403 a43e 7929 02bf bc6c d7bc
00000030: 9aaf 3abe 5162 a3be 5bb5 a73e e8e5 51bd
00000040: 156b 33bd 17d8 eabe c9f8 a23d 1193 9a3e
00000050: f782 94be c88e 2f3d dbd2 533e e0eb bb3b
00000060: 0f31 00bf 3b16 553d 1552 6f3e 9602 ef3e
00000070: 320e 7d3e ed34 333e 801d 2cbe 3904 f7bc
00000080: 5e14 0a3e 45ee 8b3e eaf2 8e3e 9718 0ebf
00000090: 8154 aebd 53b7 543c 453b 9e3c 0c1b 753e
000000a0: bbcf 12be da37 87bd 1b79 983d 28b0 d83d
000000b0: 33e5 ae3e 3398 fcbd f6df 343f 7a68 0a3d
000000c0: 7dd1 7a3e 95b5 bb3d 6698 39be 36ac 94bd
000000d0: 0395 f73c 394d 973d 50e0 7c3e 4e62 d33d
000000e0: 088b 68bc 80da 283e b677 22bf 73bb cc3e
000000f0: f7c5 873e be7c a1be 99bb 55be 8668 173e

log_std_layer.bias f4 [2]
-0.034305163 -0.019918753
00000000: 9283 0cbd a72c a3bc
