train_history/olympics-running/11_23_13_17/critic.pth (torch, 47330 bytes, 11 tensors)

encoder.0.weight f4 [8, 4, 3, 3]
0.4102022 -0.33486637 -0.5688994 0.18176192 0.106540956 0.3530667 0.25604907 -1.2715768
-1.3788427 0.40171286 0.2824379 1.4304944 0.71581113 0.086823784 -0.25768888 -0.06633092
-1.0073419 -0.6762773 0.053990632 -0.028371656 0.74741423 -0.34272057 0.29001236 -0.26046708
0.051045597 -0.829977 0.055323496 0.4361563 -0.80934983 -0.5512093 0.10455997 1.3893477
0.7014657 0.06723192 -1.0830235 0.31752536 0.33682194 -0.24291629 -0.7792136 -0.21345368
0.13540572 -0.82327527 0.2454863 0.3998995 0.5027722 -0.6697024 -0.6508353 -0.19338416
0.59205467 0.04718234 -1.3291153 0.10309045 1.324328 0.39473534 0.06169691 0.6408867
-0.19628128 0.07766762 -0.38552877 -0.3201514 -0.2844757 0.14969121 -0.43384114 0.282453
-0.20035113 -0.8728586 0.8725036 -0.1589758 -1.1041268 0.32840997 1.7304425 0.77207536
0.14396161 0.09789949 0.1062646 -0.043504037 0.2902472 0.33715242 -0.8766525 -0.5193914
-0.340134 -1.1107237 0.048031412 -1.1189289 0.63295335 -0.18502356 0.19242276 -1.0155871
0.7133198 -0.43738988 0.22925824 -0.7319315 0.19909354 0.5555094 1.2782686 0.018835599
0.17158687 0.21254209 0.44515246 -0.5005844 -0.6879512 -0.08499899 -0.24674147 -0.19044478
-0.8756761 0.16284525 -0.24483187 -0.3334483 0.29865524 -0.34884295 0.3875787 -0.47638467
0.43568665 -0.8576807 0.44422102 0.5768369 0.88014185 -0.87941164 -0.47132784 -0.48800236
-0.73381406 -0.50022924 -0.44486943 -0.4174788 -0.12794471 -0.20164204 0.15396221 0.2936591
-0.08556688 0.3730951 0.10319912 0.41650546 -0.6129423 0.57208073 -0.4214733 0.06682857
-0.5990927 -1.8079424 0.043986626 0.7802907 0.7361736 -0.1808081 -0.7350251 -0.06856407
0.116516314 -0.297183 -0.07237036 -1.0687114 -0.30450624 -0.38497916 0.051673938 0.36914974
0.75471264 -0.0012922036 -0.04148967 0.0664723 0.103406355 -0.22493939 0.6276272 -0.1623859
0.17888027 -0.11201178 0.6830019 0.05889348 0.14506207 -1.2375387 -1.4084082 -0.30806258
0.07978501 0.14118879 0.35402703 0.054618325 1.2037209 0.47742897 0.20452696 -1.6900318
-0.6562752 -1.2027555 -0.15824442 -0.27406806 0.64165103 0.21040286 0.32001498 0.256194
0.38762566 0.4812091 -0.013088557 -0.017805494 -0.23298606 0.1418315 0.2587202 0.7405177
0.13063473 0.1927288 0.8042409 -0.030810269 0.37049142 0.78256404 0.28722715 0.5485926
0.3534825 0.41951674 0.59027565 0.52271867 -0.04946136 0.23829342 0.66213447 0.5435974
-0.038512275 0.17159687 0.8555563 0.28687787 0.4819428 0.21746995 0.5657429 0.650199
-0.051686175 -0.09214101 -0.0076008234 -0.12760323 -0.25370622 -0.09945353 -0.07088163 -0.2183723
-0.27793548 0.52854884 0.42304823 0.44137204 0.890504 0.7286357 0.7394877 0.020750789
-0.32524592 -0.21286704 0.43346372 0.09445081 0.24571866 0.69130826 0.80325764 0.6861465
0.13193682 0.9213599 1.1797082 -0.12495831 -0.07016865 0.556324 0.107705854 0.77508277
0.6704574 0.43697852 1.0474687 0.34168923 -0.21708125 -0.30164114 -0.71483064 0.17708431
00000000: 0606 d23e 9b73 abbe 64a3 11bf cc1f 3a3e
00000010: 2532 da3d 29c5 b43e dd18 833e 07c3 a2bf
00000020: eb7d b0bf 4fad cd3e b39b 903e 711a b73f
00000030: 663f 373f abd0 b13d ccef 83be 81d8 87bd
00000040: 94f0 80bf 8220 2dbf 4825 5d3d ad6b e8bc
00000050: 8a56 3f3f 1279 afbe 807c 943e f15b 85be
00000060: 3015 513d 5f79 54bf e49a 623d e14f df3e
00000070: 8d31 4fbf 0d1c 0dbf 8a23 d63d 25d6 b13f
00000080: 4293 333f e4b0 893d 84a0 8abf af92 a23e
00000090: ed73 ac3e 0cbf 78be 8b7a 47bf 9a93 5abe
000000a0: cca7 0a3e 2bc2 52bf c360 7b3e a1bf cc3e
000000b0: aeb5 003f 9e71 2bbf 249d 26bf 7f06 46be
000000c0: e590 173f 4542 413d 7320 aabf 1621 d33d
000000d0: 9483 a93f c01a ca3e e6b5 7c3d 2711 243f
000000e0: f6fd 48be 3310 9f3d 0764 c5be e2ea a3be
000000f0: cda6 91be a748 193e 6d20 debe ae9d 903e
00000100: d928 4dbe a973 5fbf 655c 5f3f 8dca 22be
00000110: 0754 8dbf 5a25 a83e 247f dd3f bba6 453f
00000120: ac6a 133e 877f c83d 41a1 d93d 4a31 32bd
00000130: 489b 943e 3e9f ac3e 4c6c 60bf d6f6 04bf
00000140: 0b26 aebe 322c 8ebf 96bc 443d 1039 8fbf
00000150: 3b09 223f d176 3dbe 790a 453e c2fe 81bf
00000160: 209c 363f 91f1 dfbe acc2 6a3e dd5f 3bbf
00000170: 2ddf 4b3e dd35 0e3f 4e9e a33f 1d4d 9a3c
00000180: 78b4 2f3e a2a4 593e 06eb e33e 4d26 00bf
00000190: 921d 30bf f313 aebd cca9 7cbe f503 43be
000001a0: 4f2c 60bf e8c0 263e 35b5 7abe bcb9 aabe
000001b0: 57e9 983e 8b9b b2be b770 c63e b1e8 f3be
000001c0: 5212 df3e f690 5bbf f070 e33e 95ab 133f
000001d0: fa50 613f 1f21 61bf e251 f1be 72db f9be
000001e0: 3ddb 3bbf 060f 00bf edc5 e3be c8bf d5be
000001f0: f003 03be 407b 4ebe 45a8 1d3e 7c5a 963e
00000200: b03d afbd 5206 bf3e 0f5a d33d 3440 d53e
00000210: c9e9 1cbf e273 123f 59cb d7be 6bdd 883d
00000220: 245e 19bf a86a e7bf 522b 343d 22c1 473f
00000230: e075 3c3f c225 39be 9b2a 3cbf 526b 8cbd
00000240: 1ba0 ee3d 5f28 98be e936 94bd 89cb 88bf
00000250: 3ee8 9bbe fd1b c5be 0da8 533d 3201 bd3e
00000260: d934 413f 285f a9ba 12f1 29bd a122 883d
00000270: b6c6 d33d 8356 66be 2dac 203f 7d48 26be
00000280: 642c 373e 6f66 e5bd 36d9 2e3f 4a3a 713d
00000290: 278b 143e ab67 9ebf b846 b4bf 61ba 9dbe
000002a0: 5366 a33d cb93 103e 0843 b53e 77b7 5f3d
000002b0: 8713 9a3f 9271 f43e 846f 513e f652 d8bf
000002c0: a701 28bf e4f3 99bf d30a 22be a652 8cbe
000002d0: 3e43 243f d973 573e 01d9 a33e dc2b 833e
000002e0: df76 c63e 0a61 f63e 6371 56bc d4dc 91bc
000002f0: e693 6ebe 473c 113e f976 843e 9192 3d3f
00000300: 1cc5 053e b35a 453e bbe2 4d3f d165 fcbc
00000310: 0db1 bd3e 1e56 483f 700f 933e 9170 0c3f
00000320: a9fb b43e e6ca d63e 4e1c 173f e4d0 053f
00000330: ff97 4abd 3103 743e a581 293f 3329 0b3f
00000340: 0cbf 1dbd 17b7 2f3e bd05 5b3f a8e1 923e
00000350: 35c1 f63e 71b0 5e3e 87d4 103f 7173 263f
00000360: e2b4 53bd 6db4 bcbd 5410 f9bb 6caa 02be
00000370: c8e5 81be 4bae cbbd 632a 91bd fd9c 5fbe
00000380: 8f4d 8ebe fa4e 073f c799 d83e 84fb e13e
00000390: 12f8 633f df87 3a3f 114f 3d3f 8ffd a93c
000003a0: a286 a6be d1f9 59be f5ee dd3e 6d6f c13d
000003b0: ac9d 7b3e 94f9 303f 4ba2 4d3f 4ca7 2f3f
000003c0: 721a 073e 3ede 6b3f ae00 973f 24ea ffbd
000003d0: 95b4 8fbd 406b 0e3f e394 dc3d d36b 463f
000003e0: 19a3 2b3f a6bb df3e 7413 863f e4f1 ae3e
000003f0: 8c4a 5ebe b570 9abe 24ff 36bf 9755 353e

encoder.0.bias f4 [8]
-0.013698226 -0.04660696 0.045472804 -0.14799882 -0.10314773 0.17840911 0.084697366 -0.00030311182
00000000: 866e 60bc f1e6 3ebd b141 3a3d 018d 17be
00000010: 1e3f d3bd e1b0 363e d075 ad3d fbea 9eb9

encoder.3.weight f4 [8, 8, 3, 3]
-0.67030853 0.20234635 0.39413258 -0.60289484 0.20168719 0.43010226 -0.25667864 0.043036524
-0.02082538 -0.10663807 -0.1093331 -0.26352373 -0.96530145 0.06824649 0.5227633 -1.0888796
-0.05679244 0.7314979 -0.723916 -0.10564967 0.7490428 -0.97216135 -0.12060458 0.5044743
-0.41092896 -0.39841497 0.23194765 -0.46455312 -0.2927217 0.46492568 -0.36435124 -0.48730737
0.5044361 -0.117063984 -0.4602947 0.0035148137 -0.26645634 -0.13127781 -0.23384829 -0.56950414
-0.011438648 0.0044649653 -0.54096556 -0.18697381 -0.6728637 0.046696685 0.3682116 0.3864046
-0.35397556 0.35275733 0.3458866 0.0021037033 0.31616756 0.2334053 -0.38968292 0.15272635
0.47523457 -0.807723 0.45866695 0.3676313 -0.3008965 0.25385994 0.5790234 -0.3634668
-0.03009454 0.040981755 -1.0283967 -0.47539666 -0.2385252 -0.7133294 -0.38019773 -0.65413785
0.48895255 0.34991327 0.5226926 0.018159838 0.28985694 0.07146179 0.14952095 -0.2759465
-0.22281328 -0.08836849 0.40917453 0.37235883 0.3799267 -0.12633349 -0.15077925 0.26815274
0.017067764 -0.3575013 -0.07136379 -0.10658723 0.020887205 0.27275282 -0.13770203 0.14933774
0.5039195 0.5228278 0.6647445 0.33230767 0.34218645 0.50666046 0.64370596 0.64471006
0.43816787 0.7693133 0.8144347 0.54875374 0.49386245 0.28106317 -0.004737277 0.17656557
-0.10658896 -0.16726716 0.35208195 0.045609154 -0.059237715 -0.16482177 -0.22785498 0.015653377
-0.16247357 -0.061443508 0.08139349 -0.26248267 -0.21499524 0.10992789 -0.1097881 0.033662453
-0.072219774 -0.11453352 0.14412956 0.04688297 -0.28229916 -0.49284068 -0.55984986 -0.20284551
0.06548209 -0.007769904 -0.10445738 -0.12934463 -0.35243535 0.7684449 0.7309509 0.5060669
-0.085449785 -0.862056 -0.8384724 0.20776813 -0.34465355 -0.88461727 0.7445075 -0.28047368
-0.92254776 0.113141604 -0.18005289 -0.5130435 0.082841136 0.568003 0.732805 0.9649022
1.0490061 1.1055833 0.7069663 -0.4292685 -1.4684305 0.97320914 0.5019201 -0.71845955
1.1466016 1.1391883 0.5032798 0.1968511 0.15731098 -0.91551924 -0.0021401474 0.13478486
-0.495906 0.79436886 0.8803392 0.50991267 -0.14173226 -0.25192142 -0.9286197 -0.27296507
-0.2128827 -0.29330638 -0.0074881287 0.22909668 -0.4126531 -0.09894444 -0.42162043 -0.42681724
0.5400522 0.06334894 -0.20434149 0.61369425 0.19338055 0.3641398 0.13025253 -0.2534971
-0.6559595 0.9702396 0.13942902 -0.096064545 0.89422894 0.59455824 0.640287 0.07177918
-0.63460535 -1.2104045 0.69836223 0.36952284 -0.49320886 1.2098383 1.4443889 0.7265159
1.3779416 0.8697496 0.54113406 0.03818921 -0.77311134 -0.35068968 1.0500556 0.9333743
0.8695369 0.96318173 0.5771081 1.1242425 0.13900407 -0.0580782 0.64598715 0.20564997
0.05251729 1.5766925 0.066977 0.3237291 0.5570497 0.08515632 -0.42072868 -0.09015458
0.8630518 0.45761994 1.2715865 0.23540415 0.35361567 0.5520155 -0.16793197 -0.24667911
0.056740116 0.41983196 0.7003277 0.9746665 2.5065582 2.0965364 1.5836542 -0.2621088
00000000: 5799 2bbf e233 4f3e bfcb c93e 5157 1abf
00000010: 1687 4e3e 5d36 dc3e 626b 83be 1147 303d
00000020: fd99 aabc 0f65 dabd 08ea dfbd 95ec 86be
00000030: ff1d 77bf d1c4 8b3d d1d3 053f 6860 8bbf
00000040: 319f 68bd 7243 3b3f 8f52 39bf db5e d8bd
00000050: 45c1 3f3f 91df 78bf 89ff f6bd 3a25 013f
00000060: 4865 d2be 0cfd cbbe af83 6d3e e8d9 edbe
00000070: 9edf 95be bd0a ee3e 3f8c babe 5a80 f9be
00000080: b922 013f 3ebf efbd bfab ebbe ca58 663b
00000090: f76c 88be b16d 06be ed75 6fbe 06cb 11bf
000000a0: 2b69 3bbc d84e 923b b87c 0abf 1076 3fbe
000000b0: cc40 2cbf 0645 3f3d 3b86 bc3e d3d6 c53e
000000c0: 493c b5be 9c9c b43e 0c18 b13e 49de 093b
000000d0: b7e0 a13e cd01 6f3e 8584 c7be 4c64 1c3e
000000e0: f251 f33e efc6 4ebf 65d6 ea3e 2b3a bc3e
000000f0: 1b0f 9abe eef9 813e e13a 143f 5218 babe
00000100: d388 f6bc 7cdc 273d 81a2 83bf 3167 f3be
00000110: f33f 74be c19c 36bf 47a9 c2be 9475 27bf
00000120: fd57 fa3e d527 b33e 2fcf 053f f1c3 943c
00000130: 2168 943e 8f5a 923d 051c 193e dc48 8dbe
00000140: 2a29 64be 8afa b4bd 537f d13e d1a5 be3e
00000150: c185 c23e 915d 01be e065 1abe 514b 893e
00000160: b2d1 8b3c 690a b7be 2e27 92bd 684a dabd
00000170: a51b ab3c 42a6 8b3e c301 0dbe feeb 183e
00000180: de00 013f 0bd8 053f b22c 2a3f 3b24 aa3e
00000190: 1033 af3e 80b4 013f eac9 243f b80b 253f
000001a0: 8a57 e03e b7f1 443f cb7e 503f 207b 0c3f
000001b0: 8adb fc3e 83e7 8f3e 293b 9bbb 9bcd 343e
000001c0: 504b dabd 1548 2bbe 1644 b43e aad0 3a3d
000001d0: 3fa3 72bd 0ac7 28be d152 69be 833b 803c
000001e0: 795f 26be 30ac 7bbd a1b1 a63d 2164 86be
000001f0: b627 5cbe e021 e13d 95d8 e0bd a4e1 093d
00000200: f6e7 93bd 8d90 eabd b396 133e 5b08 403d
00000210: 8489 90be 9d55 fcbe 5252 0fbf bcb6 4fbe
00000220: 791b 863d ae9a febb c0ed d5bd eb72 04be
00000230: 6872 b4be ceb8 443f 991f 3b3f 9a8d 013f
00000240: 4c00 afbd b4af 5cbf 21a6 56bf 2bc1 543e
00000250: 6e76 b0be 4776 62bf 0b98 3e3f 3f9a 8fbe
00000260: 172c 6cbf c9b6 e73d c95f 38be d256 03bf
00000270: 9da8 a93d a568 113f 1c99 3b3f d503 773f
00000280: d545 863f c183 8d3f befb 343f 15c9 dbbe
00000290: 88f5 bbbf 3c24 793f d67d 003f f7ec 37bf
000002a0: d7c3 923f ecd0 913f f2d6 003f 5693 493e
000002b0: 2116 213e 785f 6abf b741 0cbb 0b05 0a3e
000002c0: 64e7 fdbe c25b 4b3f e95d 613f a389 023f
000002d0: 4322 11be d8fb 80be 05ba 6dbf 14c2 8bbe
000002e0: ecfd 59be 412c 96be fa5e f5bb 5298 6a3e
000002f0: 4447 d3be 62a3 cabd a2de d7be ca87 dabe
00000300: dc40 0a3f 17bd 813d e53e 51be 111b 1d3f
00000310: 8d05 463e 8870 ba3e eb60 053e 5fca 81be
00000320: f6ec 27bf 9f61 783f 7bc6 0e3e 7dbd c4bd
00000330: 30ec 643f f834 183f d9e9 233f f600 933d
00000340: 7f75 22bf 89ee 9abf dec7 323f 1932 bd3e
00000350: df85 fcbe fbdb 9a3f bce1 b83f f2fc 393f
00000360: 6460 b03f e9a7 5e3f c387 0a3f 4a6c 1c3d
00000370: a0ea 45bf 998d b3be 3968 863f 9ef1 6e3f
00000380: f899 5e3f 1493 763f 5bbd 133f 2ee7 8f3f
00000390: 1557 0e3e 68e3 6dbd 6a5f 253f e895 523e
000003a0: 5f1c 573d 0fd1 c93f 3d2b 893d d2bf a53e
000003b0: cf9a 0e3f 7066 ae3d c069 d7be f7a2 b8bd
000003c0: f6f0 5c3f 294d ea3e 59c3 a23f c90d 713e
000003d0: 1d0d b53e e350 0d3f 5cf6 2bbe 7399 7cbe
000003e0: 5368 683d 37f4 d63e ad48 333f be83 793f
000003f0: 736b 2040 a72d 0640 2eb5 ca3f 2033 86be

encoder.3.bias f4 [8]
0.8555839 -0.26962218 -0.507984 -1.2780392 -0.7593574 -0.20896241 -0.20835298 -0.27390033
00000000: 8c07 5b3f eb0b 8abe 3d0b 02bf ca96 a3bf
00000010: 3f65 42bf 3efa 55be 7c5a 55be aa3c 8cbe

cnn_net.0.weight f4 [16, 8, 3, 3]
0.24697968 -0.40307975 -0.7685434 -0.2831839 -0.5643278 -0.86738783 0.18622941 -1.0004507
-2.3897233 0.3638829 0.32946125 -0.0076561035 -0.20685914 0.43386006 0.6391587 0.39141813
0.32726374 0.6656168 -0.22625941 0.121247984 0.41014344 -0.0734904 0.23440547 0.29337373
-0.22780296 -0.5501165 -0.1351499 -0.18396913 0.38746417 0.5034963 -0.08178336 -0.3314724
0.17294915 0.035574928 0.3200277 0.060139406 -0.07080188 0.02594901 0.10187461 -0.18572524
0.1261543 0.023363803 -0.35307765 -0.14195897 -0.10835331 0.52848786 0.5389801 0.4136941
0.55868477 0.8103057 0.2370438 0.75120515 0.5049964 0.6300123 0.675543 -0.117211565
0.2614193 0.42529845 0.5562997 0.9501302 0.8041833 0.07682983 0.42543074 0.14178522
0.22382757 0.21683995 0.27220693 0.019025095 0.3658106 -0.11307748 -0.18063873 -0.15894616
0.149725 0.44477683 0.37049058 -0.09042685 -0.046026353 -0.30144212 -0.41320533 -0.6696261
-0.34956878 -0.32314637 0.3504715 0.5091125 1.0068595 0.89130646 1.3310589 0.20424333
-0.19734651 0.40053776 -0.32567307 -0.072366364 0.04188721 0.017478762 -0.528706 -0.02588408
0.35268503 -0.67580914 -0.23651628 -0.27734002 -0.10106377 -0.05583714 0.272386 0.26907107
0.3442529 -0.3119347 -0.52477926 0.08287943 -0.15399219 -0.26925716 -0.3753748 0.31232193
0.043766387 -0.14809313 -0.095731094 -0.5348182 -0.13931343 0.11069728 -0.016443694 0.6503071
0.77779996 0.6393962 0.86237794 0.19893405 0.4912006 0.16149667 0.09802846 0.8128033
0.46437776 0.69295293 0.734809 0.9515225 -0.3415381 -0.007357643 0.16722704 -0.35633355
-0.07506499 -0.22388175 0.46337822 0.35178137 0.5468967 -0.11932879 -0.2967264 -0.16414674
0.09825363 -0.42109296 -0.095111534 -0.6549908 -0.91327786 -0.13161953 -1.4237096 -0.58977115
-1.4651676 0.3333193 -0.04691026 0.29716036 0.4309322 0.20950669 0.10017418 0.165046
-0.046500117 0.2106481 0.05396106 -0.50730264 0.0033071495 0.3183958 0.49902895 0.24071701
-0.10167927 0.10239579 -0.5190646 0.19573148 -0.030662106 0.33544594 0.47773072 0.027595958
0.2490373 0.15225907 -0.15910572 0.46830973 -0.06860715 -0.33934683 0.19136843 0.2824471
0.194067 0.30823392 -0.43866426 -0.14335054 -0.062849164 0.6573637 0.25054222 0.12074789
0.869035 0.85204035 0.37903485 0.79723936 0.3330671 0.2572643 0.6382691 0.28728354
0.37157398 0.91254437 0.3003733 0.55915105 0.5194219 0.2803438 0.62704676 0.29852048
-0.37728235 0.35623226 0.44511363 0.3291789 -0.11935706 0.37025055 -0.113079034 0.06765663
-0.7039397 -0.94697773 -0.48481503 -1.240733 -1.0153403 -0.97572994 -0.78334737 -0.3210518
-1.353041 0.41773042 0.12413371 0.24683341 0.14613782 0.38151637 0.6448804 -0.18080187
-0.41778284 0.22266671 0.35842398 0.009869568 -0.33071584 -0.029251007 0.19624792 0.17478894
-0.49450457 -0.6757635 -0.33005866 0.07819629 0.13288519 0.058358837 0.40481174 0.036471643
0.21977217 0.15520933 0.0033435635 0.24417953 0.28996152 0.023830682 0.093788676 -0.095016934
00000000: 3ee8 7c3e 7860 cebe 43bf 44bf 7bfd 90be
00000010: c977 10bf 210d 5ebf ecb2 3e3e c50e 80bf
00000020: 3af1 18c0 dc4e ba3e 25af a83e 0de0 fabb
00000030: e2d2 53be e822 de3e e89f 233f f567 c83e
00000040: 1d8f a73e dd65 2a3f 8cb0 67be dd50 f83d
00000050: 52fe d13e 2382 96bd fd07 703e 1535 963e
00000060: 2e45 69be 6fd4 0cbf bc64 0abe 6762 3cbe
00000070: b461 c63e 22e5 003f 097e a7bd c0b6 a9be
00000080: 9519 313e 04b7 113d acda a33e bd54 763d
00000090: 9300 91bd 0593 d43c a3a3 d03d c22e 3ebe
000000a0: 982e 013e 7265 bf3c 98c6 b4be b15d 11be
000000b0: 57e8 ddbd fb4a 073f 9afa 093f b7cf d33e
000000c0: f705 0f3f 3270 4f3f 9cbb 723e fb4e 403f
000000d0: 7247 013f 7c48 213f 63f0 2c3f 9e0c f0bd
000000e0: c0d8 853e b8c0 d93e a869 0e3f bc3b 733f
000000f0: f5de 4d3f f558 9d3d 0fd2 d93e 2530 113e
00000100: 0e33 653e 4b0b 5e3e b55e 8b3e 84da 9b3c
00000110: 874b bb3e 2a95 e7bd 5cf9 38be c8c2 22be
00000120: 8351 193e cab9 e33e f1b0 bd3e b631 b9bd
00000130: 2186 3cbd 9f56 9abe a68f d3be 9e6c 2bbf
00000140: aefa b2be 7173 a5be 0071 b33e 3255 023f
00000150: c6e0 803f a92c 643f 2360 aa3f 2a25 513e
00000160: 3415 4abe 4913 cd3e 9fbe a6be d134 94bd
00000170: ec91 2b3d 9f2f 8f3c 4759 07bf da0a d4bc
00000180: 2293 b43e d401 2dbf 5331 72be 83ff 8dbe
00000190: 86fa cebd 7cb5 64bd 2e76 8b3e afc3 893e
000001a0: eb41 b03e e8b5 9fbe ef57 06bf b1bc a93d
000001b0: 21b0 1dbe 13dc 89be 2031 c0be a9e8 9f3e
000001c0: 6244 333d baa5 17be aa0e c4bd d8e9 08bf
000001d0: 2ea8 0ebe 41b5 e23d edb4 86bc 877a 263f
000001e0: e61d 473f 78af 233f cdc4 5c3f 5eb5 4b3e
000001f0: a57e fb3e 625f 253e 25c3 c83d e113 503f
00000200: ecc2 ed3e 5d65 313f 711c 3c3f fb96 733f
00000210: 15de aebe 6218 f1bb 913d 2b3e 5a71 b6be
00000220: acbb 99bd 4241 65be e93f ed3e b01c b43e
00000230: 6c01 0c3f a762 f4bd 86ec 97be 1516 28be
00000240: 3339 c93d 7f99 d7be d6c9 c2bd 7aad 27bf
00000250: 94cc 69bf 45c7 06be 1e3c b6bf 3efb 16bf
00000260: 9d8a bbbf d4a8 aa3e f924 40bd 6725 983e
00000270: 25a3 dc3e ec88 563e 1f28 cd3d d201 293e
00000280: e876 3ebd 23b4 573e 4606 5d3d 96de 01bf
00000290: c3bc 583b c604 a33e b980 ff3e 857e 763e
000002a0: 393d d0bd e2b4 d13d 6be1 04bf d56d 483e
000002b0: 192f fbbc 92bf ab3e 1f99 f43e eb10 e23c
000002c0: a203 7f3e cde9 1b3e 9cec 22be 4bc6 ef3e
000002d0: e881 8cbd debe adbe 16f6 433e e89c 903e
000002e0: 80b9 463e d6d0 9d3e 9a98 e0be 7cca 12be
000002f0: 10b7 80bd fd48 283f 1247 803e ab4a f73d
00000300: 1479 5e3f 511f 5a3f db10 c23e e117 4c3f
00000310: c587 aa3e 25b8 833e 9b65 233f d416 933e
00000320: f23e be3e 829c 693f 87ca 993e 8624 0f3f
00000330: d5f8 043f 3989 8f3e 2386 203f add7 983e
00000340: 272b c1be 1364 b63e efe5 e33e 238a a83e
00000350: 7971 f4bd 7b91 bd3e fb95 e7bd 8f8f 8a3d
00000360: 6435 34bf 226d 72bf ad39 f8be 57d0 9ebf
00000370: acf6 81bf 70c9 79bf 7489 48bf e760 a4be
00000380: 7330 adbf c3e0 d53e d139 fe3d e6c1 7c3e
00000390: 27a5 153e 1d56 c33e e216 253f 2024 39be
000003a0: a2e7 d5be be02 643e 5983 b73e f8b3 213c
000003b0: 9653 a9be cf9f efbc 37f5 483e dffb 323e
000003c0: b42f fdbe d6fe 2cbf 73fd a8be 6025 a03d
000003d0: 0e13 083e ad09 6f3d 7c43 cf3e 4a63 153d
000003e0: f50b 613e 32ef 1e3e b01f 5b3b 330a 7a3e
000003f0: d675 943e 9038 c33c 4714 c03d 3d98 c2bd

cnn_net.0.bias f4 [16]
-0.33309665 -0.061593845 -0.3016638 -0.44034338 -0.39227775 -0.5258702 -0.42439345 -0.22005989
-0.24054345 -0.33872944 -0.46318483 -0.40286157 -0.12982608 -0.41298363 -0.42249158 0.23685165
00000000: a58b aabe d449 7cbd ad73 9abe b074 e1be
00000010: a1d8 c8be 6e9f 06bf 194a d9be 6157 61be
00000020: 0651 76be f26d adbe 9026 edbe df43 cebe
00000030: 21f1 04be 9772 d3be d150 d8be 3d89 723e

cnn_net.3.weight f4 [32, 16, 3, 3]
-0.1519829 -0.24274583 -0.6890909 0.72672486 0.6125089 -0.6909109 1.2687396 -0.2185537
-0.08822735 -0.16882552 -1.473278 -0.65001965 0.5837995 0.14048986 0.015799189 -0.042060465
-0.7176732 0.037977125 0.24148223 -0.859063 0.03228853 0.6609699 0.13303015 0.18549582
0.52446026 -1.127558 -0.2039199 0.14861166 -0.29185486 -0.47975796 1.1315236 0.73906434
-0.014895269 0.9235691 -0.5485854 -0.41385567 -0.37119818 -0.9291397 -0.13605604 0.7389197
-0.3398097 -0.33524176 0.71979487 -1.1106087 -0.44150344 0.286295 0.32405207 0.011272318
0.6144415 0.16163029 0.15194339 0.012253971 0.3402469 0.175677 0.5013576 0.08238636
0.11826377 0.9402413 0.14999561 0.17979391 0.6260876 0.068473995 0.029615663 0.018604284
0.7265886 -0.106434524 0.49133474 0.7098379 -0.23080662 0.5129698 0.19920348 -0.45215148
-0.3853501 0.39664 -0.21507093 0.16194156 0.71861196 -0.1745875 0.04168044 0.1680861
-0.33175343 1.0743423 0.08996073 0.009036933 0.5046021 0.7847267 -0.2751446 0.6135384
0.006056674 -0.34326518 0.6294693 -0.16600059 0.03460159 0.71214306 -0.38391626 0.015119911
0.995121 -0.94770074 -0.12416897 0.32795143 -0.98484635 -0.58359385 0.9974894 0.18116236
-0.023396123 1.1024057 -0.5113689 -0.27167106 0.44614422 0.6011389 0.24746543 0.5535172
0.24521181 -0.038022134 0.24877155 0.3501252 0.22478834 1.268616 -0.79284185 -0.17310444
1.7312604 0.801347 -0.10556929 1.0844588 -0.09992698 0.12832329 -0.31119692 -0.09981927
-0.17993504 -0.32396677 0.35082185 0.3424135 0.18034124 0.15446049 0.040496107 -0.47475415
-0.03394992 0.33965224 -0.43312186 0.14853859 -0.0068394067 -0.8906156 -0.12120774 0.5468836
-0.34048197 -0.5062794 -0.7503774 0.13157533 0.46835798 0.014702962 0.18265495 0.39334366
0.076478906 -0.2568813 0.23279661 -0.075154014 0.44542706 0.4031912 -0.3460099 0.31725934
0.20170699 -0.008252729 -0.19166729 -0.19361992 0.10459047 0.7722088 0.44919285 -0.11385885
0.43425477 0.22035728 -0.09297115 -0.68950754 -0.26672617 0.054335415 0.113786034 -0.02628299
-0.3605305 0.09006923 0.32620367 0.20947565 -0.13822488 -0.017573562 -0.32592696 0.40348348
-0.04275685 -0.51235914 0.604797 0.23660642 0.04363255 0.088728614 0.14586826 0.16581634
0.20833535 0.13433528 0.18348771 -0.24090955 -0.20649801 0.07112322 -0.11498098 0.1879158
0.3706819 0.14129642 0.12538974 0.3715236 -0.1927958 -0.28192225 0.08809126 -0.23157835
0.034600433 0.1515891 0.16162306 0.21391355 -0.13733163 -0.32219774 -0.015564126 0.58142805
-0.055118125 -0.0329521 0.15656851 0.23088701 0.19025075 0.05200871 0.039641466 0.22170864
0.12821688 -0.20053509 0.06314751 0.120057605 0.3715108 0.39410037 0.00058611674 -0.25534025
0.1715939 0.36771417 -0.35302094 -0.07537211 -0.09035226 0.4108671 0.14715527 -0.0030842894
-0.041652393 0.23053268 0.118324086 0.441858 0.16121227 -0.27515382 0.42385182 0.335121
-0.32354623 -0.14335994 0.5089989 0.321126 -0.009730468 0.12039177 0.2584243 0.115765505
00000000: 68a1 1bbe 5d92 78be 4368 30bf a40a 3a3f
00000010: 62cd 1c3f 89df 30bf 0f66 a23f 8bcc 5fbe
00000020: 8ab0 b4bd 99e0 2cbe 6094 bcbf b067 26bf
00000030: e273 153f 93dc 0f3e 4d6d 813c 9847 2cbd
00000040: 6eb9 37bf e78d 1b3d 1e47 773e 8eeb 5bbf
00000050: fa40 043d 5335 293f 0e39 083e 9ef2 3d3e
00000060: 0743 063f d253 90bf 61d0 50be a82d 183e
00000070: 006e 95be d6a2 f5be c4d5 903f 5233 3d3f
00000080: 490b 74bc 066f 6c3f 1870 0cbf e4e4 d3be
00000090: b00d bebe 19dc 6dbf 4652 0bbe d729 3d3f
000000a0: 89fb adbe cfa4 abbe 7a44 383f 6d28 8ebf
000000b0: bd0c e2be 4295 923e 27ea a53e 87af 383c
000000c0: 0a4c 1d3f 6982 253e 0c97 1b3e e1c4 483c
000000d0: d734 ae3e ace4 333e f958 003f 2eba a83d
000000e0: 4734 f23d a7b3 703f 7398 193e e51b 383e
000000f0: 4747 203f 183c 8c3d 8c9c f23c 0368 983c
00000100: b601 3a3f 58fa d9bd 3a90 fb3e f0b7 353f
00000110: 9258 6cbe fd51 033f fffb 4b3e 6680 e7be
00000120: 9c4c c5be 6614 cb3e 8e3b 5cbe 02d4 253e
00000130: f4f6 373f 11c7 32be 1cb9 2a3d c31e 2c3e
00000140: 96db a9be 0c84 893f 553d b83d a50f 143c
00000150: 9a2d 013f d9e3 483f c1df 8cbe da10 1d3f
00000160: 1077 c63b 74c0 afbe e624 213f 0ffc 29be
00000170: 66ba 0d3d 024f 363f ac90 c4be 81b9 773c
00000180: 40c0 7e3f 849c 72bf 4d4c febd 40e9 a73e
00000190: e41e 7cbf 6866 15bf 775b 7f3f a082 393e
000001a0: 3aa9 bfbc a11b 8d3f 12e9 02bf 7818 8bbe
000001b0: 046d e43e 3de4 193f 9467 7d3e 4eb3 0d3f
000001c0: ce18 7b3e 19bd 1bbd f8bd 7e3e 9c43 b33e
000001d0: ea2e 663e 0262 a23f aff7 4abf 4a42 31be
000001e0: f199 dd3f 1425 4d3f b634 d8bd 8ccf 8a3f
000001f0: 84a6 ccbd 2e67 033e 3455 9fbe 0c6e ccbd
00000200: e440 38be f9de a5be ec9e b33e d350 af3e
00000210: 60ab 383e e42a 1e3e 3fdf 253d fa12 f3be
00000220: 120f 0bbd e6e6 ad3e 26c2 ddbe 801a 183e
00000230: 1a1d e0bb 62ff 63bf c33b f8bd 9000 0c3f
00000240: a753 aebe 879b 01bf bc18 40bf afbb 063e
00000250: 9ecc ef3e b1e4 703c e609 3b3e 5764 c93e
00000260: f9a0 9c3d f285 83be 3c62 6e3e 59ea 99bd
00000270: 040f e43e 146f ce3e 3628 b1be d16f a23e
00000280: 478c 4e3e 7436 07bc 6e44 44be 4d44 46be
00000290: 8733 d63d 7aaf 453f 9bfc e53e d42e e9bd
000002a0: a456 de3e 57a5 613e a967 bebd 9183 30bf
000002b0: 5590 88be d08e 5e3d a708 e93d 6d4f d7bc
000002c0: 7497 b8be 3776 b83d 2b04 a73e c980 563e
000002d0: d38a 0dbe 6ef6 8fbc e6df a6be 6395 ce3e
000002e0: cf21 2fbd f829 03bf fad3 1a3f f448 723e
000002f0: 0bb8 323d 59b7 b53d 7d5e 153e c2cb 293e
00000300: dd55 553e 308f 093e 34e4 3b3e feb0 76be
00000310: 3774 53be 0da9 913d 267b ebbd 006d 403e
00000320: 05ca bd3e 02b0 103e 2b66 003e 5738 be3e
00000330: 436c 45be 1d58 90be 3169 b43d e022 6dbe
00000340: 2fb9 0d3d 2c3a 1b3e 8480 253e 270c 5b3e
00000350: aaa0 0cbe 1af7 a4be ad00 7fbc 78d8 143f
00000360: 8bc3 61bd c8f8 06bd 7f53 203e a56d 6c3e
00000370: 18d1 423e 1607 553d 175f 223d 9707 633e
00000380: 494b 033e 1259 4dbe 7b53 813d c3e0 f53d
00000390: aa36 be3e 86c7 c93e a1a5 193a f5bb 82be
000003a0: 50b6 2f3e 0845 bc3e 29bf b4be b15c 9abd
000003b0: 9b0a b9bd 2c5d d23e dfaf 163e ca21 4abb
000003c0: b39b 2abd c210 6c3e e653 f23d 363b e23e
000003d0: d414 253e f6e0 8cbe 1b03 d93e fb94 ab3e
000003e0: daa7 a5be f3cc 12be c04d 023f a16a a43e
000003f0: 8a6c 1fbc f68f f63d 3150 843e 7716 ed3d

cnn_net.3.bias f4 [32]
-0.05868231 0.06309718 -0.26974508 -0.14573264 -0.3741596 0.02108648 -0.08797516 -0.3955491
-0.117600515 -0.5572698 0.016201291 -0.42428875 -0.39609057 0.030169785 -0.16276126 0.16180123
-0.6650121 -0.08307338 -0.12030441 0.00061774923 0.019009167 0.010695249 0.053814135 -0.038166694
-0.1388535 0.040996682 0.056533545 -0.009721565 0.040263798 0.6174396 -0.13355342 -0.051329393
00000000: dd5c 70bd 1839 813d 071c 8abe f03a 15be
00000010: d991 bfbe 8ebd ac3c 522c b4bd 6985 cabe
00000020: 8ad8 f0bd 3ca9 0ebf 92b8 843c 603c d9be
00000030: 62cc cabe a026 f73c e3aa 26be 39af 253e
00000040: 3c3e 2abf 6022 aabd 2962 f6bd 73f0 213a
00000050: 1db9 9b3c 203b 2f3c 366c 5c3d ae54 1cbd
00000060: 9d2f 0ebe 23ec 273d b88f 673d 3347 1fbc
00000070: a7eb 243d 8610 1e3f 3ac2 08be c53e 52bd

hidden.weight f4 [32, 128]
-0.44315 -0.18056095 -0.404888 -0.12623702 -0.13393624 -0.04711439 -0.033502422 0.118470654
0.020485003 0.25866622 -0.0074406294 0.38698608 0.09307974 0.043002464 -0.10676226 0.111866005
-0.13405508 -0.23720306 -0.15314424 0.1353676 0.119368486 0.11620208 -0.058622878 0.0041410206
-0.12824745 -0.11958304 -0.23894697 0.044036444 -0.14645515 -0.17590095 -0.35922286 -0.37890393
0.14743431 0.26523638 0.19459274 -0.31972033 0.028612746 -0.20617557 -0.23025092 -0.2703534
-0.013949776 0.05251217 0.18331626 0.039221153 -0.32531658 0.89220655 0.45730707 -0.13184305
-0.16689466 -0.31701788 -0.061789557 -0.19806689 -0.17957567 0.14948575 -0.24714191 -0.028482717
0.19072454 0.18053368 -0.0054643787 -0.11742637 -0.17514674 0.10420642 -0.037039828 0.1332377
0.49839187 0.43373942 0.3242108 0.44065645 -0.28743067 0.24187496 0.031373154 0.03846529
-0.47764695 0.17873988 -0.25746754 -0.07332025 -0.053472295 0.06350231 -0.34342006 -0.07329565
0.030544776 0.15426452 -0.04850749 -0.2315238 -0.18833384 0.08505735 -0.003774577 0.16915838
-0.18114544 0.029279407 0.26544264 -0.0726691 -0.36846873 -0.22175506 -0.2253316 -0.19400041
0.08007412 0.27556753 0.109524876 0.10298533 -0.015052788 0.24169406 -0.070335515 -0.014673389
0.037918013 0.15271555 0.18509638 0.059270613 -0.28983548 0.13536331 0.020457178 -0.06825954
-0.02089692 0.2114771 0.027112378 -0.007036429 -0.7559713 -0.0728344 0.11417089 -1.2386466
0.21307212 0.21806443 -0.008394027 0.17025957 -0.15587996 -0.28675815 -0.31350183 -0.47000167
-0.06196575 0.0896617 0.003887626 0.0056407265 0.17101505 -0.1662163 0.018600648 0.07898937
-0.05201446 -0.23757677 -0.16635966 -0.3465351 -0.024205817 -0.2490111 -0.08799625 0.17627612
-0.027331198 -0.07421936 0.020080172 -0.26898083 0.054195687 0.009012318 0.11175168 -0.11957602
-0.0991396 0.012492625 -0.10174899 0.14273873 -0.09446812 0.17941232 0.16818714 -0.07814884
-0.012960554 0.107500374 -0.05231251 -0.04428021 0.020580312 0.08554417 0.24338643 -0.017644608
-0.11114063 0.02844909 0.040607188 -0.0065318025 0.15399727 0.03424256 0.069650434 -0.045406196
-0.07674084 -0.05317402 -0.07851674 -0.033139195 -0.40829733 0.14338553 -0.17569554 0.004180785
-0.27817312 -0.027636748 -0.012863584 -0.0154414 -0.064954825 -0.15078248 0.060995344 -0.05181457
0.050542764 -0.057169586 -0.055752367 -0.21224941 -0.084695004 -0.13739124 -0.05778327 0.011168629
-0.014676322 0.051904622 -0.1631583 0.19112961 -0.030884195 0.09169567 0.15260015 0.012303907
0.10409428 -0.0056031845 0.018475238 -0.11244865 -0.047398597 -0.17832908 -0.040382195 -0.15996525
-0.04506411 -0.05809522 0.17324331 0.021090131 -0.097324446 -0.013699265 -0.25482097 -0.10247779
-0.092749506 0.05202973 0.0044461875 -0.08429508 -0.040580723 -0.2108756 -0.059205092 -0.10000341
0.27312562 -0.011526746 -0.0059217582 -0.055629723 -0.3544161 -0.025456904 0.074975386 -0.00017846341
-0.007799974 0.22607978 0.09454843 -0.072440855 0.095928185 -0.09232885 -0.042878903 0.2013134
0.1923834 0.08443414 -0.12766942 -0.21627244 -0.07975996 0.21038745 0.015616357 -0.1345711
00000000: 8fe4 e2be f8e4 38be 7b4d cfbe 4744 01be
00000010: 9526 09be 05fb 40bd d639 09bd bea0 f23d
00000020: 2ad0 a73c e66f 843e 86d0 f3bb 0a23 c63e
00000030: 97a0 be3d 5a23 303d 2ca6 dabd 011a e53d
00000040: bc45 09be 5ce5 72be d8d1 1cbe ce9d 0a3e
00000050: 7777 f43d 5bfb ed3d 8b1e 70bd 66b1 873b
00000060: 4d53 03be f4e7 f4bd 84ae 74be 8f5f 343d
00000070: 57f8 15be 611f 34be 0fec b7be b2ff c1be
00000080: 05f9 163e 10cd 873e 5243 473e 62b2 a3be
00000090: 4765 ea3c b01f 53be e6c6 6bbe c36b 8abe
000000a0: 9a8d 64bc 0017 573d 42b7 3b3e 5ca6 203d
000000b0: e58f a6be a667 643f 2724 ea3e dd01 07be
000000c0: 6fe6 2abe 2b50 a2be 0c17 7dbd 0cd2 4abe
000000d0: afe2 37be cb12 193e c512 7dbe 9654 e9bc
000000e0: 4b4d 433e d2dd 383e 880e b3bb 3d7d f0bd
000000f0: ab59 33be 2d6a d53d 13b7 17bd 776f 083e
00000100: 382d ff3e 1813 de3e f5fe a53e b99d e13e
00000110: 1d2a 93be 12ae 773e 2381 003d c88d 1d3d
00000120: 248e f4be 9607 373e c9d2 83be ed28 96bd
00000130: c405 5bbd 800d 823d c1d4 afbe 081c 96bd
00000140: 0a39 fa3c 85f7 1d3e caaf 46bd 9314 6dbe
00000150: 96da 40be 8c32 ae3d e55e 77bb db37 2d3e
00000160: 317e 39be 5edb ef3c 19e8 873e 89d3 94bd
00000170: efa7 bcbe c213 63be 54bd 66be 0ba8 46be
00000180: e6fd a33d 3017 8d3e 944e e03d f9e9 d23d
00000190: f89f 76bc a67e 773e 110c 90bd a768 70bc
000001a0: eb4f 1b3d 7761 1c3e e889 3d3e bec5 723d
000001b0: 5165 94be ae9c 0a3e d095 a73c a8cb 8bbd
000001c0: 0430 abbc 748d 583e c71a de3c d891 e6bb
000001d0: 5687 41bf 342a 95bd 6dd2 e93d f98b 9ebf
000001e0: 942f 5a3e 484c 5f3e 1a87 09bc 8658 2e3e
000001f0: ff9e 1fbe f7d1 92be 5083 a0be 0fa4 f0be
00000200: cccf 7dbd 8ea0 b73d 8bc7 7e3b d8d5 b83b
00000210: 921e 2f3e 9b34 2abe 6360 983c 2ec5 a13d
00000220: 1d0d 55bd 5347 73be 305a 2abe 0c6d b1be
00000230: 474b c6bc c4fc 7ebe 6137 b4bd ba81 343e
00000240: ade5 dfbc 5200 98bd 2c7f a43c dbb7 89be
00000250: 4cfc 5d3d 67a8 133c 11de e43d 46e4 f4bd
00000260: b409 cbbd dead 4c3c c661 d0bd 1a2a 123e
00000270: 8078 c1bd ddb7 373e 4039 2c3e 800c a0bd
00000280: 8158 54bc 2829 dc3d a445 56bd 2a5f 35bd
00000290: 0b98 a83c c831 af3d 4b3a 793e 6d8b 90bc
000002a0: b39d e3bd 110e e93c b953 263d bb08 d6bb
000002b0: 76b1 1d3e ed41 0c3d e3a4 8e3d d9fb 39bd
000002c0: 4d2a 9dbd 00cd 59bd 62cd a0bd f7bc 07bd
000002d0: 590c d1be a8d3 123e 88e9 33be f7fe 883b
000002e0: b56c 8ebe 7666 e2bc c8c1 52bc edfd 7cbc
000002f0: 0907 85bd b966 1abe 41d6 793d 843b 54bd
00000300: ee05 4f3d a82a 6abd 985c 64bd e957 59be
00000310: 9374 adbd 4ab0 0cbe 26ae 6cbd a0fc 363c
00000320: f574 70bc f199 543d f812 27be 7bb7 433e
00000330: da00 fdbc f0ca bb3d 3743 1c3e 5496 493c
00000340: 622f d53d eb9a b7bb 6259 973c 7a4b e6bd
00000350: 0825 42bd e69b 36be cd67 25bd eecd 23be
00000360: 2595 38bd 41f5 6dbd b266 313e 36c5 ac3c
00000370: 0a52 c7bd e272 60bc e577 82be e0df d1bd
00000380: 74f3 bdbd 201d 553d 53b1 913b e6a2 acbd
00000390: f937 26bd c6ef 57be 0a81 72bd 96ce ccbd
000003a0: 1fd7 8b3e adda 3cbc 4f0b c2bb fedb 63bd
000003b0: 0776 b5be ff8a d0bc b28c 993d e821 3bb9
000003c0: ed96 ffbb 7581 673e 9ba2 c13d df5b 94bd
000003d0: ff75 c43d e816 bdbd caa1 2fbd 1a25 4e3e
000003e0: 2700 453e ceeb ac3d c6bb 02be 8676 5dbe
000003f0: 3159 a3bd cf6f 573e c0db 7f3c 02cd 09be

hidden.bias f4 [32]
-0.14782444 -0.012997129 -0.1777872 -0.17447926 0.22520575 0.23200414 -0.16764504 -0.004821521
-0.07106574 -0.17503303 -0.1890917 0.20715268 -0.1645995 0.12587133 -0.19150414 0.22826365
0.21656705 -0.13596967 -0.069087915 -0.2908806 0.18702786 -0.03179281 0.20866154 -0.024072982
-0.048198007 -0.029830907 -0.17551826 0.14447545 0.21586983 0.0 -0.33615598 0.22781813
00000000: 4a5f 17be e9f1 54bc d90d 36be b1aa 32be
00000010: 569c 663e 7e92 6d3e 24ab 2bbe dafd 9dbb
00000020: ea8a 91bd dc3b 33be 41a1 41be d51f 543e
00000030: c58c 28be 6ae4 003e a919 44be f2bd 693e
00000040: c1c3 5d3e a23b 0bbe f77d 8dbd 4dee 94be
00000050: 3b84 3f3e 2d39 02bd 5fab 553e b434 c5bc
00000060: 466b 45bd f25f f4bc 0fbb 33be 5ff1 133e
00000070: fb0c 5d3e 0000 0000 a31c acbe 2849 693e

out.weight f4 [1, 32]
-0.7229948 -0.16667677 -0.26421958 -0.100287385 0.2878851 0.48864022 -0.38500965 -0.054691385
2.8040602 -0.22482456 -0.05871899 0.10821589 -0.23887104 0.43196502 -0.5175965 0.3670434
0.24721919 2.6742616 2.9688525 -1.9554437 0.038847305 3.10429 0.10163432 3.2265825
3.1186194 0.114692956 -0.47114226 -0.06565424 0.1666983 0.32513902 -2.2527375 0.32651618
00000000: 3016 39bf 51ad 2abe ca47 87be 7963 cdbd
00000010: ad65 933e 0d2f fa3e fc1f c5be 1304 60bd
00000020: b975 3340 6938 66be 5383 70bd 4ba0 dd3d
00000030: 9c9a 74be 852a dd3e 3481 04bf 1ded bb3e
00000040: 0727 7d3e 1a27 2b40 ae01 3e40 fb4b fabf
00000050: 5a1e 1f3d b0ac 4640 a825 d03d 5480 4e40
00000060: 7697 4740 24e4 ea3d 8f39 f1be bb75 86bd
00000070: f6b2 2a3e 9f78 a63e da2c 10c0 212d a73e
