termproject_olympic/train_history/olympics-running/11_15_19_7/critic.pth (torch, 46963 bytes, 11 tensors)

encoder.encoder.0.weight f4 [8, 4, 3, 3]
-0.29970843 -0.31990963 -0.2795345 0.016716205 -0.35008207 -0.053129226 -0.10462975 0.18030754
-0.34725094 0.00964441 0.17606275 -0.34006986 0.075076155 0.18604651 -0.016765244 -0.10166252
0.23254359 -0.039305735 -0.28204256 0.16366212 -0.118071936 -0.01847778 -0.15801772 -0.3215913
-0.38442248 0.044064265 0.06411344 0.5675817 0.26833436 0.30714324 -0.45840403 -0.032713443
0.2054547 0.06603728 -0.16977824 -0.09400142 0.30078605 -0.124653704 0.21750003 -0.3682756
0.053593084 0.19511752 -0.1632174 0.010370488 0.14285778 0.044469923 -0.11770188 0.1782791
0.18998495 0.11336572 -0.31234533 0.10584784 0.03357199 -0.19165693 0.07473161 0.4617591
-0.27870855 -0.62732095 -0.058675803 -0.25392044 0.49444255 0.168646 0.1805101 -0.15890747
0.29321715 0.15817596 -0.26345965 0.088469975 0.025165109 0.10344037 -0.25171894 0.16780578
0.041493934 -0.21450625 -0.006161933 0.24859321 -0.45373353 -0.07003747 0.20254499 0.048942868
-0.0011548313 -0.3185558 -0.22400506 0.087660156 0.21139963 0.043956045 0.4003849 0.24739255
0.050614525 -0.13398701 0.46020195 0.30578235 -0.33108777 -0.02351425 0.13534525 -0.050733294
-0.12744711 -0.3692268 -0.033319335 -0.381264 -0.15867896 0.04700517 -0.056742642 -0.4116467
0.4671749 0.039500143 0.18007587 -0.023288293 0.019330652 0.07453445 0.20710154 -0.0008694727
-0.24553464 -0.03156824 0.18455157 0.106146775 -0.13249788 -0.036107987 0.08343327 -0.007007554
-0.64583594 -0.21019194 0.15473548 -0.28534994 0.27885845 0.10614391 -0.37812972 0.11692219
-0.2768101 0.13006152 0.36046422 0.14159761 0.39912277 -0.02133424 0.35978872 -0.26781404
-0.19561912 0.19668518 -0.3408012 0.14731726 0.00012012917 -0.34709382 -0.042579565 -0.25461233
0.12126324 0.21386202 -0.0708688 0.3232062 -0.18361156 -0.10857254 0.01975487 0.50445426
-0.0009308046 -0.14919727 0.33976164 0.18447302 0.09299317 0.24643414 -0.37069046 -0.1422271
-0.06465779 -0.2051215 0.24697459 -0.36277616 -0.15357016 -0.03576669 0.07524866 0.15385942
0.50784755 -0.31522286 -0.3340661 0.35554793 0.22211675 0.18331845 0.0034687629 0.016338862
0.031376768 -0.34312522 0.17949289 0.09196796 0.23818964 -0.4535483 -0.23472665 -0.035488196
-0.10467268 -0.09905304 0.10312502 -0.34309712 0.17581046 0.46710643 -0.054696687 -0.09403922
0.24427074 -0.07013519 0.05278939 -0.0248123 0.14910136 0.23010845 -0.054898 -0.03846422
0.37095708 0.15157917 0.4243548 0.16806157 0.5368032 -0.23319961 0.18846437 0.34926423
0.15736695 -0.0855867 0.14071755 -0.28291315 0.28910482 0.035821743 -0.19011462 -0.039982848
-0.17171717 0.15268347 -0.074664675 0.1397167 -0.1016655 -0.05907965 0.21620327 -0.23018728
-0.08623518 0.4403222 0.33618605 0.24248461 0.12276221 -0.21848787 0.1070484 0.2357979
-0.06951637 -0.12092625 0.49248132 0.30420747 0.04685449 0.20850271 -0.076215185 0.10036079
-0.14219342 0.018000318 0.24788894 -0.13834222 0.5746395 0.33316162 0.033483144 0.23154496
-0.36353126 -0.23086452 -0.054077167 -0.32249975 -0.11071543 0.21602601 0.38158834 0.5058945
00000000: 6273 99be 32cb a3be 251f 8fbe 6cf0 883c
00000010: f53d b3be 089e 59bd 1f48 d6bd 8aa2 383e
00000020: e0ca b1be 9603 1e3c cb49 343e a31d aebe
00000030: 87c1 993d fa82 3e3e 4457 89bc 7034 d0bd
00000040: e81f 6e3e 0dff 20bd e267 90be 0b97 273e
00000050: b3cf f1bd b75e 97bc 66cf 21be 9da7 a4be
00000060: 06d3 c4be bb7c 343d e84d 833d 094d 113f
00000070: 1f63 893e e141 9d3e efb3 eabe 88fe 05bd
00000080: b862 523e 8e3e 873d 59da 2dbe d183 c0bd
00000090: a100 9a3e 714a ffbd 54b8 5e3e 9f8e bcbe
000000a0: 6c84 5b3d e3cc 473e 7622 27be fbe8 293c
000000b0: 4f49 123e 1826 363d af0d f1bd cc8e 363e
000000c0: 6a8b 423e 492c e83d baeb 9fbe c1c6 d83d
000000d0: c882 093d b741 44be e30c 993d b06b ec3e
000000e0: e3b2 8ebe 1b98 20bf 0a56 70bd dc01 82be
000000f0: 9327 fd3e 89b1 2c3e a4d7 383e a4b8 22be
00000100: 8f20 963e e1f8 213e 2fe4 86be bf2f b53d
00000110: 0f27 ce3c 8bd8 d33d 4ee1 80be 47d5 2b3e
00000120: 8bf5 293d 87a7 5bbe 0aea c9bb 388f 7e3e
00000130: c34f e8be ce6f 8fbd f467 4f3e 5178 483d
00000140: b55d 97ba bf19 a3be 9561 65be 2b87 b33d
00000150: 2579 583e 410b 343d 40ff cc3e 7954 7d3e
00000160: 2d51 4f3d e433 09be 979f eb3e 818f 9c3e
00000170: 5684 a9be f5a0 c0bc f297 0a3e b7cd 4fbd
00000180: 7f81 02be 4c0b bdbe db79 08bd 0935 c3be
00000190: bd7c 22be 7e88 403d f96a 68bd 5bc3 d2be
000001a0: 8c31 ef3e e7ca 213d cf65 383e 17c7 bebc
000001b0: 515b 9e3c 85a5 983d 6d12 543e 53ed 63ba
000001c0: 6f6d 7bbe b34d 01bd 16fb 3c3e 7b63 d93d
000001d0: 86ad 07be f8e5 13bd 10df aa3d a09f e5bb
000001e0: 8155 25bf 8e3c 57be fa72 1e3e 6319 92be
000001f0: 89c6 8e3e fa61 d93d 389a c1be e774 ef3d
00000200: 0eba 8dbe d92e 053e c48e b83e f7fe 103e
00000210: d259 cc3e 25c5 aebc 3a36 b83e ec1e 89be
00000220: 6150 48be d767 493e 7f7d aebe 56da 163e
00000230: dbed fb38 48b6 b1be e967 2ebd 8c5c 82be
00000240: dd58 f83d a5fe 5a3e a923 91bd 487b a53e
00000250: ab04 3cbe 485b debd f7d4 a13c ea23 013f
00000260: 3d01 74ba 2bc7 18be 3df5 ad3e 7fe6 3c3e
00000270: 3473 be3d 3b59 7c3e 24cb bdbe fba3 11be
00000280: 4e6b 84bd 5f0b 52be e8e6 7c3e ccbd b9be
00000290: 7f41 1dbe 1880 12bd f81b 9a3d 538d 1d3e
000002a0: 4c02 023f e464 a1be b60a abbe 610a b63e
000002b0: 9372 633e d5b7 3b3e 2f54 633b 14d9 853c
000002c0: ed84 003d 1cae afbe fccc 373e b359 bc3d
000002d0: fce7 733e 7c37 e8be 2f5c 70be 125c 11bd
000002e0: a15e d6bd 52dc cabd 3633 d33d 6daa afbe
000002f0: a807 343e 9328 ef3e a209 60bd a297 c0bd
00000300: 1c22 7a3e 0aa3 8fbd b039 583d 2a43 cbbc
00000310: 07ae 183e 8da1 6b3e badc 60bd a88c 1dbd
00000320: 16ee bd3e 9237 1b3e 0845 d93e 5518 2c3e
00000330: ef6b 093f e1cb 6ebe cefc 403e c3d2 b23e
00000340: cd24 213e 1448 afbd 4318 103e fed9 90be
00000350: 8c05 943e d2b9 123d 68ad 42be 0ec5 23bd
00000360: a0d6 2fbe 0e59 1c3e cbe9 98bd e511 0f3e
00000370: 0036 d0bd 81fd 71bd 6464 5d3e 37b6 6bbe
00000380: 129c b0bd e971 e13e 9420 ac3e e34d 783e
00000390: c16a fb3d 49bb 5fbe 313c db3d 0175 713e
000003a0: 995e 8ebd 2fa8 f7bd 8326 fc3e 15c1 9b3e
000003b0: 7eea 3f3d bc81 553e b516 9cbd f589 cd3d
000003c0: 279b 11be 6775 933c 99d6 7d3e 95a9 0dbe
000003d0: 931b 133f 2994 aa3e 9f25 093d 1f1a 6d3e
000003e0: c520 babe c067 6cbe 0580 5dbd b01e a5be
000003f0: c5be e2bd ec35 5d3e 8c5f c33e 4d82 013f

encoder.encoder.0.bias f4 [8]
0.0 0.0 0.0 0.0 0.0 0.0 0.0 0.0
00000000: 0000 0000 0000 0000 0000 0000 0000 0000
00000010: 0000 0000 0000 0000 0000 0000 0000 0000

encoder.encoder.3.weight f4 [8, 8, 3, 3]
0.11604342 0.15197162 -0.2999675 0.20679376 0.16565217 -0.029858302 -0.0959882 -0.1530433
-0.1338109 0.07472407 -0.10967267 -0.0434705 0.10256462 0.13535468 -0.14892434 -0.025478326
0.046022065 0.23114668 -0.15691511 -0.065846935 -0.006136903 0.2125993 0.13105208 -0.16790104
-0.06552743 0.018448768 -0.034946755 -0.24524595 -0.22390288 -0.068982884 0.17450139 -0.2809288
-0.08719824 0.1861936 -0.09109362 -0.19644056 0.0658796 -0.38689035 -0.03338592 0.2085341
-0.034687597 -0.19358036 -0.041642036 -0.020648671 -0.34962428 0.088988096 0.1754315 -0.15641628
0.38170382 0.31852755 0.08338018 0.19928263 -0.014680993 -0.17360635 -0.13863938 -0.19396791
-0.0013915921 0.015583321 -0.12376713 -0.1301945 -0.43240553 0.07753165 0.0050049145 0.07456853
-0.23385856 0.065680586 -0.020281918 0.048336096 -0.021890111 -0.21690391 -0.199339 0.0118558295
0.1815195 -0.50300133 0.32108572 0.020207176 -0.060684603 0.13201582 0.19959502 -0.0031229195
0.009167073 -0.31896618 -0.009441442 -0.11228735 0.030982193 0.061597712 0.006881564 -0.26487646
0.234979 0.062365595 0.18550315 -0.18128698 0.1667088 0.09211288 0.06147467 -0.044699136
0.1042545 -0.1441159 0.10171812 0.2020128 0.24404544 -0.14984001 -0.08086751 0.16008638
-0.010060671 -0.03444416 0.25634685 -0.05948108 -0.20279047 0.041865867 -0.22575518 0.2235428
-0.3270542 -0.31211382 -0.051764168 -0.09027107 -0.07717783 0.36784104 0.0089258645 0.029771045
0.037499197 0.16322508 0.37969658 -0.050042026 -0.020146227 -0.14966656 -0.057132274 0.026257627
-0.18042216 -0.079181865 0.1598886 0.02134356 -0.12577085 0.15298904 -0.052997407 0.11640915
0.005314408 0.065950684 0.03178181 -0.19021653 -0.19044548 0.08198371 -0.096547015 -0.08431507
-0.15683031 -0.15205064 0.14535645 0.1760544 -0.10998856 -0.36821657 -0.17080428 0.036925524
0.2339761 -0.023938604 -0.27181363 -0.0972882 -0.068441294 -0.060586948 -0.15218402 -0.16048118
0.21177194 -0.17462234 -0.107231915 0.14233515 0.12341454 0.08466054 0.11665473 -0.24960178
-0.117074 0.30466446 -0.045595787 0.08189601 -0.31743953 0.12894404 0.4287283 0.23640063
0.06798325 0.05183026 0.08497608 -0.089599006 0.08593373 -0.1953264 -0.30877417 0.096084215
0.13200875 -0.065092385 -0.20598768 -0.07478207 0.20297283 0.0576092 -0.19036143 -0.09208356
0.0026840735 0.07981431 -0.17397751 -0.03859905 -0.09399186 0.11032004 0.13540676 0.040064134
0.22322346 0.23987238 0.32775015 0.34502307 -0.009894511 0.013571424 -0.19249278 0.14977561
0.06584249 0.08639518 -0.035955377 0.12341299 0.008907814 0.044364166 0.1164509 0.0021943992
-0.02819267 0.075897515 -0.15569215 0.08136709 0.09086436 0.13616475 0.32017556 -0.04580463
-0.20559211 0.26599655 -0.06722042 -0.1161811 -0.060569026 0.053414512 0.08100644 0.101075366
0.094852105 0.043122757 -0.16215084 -0.11979485 -0.16453317 0.13921216 0.12132555 0.11206536
0.15710291 -0.014959321 -0.2817352 0.107349865 -0.1535665 0.15363964 0.23889849 0.11348589
-0.30979222 0.28465515 -0.11302238 -0.022431323 0.31087524 0.22998841 -0.1872655 -0.20160097
00000000: 2ca8 ed3d 739e 1b3e 5795 99be bec1 533e
00000010: b9a0 293e 6699 f4bc 7695 c4bd 62b7 1cbe
00000020: b905 09be ef08 993d 119c e0bd 1f0e 32bd
00000030: 660d d23d 6b9a 0a3e 9f7f 18be ecb7 d0bc
00000040: a281 3c3d b7b1 6c3e 5bae 20be c2da 86bd
00000050: 1318 c9bb a2b3 593e 8432 063e 40ee 2bbe
00000060: 3f33 86bd df21 973c 5424 0fbd c121 7bbe
00000070: cc46 65be e646 8dbd 7eb0 323e e6d5 8fbe
00000080: fe94 b2bd 89a9 3e3e 4b8f babd b727 49be
00000090: e2eb 863d 7e16 c6be adbf 08bd f789 553e
000000a0: 9514 0ebd ee39 46be d790 2abd 6727 a9bc
000000b0: f401 b3be 643f b63d 51a4 333e 972b 20be
000000c0: af6e c33e 0b16 a33e 3ac3 aa3d bf10 4c3e
000000d0: 8c88 70bc ddc5 31be 7bf7 0dbe 869f 46be
000000e0: 1566 b6ba 3051 7f3c 9f79 fdbd b551 05be
000000f0: 4264 ddbe eac8 9e3d 4400 a43b 63b7 983d
00000100: 9e78 6fbe 8b83 863d 4426 a6bc 12fc 453d
00000110: e452 b3bc 0f1c 5ebe 861f 4cbe f43e 423c
00000120: 3fe0 393e b2c4 00bf 5965 a43e 8589 a53c
00000130: 6b90 78bd 282f 073e a362 4c3e e5a9 4cbb
00000140: 7e31 163c 894f a3be 47b0 1abc e9f6 e5bd
00000150: 5ece fd3c e24d 7c3d be7e e13b e39d 87be
00000160: 569e 703e 1173 7f3d 8af4 3d3e 4ba3 39be
00000170: b6b5 2a3e ada5 bc3d ddcc 7b3d 7116 37bd
00000180: 6283 d53d 1e93 13be 9751 d03d 72dc 4e3e
00000190: 0ce7 793e a96f 19be dd9d a5bd afed 233e
000001a0: 83d5 24bc 5215 0dbd e53f 833e 6fa2 73bd
000001b0: 4ea8 4fbe 8b7b 2b3d 5e2c 67be 67e8 643e
000001c0: a673 a7be 62cd 9fbe aa06 54bd 0ae0 b8bd
000001d0: 690f 9ebd a955 bc3e ca3d 123c 68e2 f33c
000001e0: c298 193d 7a24 273e 9767 c23e def8 4cbd
000001f0: b309 a5bc 3142 19be 8803 6abd 3c1a d73c
00000200: 96c0 38be 1a2a a2bd d6b9 233e b1d8 ae3c
00000210: 13ca 00be 29a9 1c3e cf13 59bd ec67 ee3d
00000220: 7c24 ae3b 2711 873d a52d 023d 1fc8 42be
00000230: 2404 43be 13e7 a73d 71ba c5bd 61ad acbd
00000240: 2098 20be 2ab3 1bbe 52d8 143e 9b47 343e
00000250: af41 e1bd e286 bcbe 51e7 2ebe 383f 173d
00000260: 6e97 6f3e e41a c4bc 282b 8bbe 093f c7bd
00000270: f32a 8cbd 052a 78bd 21d6 1bbe 2e55 24be
00000280: beda 583e 33d0 32be 689c dbbd 4ec0 113e
00000290: c3c0 fc3d 8162 ad3d ade8 ee3d 9c97 7fbe
000002a0: 7ec4 efbd fbfc 9b3e a6c2 3abd 18b9 a73d
000002b0: 6f87 a2be e809 043e 4782 db3e 0213 723e
000002c0: cd3a 8b3d f74b 543d f007 ae3d af7f b7bd
000002d0: 06fe af3d a503 48be a617 9ebe cdc7 c43d
000002e0: 4d2d 073e 284f 85bd 6fee 52be 5827 99bd
000002f0: 1cd8 4f3e a0f7 6b3d 1bee 42be 4e96 bcbd
00000300: 48e7 2f3b af75 a33d 2927 32be 0a1a 1ebd
00000310: ce7e c0bd 79ef e13d 12a8 0a3e 4a1a 243d
00000320: b194 643e 1ba1 753e dece a73e dda6 b03e
00000330: 961c 22bc ae5a 5e3c d41c 45be c75e 193e
00000340: 6dd8 863d f5ef b03d f245 13bd f3bf fc3d
00000350: 14f2 113c 33b7 353d cf7d ee3d e9cf 0f3b
00000360: 50f4 e6bc 2870 9b3d c36d 1fbe caa3 a63d
00000370: 1817 ba3d c66e 0b3e 0dee a33e a39d 3bbd
00000380: bd86 52be b330 883e dcaa 89bd 5bf0 edbd
00000390: 3a17 78bd 2dc9 5a3d b4e6 a53d 9a00 cf3d
000003a0: d241 c23d 7da1 303d df0a 26be 0157 f5bd
000003b0: 627b 28be a28d 0e3e 8879 f83d 8682 e53d
000003c0: 96df 203e f117 75bc 993f 90be 3fda db3d
000003d0: 8940 1dbe b653 1d3e cea1 743e 4a6b e83d
000003e0: 169d 9ebe 52be 913e 4778 e7bd e5c1 b7bc
000003f0: 0a2b 9f3e 1582 6b3e 87c2 3fbe 7c70 4ebe

encoder.encoder.3.bias f4 [8]
0.0 0.0 0.0 0.0 0.0 0.0 0.0 0.0
00000000: 0000 0000 0000 0000 0000 0000 0000 0000
00000010: 0000 0000 0000 0000 0000 0000 0000 0000

cnn_net.0.weight f4 [16, 8, 3, 3]
0.16929023 -0.34217447 0.021546155 0.19996834 -0.063342646 0.11567711 0.104860485 -0.07261229
-0.090980135 0.010947353 -0.10452776 0.1589703 0.097124726 0.12038398 0.41493052 -0.09735253
0.23456274 -0.013788359 -0.045360025 -0.021409726 -0.1731885 0.1007796 0.12143746 -0.3234837
-0.006481871 -0.056817245 -0.0034451094 -0.2854767 -0.2793962 -0.034637876 0.119377 0.041367374
-0.05938906 0.26187947 -0.26435688 0.021737428 0.21803305 0.02311022 0.11742786 0.1080579
-0.10289777 -0.17177358 0.057405997 -0.16734536 0.37000912 0.2967579 -0.09479615 -0.37433356
-0.12982349 0.112351075 0.31296173 -0.028983932 -0.13450176 -0.09775249 -0.15173867 -0.15030582
0.06530042 -0.13283035 -0.12700026 -0.017492916 -0.032315865 -0.03834763 0.2361569 0.020998752
0.061111555 -0.0020662379 -0.35141635 0.01476911 -0.01191805 0.09127137 0.18863828 0.03358333
0.3007279 -0.31077367 -0.1363291 0.18512224 0.06677393 -0.13985905 0.21872638 -0.08456737
0.048569623 -0.045721833 0.119463235 -0.15034536 0.10144579 -0.035498958 -0.14475301 -0.15311325
-0.05222065 -0.09245677 0.046311267 -0.032596584 0.16990222 0.033410363 -0.24914926 0.08673297
0.27434063 -0.27572256 0.17903355 0.024174336 0.18618849 0.15636702 0.3677936 -0.11588778
-0.26437333 0.01444575 -0.1093663 0.20378211 0.23046134 -0.069201596 -0.037115213 0.020850541
0.10695062 -0.28077325 0.23312107 -0.14679182 0.04722535 0.033005208 0.01559881 0.13056946
-0.05937847 -0.109573245 -0.18092148 0.13261797 -0.030322418 -0.16502377 -0.11722951 0.35984617
0.17955054 -0.10678978 -0.023457108 -0.16821337 0.08885822 -0.17556742 -0.16492228 0.31351784
0.07421238 -0.058616254 0.12400873 -0.26621073 0.21180156 -0.091690764 -0.19878021 0.21458787
0.03342407 0.12275715 -0.033145882 -0.019626915 -0.12993619 0.13373633 -0.07910626 -0.09857965
0.039589405 -0.21978241 -0.003917987 0.13676043 0.051495187 -0.030879572 -0.016980425 -0.16768858
0.03821892 0.034694348 0.014358857 -0.05372265 0.08721673 0.14194971 -0.3421845 -0.33024433
-0.08261047 -0.059267104 -0.20571694 0.122210875 0.022866517 0.010002169 -0.12328611 -0.16901678
-0.24545819 0.036594663 0.083561644 -0.1728635 0.16274713 0.108504266 0.36449876 0.018036835
0.34520587 0.19556327 -0.30048653 0.20643593 0.04836939 0.096371114 0.11966521 0.034196354
-0.050639078 -0.06913475 -0.2165131 0.18422846 0.079335876 -0.2729104 -0.012700453 0.19351374
0.07796533 0.13978772 -0.4324815 -0.2446975 -0.17254508 0.18018347 -0.055135574 -0.13689215
0.14291124 0.45790797 -0.1588706 0.14156899 0.08285775 0.09338119 -0.099769734 -0.08932375
0.1695332 -0.00679179 -0.13464771 0.035566438 -0.1344266 -0.08410567 0.21000136 0.08800742
-0.28490207 0.14482269 -0.09747406 0.28836393 -0.28343254 0.19297777 0.05683516 -0.030495325
-0.24915822 -0.26690152 -0.029864734 -0.3844158 -0.097240515 -0.16748917 -0.09576879 0.2904443
0.075840026 -0.07382905 -0.057654016 -0.06691316 -0.04039573 0.1260936 -0.045448944 0.020216355
-0.3469566 -0.21071462 0.23964903 -0.060555983 -0.4224083 -0.06916041 0.028207505 0.10062669
00000000: 6b5a 2d3e 7e31 afbe 9081 b03c 80c4 4c3e
00000010: cab9 81bd 1fe8 ec3d 18c1 d63d c1b5 94bd
00000020: cb53 babd 875c 333c a612 d6bd 1cc9 223e
00000030: 54e9 c63d e08b f63d c671 d43e c360 c7bd
00000040: 3731 703e 92e8 61bc 6fcb 39bd 7363 afbc
00000050: 5358 31be 8965 ce3d 34b4 f83d a89f a5be
00000060: e065 d4bb 33b9 68bd 58c7 61bb 012a 92be
00000070: 050d 8fbe 72e0 0dbd ee7b f43d d670 293d
00000080: f141 73bd 1115 863e c959 87be b112 b23c
00000090: 0e44 5f3e a551 bd3c 057e f03d 764d dd3d
000000a0: 11bc d2bd 6ae5 2fbe 8d22 6b3d 955c 2bbe
000000b0: d671 bd3e a7f0 973e 7c24 c2bd a6a8 bfbe
000000c0: 73f0 04be 5218 e63d 853c a03e b66f edbc
000000d0: d4ba 09be 7532 c8bd 6261 1bbe c5e9 19be
000000e0: 3abc 853d ae04 08be 5b0c 02be 4e4d 8fbc
000000f0: a45d 04bd 6812 1dbd 1dd3 713e 9305 ac3c
00000100: 1c50 7a3d b869 07bb d8ec b3be 23fa 713c
00000110: ed43 43bc 7cec ba3d 652a 413e ad8e 093d
00000120: 02f9 993e ba1d 9fbe db99 0bbe af90 3d3e
00000130: c5c0 883d 3637 0fbe cff9 5f3e a831 adbd
00000140: f1f0 463d d146 3bbd 24a9 f43d 22f4 19be
00000150: cfc2 cf3d 5b67 11bd 223a 14be b8c9 1cbe
00000160: 52e5 55bd fa59 bdbd e2b0 3d3d ff83 05bd
00000170: d9fa 2d3e 4ed9 083d fc20 7fbe 0ea1 b13d
00000180: 6076 8c3e 822b 8dbe 9254 373e 4209 c63c
00000190: 32a8 3e3e ad1e 203e 714f bc3e 9356 edbd
000001a0: f15b 87be dead 6c3c 70fb dfbd 42ac 503e
000001b0: 0ffe 6b3e 91b9 8dbd 1f06 18bd c1ce aa3c
000001c0: ed08 db3d 83c1 8fbe 4ab7 6e3e 9850 16be
000001d0: 5e6f 413d 7830 073d 2792 7f3c 00b4 053e
000001e0: d736 73bd f067 e0bd 7b43 39be 01cd 073e
000001f0: b866 f8bc fefb 28be 0616 f0bd c23d b83e
00000200: 19dc 373e 9ab4 dabd 1f29 c0bc 2040 2cbe
00000210: 4cfb b53d f2c7 33be 63e1 28be 6985 a03e
00000220: a9fc 973d 9917 70bd 4af8 fd3d c64c 88be
00000230: 82e2 583e 5ec8 bbbd 0a8d 4bbe ecbc 5b3e
00000240: ade7 083d 1a68 fb3d fac3 07bd a0c8 a0bc
00000250: fe0d 05be 2df2 083e 7602 a2bd 21e4 c9bd
00000260: 8028 223d a40e 61be 7562 80bb ed0a 0c3e
00000270: 9eec 523d 28f7 fcbc 881a 8bbc 8eb6 2bbe
00000280: 718b 1c3d a91b 0e3d 6941 6b3c 480c 5cbd
00000290: af9e b23d 445b 113e cf32 afbe c915 a9be
000002a0: ae2f a9bd 10c2 72bd 76a7 52be b249 fa3d
000002b0: 9052 bb3c 23e0 233c 6e7d fcbd bc12 2dbe
000002c0: 6459 7bbe 49e4 153d 5e22 ab3d 2103 31be
000002d0: 2fa7 263e 7c37 de3d 959f ba3e fcc1 933c
000002e0: d3be b03e bd41 483e 5fd9 99be f163 533e
000002f0: fb1e 463d 385e c53d 0913 f53d 7a11 0c3d
00000300: ec6a 4fbd 8596 8dbd 9cb5 5dbe 63a6 3c3e
00000310: d97a a23d e9ba 8bbe 9015 50bc 7728 463e
00000320: 49ac 9f3d 8324 0f3e 376e ddbe fb91 7abe
00000330: a8af 30be 0482 383e d7d5 61bd 752d 0cbe
00000340: 5357 123e ea72 ea3e f9ae 22be 76f7 103e
00000350: 53b1 a93d a33e bf3d 1354 ccbd 5fef b6bd
00000360: 1c9a 2d3e aa8d debb 17e1 09be 1dae 113d
00000370: 20a7 09be 983f acbd 990a 573e 3c3d b43d
00000380: afde 91be 664c 143e 7ba0 c7bd 70a4 933e
00000390: 121e 91be f79b 453e fccb 683d 55d1 f9bc
000003a0: 5523 7fbe 51a7 88be e3a6 f4bc 26d2 c4be
000003b0: 0926 c7bd 4882 2bbe 6d22 c4bd 1eb5 943e
000003c0: 0452 9b3d af33 97bd 9e26 6cbd c409 89bd
000003d0: fe75 25bd ae1e 013e ac28 3abd c59c a53c
000003e0: 4ca4 b1be 93c5 57be 8e66 753e 8d09 78bd
000003f0: e745 d8be f9a3 8dbd 6d13 e73c 5e15 ce3d

cnn_net.0.bias f4 [16]
0.0 0.0 0.0 0.0 0.0 0.0 0.0 0.0
0.0 0.0 0.0 0.0 0.0 0.0 0.0 0.0
00000000: 0000 0000 0000 0000 0000 0000 0000 0000
00000010: 0000 0000 0000 0000 0000 0000 0000 0000
00000020: 0000 0000 0000 0000 0000 0000 0000 0000
00000030: 0000 0000 0000 0000 0000 0000 0000 0000

cnn_net.3.weight f4 [32, 16, 3, 3]
-0.057091784 0.10855229 0.013530969 0.18423589 -0.033813342 0.20495087 -0.05148494 -0.024502713
-0.06636104 -0.019008128 -0.09446827 -0.16166732 -0.03270053 0.034668997 -0.037078343 -0.26222473
-0.0849755 -0.10423568 -0.3105036 -0.025082108 -0.14056236 0.022830835 0.176476 -0.07981482
0.019788576 -0.033143356 0.011947542 0.04792173 0.025732609 0.059036344 -0.14351673 0.15441428
-0.114796415 0.05717653 0.14483432 -0.02052449 -0.055855617 0.07831977 -0.10913644 -0.00602548
-0.022749754 -0.03342417 -0.02021458 -0.059082262 0.00094334246 0.033039976 0.2184656 -0.12503672
0.099433444 -0.11859033 -0.18374719 -0.16113941 0.103752635 -0.006107808 -0.036937494 0.056846917
-0.15563452 0.025369871 0.012005856 0.0038647954 -0.21378143 0.0653835 -0.024525195 0.015917998
0.22962764 -0.16167238 0.08466567 -0.06154124 0.047338486 0.1560922 -0.030780891 -0.21817291
0.046281684 0.16559732 -0.08132408 0.051235564 0.07382362 -0.099986255 -0.031209506 0.03129285
0.15645596 0.032049067 0.019104457 -0.057932835 0.008885965 0.053466592 -0.10355652 -0.13780667
-0.15193154 -0.07415964 -0.062009588 0.067907155 0.15729846 -0.007137232 0.017904768 -0.08451676
-0.119478725 0.20767476 -0.18811388 0.10059614 0.014542798 -0.00043111749 -0.0851914 0.022958929
-0.09191643 -0.10508579 -0.20566502 0.124223486 -0.038893834 0.110031836 -0.25142115 0.038924776
-0.05064079 0.1798249 0.06300463 0.050463106 0.024081001 -0.06352159 -0.1536211 -0.1845982
0.1598407 -0.26801047 -0.026704522 0.077664554 0.054127295 0.2101668 0.22541483 0.21957272
-0.12459053 -0.17454532 0.2053132 0.010673673 0.18960747 -0.0059808097 -0.03808356 0.060492184
-0.032474395 0.11627965 -0.1664568 0.020203264 -0.2960879 0.06854304 -0.1545881 -0.041193284
-0.2261607 -0.0915737 0.011805726 -0.029027125 -0.091615565 -0.13291754 -0.09515649 0.08417676
-0.055517986 0.07833425 0.16366789 0.014809195 -0.16441143 0.050962772 -0.18216707 0.28026193
0.13932149 -0.0059077353 -0.04747318 -0.07252951 0.21559316 -0.016222928 -0.004679101 -0.01666987
-0.11561633 -0.0046656947 -0.032148913 0.10247713 -0.31105798 0.025649732 0.02964511 -0.0696452
-0.119854786 -0.047410395 0.17873591 -0.18929538 0.19692777 0.31641376 0.2954187 0.019713365
0.11640915 0.16024593 -0.11531711 -0.07722967 -0.1783572 0.08425162 -0.02627545 -0.039680704
-0.12521963 0.13505769 -0.069361344 -0.042764187 -0.13566104 0.014632123 0.02264897 -0.016873341
-0.15734233 -0.01520106 0.19266447 -0.06185425 0.12204743 0.12274529 0.0753983 0.11388855
0.047782835 -0.008005469 0.0058803856 -0.12418221 -0.07419067 -0.13620418 -0.014726028 0.10557822
0.31116125 0.066472426 0.017029444 0.20099764 -0.09101837 -0.14857848 -0.07342947 0.060573936
0.015740661 -0.02161374 -0.025852377 0.035563245 -0.22395983 -0.1939331 -0.05272258 0.36838892
0.07157183 -0.024020055 -0.04640306 0.018779049 0.029545015 -0.060414914 0.03870144 0.16597876
-0.112069294 -0.009754559 0.07964473 -0.023590328 0.03526339 0.07550834 -0.086098015 0.13943574
0.053239882 0.062552884 -0.04710239 -0.013033117 -0.072520256 0.14633147 -0.005088411 0.075457595
00000000: 13d9 69bd aa50 de3d ffb0 5d3c 55a8 3c3e
00000010: dc7f 0abd a4de 513e dfe1 52bd eab9 c8bc
00000020: 4ce8 87bd efb6 9bbc 9578 c1bd 1e8c 25be
00000030: fef0 05bd 1401 0e3d 76df 17bd 5242 86be
00000040: a307 aebd 8479 d5bd 54fa 9ebe fe78 cdbc
00000050: 94ef 0fbe bb07 bb3c 20b6 343e f475 a3bd
00000060: a71b a23c 54c1 07bd a0bf 433c 9349 443d
00000070: 31cd d23c 18d0 713d 0df6 12be c71e 1e3e
00000080: 621a ebbd f031 6a3d 734f 143e fa22 a8bc
00000090: dcc8 64bd 1e66 a03d ed82 dfbd 6471 c5bb
000000a0: b15d babc c8e7 08bd 0c99 a5bc 3e00 72bd
000000b0: a44a 773a ed54 073d 72b5 5f3e a009 00be
000000c0: c3a3 cb3d 7ddf f2bd 3928 3cbe bb01 25be
000000d0: 437c d43d 0224 c8bb c54b 17bd 50d8 683d
000000e0: a85e 1fbe 7ad4 cf3c 36b4 443c 8248 7d3b
000000f0: 85e9 5abe c9e7 853d 10e9 c8bc 7666 823c
00000100: 8223 6b3e 728d 25be 3265 ad3d ab12 7cbd
00000110: 00e6 413d a2d6 1f3e 3528 fcbc b868 5fbe
00000120: dd91 3d3d 5892 293e 3d8d a6bd 62dc 513d
00000130: d730 973d 98c5 ccbd 14ab ffbc ee2c 003d
00000140: fe35 203e e245 033d f380 9c3c fb4a 6dbd
00000150: 7096 113c c9ff 5a3d 7115 d4bd 311d 0dbe
00000160: f193 1bbe 02e1 97bd c4fd 7dbd e812 8b3d
00000170: d912 213e 71df e9bb 05ad 923c 2017 adbd
00000180: 43b1 f4bd b1a8 543e eda0 40be 5905 ce3d
00000190: ea44 6e3c 9c07 e2b9 d478 aebd 5d14 bc3c
000001a0: ae3e bcbd 3837 d7bd da99 52be e268 fe3d
000001b0: 244f 1fbd 5f58 e13d 46ba 80be 966f 1f3d
000001c0: b86c 4fbd 0524 383e 9208 813d 67b2 4e3d
000001d0: 8545 c53c 9b17 82bd da4e 1dbe 4f07 3dbe
000001e0: 48ad 233e ab38 89be 71c3 dabc 980e 9f3d
000001f0: 95b4 5d3d f735 573e 25d3 663e acd7 603e
00000200: 5229 ffbd 02bc 32be a03d 523e a1e0 2e3c
00000210: 7628 423e abfa c3bb 82fd 1bbd a7c6 773d
00000220: df03 05bd 0624 ee3d a773 2abe 5181 a53c
00000230: d598 97be 4b60 8c3d 584c 1ebe 4aba 28bd
00000240: ac96 67be fe8a bbbd ce6c 413c 4bca edbc
00000250: f1a0 bbbd 891b 08be 68e1 c2bd dd64 ac3d
00000260: d466 63bd b56d a03d 8e98 273e 44a2 723c
00000270: 785b 28be 57be 503d 018a 3abe 7e7e 8f3e
00000280: 4baa 0e3e ad95 c1bb 3d73 42bd 5a8a 94bd
00000290: 74c4 5c3e f2e5 84bc 2553 99bb 408f 88bc
000002a0: 41c8 ecbd afe2 98bb 94ae 03bd 88df d13d
000002b0: fe42 9fbe 631f d23c 4dda f23c 25a2 8ebd
000002c0: 6d76 f5bd 6731 42bd 8c06 373e a6d6 41be
000002d0: 6fa7 493e fc00 a23e 1f41 973e ec7d a13c
000002e0: ec67 ee3d 8217 243e 612b ecbd 972a 9ebd
000002f0: 45a3 36be 1d8c ac3d 9d3f d7bc 3c88 22bd
00000300: 9339 00be 904c 0a3e 520d 8ebd 8029 2fbd
00000310: baea 0abe 92bb 6f3c 558a b93c f639 8abc
00000320: 591e 21be de0d 79bc d649 453e e25a 7dbd
00000330: 01f4 f93d e261 fb3d 6d6a 9a3d 663e e93d
00000340: efb7 433d 5f29 03bc 40b0 c03b 3e53 febd
00000350: 47f1 97bd 1c79 0bbe 7045 71bc 6539 d83d
00000360: 8750 9f3e b222 883d 5581 8b3c 53d2 4d3e
00000370: d767 babd f524 18be 3162 96bd 601c 783d
00000380: 8ff2 803c 4c0f b1bc 5dc8 d3bc c4aa 113d
00000390: ba55 65be 6696 46be a2f3 57bd 799d bc3e
000003a0: 4094 923d b5c5 c4bc 2311 3ebd 85d6 993c
000003b0: 6308 f23c a175 77bd 6785 1e3d 56f6 293e
000003c0: 9684 e5bd 96d1 1fbc c71c a33d 8140 c1bc
000003d0: 5870 103d 1ea4 9a3d 2854 b0bd 3ec8 0e3e
000003e0: 1012 5a3d ba1b 803d 70ee 40bd db88 55bc
000003f0: 8085 94bd ebd7 153e afbc a6bb 8389 9a3d

cnn_net.3.bias f4 [32]
0.0 0.0 0.0 0.0 0.0 0.0 0.0 0.0
0.0 0.0 0.0 0.0 0.0 0.0 0.0 0.0
0.0 0.0 0.0 0.0 0.0 0.0 0.0 0.0
0.0 0.0 0.0 0.0 0.0 0.0 0.0 0.0
00000000: 0000 0000 0000 0000 0000 0000 0000 0000
00000010: 0000 0000 0000 0000 0000 0000 0000 0000
00000020: 0000 0000 0000 0000 0000 0000 0000 0000
00000030: 0000 0000 0000 0000 0000 0000 0000 0000
00000040: 0000 0000 0000 0000 0000 0000 0000 0000
00000050: 0000 0000 0000 0000 0000 0000 0000 0000
00000060: 0000 0000 0000 0000 0000 0000 0000 0000
00000070: 0000 0000 0000 0000 0000 0000 0000 0000

hidden.weight f4 [32, 128]
0.13632803 -0.08631341 0.019488247 -0.007936831 -0.08085952 0.00082639797 -0.16543029 -0.13634689
-0.056131393 -0.12635344 0.035257317 0.08346577 -0.011739563 -0.16221108 0.04039464 0.10765562
-0.11966663 -0.20735072 -0.12557724 -0.13235335 -0.11077834 -0.2481011 -0.031317655 0.077766
-0.02843904 -0.080935694 0.22024663 0.10886891 -0.047611296 -0.10738365 0.04999911 0.055472944
0.021192355 0.015907792 -0.115807325 0.026414834 0.2893814 -0.024448019 -0.02104783 -0.045751795
0.06214656 -0.16206782 0.050642047 -0.0057728714 0.021208001 -0.0057778917 -0.033390686 -0.075241216
-0.06412832 -0.016752409 0.1581371 -0.2510848 0.1565392 -0.11694582 -0.05568688 -0.13179374
0.2422978 -0.08329035 0.17413189 -0.015335128 -0.00799536 0.17901528 0.093206435 -0.26096237
0.018894807 -0.030003453 -0.1525336 0.021470632 -0.042490806 -0.16278695 -0.23128493 -0.055471256
0.085919015 0.105209164 0.080363385 0.06772487 -0.08067016 -0.00024049004 0.00017417537 0.11091378
0.121309236 -0.28026178 0.099764034 0.32564083 -0.2021704 0.082715295 -0.099678844 0.050790586
-0.08574598 0.14997159 -0.07912831 0.011945946 -0.026588008 0.11174358 -0.048782784 -0.03338267
0.059850663 0.11927003 -0.004802657 -0.22845837 -0.023676358 0.059213534 0.06497227 0.1304131
-0.15643027 -0.10558704 0.33113036 -0.1160239 -0.17891388 -0.29320827 0.04371671 -0.20909011
0.004520074 0.08850267 0.16434626 0.21560277 -0.07593172 -0.017465532 -0.057373133 -0.011072233
-0.021396961 0.13782069 0.2345597 0.08239161 -0.036978252 0.0032087439 0.061226584 -0.14880326
0.087076105 0.008003678 0.051327027 -0.012163088 -0.2659581 -0.06839254 0.18688205 -0.2200189
0.08285337 0.30246887 -0.11882036 0.085589945 0.13083394 -0.1777148 -0.20672545 -0.23916338
-0.04353355 0.10430928 0.019760298 0.021633677 0.17954351 -0.13980953 0.031180447 0.0859623
-0.049050275 -0.22543162 -0.1532799 -0.3228214 -0.009388987 -0.22318068 -0.073315896 0.17985381
-0.02680237 -0.07159787 0.022545168 -0.25859088 0.05617139 0.02179375 0.12018055 -0.10086171
-0.08434346 0.029047655 -0.08651725 0.14944914 -0.091158755 0.17214508 0.16217096 -0.060311
0.0018606291 0.11598307 -0.042188685 -0.022839366 0.01527146 0.08532994 0.23489003 -0.013161813
-0.10097593 0.042100534 0.046426702 0.0066340836 0.14784591 0.027727932 0.064111926 -0.036096264
-0.074099936 -0.05011727 -0.07092204 -0.032377712 -0.37771633 0.14208034 -0.14937484 0.01804551
-0.25663775 -0.017028285 -0.0021597743 -0.004271016 -0.047508992 -0.13207114 0.07092256 -0.04036703
0.04499571 -0.046822987 -0.056283038 -0.21272783 -0.075431325 -0.13405487 -0.040093306 0.021718843
0.00083135726 0.057943955 -0.14168851 0.19533123 -0.0163892 0.09717499 0.16012655 0.025203342
0.1105373 0.0036922707 0.030305432 -0.08882825 -0.03230249 -0.17262793 -0.028100342 -0.144593
-0.026285475 -0.040224172 0.1690992 0.035978265 -0.07574096 0.007674055 -0.23305152 -0.079821765
-0.076577514 0.05981379 0.012042162 -0.07448245 -0.024279382 -0.18918468 -0.042660613 -0.08308709
0.27487984 -0.0025140094 0.00010484441 -0.043212164 -0.3262239 -0.024493715 0.08258542 0.016523832
00000000: 9399 0b3e 16c5 b0bd d1a5 9f3c 7b09 02bc
00000010: ad99 a5bd a1a2 583a 8f66 29be 859e 0bbe
00000020: 08ea 65bd cc62 01be fa69 103d 1af0 aa3d
00000030: 4c57 40bc a91a 26be da74 253d 8d7a dc3d
00000040: c713 f5bd bf53 54be 5297 00be a387 07be
00000050: c1df e2bd 370e 7ebe f146 00bd c843 9f3d
00000060: fdf8 e8bc 9dc1 a5bd 5588 613e aaf6 de3d
00000070: 1004 43bd f6eb dbbd decb 4c3d 9937 633d
00000080: 979b ad3c 0f51 823c 642c edbd ec63 d83c
00000090: cd29 943e 3647 c8bc 806c acbc 3c66 3bbd
000000a0: 648d 7e3d 1bf5 25be 096e 4f3d 5b2a bdbb
000000b0: 67bc ad3c 7854 bdbb acc4 08bd 1118 9abd
000000c0: b555 83bd 593c 89bc b1ee 213e 308e 80be
000000d0: d04b 203e 4a81 efbd ed17 64bd f0f4 06be
000000e0: ea1c 783e 2294 aabd a14f 323e 3040 7bbc
000000f0: f8fe 02bc c84f 373e 04e3 be3d dc9c 85be
00000100: 48c9 9a3c cdc9 f5bc c531 1cbe 2ee3 af3c
00000110: d70a 2ebd 9fb1 26be f5d5 6cbe d435 63bd
00000120: 4ff6 af3d e777 d73d 8f95 a43d 56b3 8a3d
00000130: 6636 a5bd 0e2c 7cb9 d8a2 3639 c426 e33d
00000140: fa70 f83d 797e 8fbe 1651 cc3d 65ba a63e
00000150: c205 4fbe a366 a93d 6c24 ccbd ca09 503d
00000160: 979b afbd 2792 193e 060e a2bd eeb8 433c
00000170: 18cf d9bc d1d9 e43d 75d0 47bd 44bc 08bd
00000180: f825 753d d843 f43d 9b5f 9dbb fef0 69be
00000190: ecf4 c1bc e489 723d 2e10 853d 038b 053e
000001a0: 422f 20be 053e d8bd eb89 a93e f09d edbd
000001b0: 3335 37be 651f 96be 4b10 333d b81b 56be
000001c0: 211d 943b e340 b53d 634a 283e f9c6 5c3e
000001d0: 1782 9bbd e013 8fbc 1700 6bbd 5068 35bc
000001e0: ae48 afbc de20 0d3e 6b30 703e efbc a83d
000001f0: 8276 17bd ca49 523b bac8 7a3d e25f 18be
00000200: f554 b23d dc21 033c 4a3c 523d b047 47bc
00000210: a92b 88be 6311 8cbd 025e 3f3e a24c 61be
00000220: 07af a93d 33dd 9a3e 1758 f3bd c849 af3d
00000230: 55f9 053e defa 35be d6af 53be 3fe7 74be
00000240: 3c50 32bd 1ba0 d53d 59e0 a13c 1c39 b13c
00000250: 41da 373e 3b2a 0fbe 236e ff3c 010d b03d
00000260: f1e8 48bd 8cd7 66be 68f5 1cbe d948 a5be
00000270: 44d4 19bc 7a89 64be a526 96bd 992b 383e
00000280: a590 dbbc e7a1 92bd a5b0 b83c 0666 84be
00000290: f913 663d ce88 b23c 3821 f63d 9690 cebd
000002a0: 44bc acbd 59f5 ed3c f52f b1bd 3209 193e
000002b0: 71b1 babd cd46 303e 2510 263e ab08 77bd
000002c0: 5ae0 f33a 8888 ed3d 0bce 2cbd 9f19 bbbc
000002d0: 2535 7a3c 77c1 ae3d 0387 703e a5a4 57bc
000002e0: 78cc cebd 9c71 2c3d ed29 3e3d ba62 d93b
000002f0: eb64 173e b025 e33c 1d4d 833d add9 13bd
00000300: b5c1 97bd c447 4dbd 933f 91bd 7e9e 04bd
00000310: 0964 c1be 827d 113e b8f5 18be 2dd4 933c
00000320: 0666 83be e77e 8bbc 008b 0dbb e1f3 8bbb
00000330: ca98 42bd a83d 07be d93f 913d e657 25bd
00000340: 6c4d 383d 76c9 3fbd 0b89 66bd 53d5 59be
00000350: bd7b 9abd ae45 09be e138 24bd b7eb b13c
00000360: 71ef 593a a456 6d3d cb16 11be e904 483e
00000370: a542 86bc ae03 c73d 37f8 233e 3d77 ce3c
00000380: 6161 e23d 06fa 713b 1943 f83c 96eb b5bd
00000390: 9e4f 04bd 60c5 30be b032 e6bc 3010 14be
000003a0: a354 d7bc 1ac2 24bd 5728 2d3e f25d 133d
000003b0: 141e 9bbd a476 fb3b 0fa5 6ebe 9879 a3bd
000003c0: acd4 9cbd 4eff 743d 7d4c 453c 418a 98bd
000003d0: 8ee5 c6bc a1b9 41be e5bc 2ebd 9029 aabd
000003e0: 0dbd 8c3e 14c2 24bb eadf db38 3dff 30bd
000003f0: d206 a7be 0ba7 c8bc 8b22 a93d fd5c 873c

hidden.bias f4 [32]
0.0 0.0 0.0 0.0 0.0 0.0 0.0 0.0
0.0 0.0 0.0 0.0 0.0 0.0 0.0 0.0
0.0 0.0 0.0 0.0 0.0 0.0 0.0 0.0
0.0 0.0 0.0 0.0 0.0 0.0 0.0 0.0
00000000: 0000 0000 0000 0000 0000 0000 0000 0000
00000010: 0000 0000 0000 0000 0000 0000 0000 0000
00000020: 0000 0000 0000 0000 0000 0000 0000 0000
00000030: 0000 0000 0000 0000 0000 0000 0000 0000
00000040: 0000 0000 0000 0000 0000 0000 0000 0000
00000050: 0000 0000 0000 0000 0000 0000 0000 0000
00000060: 0000 0000 0000 0000 0000 0000 0000 0000
00000070: 0000 0000 0000 0000 0000 0000 0000 0000

out.weight f4 [1, 32]
-0.23161362 -0.06982507 0.33638996 -0.055193372 -0.19018261 -0.42694768 -0.0010445267 0.60981643
-0.060964458 -0.21785372 0.09636392 -0.10307411 0.05493788 -0.14222267 0.29174507 0.2539457
-0.22681369 -0.18212016 -0.20086014 -0.082454525 0.269274 0.55022556 -0.27216712 -0.05932088
0.17749837 -0.17867875 -0.052583944 0.13361198 -0.11687011 0.063325144 -0.46143875 0.30291623
00000000: 1f2c 6dbe 7200 8fbd 4e3b ac3e 7212 62bd
00000010: 3bbf 42be e398 dabe 80e8 88ba ee1c 1c3f
00000020: deb5 79bd 0c15 5fbe 725a c53d 8518 d3bd
00000030: 8b06 613d d2a2 11be 9c5f 953e 2c05 823e
00000040: d941 68be b57d 3abe 48ae 4dbe ebdd a8bd
00000050: 48de 893e 95db 0c3f 7d59 8bbe 73fa 72bd
00000060: 22c2 353e 90f7 36be 4362 57bd 94d1 083e
00000070: 9959 efbd 9db0 813d b341 ecbe d617 9b3e
